Result/GCN/5000_sample/model_epoch_60_f1_0.7717.pth (torch, 841514 bytes, 42 tensors)

graph_matcher.gnn.conv1.bias f4 [64]
0.05044437 0.0 0.0 -0.028798562 -0.08901397 -0.061120316 0.05459107 0.023605976
0.046989586 0.12055051 0.103207216 0.042727012 -0.13964695 0.09930781 -0.18531081 -0.111449756
0.0 0.23339316 0.051453687 -0.07488525 0.023683393 0.06112621 0.0 0.09088775
0.0 0.25537136 -0.09484379 0.0 -0.059761688 0.04921394 0.15753224 -0.060464986
-0.19348428 -0.23550144 -0.036032468 -0.022954704 0.008219978 0.06956108 -0.08228773 -0.26042148
-0.09263841 0.06997038 -0.089153364 -0.06314783 0.13598166 0.062038224 -0.08553507 0.051740926
-0.10156299 -0.18082935 -0.053519912 0.0 -0.22166753 -0.040065058 -0.00621714 -0.053617615
0.12190384 -0.02018373 -0.0025392964 0.038015347 0.0 0.00897296 -0.117725074 -0.10629942
00000000: c19e 4e3d 0000 0000 0000 0000 f6ea ebbc
00000010: f54c b6bd 4c59 7abd e39a 5f3d 5261 c13c
00000020: 2778 403d 30e3 f63d 4e5e d33d 8502 2f3d
00000030: 9cff 0ebe e561 cb3d 1ec2 3dbe c53f e4bd
00000040: 0000 0000 9efe 6e3e 1ac1 523d 705d 99bd
00000050: ad03 c23c 7a5f 7a3d 0000 0000 5b23 ba3d
00000060: 0000 0000 09c0 823e 763d c2bd 0000 0000
00000070: acc8 74bd 8e94 493d 2250 213e 22aa 77bd
00000080: be20 46be 4a27 71be c896 13bd 810b bcbc
00000090: 16ad 063c 0a76 8e3d 7886 a8bd f755 85be
000000a0: 35b9 bdbd a14c 8f3d 0a96 b6bd a653 81bd
000000b0: c73e 0b3e cb1b 7e3d 032d afbd 4bee 533d
000000c0: 4200 d0bd 542b 39be b237 5bbd 0000 0000
000000d0: d0fc 62be 421b 24bd 26b9 cbbb 259e 5bbd
000000e0: b8a8 f93d 5a58 a5bc 536a 26bb fbb5 1b3d
000000f0: 0000 0000 5203 133c d819 f1bd 83b3 d9bd

graph_matcher.gnn.conv1.lin.weight f4 [64, 4]
0.11040825 0.14739281 0.8112939 -0.60124314 -0.1951851 -0.26792508 -0.29533294 -0.065546945
-0.26576346 -0.1648319 -0.2926779 -0.18378747 0.48279458 0.4746168 0.6098707 -0.6580281
0.28790748 0.40061238 0.7052526 -0.6243412 0.42268032 -0.6000299 -0.73714745 0.32094792
-0.9038329 -0.82528406 -0.30520517 0.65699834 0.06774126 0.5734406 0.313218 -1.0295919
-0.11383355 0.47964686 0.6867708 -0.15811843 -0.9765062 0.6389171 0.36626038 0.20991123
0.17838132 0.24768987 0.87683314 -0.4929653 -0.803648 0.40555868 -0.40906116 0.21354249
0.3531224 0.39230606 0.70945454 -0.43859562 -0.076908216 0.3836184 0.89268506 -0.4249917
-0.94390696 -0.9972097 -0.63277113 0.14430259 0.6536032 -0.9495812 -1.0007924 -0.52433616
-0.04492408 -0.2700991 -0.077717975 -0.020411164 -0.8249855 0.78076094 0.14483407 0.11307553
-1.2727951 0.57188123 0.7105778 -0.9574743 0.21472923 0.18651414 0.6652825 -0.21522796
0.042959858 0.48725533 0.5979601 -0.6685212 -0.119459644 0.48218516 0.81014246 -0.20051236
-0.15157172 -0.28335178 -0.23665062 -0.036172777 -0.44586954 0.91554475 0.32220253 0.06646166
-0.055095345 -0.18508239 -0.08889231 -0.0829974 -1.1013769 -1.0378017 -0.24086273 0.39007244
0.4124598 0.5024553 0.5831829 -0.51402533 -0.14110875 -0.28527066 -0.28128412 -0.027018458
-0.19034874 -0.052915763 -0.28569373 -0.1413581 0.22288375 0.2636283 0.89858127 -0.49501547
0.046981208 0.11952456 0.8566853 -0.53367966 -0.19524486 -0.27259344 -0.053354327 -0.044967942
0.54019934 -0.3150716 0.6822219 -0.43839556 0.6355699 -0.2996623 -0.6228166 -0.29451412
-1.0385133 0.760293 1.0146414 -1.1562561 0.09826742 0.13160954 0.83925664 -0.2466022
-0.7760325 -0.8278189 -0.3570298 0.55664295 -0.12338683 0.24614088 0.8108397 -0.65838206
-0.2377813 -0.18228954 -0.23921978 -0.020196477 0.6805961 -0.6757359 -0.7531014 -0.24119563
-0.21824482 -0.07288154 0.003091611 0.040616572 -1.5062925 0.6957559 0.7484411 -1.2061282
-0.08622998 -0.082834564 -0.053973783 0.024235278 0.17374778 -0.4099734 1.0141463 -0.31995994
-1.1098146 -1.0108247 -0.4967952 0.4358317 -1.3851672 0.56865525 0.9135708 -0.16115963
-1.0780007 0.8177651 -0.3981316 -0.0678708 -1.3800442 0.9621835 0.45401284 -0.030247474
-0.0015615223 -0.040275827 -0.22337322 -0.19103678 0.35926878 0.24465549 0.45062342 -0.28616017
-0.14607808 -0.10652709 -0.05009029 -0.108023 -0.242852 -0.15893044 -0.08620915 -0.04837215
0.8122914 -0.8631153 -0.6401762 -0.38896263 -0.95422643 0.9101805 -0.07552167 -0.04829179
-1.2379861 0.80974215 -0.275923 -0.23334274 0.03201532 -0.1917614 -0.173329 -0.27014768
0.609283 -1.1859237 -1.0145226 -0.29380676 0.18896729 0.08312034 0.8145179 -0.3458975
-0.94094384 -1.0810728 -0.6025943 0.5671502 -0.9934705 0.6369139 0.6567929 -1.1292548
-0.024028271 -0.19959712 -0.1895746 -0.10218695 -0.8607236 -0.77646613 -0.5388127 0.5358492
-0.028006792 -0.21048817 0.025114032 -0.29668096 0.41982225 0.5808277 0.7762556 -0.37092498
00000000: b81d e23d 24ee 163e f5b0 4f3f 12eb 19bf
00000010: 9ade 47be 7a2d 89be e135 97be 7a3d 86bd
00000020: 2612 88be b2c9 28be e1d9 95be c832 3cbe
00000030: da30 f73e f900 f33e 7c20 1c3f 8874 28bf
00000040: 9c68 933e 111d cd3e 6f8b 343f d3d4 1fbf
00000050: 8e69 d83e 8f9b 19bf b2b5 3cbf 4953 a43e
00000060: 9861 67bf d145 53bf da43 9cbe 0b31 283f
00000070: eebb 8a3d 01cd 123f 1c5e a03e abc9 83bf
00000080: 9021 e9bd 4694 f53e 36d0 2f3f cce9 21be
00000090: 4ffc 79bf 1290 233f 7b86 bb3e f8f2 563e
000000a0: 98a9 363e 6aa2 7d3e 2378 603f f365 fcbe
000000b0: e0bb 4dbf 63a5 cf3e 7770 d1be e2aa 5a3e
000000c0: 76cc b43e 57dc c83e d09e 353f 9b8f e0be
000000d0: 0e82 9dbd a269 c43e 0287 643f 8398 d9be
000000e0: e3a3 71bf 2349 7fbf 4afd 21bf 0fc4 133e
000000f0: 8a52 273f c117 73bf f719 80bf e53a 06bf
00000100: 5002 38bd 6e4a 8abe 9a2a 9fbd 5035 a7bc
00000110: 4032 53bf f3df 473f 624f 143e 2594 e73d
00000120: f3ea a2bf cf66 123f 6de8 353f 091d 75bf
00000130: fbe1 5b3e 90fd 3e3e f44f 2a3f b864 5cbe
00000140: adf6 2f3d 8879 f93e ea13 193f 3524 2bbf
00000150: 42a7 f4bd f9e0 f63e 7f65 4f3f 1d53 4dbe
00000160: 9e35 1bbe 7c13 91be 8a54 72be e829 14bd
00000170: 0349 e4be 2461 6a3f bbf7 a43e 0d1d 883d
00000180: a8ab 61bd 3d86 3dbe 2c0d b6bd 8afa a9bd
00000190: ebf9 8cbf b0d6 84bf b8a4 76be 93b7 c73e
000001a0: ee2d d33e e9a0 003f 794b 153f 2a97 03bf
000001b0: d07e 10be ff0e 92be 7904 90be d055 ddbc
000001c0: c8ea 42be 33be 58bd 7346 92be 2ec0 10be
000001d0: a33b 643e 4afa 863e 6c09 663f ab72 fdbe
000001e0: 5e6f 403d 4bc9 f43d ba4f 5b3f 3b9f 08bf
000001f0: 45ee 47be 5e91 8bbe 118a 5abd 4e30 38bd
00000200: 814a 0a3f 1151 a1be 18a6 2e3f 6275 e0be
00000210: b5b4 223f 566d 99be e970 1fbf 8eca 96be
00000220: 01ee 84bf 90a2 423f c5df 813f 3300 94bf
00000230: 6e40 c93d a7c4 063e 86d9 563f 4a85 7cbe
00000240: 11aa 46bf f0eb 53bf 9ccc b6be 2780 0e3f
00000250: 3cb2 fcbd 5b0c 7c3e 3193 4f3f ba8b 28bf
00000260: f17c 73be 1caa 3abe 08f6 74be 1573 a5bc
00000270: 8c3b 2e3f 07fd 2cbf 41cb 40bf fdfb 76be
00000280: 927b 5fbe eb42 95bd a09c 4a3b 905d 263d
00000290: 31ce c0bf 0f1d 323f d699 3f3f 6962 9abf
000002a0: 5899 b0bd 2ba5 a9bd 9d13 5dbd 1089 c63c
000002b0: f0ea 313e 09e8 d1be 8ccf 813f cad1 a3be
000002c0: 680e 8ebf b462 81bf f15b febe 5525 df3e
000002d0: 294d b1bf 6493 113f c7df 693f 0807 25be
000002e0: edfb 89bf 0e59 513f e8d7 cbbe d9ff 8abd
000002f0: 4aa5 b0bf a851 763f 5f74 e83e 8dc9 f7bc
00000300: feab ccba 44f8 24bd f3bb 64be 259f 43be
00000310: 14f2 b73e f886 7a3e 1db8 e63e 9683 92be
00000320: 7e95 15be e02a dabd 7a2b 4dbd 2a3b ddbd
00000330: 32ae 78be a9be 22be 6c8e b0bd e021 46bd
00000340: 54f2 4f3f 20f5 5cbf 96e2 23bf 1c26 c7be
00000350: 2f48 74bf 9701 693f 1bab 9abd 9dcd 45bd
00000360: 5476 9ebf 434b 4f3f c845 8dbe 66f1 6ebe
00000370: 7f22 033d 1a5d 44be 287d 31be cc50 8abe
00000380: f8f9 1b3f 59cc 97bf e0db 81bf d76d 96be
00000390: a480 413e ff3a aa3d 3f84 503f 7a19 b1be
000003a0: b2e1 70bf 9860 8abf 9f43 1abf c130 113f
000003b0: 1554 7ebf ca0c 233f 9423 283f 6c8b 90bf
000003c0: f0d6 c4bc 3063 4cbe d81f 42be 6447 d1bd
000003d0: 6258 5cbf 7cc6 46bf a1ef 09bf 6a2d 093f
000003e0: 806e e5bc 368a 57be f1bb cd3c 91e6 97be
000003f0: f1f2 d63e 20b1 143f b0b8 463f e1e9 bdbe

graph_matcher.gnn.conv2.bias f4 [128]
0.34481335 -0.09746333 -0.098269455 -0.15217595 0.30996996 0.23860277 -0.0806958 0.103546
0.24485338 0.02662695 -0.19833745 -0.12707886 -0.10682573 -0.06795371 0.6203506 -0.111994706
-0.113142274 -0.112713024 0.105767645 0.23244333 -0.1137628 -0.13995484 -0.09296587 -0.21330865
-0.054183703 -0.07123715 -0.19128478 -0.620767 -0.28353915 -0.114123434 -0.080266446 -0.12991874
-0.33969676 0.7156509 -0.41697308 -0.08930323 0.38287655 0.2804702 0.41063187 -0.17501977
0.03752998 0.26518735 0.5105931 -0.0632772 -0.07906557 -0.041577674 0.3915595 -0.22237058
-0.10225304 0.3020364 0.22627248 0.284685 0.5316343 -0.12493454 -0.07208542 -0.21887839
-0.38229945 0.115263425 0.15295132 0.6394855 -0.093902655 -0.32740754 0.47116172 0.46136665
-0.107262515 0.1671729 -0.048275936 -0.7710064 -0.039769202 0.27046648 -0.06640113 -0.21405897
-0.044010002 -0.1193604 -0.0770948 -0.08327032 -0.14244452 -0.15268081 0.6354384 -0.07071086
0.40408504 -0.25173616 -0.1393218 -0.019130852 0.40457824 -0.10868836 -0.22054248 0.19564752
-0.09194178 -0.09456792 -0.18381701 -0.123036556 0.2571292 0.10686736 -0.06919691 -0.09135987
0.37021765 0.41953623 -0.024672832 -0.13566141 -0.44375232 0.55370146 -0.10664347 -0.048446026
0.5977745 0.36254442 -0.12391769 0.12108888 0.1682965 -0.12924705 -0.086569056 -0.09480211
-0.08541912 0.5170897 -0.09329203 0.20279841 0.27228674 -0.124424316 0.13901094 0.4743859
-0.37787753 -0.090011425 0.09623091 -0.10195357 1.0991873 0.36212027 -0.12735216 0.5310116
00000000: 608b b03e db9a c7bd 7f41 c9bd 03d4 1bbe
00000010: 62b4 9e3e 4954 743e d743 a5bd ed0f d43d
00000020: d8ba 7a3e c320 da3c f918 4bbe f620 02be
00000030: 73c7 dabd 512b 8bbd 4ccf 1e3f 7b5d e5bd
00000040: 23b7 e7bd 16d6 e6bd b59c d83d a005 6e3e
00000050: 79fc e8bd 5250 0fbe e464 bebd 956d 5abe
00000060: bbef 5dbd c8e4 91bd 28e0 43be 96ea 1ebf
00000070: 0b2c 91be 8cb9 e9bd bc62 a4bd 6b09 05be
00000080: bcec adbe e634 373f 7f7d d5be 9de4 b6bd
00000090: 6508 c43e ca99 8f3e 573e d23e 6238 33be
000000a0: 09b9 193d a3c6 873e 3bb6 023f 7a97 81bd
000000b0: 21ed a1bd 5a4d 2abd 7d7a c83e 1db5 63be
000000c0: 0b6a d1bd 84a4 9a3e f9b3 673e 3bc2 913e
000000d0: 2f19 083f aedd ffbd 85a1 93bd a821 60be
000000e0: c1bc c3be 3b0f ec3d 459f 1c3e 52b5 233f
000000f0: 0950 c0bd f6a1 a7be 1c3c f13e 4038 ec3e
00000100: 73ac dbbd 5f2f 2b3e fdbc 45bd ad60 45bf
00000110: 08e5 22bd 957a 8a3e 51fd 87bd 4632 5bbe
00000120: d543 34bd 3a73 f4bd e1e3 9dbd a189 aabd
00000130: fadc 11be 5c58 1cbe 17ac 223f dbd0 90bd
00000140: 3ce4 ce3e 90e3 80be 60aa 0ebe 4eb8 9cbc
00000150: e124 cf3e 0198 debd e3d5 61be d357 483e
00000160: f94b bcbd d3ac c1bd 873a 3cbe 97fa fbbd
00000170: 70a6 833e 46dd da3d 1cb7 8dbd e21a bbbd
00000180: 2b8d bd3e 74cd d63e ae1e cabc d3ea 0abe
00000190: 8133 e3be 61bf 0d3f e467 dabd 576f 46bd
000001a0: c007 193f 6c9f b93e 8fc8 fdbd 72fd f73d
000001b0: eb55 2c3e 5759 04be 1e4b b1bd 9c27 c2bd
000001c0: 38f0 aebd fe5f 043f e40f bfbd 63aa 4f3e
000001d0: 2b69 8b3e 2dd2 febd e258 0e3e b5e2 f23e
000001e0: 2a79 c1be e957 b8bd b614 c53d 09cd d0bd
000001f0: 2bb2 8c3f d467 b93e 9b68 02be 60f0 073f

graph_matcher.gnn.conv2.lin.weight f4 [128, 64]
0.6102087 -0.019916743 0.080489025 0.29818135 0.4195604 -0.9539818 -0.3990848 0.43792439
0.33119243 -0.14211299 0.46653414 -0.09642578 0.457834 0.3346111 -0.33575463 -0.98948944
0.025615782 -0.15315883 -1.869166 0.2008113 0.83816934 0.23834126 0.06740898 0.18171667
-0.107139416 -0.4799883 0.36134246 -0.10458403 -0.06613472 0.4267543 0.5474405 -0.16357154
-0.51325244 -0.52785504 -2.637466 0.4453296 -0.52137166 0.9370234 0.033082113 -1.0697132
0.060093902 -2.3059816 -0.117466845 -0.016290007 -0.5889344 -0.18362369 -0.0074495156 -0.2135442
0.10180789 0.15758158 0.102922164 -0.09034708 -1.3406196 0.23858906 -0.14049916 -0.059443705
-1.190154 0.35817742 -0.39420003 -1.9849489 -0.049233243 -0.7177342 0.08137757 0.66554797
-0.2500369 -0.11731537 -0.037114263 -0.1355186 -0.11439333 -0.15978746 -0.12168471 -0.09774064
-0.22542217 0.061232332 -0.094858885 -0.009124217 -0.16585767 -0.12346484 -0.1935009 -0.19345686
0.070537284 -0.13474762 0.08423776 -0.21344231 -0.14722182 0.06846332 -0.1397072 -0.08534144
0.0740165 -0.2316011 0.08557808 -0.018903896 -0.041561007 -0.14896844 -0.16523178 0.01144168
-0.23853122 -0.15043758 0.12893611 -0.32464838 -0.19811828 0.128372 -0.24953894 -0.019037984
0.049208794 -0.04550865 -0.0070628757 -0.056943133 -0.12202721 -0.098595604 -0.07850035 -0.02260752
0.06465471 -0.22813518 0.024260376 0.14615066 -0.2451843 1.32071e-05 -0.018048886 -0.15104352
0.0648146 -0.08211146 -0.21248946 0.05984943 -0.034054056 -0.086741135 0.114564545 -0.28252319
-0.025125045 -0.14084692 -0.018926203 -0.13257548 -0.099688694 -0.07705548 -0.14814584 -0.3520529
-0.25179195 -0.065814234 0.15853249 -0.24172777 -0.34199554 -0.33902806 -0.29702625 -0.039750498
-0.066362195 -0.15352513 -0.4321383 -0.11836712 -0.26985577 -0.23476262 0.08337711 -0.21703349
0.097041085 -0.3937081 0.13687441 -0.065911576 0.014880541 -0.1855107 0.05222558 -0.050008427
-0.1665048 0.14476871 -0.28446105 -0.42735273 -0.071433865 0.057808787 -0.12033609 -0.17396729
-0.17530061 -0.12385898 -0.2493259 -0.036091253 -0.35037374 0.16490717 0.117058806 -0.032592896
-0.15676032 -0.2881987 -0.058680274 0.0011852384 -0.19419971 0.051550988 0.025068877 -0.18847777
-0.11383096 -0.02802457 -0.32399425 0.00042631399 0.04561688 -0.44350266 -0.0464325 -0.22368541
-0.7659006 -0.16677156 -0.03147988 -0.03568107 -0.3334963 0.18199109 0.06135585 -0.50849545
-0.46216053 -0.23896077 -0.32050747 -0.32154545 -0.09020201 -0.3076382 -0.33263984 -0.14876889
0.08234133 -0.15258962 0.25073525 -0.11951689 -0.37883073 -0.19570623 0.066755295 -0.22724265
0.12305437 -0.18255988 0.09361843 0.091741785 0.029294597 -0.25778058 -0.3733341 -0.08680909
-0.10422501 0.009266527 -0.16241938 -0.4314506 -0.42050368 -0.46911478 0.12842724 0.0075158905
0.021669773 0.18175624 -0.14367557 -0.34238043 -0.0059676985 -0.40119082 -0.1649265 -0.46866602
-0.10338018 0.1654228 -0.013908058 0.014402717 0.038162496 -0.3966753 -0.34532014 -0.11131613
-0.013789245 -0.10313882 0.022727054 -0.09508626 0.14210354 -0.24878074 0.029065333 -0.018650196
00000000: a336 1c3f 7028 a3bc 6ed7 a43d 3aab 983e
00000010: 9fd0 d63e 2738 74bf d854 ccbe a037 e03e
00000020: 0e92 a93e 1186 11be 90dd ee3e e17a c5bd
00000030: 3869 ea3e 2552 ab3e 08e8 abbe 2e4f 7dbf
00000040: 30d8 d13c abd5 1cbe d540 efbf 7aa1 4d3e
00000050: 4492 563f bb0f 743e b80d 8a3d ef13 3a3e
00000060: e96b dbbd 07c1 f5be e101 b93e 2730 d6bd
00000070: a471 87bd 8a7f da3e 1025 0c3f 4c7f 27be
00000080: 8364 03bf 8221 07bf 3ecc 28c0 3e02 e43e
00000090: 9d78 05bf c4e0 6f3f 1c81 073d 5dec 88bf
000000a0: 0625 763d 3495 13c0 7592 f0bd 9f72 85bc
000000b0: 68c4 16bf d907 3cbe 111b f4bb 55ab 5abe
000000c0: a880 d03d 115d 213e dbc8 d23d e407 b9bd
000000d0: 6c99 abbf b150 743e 03df 0fbe 3e7b 73bd
000000e0: f756 98bf 0863 b73e 96d4 c9be ce12 febf
000000f0: cca8 49bd 6ebd 37bf 49a9 a63d 5a61 2a3f
00000100: d604 80be 0a43 f0bd 2005 18bd 63c5 0abe
00000110: 0d47 eabd 539f 23be d535 f9bd 3f2c c8bd
00000120: 12d5 66be c1ce 7a3d 6045 c2bd bd7d 15bc
00000130: 98d6 29be 22db fcbd 1a25 46be 8e19 46be
00000140: da75 903d 48fb 09be d984 ac3d 9f90 5abe
00000150: 51c1 16be 7f36 8c3d 670f 0fbe 7ec7 aebd
00000160: f695 973d d728 6dbe 8f43 af3d 58dc 9abc
00000170: e03b 2abd 2f8b 18be 8532 29be e275 3b3c
00000180: 8741 74be 4f0c 1abe d407 043e 5038 a6be
00000190: 85df 4abe f373 033e 2387 7fbe 8cf5 9bbc
000001a0: 298f 493d 4767 3abd b26f e7bb 343d 69bd
000001b0: 67e9 f9bd 7eec c9bd cbc4 a0bd 6833 b9bc
000001c0: b069 843d 459c 69be b2bd c63c 85a8 153e
000001d0: 9811 7bbe 1094 5d37 42db 93bc 27ab 1abe
000001e0: 84bd 843d 0e2a a8bd d696 59be ad24 753d
000001f0: 447c 0bbd 56a5 b1bd d1a0 ea3d e1a6 90be
00000200: 0ad3 cdbc 2d3a 10be 200b 9bbc dec1 07be
00000210: 9629 ccbd 43cf 9dbd 8bb3 17be 4740 b4be
00000220: e0ea 80be 9dc9 86bd 5756 223e 7c87 77be
00000230: 0a1a afbe 1695 adbe d313 98be 6bd1 22bd
00000240: e7e8 87bd b135 1dbe 3b41 ddbe 766a f2bd
00000250: 892a 8abe 9d65 70be 9ec1 aa3d 073e 5ebe
00000260: 7abd c63d 1c94 c9be ce28 0c3e a6fc 86bd
00000270: 83cd 733c 84f6 3dbe 7dea 553d a3d5 4cbd
00000280: 3c80 2abe 403e 143e e1a4 91be facd dabe
00000290: eb4b 92bd e8c8 6c3d c572 f6bd 7b24 32be
000002a0: 0182 33be c7a9 fdbd 4a4f 7fbe 6cd4 13bd
000002b0: 3064 b3be 6ddd 283e 87bc ef3d 2180 05bd
000002c0: c785 20be c88e 93be ba5a 70bd 005a 9b3a
000002d0: 4adc 46be 2127 533d 3f5d cd3c 5100 41be
000002e0: 3520 e9bd c893 e5bc 93e2 a5be e582 df39
000002f0: c4d8 3a3d c812 e3be 0130 3ebd ca0d 65be
00000300: 1012 44bf 2ac6 2abe 0cf1 00bd 5026 12bd
00000310: 07c0 aabe df5b 3a3e 4650 7b3d c22c 02bf
00000320: 4ea0 ecbe 22b2 74be 8e19 a4be 9ba1 a4be
00000330: d5bb b8bd c182 9dbe c54f aabe df56 18be
00000340: 92a2 a83d 7440 1cbe 5f60 803e 45c5 f4bd
00000350: 1af6 c1be 3767 48be 00b7 883d 4cb2 68be
00000360: ee03 fc3d faf0 3abe 05bb bf3d 1ee3 bb3d
00000370: 39fb ef3c d1fb 83be a625 bfbe f7c8 b1bd
00000380: ec73 d5bd a2d2 173c 4451 26be 18e7 dcbe
00000390: 424c d7be d02f f0be 6e82 033e dc47 f63b
000003a0: cf84 b13c 4f1e 3a3e b01f 13be 7d4c afbe
000003b0: af8c c3bb e268 cdbe 7ee2 28be fef4 efbe
000003c0: fdb8 d3bd 9864 293e a0de 63bc 60f9 6b3c
000003d0: 4750 1c3d 0619 cbbe cdcd b0be b6f9 e3bd
000003e0: 49ec 61bc 723a d3bd 162e ba3c 96bc c2bd
000003f0: 9783 113e 61c0 7ebe 6c1a ee3c 4cc8 98bc

graph_matcher.mlp.0.weight f4 [128, 256]
-0.06945686 0.06158445 -0.03262162 0.055397972 -0.057012826 -0.00534673 -0.03210727 -0.052093454
0.029016713 -0.03569021 -0.057328403 0.054353118 -0.018935233 -0.062453233 0.0075400127 -0.12332892
0.04371325 -0.037826322 -0.06991133 0.035355203 -0.0026750043 -0.0012179574 -0.033806566 -0.02329429
-0.08333001 -0.023472182 -0.01282903 -0.12166384 -0.097607024 -0.00948791 -0.07754765 -0.051305152
-0.061367325 -0.07039389 -0.044178754 0.055204995 0.015519676 0.025930896 0.001747215 0.04999648
-0.05352996 -0.09320756 -0.031134019 -0.079317905 0.042944558 -0.15627126 -0.053642493 0.016156517
-0.004122004 -0.018997516 -0.07821633 -0.015725251 -0.031753026 -0.08198119 -0.038489137 -0.06635219
0.079898395 -0.06785404 -0.06752869 -0.039181832 -0.017352156 0.059367627 0.022638163 0.015833301
-0.088614814 -0.043698095 -0.06281224 0.051678114 -0.16021083 -0.06291182 -0.12190513 0.03857716
-0.03681528 -0.06309828 -0.07196755 -0.046253957 -0.048261043 0.061930507 0.0060568503 -0.047980975
-0.07140031 0.017222047 -0.076339416 -0.06709042 0.013394498 -0.045278944 -0.042110354 -0.028624138
-0.09522414 -0.104121044 -0.03829778 -0.14560322 -0.0698666 -0.013862531 -0.009196654 -0.060421783
-0.023647372 0.0130708525 -0.14551231 -0.0064745825 0.009041337 -0.08043784 0.03733255 -0.05215978
-0.07243644 -0.09007526 -0.024370605 -0.116831854 -0.05330077 -0.01358103 -0.0276021 0.03606823
0.007423274 -0.036939874 0.043660015 0.037828244 -0.11164953 -0.032112334 0.007311571 -0.104535446
0.061115548 -0.013808638 -0.0014014858 0.023733139 -0.0047818883 -0.029235503 -0.07418396 -0.06850919
-0.092833854 0.020198686 0.00922098 0.012019513 0.005493457 0.014657448 -0.04583939 -0.09201977
0.030691411 -0.0469028 -0.10491242 -0.044493392 -0.005393386 0.03202905 -0.0052275336 -0.017908502
0.0044526234 -0.035070628 -0.008423067 0.053372048 -0.060416825 0.0036576986 -0.04489497 -0.018179242
-0.14703849 -0.11247952 0.04278059 -0.099185504 -0.09981312 -0.024638336 0.022768997 -0.060606837
0.008625761 -0.07456293 -0.029352285 0.056421824 -0.16289715 -0.01787629 -0.07130199 -0.002312079
-0.097210556 -0.023803039 -0.09088275 -0.07033204 0.0004536584 -0.10641371 -0.010281963 -0.03870564
-0.0043325205 -0.046043426 -0.14377226 0.008564438 -0.102485254 0.04876282 -0.054333646 -0.081187874
0.13982765 -0.13817039 -0.044598956 -0.0014437911 -0.01653263 -0.04635843 -0.106041804 0.003162717
0.017166343 -0.02776316 -0.13714425 -0.025489643 -0.05336466 -0.11065672 -0.033080637 0.060005628
-0.10949023 -0.025905162 -0.024539795 -0.04149227 -0.036365077 -0.015536101 -0.028316224 -0.07084569
-0.10459968 0.0062599257 -0.1278342 -0.09978797 -0.0956846 0.013373926 -0.022769645 -0.11718791
-0.059316583 -0.046422195 -0.020507857 -0.06219959 0.011499579 -0.10543305 0.022472471 0.047740865
0.048082594 -0.07706898 -0.0937701 0.017532693 -0.047365967 -0.074596986 0.036676362 -0.03888154
-0.000397049 -0.0693344 -0.046205036 -0.093707725 -0.066848226 -0.057479568 -0.05610136 -0.023425272
0.03807418 -0.08313791 0.020190619 0.045436453 -0.0341724 -0.08812831 -0.09649741 -0.029795125
-0.042145185 0.055846334 -0.08426266 0.0068268776 -0.049190905 -0.046543375 -0.06837802 -0.0214767
00000000: 663f 8ebd fa3f 7c3d 3f9e 05bd fce8 623d
00000010: 4886 69bd 9f33 afbb ea82 03bd f25f 55bd
00000020: 75b4 ed3c e62f 12bd 30d1 6abd 60a1 5e3d
00000030: 101e 9bbc f6ce 7fbd 3612 f73b df93 fcbd
00000040: aa0c 333d c6ef 1abd ac2d 8fbd 9ed0 103d
00000050: 204f 2fbb dea3 9fba c178 0abd abd3 bebc
00000060: eda8 aabd bc48 c0bc da30 52bc e42a f9bd
00000070: 31e6 c7bd 2e73 1bbc 4dd1 9ebd 5a25 52bd
00000080: 4e5c 7bbd ac2a 90bd c8f4 34bd a21e 623d
00000090: 3d46 7e3c 086d d43c cf02 e53a 1cc9 4c3d
000000a0: 3b42 5bbd 9be3 bebd c50c ffbc 6d71 a2bd
000000b0: a2e6 2f3d 9305 20be 3bb8 5bbd ac5a 843c
000000c0: e011 87bb aea0 9bbc e22f a0bd 3ed2 80bc
000000d0: 760f 02bd c1e5 a7bd c9a6 1dbd a8e3 87bd
000000e0: c5a1 a33d 0ff7 8abd 7b4c 8abd 217d 20bd
000000f0: 1c26 8ebc 782b 733d ab73 b93c d7b4 813c
00000100: af7b b5bd c6fc 32bd b4a3 80bd 6eac 533d
00000110: 4f0e 24be ead7 80bd 66a9 f9bd 1603 1e3d
00000120: 9ecb 16bd ac39 81bd b963 93bd ca74 3dbd
00000130: 5fad 45bd d8aa 7d3d 8b78 c63b b387 44bd
00000140: 533a 92bd 4015 8d3c d757 9cbd b466 89bd
00000150: 9974 5b3c 6a76 39bd e87b 2cbd 2b7d eabc
00000160: e004 c3bd 6a3d d5bd 22de 1cbd 0319 15be
00000170: 3816 8fbd ab1f 63bc 90ad 16bc d57c 77bd
00000180: 22b8 c1bc 2127 563c 2e01 15be bc28 d4bb
00000190: 1e22 143c 98bc a4bd 04ea 183d 7ea5 55bd
000001a0: 8e59 94bd 6179 b8bd dda4 c7bc 8a45 efbd
000001b0: e951 5abd f882 5ebc cd1d e2bc 48bc 133d
000001c0: f03e f33b 444e 17bd d8d4 323d caf1 1a3d
000001d0: 82a8 e4bd 3988 03bd e795 ef3b ae16 d6bd
000001e0: 4c54 7a3d a03d 62bc 0fb2 b7ba 006c c23c
000001f0: 63b1 9cbb 4b7f efbc c3ed 97bd 8c4e 8cbd
00000200: ad1f bebd b777 a53c 9813 173c 7eed 443c
00000210: 7502 b43b cb25 703c 16c2 3bbd dc74 bcbd
00000220: 8e6c fb3c 271d 40bd 53dc d6bd b43e 36bd
00000230: 00bb b0bb e530 033d bb4b abbb dab4 92bc
00000240: 50e7 913b 38a6 0fbd e700 0abc a69c 5a3d
00000250: a277 77bd 00b6 6f3b cae3 37bd a2ec 94bc
00000260: 4291 16be aa5b e6bd b33a 2f3d c521 cbbd
00000270: d26a ccbd 56d6 c9bc 0c86 ba3c e03e 78bd
00000280: 1053 0d3c 73b4 98bd 3474 f0bc 921a 673d
00000290: 83ce 26be 4c71 92bc c706 92bd 4086 17bb
000002a0: 5416 c7bd 97fe c2bc bc20 babd 3f0a 90bd
000002b0: 00d9 ed39 6eef d9bd ae75 28bc ce89 1ebd
000002c0: d1f7 8dbb 0898 3cbd 0939 13be db51 0c3c
000002d0: cae3 d1bd 86bb 473d f58c 5ebd d445 a6bd
000002e0: fb2e 0f3e 8a7c 0dbe 65ad 36bd 973d bdba
000002f0: 706f 87bc 56e2 3dbd 722c d9bd 9645 4f3b
00000300: 6ea0 8c3c 916f e3bc 8b6f 0cbe a8cf d0bc
00000310: e794 5abd fe9f e2bd 907f 07bd 76c8 753d
00000320: 6a3c e0bd 1037 d4bc ae07 c9bc ccf3 29bd
00000330: 8cf3 14bd 218b 7ebc 6df7 e7bc 8c17 91bd
00000340: 5b38 d6bd 1020 cd3b f8e6 02be a35d ccbd
00000350: 4af6 c3bd 501e 5b3c 6887 babc 3700 f0bd
00000360: f2f5 72bd 3325 3ebd 1800 a8bc ffc4 7ebd
00000370: bb68 3c3c 48ed d7bd 3018 b83c ed8b 433d
00000380: 41f2 443d 57d6 9dbd 8a0a c0bd b9a0 8f3c
00000390: d102 42bd 4ec6 98bd f439 163d 4042 1fbd
000003a0: 042b d0b9 32ff 8dbd 7e41 3dbd d6e9 bfbd
000003b0: b9e7 88bd b26f 6bbd 8aca 65bd 5be6 bfbc
000003c0: acf3 1b3d 3544 aabd cc66 a53c 931b 3a3d
000003d0: 5cf8 0bbd 9e7c b4bd 6fa0 c5bd e814 f4bc
000003e0: 6ea0 2cbd 20bf 643d e791 acbd 00b4 df3b
000003f0: 677c 49bd 44a4 3ebd c609 8cbd e8ef afbc

graph_matcher.mlp.0.bias f4 [128]
-0.13084802 0.17759494 -0.023077473 -0.1229627 -0.06245011 0.08354257 -0.5185799 -0.0652849
-0.092175655 -0.05520596 -0.013190202 -0.49549484 -0.47380313 0.40039903 0.3456012 -0.13747948
-0.02358683 0.39836872 -0.06736048 -0.066370964 -0.030206807 -0.08298763 -0.08150949 -0.12545025
-0.20393884 -0.23724142 -0.0661824 -0.2972182 -0.03893893 -0.040425677 -0.0033121882 -0.008792506
0.066080414 -0.16286923 -0.07046581 -0.051107522 -0.020788608 -0.17670824 0.10326997 0.5424239
-0.26426253 -0.039772145 -0.05720331 0.1520661 -0.09073494 -0.025741475 -0.47926274 -0.14008793
0.11722162 -0.059158318 -0.39467907 -0.06586412 -0.13095807 -0.01139545 -0.05349014 -0.17770068
-0.058834728 -0.089103706 0.38892272 -0.019792214 -0.16971992 -0.26361185 -0.006827574 0.21975029
-0.03842437 -0.34923887 -0.12622856 -0.04686556 -0.20880198 -0.058887582 -0.012303337 -0.04759574
-0.049482793 -0.027207712 -0.03912058 -0.05991975 -0.11263302 -0.20577368 -0.05938755 -0.121023566
-0.08774888 -0.052811265 -0.12122911 -0.2736925 0.028346173 -0.10030184 -0.042233463 -0.05109821
-0.09188544 0.22608574 -0.090541035 0.10634675 -0.10718208 -0.10667815 -0.11206746 -0.08194346
-0.095885016 -0.5644843 -0.024454374 -0.076320045 -0.16616039 -0.06535777 -0.055785347 -0.06731271
-0.13178788 -0.12509716 -0.05915886 -0.087051526 -0.11491441 -0.06506478 -0.18495837 -0.23327257
-0.3626004 -0.5205042 -0.24335088 -0.03911778 -0.09469774 -0.13675103 -0.08690747 -0.106492855
-0.16603024 -0.11833155 -0.115153044 -0.087927274 -0.15209201 0.022136837 -0.034735344 -0.26841983
00000000: 06fd 05be 73db 353e f80c bdbc ded3 fbbd
00000010: b0cb 7fbd 5e18 ab3d a7c1 04bf 17b4 85bd
00000020: 97c6 bcbd a51f 62bd b81b 58bc 80b1 fdbe
00000030: 5396 f2be 1a01 cd3e a4f2 b03e 6cc7 0cbe
00000040: 2b39 c1bc fcf6 cb3e 4bf4 89bd 80ed 87bd
00000050: 4474 f7bc 6bf5 a9bd 73ee a6bd 0876 00be
00000060: 58d5 50be 6aef 72be a38a 87bd fc2c 98be
00000070: 6d7e 1fbd 6595 25bd 4c11 59bb 710e 10bc
00000080: 2b55 873d 31c7 26be 6150 90bd 1f56 51bd
00000090: df4c aabc 01f3 34be 357f d33d 4bdc 0a3f
000000a0: 6b4d 87be 1ee8 22bd 054e 6abd 37b7 1b3e
000000b0: 3dd3 b9bd c9df d2bc ed61 f5be 3673 0fbe
000000c0: e411 f03d fe4f 72bd 6013 cabe c5e3 86bd
000000d0: df19 06be fbb3 3abc 7a18 5bbd 2bf7 35be
000000e0: affc 70bd 017c b6bd e120 c73e 4823 a2bc
000000f0: 0fcb 2dbe 22f8 86be d8b9 dfbb 3806 613e
00000100: df62 1dbd 70cf b2be 0f42 01be 1af6 3fbd
00000110: 30d0 55be 1b34 71bd f093 49bc c0f3 42bd
00000120: 78ae 4abd b5e2 debc e73c 20bd 696e 75bd
00000130: 24ac e6bd 56b6 52be 5c40 73bd 34db f7bd
00000140: afb5 b3bd a050 58bd f846 f8bd 6c21 8cbe
00000150: 3c36 e83c 0d6b cdbd fffc 2cbd 5b4c 51bd
00000160: 6f2e bcbd 0583 673e 946d b9bd 53cc d93d
00000170: 4782 dbbd 137a dabd a083 e5bd f9d1 a7bd
00000180: 5d5f c4bd 0b82 10bf 8a54 c8bc af4d 9cbd
00000190: f325 2abe 4bda 85bd 2d7f 64bd 3fdb 89bd
000001a0: 67f3 06be 7819 00be 9050 72bd 1248 b2bd
000001b0: 3f58 ebbd af40 85bd ba65 3dbe 01df 6ebe
000001c0: c2a6 b9be c33f 05bf f930 79be f739 20bd
000001d0: e4f0 c1bd 7608 0cbe 8bfc b1bd ed18 dabd
000001e0: d503 2abe d057 f2bd 5cd5 ebbd 3713 b4bd
000001f0: 02be 1bbe 5058 b53c a646 0ebd 536e 89be

graph_matcher.mlp.2.weight f4 [128, 128]
0.030117556 -0.1958221 -0.06178821 -0.07010502 0.03828392 -0.3933912 0.0086165145 -0.06404344
0.013300724 -0.056170296 -0.07541497 -0.04648717 0.040824972 -0.06966923 0.024822695 0.015014224
0.011271246 -0.2932702 -0.10647359 -0.024795443 0.017799295 -0.04121574 0.042032607 -0.018815868
0.03171394 0.08452747 -0.08706306 -0.008777827 -0.016528301 0.044602536 -0.06780349 -0.036773406
-0.18715486 -0.027629282 0.057911955 -0.03141174 -0.016918704 -0.080943055 -0.028492723 -0.4328783
0.03877089 -0.0518836 -0.037432555 -0.052494887 -0.06144107 0.046871178 -0.000102089696 -0.013697915
-0.42385074 0.056362905 -0.041802127 0.013727069 -0.05416242 -0.08324141 -0.08395084 -0.06865968
0.07646235 -0.028108828 -0.03242911 0.06738267 -0.05731472 -0.04145663 -0.04251302 -0.048952963
-0.062336683 0.031640776 0.06838801 0.048358135 0.020751432 -0.13351585 -0.017566293 -0.034321643
-0.019221038 0.046032064 -0.14371732 -0.045788545 0.08446386 -0.03844061 -0.004899189 -0.033661224
-0.08044537 0.049433358 0.0038029328 -0.037575305 -0.22989301 0.0069122165 0.057508163 -0.016679682
-0.061027475 -0.13355103 -0.040460195 -0.05457745 -0.030050661 -0.039888155 -0.050212342 0.009911947
-0.024305202 -0.07729009 -0.08551214 -0.1127154 -0.017628878 0.059991963 0.020674303 -0.08505346
0.08278475 -0.003814049 0.04101088 0.057615705 -0.0769687 -0.063370876 -0.009605415 -0.16462421
0.067127205 -0.18284959 0.0690264 -0.05975222 -0.019353688 0.084909536 -0.03139681 0.07427441
-0.4275956 0.056629248 -0.07381577 -0.098495245 0.061578922 0.026633313 0.05925078 0.069252945
0.07260258 -0.13996457 0.14925218 0.048570387 0.040976517 -0.069619134 0.08829587 0.053854667
0.0119608715 -0.03721892 0.06799238 0.058278553 0.00042040646 0.024871945 0.04843446 0.05725962
0.0853911 -0.17197014 0.0056740195 0.01662746 -0.032567564 0.033880554 -0.0112664625 -0.01495707
-0.20081416 0.082734995 -0.039511595 0.0736598 -0.21521038 -0.06784804 -0.022739708 -0.043175854
-0.37648305 -0.29493937 -0.04298006 0.003001541 -0.043036345 -0.05165542 -0.012211688 -0.56528986
-0.00827121 0.06797334 0.011980727 -0.07402661 -0.03127079 0.062465437 0.048240907 0.06675512
0.046525575 -0.0056076273 0.06537169 0.015268594 -0.04925483 -0.033831358 0.06335487 0.011270046
-0.25956228 0.07290771 -0.08273651 -0.0810828 -0.08477314 0.077633165 -0.030063737 0.08572129
0.027271718 -0.09396298 0.023844972 0.04879593 -0.045239024 -0.11489767 -0.027767334 -0.015233569
-0.06704337 0.087444134 -0.072114795 -0.0604309 -0.030867476 -0.031961862 -0.061064564 -0.080001555
-0.02785347 0.08436293 -0.014134765 -0.023788348 0.039850704 -0.049283277 -0.06899616 0.07383648
0.044312738 0.0539779 0.03805714 0.087311365 -0.07597759 -0.071580805 0.026808865 -0.06795982
0.016288541 -0.2994511 -0.067126304 -0.08742075 -0.25532874 -0.028044026 0.08053256 -0.069088444
-0.08375797 0.0243466 0.21564493 0.073152 -0.025231592 0.08203054 -0.118751615 -0.07975256
0.0489972 -0.17323653 -0.019241922 -0.053954583 0.021549694 -0.054864775 -0.08481089 -0.002122283
-0.24534556 0.033093013 0.069138 -0.14138351 0.06644634 0.085621856 0.024573877 0.18146227
00000000: 18b9 f63c 9785 48be a215 7dbd 3993 8fbd
00000010: 9acf 1c3d 926a c9be 482c 0d3c 3529 83bd
00000020: 48eb 593c d312 66bd 2a73 9abd 5569 3ebd
00000030: 1638 273d beae 8ebd f758 cb3c 38fe 753c
00000040: 08ab 383c 8327 96be d30e dabd d01f cbbc
00000050: d4cf 913c d6d1 28bd 622a 2c3d bc23 9abc
00000060: 7ae6 013d bd1c ad3d 1e4e b2bd e0d0 0fbc
00000070: 5c66 87bc 26b1 363d 8edc 8abd b69f 16bd
00000080: 86a5 3fbe ce56 e2bc 1635 6d3d 99a9 00bd
00000090: 1899 8abc 79c5 a5bd 9269 e9bc 39a2 ddbe
000000a0: 3ace 1e3d e683 54bd e152 19bd e104 57bd
000000b0: a2a9 7bbd fefb 3f3d fd18 d6b8 386d 60bc
000000c0: f702 d9be cadc 663d b538 2bbd 80e7 603c
000000d0: 6ad9 5dbd 797a aabd 6bee abbd 729d 8cbd
000000e0: 4b98 9c3d 7c44 e6bc 63d4 04bd edff 893d
000000f0: d7c2 6abd 6dce 29bd 2222 2ebd e782 48bd
00000100: c054 7fbd c299 013d 030f 8c3d 2e13 463d
00000110: e8fe a93c 61b8 08be 30e7 8fbc da94 0cbd
00000120: 7075 9dbc 1e8c 3c3d a22a 13be c58c 3bbd
00000130: 63fb ac3d e773 1dbd 6089 a0bb 5ae0 09bd
00000140: 8bc0 a4bd a27a 4a3d a03a 793b 90e8 19bd
00000150: 1369 6bbe e07f e23b ae8d 6b3d d4a3 88bc
00000160: f2f7 79bd 9ac1 08be 97b9 25bd 9b8c 5fbd
00000170: ce2c f6bc c361 23bd 75ab 4dbd b865 223c
00000180: b41b c7bc 444a 9ebd fd20 afbd 55d7 e6bd
00000190: 706a 90bc 22ba 753d 285d a93c 8230 aebd
000001a0: 0d8b a93d 20f5 79bb 06fb 273d 72fe 6b3d
000001b0: c4a1 9dbd 97c8 81bd 0860 1dbc 4093 28be
000001c0: fd79 893d ec3c 3bbe b75d 8d3d bebe 74bd
000001d0: a08b 9ebc 0de5 ad3d f199 00bd 2f1d 983d
000001e0: cfed dabe 12f4 673d b92c 97bd e0b7 c9bd
000001f0: 2e3a 7c3d 1b2e da3c f2b0 723d 7dd4 8d3d
00000200: a9b0 943d df52 0fbe 90d5 183e bef1 463d
00000210: fed6 273d 7a94 8ebd 77d4 b43d b696 5c3d
00000220: 88f7 433c de72 18bd 973f 8b3d 7eb5 6e3d
00000230: 006a dc39 40c0 cb3c 3663 463d 1089 6a3d
00000240: 87e1 ae3d f118 30be 20ed b93b 5036 883c
00000250: 9165 05bd 56c6 0a3d f896 38bc 800e 75bc
00000260: 3aa2 4dbe f770 a93d e9d6 21bd f3da 963d
00000270: 1c60 5cbe eaf3 8abd a048 babc 2ad9 30bd
00000280: 63c2 c0be 4b02 97be dc0b 30bd 80b5 443b
00000290: e146 30bd a294 53bd 8813 48bc d6b6 10bf
000002a0: f883 07bc 9b35 8b3d d04a 443c 439b 97bd
000002b0: cd15 00bd c2db 7f3d 4298 453d e9b6 883d
000002c0: 9a91 3e3d 30c0 b7bb 98e1 853d 2029 7a3c
000002d0: 6fbf 49bd c092 0abd 33c0 813d 00a6 383c
000002e0: 59e5 84be a350 953d c271 a9bd bd0e a6bd
000002f0: 8a9d adbd 23fe 9e3d 3a48 f6bc a58e af3d
00000300: f068 df3c aa6f c0bd 8856 c33c 3ede 473d
00000310: 8e4c 39bd 784f ebbd 5278 e3bc 3896 79bc
00000320: 094e 89bd e915 b33d ecb0 93bd 6486 77bd
00000330: cadd fcbc 71ea 02bd d61e 7abd dbd7 a3bd
00000340: f62c e4bc 79c6 ac3d 8095 67bc c8df c2bc
00000350: 7e3a 233d 43dd 49bd dc4d 8dbd 9537 973d
00000360: 4681 353d ee17 5d3d cee1 1b3d 4dd0 b23d
00000370: 249a 9bbd f598 92bd 449e db3c 852e 8bbd
00000380: 8c6f 853c a851 99be 8479 89bd a609 b3bd
00000390: 73ba 82be 96bc e5bc 41ee a43d 3e7e 8dbd
000003a0: 4c89 abbd 8572 c73c 06d2 5c3e b7d0 953d
000003b0: 7cb2 cebc a1ff a73d 0c34 f3bd 4f55 a3bd
000003c0: 4ab1 483d eb64 31be 3ca1 9dbc 7bff 5cbd
000003d0: fc88 b03c e3b9 60bd 55b1 adbd 0016 0bbb
000003e0: de3b 7bbe 8a8c 073d 3998 8d3d d7c6 10be
000003f0: 0515 883d 835a af3d 284f c93c 3fd1 393e

graph_matcher.mlp.2.bias f4 [128]
-0.5490804 -0.6563867 -0.07522718 -0.1719902 -0.1825269 0.13931549 -0.09920104 0.20980172
-0.3588358 -0.25456256 -0.047406644 0.27558127 -0.5375894 -0.09686755 -0.050658237 -0.058831133
-0.22100383 -0.21620151 0.20982073 -0.1835254 -0.27078223 0.0077512916 -0.08912299 -0.44739905
-0.028083235 0.23457448 0.03299268 -0.05721841 -0.014996671 -0.13757263 -0.01601722 -0.0050994516
-0.25803173 -0.38988075 -0.5901806 -0.1164637 -0.021401545 -0.058294673 -0.06967087 -0.03169908
-0.3232314 -0.06370892 -0.059041806 -0.6107763 -0.15370788 -0.39825246 -0.09517571 -0.034105167
-0.023790793 -0.55657107 -0.081877545 -0.3025526 -0.022791136 -0.29601413 -0.050363563 0.090260856
-0.07454242 0.019681262 -0.24348001 -0.18195687 -0.20999432 -0.2903299 -0.7107096 -0.013204837
-0.6022603 -0.04382357 0.016932754 -0.22181591 -0.26117802 -0.07670479 -0.1941652 -0.058652665
-0.9734084 0.14578009 -0.09779716 -0.17389336 -0.0700959 -0.2699295 0.012080849 0.073465
-0.033277046 0.15829884 -0.073966034 -0.04914503 0.23401715 -0.92859733 -0.07574264 -0.24723825
-0.23001632 0.07145993 -0.24116772 -0.056337975 -0.1275972 -0.3283918 -0.2372897 -0.3348425
-0.5662645 0.21690412 0.17397945 0.021178303 -0.18728706 -0.01400238 0.121191755 0.15305169
-0.07567018 0.060621865 -0.02674565 -0.056093518 -0.14338605 -0.14783621 -0.4922054 -0.18868718
-0.057738565 -0.36569986 -0.19406447 -0.28331786 -0.28247204 -0.5757532 -0.20970222 -0.46857497
-0.2213511 0.07425358 -0.0953991 -0.090934575 -0.1782261 -0.088911995 -0.0054897177 -0.2797372
00000000: 8890 0cbf f508 28bf b510 9abd 331e 30be
00000010: 55e8 3abe b8a8 0e3e ea29 cbbd 43d6 563e
00000020: 53b9 b7be 0656 82be 782d 42bd fd18 8d3e
00000030: 759f 09bf 7e62 c6bd 037f 4fbd eaf8 70bd
00000040: d44e 62be ee63 5dbe 3fdb 563e 15ee 3bbe
00000050: f8a3 8abe 8cfe fd3b 1d86 b6bd 7d11 e5be
00000060: d00e e6bc 4b34 703e 5523 073d da5d 6abd
00000070: 99b4 75bc d7df 0cbe 8c36 83bc 4d19 a7bb
00000080: bc1c 84be 739e c7be 1316 17bf 8584 eebd
00000090: 4b52 afbc 65c6 6ebd 9aaf 8ebd e5d6 01bd
000000a0: 967e a5be d279 82bd d2d5 71bd d65b 1cbf
000000b0: 9965 1dbe bfe7 cbbe 7ceb c2bd dcb1 0bbd
000000c0: e9e4 c2bc 717b 0ebf 6aaf a7bd 2de8 9abe
000000d0: 7ab4 babc 2a8f 97be 064a 4ebd afda b83d
000000e0: b2a9 98bd 993a a13c d352 79be e752 3abe
000000f0: c008 57be 1fa6 94be 10f1 35bf 1a59 58bc
00000100: bb2d 1abf 5880 33bd 8fb6 8a3c b623 63be
00000110: 20b9 85be 6717 9dbd 3ed3 46be c73d 70bd
00000120: 4b31 79bf 6047 153e e149 c8bd 1a11 32be
00000130: 708e 8fbd 3334 8abe c1ee 453c d174 963d
00000140: 834d 08bd 1719 223e 817b 97bd 4d4c 49bd
00000150: 31a2 6f3e 8eb8 6dbf f51e 9bbd 062c 7dbe
00000160: 6689 6bbe 9559 923d acf4 76be a6c2 66bd
00000170: d7a8 02be f822 a8be 12fc 72be 7a70 abbe
00000180: b6f6 10bf 1d1c 5e3e ab27 323e 1f7e ad3c
00000190: 2ec8 3fbe 3d6a 65bc 6233 f83d 95b9 1c3e
000001a0: f8f8 9abd a24e 783d b219 dbbc 51c2 65bd
000001b0: cbd3 12be 6062 17be 5902 fcbe 3637 41be
000001c0: 467f 6cbd 033d bbbe d6b8 46be 0a0f 91be
000001d0: 2da0 90be 9064 13bf 2ebc 56be 0fe9 efbe
000001e0: dda9 62be 4312 983d 9a60 c3bd e83b babd
000001f0: e780 36be 7e17 b6bd 17e3 b3bb b739 8fbe

graph_matcher.mlp.4.weight f4 [64, 128]
0.07637769 0.25773084 0.08421087 0.068404846 0.11413006 0.12031165 0.11947994 -0.043523304
-0.0061137984 0.13728337 -0.001985099 -0.06325045 0.27012175 -0.07807145 0.024655957 -0.024267081
0.19711556 -0.07938429 0.2674338 0.1327516 0.24719721 -0.009708988 -0.07632443 0.046148557
0.24178143 0.4044081 0.018693374 0.012317193 0.016740808 -0.04801997 -0.40361363 -0.011204441
-0.024869291 -0.047657065 0.13239563 0.07635364 -0.09304854 0.094411224 -0.011303221 -0.04052814
-0.02449921 -0.027754938 0.14179885 0.08620107 -0.033876263 0.7443332 -0.0012108941 -0.084443025
-0.084731564 0.051618412 0.019695539 0.37284842 -0.0163621 -0.21523818 0.029226152 0.086093925
0.10981906 -0.016772175 0.07541879 0.25818616 0.30334455 0.1080861 0.10984942 -0.04205112
0.48021215 -0.02467537 -0.10594301 -0.109171964 -0.12606563 -0.0032661725 0.06014325 -0.067789435
0.017126672 -0.09247532 0.36940923 0.009199656 0.14956701 -0.10354526 -0.08383238 0.13796033
0.048505247 0.17341182 -0.020402305 0.012635434 -0.048843693 -0.4752827 0.0844074 -0.17479038
0.03991893 0.10692051 0.13865441 0.008368021 -0.029861534 -0.034433264 0.118179604 -0.034961823
-0.09971937 0.2072395 -0.16731049 -0.013842884 -0.099051036 0.17903882 -0.470481 0.055356923
0.02469779 -0.27255988 -0.0033630934 0.0496814 0.23487692 -0.07287547 -0.16450785 -0.105936594
-0.13270672 0.21776281 0.15981118 0.20568274 0.06760186 -0.19302681 -0.2917277 -0.06481608
-0.26106662 -0.105818614 -0.007372137 0.1938577 -0.37671617 -0.016825473 -0.16218385 -0.3108441
-0.42115977 -0.04111878 0.031111144 -0.16604194 -0.05071851 0.4215559 -0.04645712 0.109633744
-0.3003531 0.09805365 0.09512422 -0.14187095 0.094300255 -0.10818505 0.025527358 0.033694565
0.15136597 -0.2776954 0.0029234155 0.2189553 0.20090464 -0.16596965 0.14819509 0.011321456
0.21517237 0.13810523 0.06681889 0.037209015 -0.035284437 0.059236858 -0.12536412 0.06861547
-0.1379038 -0.019101918 -0.005129899 0.10642081 -0.119354695 0.00016354783 0.058212902 0.03831451
-0.10487052 0.06804584 0.04917339 0.013344341 -0.0062600593 0.60668397 -0.0062485044 0.013988458
-0.05356965 0.0885421 0.041289896 0.25698718 0.035865784 -0.06789645 0.07840875 0.09930211
0.03675047 0.123525746 0.00838599 0.22686481 -0.036168214 0.26960447 0.021090196 0.0595664
-0.076901145 0.089365475 -0.064836085 -0.062325694 0.035981543 0.04496559 -0.12344778 0.040980414
0.07399897 0.101258956 0.17871594 -0.084016114 0.015475574 -0.005310789 0.06867157 0.26621634
0.17251489 0.059162077 0.042493712 0.017062942 0.31873986 -0.03359217 0.014654526 -0.18002638
-0.03260521 0.086492285 0.18955666 0.18684068 0.11245813 -0.14254911 0.041857794 -0.19661598
-0.1343518 0.30082148 0.08835506 -0.011866797 -0.14085528 0.17761983 0.41047496 0.15181524
0.03932715 -0.26788977 0.06528106 0.06765717 -0.18994808 0.11711446 -0.021067645 -0.21443914
-0.07804849 0.19141173 -0.02274436 0.090277724 0.14201955 -0.18212536 0.11023247 -0.03583856
-0.17987214 -0.09100085 0.08538817 -0.01985467 0.15310857 0.11423999 -0.117112316 0.14310567
00000000: e86b 9c3d 4cf5 833e c076 ac3d d717 8c3d
00000010: 05bd e93d f465 f63d e6b1 f43d 7e45 32bd
00000020: 4256 c8bb 0394 0c3e 6f18 02bb 7489 81bd
00000030: 664d 8a3e ede3 9fbd 4afb c93c c2cb c6bc
00000040: a9d8 493e 3b94 a2bd 15ed 883e 09f0 073e
00000050: 4421 7d3e 7212 1fbc fc4f 9cbd 4506 3d3d
00000060: 8d95 773e 940e cf3e d922 993c 0dce 493c
00000070: 0524 893c 97b0 44bd 72a6 cebe d592 37bc
00000080: afba cbbc 0e34 43bd b892 073e 4c5f 9c3d
00000090: 3c90 bebd ac5a c13d 2531 39bc d600 26bd
000000a0: 91b2 c8bc 535e e3bc b833 113e 308a b03d
000000b0: d6c1 0abd 9f8c 3e3f ddb6 9eba 77f0 acbd
000000c0: be87 adbd d46d 533d 8a58 a13c fde5 be3e
000000d0: d009 86bc 6667 5cbe af6b ef3c 0352 b03d
000000e0: d1e8 e03d cd65 89bc 2b75 9a3d fa30 843e
000000f0: fa4f 9b3e 3f5c dd3d bcf8 e03d cc3d 2cbd
00000100: 5ede f53e 0024 cabc a6f8 d8bd 8d95 dfbd
00000110: 5917 01be 480d 56bb c558 763d 30d5 8abd
00000120: 3c4d 8c3c b363 bdbd 3523 bd3e 27ba 163c
00000130: 1828 193e 8a0f d4bd 50b0 abbd 7945 0d3e
00000140: 70ad 463d de92 313e bc22 a7bc da04 4f3c
00000150: 5310 48bd 4158 f3be c9dd ac3d 40fc 32be
00000160: 0882 233d 24f9 da3d 6cfb 0d3e 061a 093c
00000170: 2da0 f4bc e509 0dbd 2608 f23d 2134 0fbd
00000180: ab39 ccbd 9736 543e 7153 2bbe 44cd 62bc
00000190: 45db cabd f455 373e e3e2 f0be f1bd 623d
000001a0: 0553 ca3c f88c 8bbe 5867 5cbb b97e 4b3d
000001b0: 9383 703e bc3f 95bd bf74 28be 49f5 d8bd
000001c0: 45e4 07be 37fd 5e3e 8ba5 233e 7f9e 523e
000001d0: d872 8a3d d2a8 45be 555d 95be 4bbe 84bd
000001e0: 86aa 85be 6eb7 d8bd f891 f1bb a282 463e
000001f0: f1e0 c0be 93d5 89bc 8613 26be f526 9fbe
00000200: 41a2 d7be 2a6c 28bd ccdc fe3c e606 2abe
00000210: 36be 4fbd 2dd6 d73e d249 3ebd a887 e03d
00000220: e2c7 99be 5ad0 c83d 7dd0 c23d 9e46 11be
00000230: 7e20 c13d 2090 ddbd c01e d13c 5003 0a3d
00000240: aeff 1a3e 172e 8ebe c696 3f3b d135 603e
00000250: f2b9 4d3e f3f3 29be 74c0 173e a17d 393c
00000260: 2556 5c3e 756b 0d3e 58d8 883d 7b68 183d
00000270: 6a86 10bd 59a2 723d 745f 00be 4486 8c3d
00000280: a736 0dbe a07b 9cbc b618 a8bb 27f3 d93d
00000290: 3c70 f4bd 097e 2b39 a770 6e3d adef 1c3d
000002a0: 5bc6 d6bd 9e5b 8b3d 096a 493d 39a2 5a3c
000002b0: 2f21 cdbb a44f 1b3f 41c0 ccbb d82f 653c
000002c0: d96b 5bbd 8f55 b53d 981f 293d d393 833e
000002d0: 00e8 123d 4b0d 8bbd c494 a03d e85e cb3d
000002e0: a987 163d 11fb fc3d 6465 093c 404f 683e
000002f0: 1f25 14bd 9909 8a3e 59c5 ac3c e6fb 733d
00000300: 597e 9dbd 3f05 b73d c8c8 84bd 3a49 7fbd
00000310: 6261 133d d72d 383d 31d2 fcbd 14db 273d
00000320: c68c 973d db60 cf3d 5001 373e a410 acbd
00000330: 438d 7d3c 2106 aebb aea3 8c3d 824d 883e
00000340: bea7 303e ef53 723d e30d 2e3d 95c7 8b3c
00000350: df31 a33e f197 09bd 8919 703c d658 38be
00000360: 0a8d 05bd de22 b13d 241b 423e 2a53 3f3e
00000370: 7350 e63d 65f8 11be 1473 2b3d b355 49be
00000380: 8593 09be 4605 9a3e 7ff3 b43d f46c 42bc
00000390: 5e3c 10be f9e1 353e c629 d23e 7475 1b3e
000003a0: 8115 213d d928 89be 14b2 853d d88f 8a3d
000003b0: c081 42be b5d9 ef3d 0e96 acbc ef95 5bbe
000003c0: e3d7 9fbd 7001 443e 6152 babc 87e3 b83d
000003d0: 936d 113e 127f 3abe 90c1 e13d 74cb 12bd
000003e0: 6730 38be a75e babd fedf ae3d 43a6 a2bc
000003f0: 7ec8 1c3e a8f6 e93d 95d8 efbd 4b8a 123e

graph_matcher.mlp.4.bias f4 [64]
0.017164385 -0.18891692 0.16226146 0.12502603 0.17936543 -0.27860016 0.19170256 0.056198817
-0.049317032 -0.007745032 0.14777127 0.054494996 -0.016584933 -0.3261124 0.114202365 -0.0033660098
0.10633126 0.08389121 0.16138013 -0.060945235 -0.24808656 -0.07588681 0.30404612 0.06538301
-0.1600044 0.19990382 0.058265742 0.29301682 -0.040952615 0.14848758 -0.2827569 0.050581843
0.061848678 -0.033153497 0.20024006 -0.17171168 0.07982595 0.0805129 0.12831542 0.14693674
0.09608136 0.34295782 -0.047826156 0.14618899 0.18760586 0.0065727346 -0.40652835 -0.03252141
0.42091775 0.16193543 -0.102429315 0.042652637 0.2010456 0.17486434 0.1544 0.2607345
-0.005299303 0.18389955 -0.009945287 0.03411224 0.0468133 0.13664189 0.13504152 -0.01624828
00000000: 539c 8c3c 7073 41be de27 263e d306 003e
00000010: 92ab 373e aea4 8ebe ad4d 443e bb30 663d
00000020: a800 4abd 0aca fdbb 5a51 173e 2536 5f3d
00000030: 20dd 87bc 34f8 a6be eee2 e93d 4698 5cbb
00000040: 34c4 d93d 28cf ab3d d540 253e b6a1 79bd
00000050: 670a 7ebe 8b6a 9bbd efab 9b3e 87e7 853d
00000060: 32d8 23be 96b3 4c3e 0fa8 6e3d 4d06 963e
00000070: eebd 27bd 210d 183e 83c5 90be e82e 4f3d
00000080: 0a55 7d3d f6cb 07bd bb0b 4d3e 30d5 2fbe
00000090: ca7b a33d f3e3 a43d 1e65 033e 9676 163e
000000a0: 4ec6 c43d 2b98 af3e 5ce5 43bd 91b2 153e
000000b0: c01b 403e 1860 d73b 7c24 d0be 2c35 05bd
000000c0: 8882 d73e 67d2 253e 76c6 d1bd 88b4 2e3d
000000d0: e6de 4d3e a30f 333e 091b 1e3e fe7e 853e
000000e0: c7a5 adbb 2a50 3c3e 8ff1 22bc 47b9 0b3d
000000f0: 4ebf 3f3d daeb 0b3e 5348 0a3e 1d1b 85bc

classifier.0.weight f4 [32, 64]
-0.12696524 -0.046328016 -0.06422161 -0.05615859 -0.06964281 -0.08447089 0.013575961 -0.029564645
0.041168116 0.09877502 -0.01520318 0.031164318 0.101543546 0.025069326 -0.12090147 -0.033518303
0.030777795 0.095234856 0.06011272 -0.05975636 -0.07443873 0.14479806 0.16086082 -0.08424129
0.13495395 -0.0011663463 -0.0408954 0.110368565 0.004780058 0.022676572 -0.10630193 0.032567494
0.08315539 0.047128618 0.047958482 -0.14959492 -0.0777586 0.018319251 -0.008261265 0.052918214
0.063443236 -0.043699015 0.086142085 0.09517322 0.043011777 0.13901797 0.015809966 -0.1051526
-0.02018005 -0.049670186 -0.024771232 -0.004357225 -0.018260684 0.007068828 -0.025971532 0.06709515
-0.022074874 0.037451956 0.034642022 -0.068509966 -0.016171414 -0.010427019 -0.051725835 -0.09902695
-0.08436416 -0.0781486 -0.1863799 -0.023219708 -0.20143445 -0.43605107 0.11175181 0.087709464
-0.11671064 0.15447368 0.021060163 -0.14894278 0.056748103 -0.045558926 -0.33631244 -0.1945042
0.08433138 0.06893185 0.13764288 -0.08468962 0.07800467 0.24848506 0.1069175 -0.17065293
-0.05166251 -0.72746265 -0.0007591617 0.10943499 0.021024544 -0.025373109 -0.13420558 0.09340417
0.20934539 0.05953013 -0.047600146 -0.26098904 -0.03166612 -0.317065 0.27393916 0.40170905
0.097346455 -0.51278424 0.04524472 -0.13933627 -0.04219791 0.0066936314 -0.09707439 -0.11579472
-0.25898823 0.077901244 -0.18128511 0.010518353 0.04102409 0.17587286 0.27069214 0.125828
-0.06622134 0.06966225 -0.048501886 -0.04728605 0.0368471 -0.026550971 -0.048035413 0.022292778
0.031593632 -0.085244015 -0.096404 0.008210132 -0.0465146 -0.20919457 0.18336953 -0.067042604
0.08362524 0.0034944958 0.049181007 -0.012952202 -0.055606168 -0.038325436 -0.1013375 -0.094444565
0.10455981 -0.170004 0.1576472 -0.16719168 0.007588793 0.11216614 0.16522881 -0.035519164
0.09561734 -0.3482691 0.20065558 0.07225464 -0.046758063 -0.15458779 -0.07789939 0.047606833
-0.014994839 0.029415779 0.04302363 -0.033348884 -0.1438863 -0.21394967 0.056347776 0.13009125
0.022040848 -0.0031659405 0.0759669 0.06928397 0.12626946 -0.13011211 0.13681477 -0.011301343
-0.1607935 0.023470627 -0.035413116 -0.04966018 -0.035088852 0.0870182 0.04947667 0.19069754
-0.1464918 0.0076125506 0.10577108 0.14303973 0.06424637 0.020570222 0.06073346 0.026825799
0.055330053 -0.16274022 -0.075395465 -0.011933718 0.19064161 -0.49136826 0.50218755 0.050193537
0.06265938 -0.1706107 0.13663846 0.10262681 0.28962204 0.019846823 -0.24229799 0.06582683
0.06857414 -0.027332358 0.2241461 -0.0877008 -0.12849507 0.010973774 0.6007573 0.07274317
-0.011831909 -0.20574664 0.17454588 0.22957811 0.05020864 0.21060419 -0.39817113 0.05400435
0.104237705 0.080379 -0.089328796 -0.07034963 0.013452642 -0.10725116 0.023450634 0.36615974
0.27456796 0.21559311 0.03522818 0.00726003 0.22395998 0.06924943 -0.33235464 0.03666383
0.2113046 0.021226654 -0.11381388 0.18057069 0.23389363 0.0049443375 -0.053672303 0.12644552
-0.084074974 0.024097344 -0.010575939 -0.035803217 -0.22689597 0.05124885 0.14926185 -0.19425696
00000000: 2d03 02be 72c2 3dbd 9f86 83bd 8d06 66bd
00000010: e4a0 8ebd 13ff acbd b56d 5e3c 8e31 f2bc
00000020: e69f 283d 8f4a ca3d c216 79bc 504c ff3c
00000030: 10f6 cf3d 305e cd3c 319b f7bd 7d4a 09bd
00000040: b721 fc3c 7e0a c33d c138 763d 16c3 74bd
00000050: 5573 98bd f145 143e b3b8 243e b386 acbd
00000060: 5e31 0a3e 16e0 98ba ef81 27bd ea08 e23d
00000070: 08a2 9c3b 38c4 b93c d4b4 d9bd 7e65 053d
00000080: 604d aa3d f009 413d 1d70 443d 692f 19be
00000090: e73f 9fbd 4112 963c 425a 07bc c5c0 583d
000000a0: 87ee 813d bdfd 32bd 436b b03d 2dea c23d
000000b0: 1e2d 303d ba5a 0e3e e783 813c 3f5a d7bd
000000c0: a250 a5bc f772 4bbd 0aed cabc 0dc7 8ebb
000000d0: 6e97 95bc a1a1 e73b 40c2 d4bc 2f69 893d
000000e0: 5ed6 b4bc 3967 193d cbe4 0d3d f44e 8cbd
000000f0: ea79 84bc 16d6 2abc 78de 53bd a4ce cabd
00000100: 1ec7 acbd 600c a0bd 5fda 3ebe 4237 bebc
00000110: d544 4ebe 1642 dfbe 22de e43d 05a1 b33d
00000120: fd05 efbd 592e 1e3e 5d86 ac3c 7584 18be
00000130: b370 683d ff9b 3abd 2531 acbe 1c2c 47be
00000140: eeb5 ac3d 242c 8d3d 41f2 0c3e c071 adbd
00000150: eac0 9f3d de72 7e3e 90f7 da3d a4bf 2ebe
00000160: 119c 53bd fe3a 3abf 7b02 47ba 741f e03d
00000170: aa3b ac3c 44db cfbc 306d 09be af4a bf3d
00000180: a35e 563e ded5 733d 5ff8 42bd 5ba0 85be
00000190: 55b4 01bd 5856 a2be c141 8c3e cfac cd3e
000001a0: 945d c73d d445 03bf 8752 393d 2bae 0ebe
000001b0: b7d7 2cbd 4056 db3b f0ce c6bd c825 edbd
000001c0: 1b9a 84be b08a 9f3d cea2 39be 2c55 2c3c
000001d0: e008 283d 0418 343e 2998 8a3e 0ed9 003e
000001e0: 0e9f 87bd 15ab 8e3d eaa9 46bd 04af 41bd
000001f0: fcec 163d 6c81 d9bc c8c0 44bd 589f b63c
00000200: 5368 013d 6a94 aebd 766f c5bd ca83 063c
00000210: 1886 3ebd 1a37 56be 39c5 3b3e a24d 89bd
00000220: b643 ab3d e903 653b 0672 493d 7935 54bc
00000230: 4bc3 63bd 22fb 1cbd 098a cfbd 276c c1bd
00000240: 7423 d63d 8715 2ebe 456e 213e 4c34 2bbe
00000250: 69ab f83b 5cb7 e53d be31 293e 8b7c 11bd
00000260: 06d3 c33d 5450 b2be a878 4d3e 3efa 933d
00000270: 6285 3fbd 434c 1ebe b789 9fbd 62ff 423d
00000280: eaac 75bc 5cf9 f03c 8c39 303d d798 08bd
00000290: ee56 13be 9f15 5bbe edcc 663d a436 053e
000002a0: 028f b43c ab7b 4fbb 8994 9b3d c1e4 8d3d
000002b0: c84c 013e 1c3c 05be 2c19 0c3e 4529 39bc
000002c0: 0da7 24be 7945 c03c 580d 11bd 7968 4bbd
000002d0: 54b9 0fbd 9936 b23d 0ca8 4a3d 3746 433e
000002e0: f201 16be b472 f93b 829e d83d 0279 123e
000002f0: 9a93 833d e282 a83c a6c3 783d c7c1 db3c
00000300: c4a1 623d 5fa5 26be f068 9abd a485 43bc
00000310: 8e37 433e 9f94 fbbe 5d8f 003f bd97 4d3d
00000320: 9053 803d 92b4 2ebe f4ea 0b3e 012e d23d
00000330: 5749 943e ce95 a23c f71c 78be 38d0 863d
00000340: 9970 8c3d 1ce8 dfbc 8e86 653e 7a9c b3bd
00000350: 3694 03be 58cb 333c 3bcb 193f 5ffa 943d
00000360: a0da 41bc 3faf 52be 28bc 323e 8616 6b3e
00000370: 93a7 4d3d a0a8 573e 16dd cbbe aa33 5d3d
00000380: 947a d53d bf9d a43d 04f2 b6bd 7813 90bd
00000390: 7868 5c3c 7fa6 dbbd 8b1b c03c 4a79 bb3e
000003a0: 2c94 8c3e 71c4 5c3e 6d4b 103d 8ce5 ed3b
000003b0: c455 653e a5d2 8d3d 632a aabe d02c 163d
000003c0: 3c60 583e 85e3 ad3c 4017 e9bd 86e7 383e
000003d0: d081 6f3e 1c04 a23b 7dd7 5bbd ef7a 013e
000003e0: 802f acbd cb67 c53c b446 2dbc 65a6 12bd
000003f0: 6b57 68be 50ea 513d 19d8 183e 4ceb 46be
