Result/GCN/5000_sample/model_epoch_25_f1_0.7027.pth (torch, 841514 bytes, 42 tensors)

graph_matcher.gnn.conv1.bias f4 [64]
000000 b5 cd 41 3d 5f 1d 8f bd d2 09 e5 bd a3 66 59 bc
       0.04731532 -0.06988024 -0.11183514 -0.013269099
000010 99 48 5c 3b 3c 2e 00 3e 9d a1 5c bd 79 0b f9 3d
       0.0033612608 0.12517637 -0.053865064 0.12160391
000020 8d ca d2 3c 35 e6 8e bd 38 49 17 bc 68 90 26 3c
       0.02573135 -0.06977502 -0.009233765 0.010166265
000030 71 15 bf 3d 4d ce b9 3d 57 1b 44 3d 2b 03 ba bd
       0.093302615 0.09072552 0.047877636 -0.090826355
000040 c7 8f c5 3d 1d 3b 7f 3d 00 00 00 00 d5 66 2f 3d
       0.09646564 0.062312234 0.0 0.042822678
000050 bd 77 34 3c 96 88 94 3d ae 82 29 be 46 0f 1b be
       0.011014876 0.07252614 -0.16553757 -0.15142545
000060 d5 5c 68 3d f6 87 8f 3b 60 1f 09 bc 21 82 4b 3d
       0.056729157 0.0043802215 -0.008369297 0.049684647
000070 8b 98 44 3d c1 11 f4 3d e6 ff 1e be ed 62 94 3d
       0.04799704 0.11917449 -0.15527305 0.07245431
000080 d5 63 59 bd 4c d5 5d be 3a ba 21 3d 58 8d 84 3e
       -0.053073723 -0.21663398 0.03948424 0.25889087
000090 0d 86 a6 3c 59 e7 e7 bd 68 fb 66 be a3 81 25 3c
       0.020327592 -0.11323423 -0.22556841 0.010101709
0000a0 e3 fe b7 bd 75 0c 33 3e f7 2a 17 3d 3e 5f 49 3e
       -0.08984163 0.1748522 0.03690621 0.19665238
0000b0 9d 75 65 3d 9a 60 b5 bd c0 dc 2d bd 28 02 bb bc
       0.056020368 -0.08856316 -0.04244685 -0.022828177
0000c0 03 5f 75 bd 33 6c 9d 3d 9b 84 50 bd 42 a4 3c 3d
       -0.059905063 0.07686653 -0.050907712 0.046055086
0000d0 48 5a f7 3d 52 b0 b5 bb dd 4f 04 be 1d 44 94 3d
       0.12077767 -0.0055447007 -0.1292109 0.07239554
0000e0 d0 aa 25 bd ff 92 b8 3d 24 b8 18 3d eb 61 00 bd
       -0.040446103 0.09012412 0.037284985 -0.03134338
0000f0 f4 b7 10 3d f2 a3 85 3e e9 e1 ac bb f7 3e f8 3b
       0.03533168 0.26101643 -0.005275954 0.0075758654

graph_matcher.gnn.conv1.lin.weight f4 [64, 4]
000000 18 82 ea 3d 3b 41 3a bf 87 78 26 bf b1 2b a0 3e
       0.11450595 -0.72755784 -0.6502766 0.31283334
000010 f0 94 51 be 8e ef ef bd 79 5b 35 3d ba 8c 0b be
       -0.20466971 -0.11715613 0.04427669 -0.13627902
000020 f5 b5 79 3f ab 93 9a bf ce e4 82 bf 4f 5c f8 bd
       0.9754327 -1.2076315 -1.0226076 -0.121269815
000030 d0 eb 21 bf 0b cd c5 3e f6 b6 bb be 6a 46 88 3e
       -0.63250446 0.38632998 -0.36663026 0.26616222
000040 ff a2 ad 3e 52 4b 08 3d b6 12 64 3f a7 99 49 be
       0.3391342 0.033274956 0.8909105 -0.1968752
000050 0b 45 cb bc 65 74 5b 3f ac 17 90 bf 94 05 ae be
       -0.024813196 0.8572448 -1.1257224 -0.3398863
000060 70 c7 d9 3e 53 24 04 3e 21 95 53 3f 29 31 ad be
       0.4253497 0.12904482 0.8264943 -0.3382657
000070 06 40 b8 bd 14 d5 1d 3e af 96 57 3f ec 33 03 bf
       -0.089965865 0.15413314 0.842143 -0.512511
000080 86 a2 64 3e e1 d6 3b 3e 7c 41 64 3f 29 73 95 be
       0.22327623 0.18343689 0.8916242 -0.29189423
000090 df 4e 1a be 12 bb 8b 3a 32 c4 ee bd ee f2 4e 3c
       -0.1506915 0.001066061 -0.11658515 0.012631161
0000a0 d7 a8 0e bc df cf 87 bf db 50 8a 3f e7 65 36 be
       -0.008707247 -1.0610312 1.0805925 -0.1781231
0000b0 47 71 c4 3e 0a d8 2f be ea fa 83 3f df 98 e8 bd
       0.38367674 -0.17172256 1.0310948 -0.11357283
0000c0 47 12 be 3d ad db 61 3d 66 0f 83 3f f8 ee 97 be
       0.0928083 0.05514114 1.0239074 -0.29674506
0000d0 9b b2 92 bd 33 cb ba 3e 47 6a 83 3f 7f 30 ac be
       -0.071629725 0.36483154 1.0266808 -0.3363075
0000e0 f2 1a 8a 3e de 60 00 3c c6 e0 6f 3f 1d d2 2b be
       0.26973683 0.007835595 0.9370235 -0.1677937
0000f0 1e 7a de bd 89 a8 57 bd aa 99 53 bd ba cd fa bb
       -0.10863136 -0.052650962 -0.051660217 -0.007653919
000100 73 ec 35 3e 64 2a 50 3e 02 28 66 3f c5 2a a4 be
       0.1776598 0.2032867 0.899048 -0.3206388
000110 89 59 d5 3d 70 58 19 bd 87 e5 45 3f ac 78 3c be
       0.10417468 -0.037437856 0.77303356 -0.18405408
000120 ce fd be bd ce 84 97 bd e8 f5 23 bd ba 0a 71 be
       -0.09325753 -0.07398377 -0.040029436 -0.23539248
000130 59 2c 69 3f f1 66 b9 bf 43 a8 96 bf 8c 75 c4 3d
       0.91083294 -1.448454 -1.1770099 0.09592733
000140 70 32 3f 3d cc 00 fa 3e cb 55 54 3f fe b8 43 be
       0.04667896 0.48828733 0.8294341 -0.19113538
000150 13 54 3f bf 8d 04 c3 3d cf 08 aa be d3 e2 51 3e
       -0.7473766 0.09522352 -0.33209845 0.20496683
000160 7e 89 d8 bd c8 8e b4 3c 24 32 47 bc 0c fb de 3c
       -0.105730996 0.02204074 -0.012157951 0.027219318
000170 78 45 aa be 8b 78 0d 3e 4a 36 a6 be 54 5c ca 3d
       -0.33256125 0.13815515 -0.32463294 0.098808914
000180 c1 2b 3b bf 2a 84 0d 3f d9 af 6c be b5 f6 6c 3e
       -0.7311364 0.5527979 -0.23113956 0.23140986
000190 5e d1 62 bf 4f 59 2a 3f 95 a9 9c 3e fc 6d c6 bc
       -0.8860072 0.66542524 0.3059813 -0.024222367
0001a0 d7 5d 96 bf 68 23 24 3f f2 01 7d 3f 58 a5 89 bf
       -1.1747388 0.64116526 0.98831093 -1.0753584
0001b0 52 12 71 3d cf a6 cf 3e 0e 4a 80 3f 86 0b a0 be
       0.058855362 0.40556952 1.00226 -0.31258792
0001c0 13 d0 21 bf 07 d9 de be a2 e2 b2 be 4d 75 a3 3e
       -0.6320812 -0.43524954 -0.34938532 0.3192543
0001d0 c0 c5 65 3e b3 8e ef 3e 49 97 81 3f f4 2d 6a be
       0.22438717 0.46788558 1.0124294 -0.22869092
0001e0 80 d6 d8 bd e2 11 b4 3c cf ed ae be 8f c1 cf 3d
       -0.10587788 0.021981183 -0.3416581 0.1014434
0001f0 fe 1b 86 3d 7c 27 72 3f 26 b8 8e bf dd bf 4f bf
       0.06548308 0.945915 -1.1149948 -0.81152135
000200 8e 67 09 bf a0 01 13 be 38 7b 04 bf b9 ba 6e 3e
       -0.53673637 -0.14356089 -0.51750517 0.23313417
000210 18 6f 4e be e0 9c 84 3e f9 e6 a7 bd ce 48 6e 3d
       -0.20159566 0.25900936 -0.081983514 0.0581749
000220 30 90 75 3e 25 75 45 3c 2b 7f 86 3f 35 cf 68 be
       0.23980784 0.012051855 1.0507559 -0.22735293
000230 57 56 cd bf e0 5a 56 3f a3 28 65 3f c1 08 3e bf
       -1.6041974 0.83732414 0.8951513 -0.7423211
000240 56 2d 8a be 5f 81 df be bc d3 ad be a7 80 b9 3e
       -0.26987714 -0.4365339 -0.33950603 0.36230966
000250 e9 1f 93 be d7 86 99 bb ed 58 49 be fc b2 a0 3d
       -0.28735283 -0.0046852636 -0.19662829 0.078466386
000260 2e 5f c0 be e5 5c c3 3d bb 51 30 be 8f 91 54 3d
       -0.37572616 0.095392026 -0.17218678 0.051896628
000270 d5 af aa 3d 2c 7b 2d bf 8e 4f 88 3f 96 58 c9 bd
       0.083343185 -0.6776607 1.0649278 -0.098313496
000280 9d b6 81 be 6e 12 13 3d 7b 6c 86 be c9 ef 4e be
       -0.25334635 0.035906248 -0.2625464 -0.20208658
000290 94 42 32 3e b4 26 c4 3e e3 34 7b 3f b5 97 9a be
       0.1740821 0.38310778 0.98127574 -0.30193868
0002a0 68 0a 01 3f bc 0e de bd 7e f1 6d 3f 44 88 f7 bd
       0.50406504 -0.10842654 0.9294661 -0.120865375
0002b0 48 91 dd 3d 14 e7 49 be f0 61 6a 3f 90 20 41 be
       0.10818726 -0.19717056 0.9155569 -0.18860078
0002c0 ce 9f 41 3e 94 78 11 3f a3 80 59 3f 7a ea 46 bf
       0.18908617 0.5682461 0.8496191 -0.7770153
0002d0 ec 67 27 3f 59 50 e8 3d e1 07 32 3f 5a af be bd
       0.6539295 0.1134345 0.6954327 -0.093107894
0002e0 2e 3d d6 3e 36 a9 62 3d f4 f3 78 3f 1c dd 18 be
       0.4184355 0.055337153 0.9724724 -0.14928097
0002f0 1c 89 23 bf 60 c6 a1 3c 7e ea 02 bf e0 8a 93 3e
       -0.6388109 0.019747913 -0.51139057 0.2881689
000300 50 ba 7d be 20 a4 91 be 54 39 54 bd 11 86 41 bd
       -0.24778104 -0.2844553 -0.051812485 -0.047246996
000310 f6 81 bf be 15 75 14 bf db 15 c5 be 97 2f 97 3e
       -0.3740384 -0.57991153 -0.38493237 0.29528496
000320 65 08 a6 3e 0c f4 3b 3d a8 f3 53 3f a7 e2 38 be
       0.3242828 0.045887038 0.82793665 -0.18055211
000330 0f 6d 0f bf da 91 5a 3e c9 42 d3 be a3 57 15 3e
       -0.56025785 0.213447 -0.4126189 0.14584212
000340 47 8a 87 3e 1a ca d8 bc 04 44 58 3f de 69 7d be
       0.26472685 -0.026463557 0.84478784 -0.24747416
000350 35 6f d0 3e 94 58 bd 3d 50 e5 63 3f 58 40 d5 be
       0.40709844 0.092454106 0.8902178 -0.41650653
000360 52 5b df 3c ce ac 36 bd 1c d3 c5 bd 88 07 47 bd
       0.027265225 -0.044598393 -0.096594065 -0.048591167
000370 d7 be 64 bd d5 64 16 3e 09 99 7d 3f 7e c6 c1 be
       -0.05584606 0.14686902 0.9906164 -0.3784675
000380 2a 56 c9 be 95 ae 0a bf ac eb c8 be f8 c3 b0 3e
       -0.3932355 -0.5417264 -0.39242303 0.34524512
000390 88 fc ae 3d 87 1a a5 3e 2a c2 69 3f df 3b 38 be
       0.0854426 0.322468 0.91311896 -0.17991589
0003a0 b3 fa bc 3d b2 ae e1 3e f6 c8 55 3f 99 69 55 be
       0.092275046 0.44078594 0.8350977 -0.20841064
0003b0 95 40 01 3f 97 69 42 bc 0c bd 60 3f 65 a2 33 be
       0.5048917 -0.011865995 0.8778846 -0.17542417
0003c0 9f aa 3c bf d5 85 cb 3e 94 db b0 be b5 dd 37 3e
       -0.7369785 0.39750543 -0.34542525 0.17955668
0003d0 ca 1b cb bf ef ed 51 3f 6e d0 42 3f 5e 3a 02 bf
       -1.5867856 0.8200368 0.7609929 -0.5087031
0003e0 88 c9 3e 3f a5 1d 8f bc 03 21 29 3f d1 66 c8 bc
       0.7452626 -0.01747019 0.66065997 -0.02446309
0003f0 77 0b 75 bf b5 fb ec 3e 3a af 55 3f 0c 01 52 be
       -0.9572062 0.46285787 0.834705 -0.20508212

graph_matcher.gnn.conv2.bias f4 [128]
000000 35 d2 c1 3d 0e 9f 0b be 5e d1 7e be 0d ae 9c bd
       0.09463922 -0.13634893 -0.24884555 -0.07650385
000010 70 f5 c7 bd 8d 35 c6 bd 59 2e 9b bd 1d 52 fe bd
       -0.0976361 -0.09678183 -0.075771995 -0.124180056
000020 bc 5d 5e be 33 6e 91 bd 4a 6b a9 bd 9a 02 98 bd
       -0.21715444 -0.07101097 -0.08272417 -0.07422371
000030 80 db 9c bd 0a e2 33 bd aa 2a 82 bd b2 22 5c bd
       -0.07659054 -0.04391674 -0.06355794 -0.053744026
000040 1c 08 c5 bd eb 85 00 be 6e a0 bd 3d 95 1a a4 be
       -0.09620687 -0.12551086 0.09259115 -0.3205153
000050 b2 86 15 bd 96 e1 95 bd d5 4c a5 bd 17 dd 02 be
       -0.03650541 -0.07318418 -0.08071295 -0.12779652
000060 88 cb a4 bd 21 8a 84 bd 67 e3 1d be c7 84 b7 bd
       -0.08046633 -0.064716585 -0.15418778 -0.08960872
000070 b3 7a f1 bd 9a 68 16 be a0 38 c8 bd 06 2d ce 3d
       -0.11790981 -0.1468834 -0.09776425 0.10067181
000080 ba 33 80 be 80 9f 6c bd 60 9b 82 bd ab 05 a6 bd
       -0.25039464 -0.0577693 -0.06377292 -0.0810655
000090 27 21 c6 bd 1e 62 91 bd 62 d6 4d be c6 1b 57 bd
       -0.09674292 -0.070987925 -0.20101312 -0.05251672
0000a0 1a d2 18 be 59 87 47 bd 49 47 de bd 24 22 3e be
       -0.14923897 -0.048713062 -0.1085344 -0.18567711
0000b0 60 11 1f be c9 92 ea bd 22 f8 e9 3b 48 a4 e5 bd
       -0.15533972 -0.11453778 0.0071401754 -0.11212975
0000c0 08 43 b2 bd 07 29 b1 3d 77 94 0b be 35 71 92 bd
       -0.087041914 0.086504035 -0.13630854 -0.07150499
0000d0 57 17 0c be 5f e8 a7 bd 9a 25 60 3d 28 77 4c be
       -0.13680778 -0.08198618 0.05472336 -0.1996733
0000e0 4c 6d be bd f7 51 e9 bd 80 17 85 3d 5a f7 b7 bd
       -0.092981905 -0.11392587 0.06498623 -0.089827254
0000f0 8d f5 1f bd a3 cb 82 bd ce 77 a3 bd e5 04 38 3d
       -0.039052535 -0.06386497 -0.07981835 0.044926543
000100 48 17 f3 bc 82 04 d0 bd 7a 64 92 3d 8a ae d8 bd
       -0.029674187 -0.1015711 0.07148071 -0.10580166
000110 a7 ae 80 be 63 6d cd bd 84 9c 3c be db 65 b9 bd
       -0.2513325 -0.100306295 -0.18419081 -0.090526305
000120 8d b6 b0 bd 59 40 d8 bd 95 e3 b1 bd bf 88 32 be
       -0.08628569 -0.10559148 -0.08685986 -0.17434977
000130 af e2 b1 bd 58 a0 a6 bd c2 3d d9 3d 3e 09 27 be
       -0.086858146 -0.08136052 0.106074825 -0.1631212
000140 53 c9 eb bd 32 0e a1 bd f8 4f ca 3d 0b d3 86 bd
       -0.11513009 -0.07864036 0.09878534 -0.06583222
000150 90 35 c0 bd 3c e9 e0 bd 49 47 13 be 1b 4d 2e 3e
       -0.09385216 -0.10981986 -0.14382662 0.17021601
000160 28 24 a1 bd d6 98 be 3d 2a bf 57 bd 3b 6d 60 bd
       -0.078682244 0.09306495 -0.052672543 -0.05479167
000170 7a 6d 92 bd 20 25 ed bd 23 bf e8 bd f4 ce 82 bb
       -0.07149787 -0.11579347 -0.113645814 -0.003991956
000180 32 39 6f bd 46 4e 95 3d ae d9 9f 3d 4f 42 60 be
       -0.058404155 0.0729032 0.07805191 -0.21900295
000190 a7 4b c0 bd c6 d9 54 3d 02 63 71 3d 52 6f b0 bd
       -0.093894295 0.051965497 0.05893231 -0.08614983
0001a0 01 ff 7d 3d e2 57 b2 bd 42 75 26 be 76 f4 a4 bd
       0.06201077 -0.087081686 -0.16255668 -0.0805444
0001b0 ab 53 ae bd 92 93 d6 bd c1 05 0e be da 01 48 3e
       -0.08512052 -0.104773656 -0.13869382 0.19531956
0001c0 8a a9 9c bb 0c 3d 28 3e 91 a5 77 3d e6 57 ea bd
       -0.004780953 0.16429538 0.06046063 -0.114425465
0001d0 2d ae 02 be 29 0f 1c 3e 1e 1e 34 be 56 7f 8b 3d
       -0.12761755 0.15240158 -0.17589614 0.06811397
0001e0 54 e2 78 be 01 40 86 bd ed 5a b9 bd 99 12 33 be
       -0.24305087 -0.065551765 -0.09050546 -0.17487563
0001f0 0d e2 8c bd 0b dd 68 3d de 4e 61 bd ed 5e 2a 3e
       -0.06879053 0.056851428 -0.055006854 0.16637774

graph_matcher.gnn.conv2.lin.weight f4 [128, 64]
000000 e1 77 45 3d 7e 36 81 3d 10 6e 22 3d 1f b5 69 be
       0.04821003 0.06309222 0.039655745 -0.22822998
000010 f8 c1 e1 3e b8 aa f4 be bb f2 9b 3e 59 85 b6 3e
       0.440933 -0.47786498 0.30458626 0.3564861
000020 26 97 e7 3e c7 59 cd bc 8e 60 13 3f 81 3c 9e 3e
       0.45232505 -0.025067223 0.57569206 0.30905536
000030 88 92 dc 3e da 4a 9a 3e 51 7e 44 3e 8e c9 4d bd
       0.43080544 0.30135232 0.19188811 -0.050241046
000040 94 64 f8 3e 39 2b 01 3f 08 8e e3 3c 54 36 19 be
       0.48514235 0.5045658 0.027777687 -0.14962131
000050 ab 40 1a 3e 37 03 83 bd 16 2c 3b 3d 15 ff 61 be
       0.15063731 -0.063970976 0.04569634 -0.22069962
000060 5e e0 8b be 66 dc 7c be 31 a5 e8 be 71 94 46 3e
       -0.27319616 -0.2469345 -0.4543853 0.19392563
000070 8a fb 63 3d f7 12 2e 3d ad 32 01 3d 07 e9 79 be
       0.05565981 0.042498555 0.03154247 -0.24405299
000080 d9 b0 34 be 2c 72 42 bd 7e 8f e8 3e 85 e5 8a be
       -0.17645587 -0.047472164 0.45421976 -0.27128235
000090 be f2 06 be 95 f9 13 be be 97 78 be ee 6a 06 3f
       -0.13178536 -0.14450677 -0.24276635 0.5250691
0000a0 54 c1 ff bb 5b 78 e1 3e 33 fb ce 3e b1 3e 9a 3e
       -0.007805029 0.44037136 0.40426025 0.30125955
0000b0 8b ce 0d be cd e5 e6 3c 28 e6 a7 3e ae 7d 18 bd
       -0.13848321 0.02818575 0.32792783 -0.037229232
0000c0 de 2e bb bd 5d 72 78 bd 87 35 c7 3e 2f 81 e3 bd
       -0.091397986 -0.06065594 0.38908026 -0.11108624
0000d0 3a 89 7b 3e 7b e9 81 3e c0 ac e4 3b cc 66 6e 3e
       0.24564067 0.25373444 0.006978601 0.23281401
0000e0 2d e6 a5 bd 95 c2 27 3e e9 b8 55 3e 94 de db 3e
       -0.08100543 0.16382821 0.20871319 0.4294325
0000f0 e9 b6 78 be 62 b0 b5 be 81 f0 67 3e 0a 7e 51 be
       -0.24288525 -0.35486132 0.22650339 -0.20458236
000100 21 a4 05 be 17 39 69 3d 30 90 07 be 67 54 92 bc
       -0.13050891 0.05693921 -0.13238597 -0.017862512
000110 c9 ec 46 be 2b 19 1c 3e dd c6 96 be 2f da b5 3e
       -0.19426264 0.15243976 -0.29448596 0.35518023
000120 9f 6d b9 be 02 05 57 bb a3 fc 2d be 9f b2 63 be
       -0.36216447 -0.0032809381 -0.16990905 -0.22236107
000130 98 2f 97 be 3d c5 97 be b0 c5 ca be 7d 92 8a bd
       -0.295285 -0.29642668 -0.3960395 -0.06766222
000140 3b 38 e7 be da 00 e9 be 00 79 23 bb 87 3e f6 3d
       -0.45160088 -0.45508462 -0.0024943948 0.12023645
000150 e2 12 c8 be 7f f9 17 bd 6e f8 a6 3c 27 51 bd 3d
       -0.39076906 -0.037103172 0.020382132 0.09243994
000160 54 ef c0 be d4 fb 86 be 80 b7 4c be 07 ba 02 bf
       -0.37682593 -0.26364005 -0.19991875 -0.51065105
000170 88 c3 3b be ba c1 77 be 4d 16 ec bd 46 31 b9 3e
       -0.18336308 -0.24194995 -0.11527691 0.36170405
000180 08 c2 29 3d a5 47 0b bd 5d 4e 20 be a4 52 da bc
       0.04144481 -0.034003872 -0.15654893 -0.026650734
000190 34 4d b5 3d 97 77 96 bd dc ef d1 3c 1a 9f c7 bd
       0.08852616 -0.07347029 0.02562707 -0.09747143
0001a0 d0 61 38 be 1d aa 33 be 87 37 d8 be 47 e5 9e be
       -0.18006063 -0.17545362 -0.42229864 -0.310343
0001b0 ac ca 4b 3e 75 e9 66 be 1e 56 bb be 0c db 81 bd
       0.19901532 -0.22549994 -0.3658914 -0.06340608
0001c0 55 22 03 3e c8 dd f2 3d 0c b8 05 be c4 47 da be
       0.12806065 0.11858708 -0.1305849 -0.42632878
0001d0 03 7e e1 be ed 44 2e bf 61 8d 16 bd d8 e8 e8 bd
       -0.44041452 -0.6807392 -0.036755923 -0.113725364
0001e0 be 30 29 be ad d0 59 be e0 4e d9 be 14 6a dd be
       -0.165225 -0.2127101 -0.4244299 -0.43244994
0001f0 a1 f5 a6 be 2c e9 e9 3e d7 3a 62 be af 9f b6 bd
       -0.32609275 0.4568571 -0.22092758 -0.08917176
000200 03 33 f1 bd 89 3f 02 3e 90 37 08 be 0c 2e 83 bd
       -0.11777308 0.12719549 -0.13302445 -0.06405267
000210 23 dc 3d 3d d6 38 ed bd a7 88 76 bb 60 8f 41 bd
       0.046352517 -0.11583106 -0.0037618072 -0.047255874
000220 cc 2d b6 3c 7c de c8 bd 81 b7 ea 3d 1d 16 91 bd
       0.022238635 -0.098080605 0.11460782 -0.07084296
000230 e5 29 14 bd 82 8d da bc e3 19 74 3d b0 9b b5 3d
       -0.036172766 -0.026678804 0.059595 0.08867586
000240 b9 38 da 3b a0 19 50 bd 9e 9d 0a be ab 5b 7e be
       0.006659594 -0.050805688 -0.13536689 -0.24839656
000250 7b f3 bc bb 57 c3 9f bd d9 17 cf bb 6b 96 50 be
       -0.00576633 -0.0780093 -0.0063199815 -0.2036988
000260 2f 99 28 be 1b e8 1a be 8c 55 d7 bd 9d 4f 21 be
       -0.16464685 -0.15127604 -0.10514364 -0.15753026
000270 e4 ae 18 be b9 35 0b be 36 28 3f bd 0c 7e 49 3c
       -0.14910465 -0.13594712 -0.046669208 0.012298118
000280 50 a2 17 bd 6e b4 0e be 50 a9 9c bd d5 41 c6 3d
       -0.037020028 -0.13936016 -0.07649481 0.09680525
000290 7a 1f c0 bd 40 b6 fb bd 33 e7 d9 bb 4a e3 34 3e
       -0.09381004 -0.12290621 -0.0066498755 0.17664829
0002a0 5b 11 ac 3d 8e 57 ec bc 97 27 df bb ec 6d 9f bd
       0.08401748 -0.028850343 -0.0068101394 -0.07784638
0002b0 4c 69 c7 bd 48 c8 54 be 82 60 49 be b4 7f da bd
       -0.09736881 -0.20779526 -0.19665721 -0.10668889
0002c0 73 63 1a 3e c7 9f cf bd dc e2 5c be c3 92 47 be
       0.15077 -0.10137897 -0.21570915 -0.19489579
0002d0 d1 7a f1 3d 53 8a db bc 0a 25 db 3d fd 19 b5 bc
       0.117910035 -0.026799357 0.10700424 -0.022107119
0002e0 4f b1 1f be f8 e8 ff bd 8f cf 51 3c 4e ab 60 be
       -0.15594982 -0.12495607 0.0128058335 -0.21940348
0002f0 35 57 55 be 50 cd 29 3c 8a a4 dd bc 2a 23 67 be
       -0.20834048 0.010363892 -0.027055997 -0.22572008
000300 6a de 85 3d 80 70 14 bd 51 98 ff bd 54 64 d1 bd
       0.06536563 -0.0362401 -0.12480224 -0.10224214
000310 ce ec 84 bd ac 74 f3 3b 55 05 2d 3d c3 14 b7 3d
       -0.064904794 0.00742968 0.042241413 0.08939507
000320 ba 81 2a be 8a 9f 55 3d 2b ab c6 3b b9 78 aa 3c
       -0.1665105 0.0521541 0.0060628853 0.020809518
000330 4b 34 81 be a9 6e 8b be 82 e5 95 be 22 59 0c 3e
       -0.2523521 -0.27232864 -0.29276663 0.13705876
000340 f9 8d d8 bd e9 e5 b1 3d c0 28 42 3b 81 1b 8e bd
       -0.10573954 0.0868643 0.002962634 -0.0693884
000350 55 91 9a bd 6b 41 f8 bd 49 fb 9c be a5 f9 fe bc
       -0.07547251 -0.121218525 -0.30660465 -0.0311249
000360 53 b1 47 bd 1a fc 78 be 7c a4 1c 3d 74 34 30 be
       -0.048753094 -0.24314919 0.038242802 -0.1720751
000370 36 3c a5 bb 1f 7f cf bd 37 35 41 be c4 d2 95 bb
       -0.005042578 -0.10131668 -0.18867956 -0.0045722444
000380 9e 41 f4 bd 66 46 8f be 19 34 97 bd 2a 0b c8 3d
       -0.11926578 -0.27983397 -0.07382984 0.097677544
000390 70 01 9c be 82 4c b6 3d 1f 43 83 3d 9b 87 23 be
       -0.30469847 0.089013115 0.06409287 -0.15969698
0003a0 e0 b8 7a 3d 3c 32 a7 3c e3 5d b0 3c e9 9d 6c 3c
       0.061211467 0.020409696 0.021529144 0.014441946
0003b0 d0 ca 7f be 6e 0c dc 3d f0 d9 14 be b3 e7 86 bd
       -0.2497971 0.10744558 -0.14536262 -0.06587162
0003c0 fa 1d 1f be de fa 65 be 70 e2 d5 3d 98 41 c7 bd
       -0.15538779 -0.2245898 0.1044358 -0.09729308
0003d0 db 2c 0d bd 8c 91 a9 bd 16 af c8 bd 07 d9 03 3d
       -0.034466606 -0.08279714 -0.0979902 0.032189395
0003e0 88 2a 9b be a7 96 82 be 4d 20 77 be 2b 60 0c 3c
       -0.30305886 -0.25505564 -0.24133416 0.00856785
0003f0 5f b6 bb 3d 80 93 22 bb a9 95 1b be 19 52 94 bd
       0.09165644 -0.0024807155 -0.1519381 -0.072422214

graph_matcher.mlp.0.weight f4 [128, 256]
000000 44 10 a0 bc b8 c3 7c bd b0 33 7e bc 50 42 18 3d
       -0.019539006 -0.06171009 -0.015515253 0.037172616
000010 5f 71 da bb 3c 89 bb bd 3a 66 f9 bd b8 2e 97 bd
       -0.006666347 -0.09157035 -0.12177701 -0.07381958
000020 94 5c fe 3b fd 39 c1 bd 8a 87 ed bd 59 0d 82 bd
       0.007762501 -0.094348885 -0.11598118 -0.06350202
000030 f1 da b2 bd 4c d4 29 bd a6 f5 cd bd b4 f5 e9 bd
       -0.08733166 -0.041462228 -0.10056619 -0.11423817
000040 33 61 78 bd e0 84 a3 bc f5 1b 28 3c c5 c6 bd bd
       -0.06063957 -0.01996082 0.010260572 -0.09266428
000050 14 56 9d bc c4 9d 1e bc 2d b8 be bd 77 7b 91 bd
       -0.019206084 -0.009681169 -0.093124725 -0.07103627
000060 c1 61 09 bb 05 a7 53 bd 29 c1 e4 bd 46 d6 af bc
       -0.0020962807 -0.051672954 -0.11169655 -0.021464478
000070 ed 0c de bd 53 2a 94 bd a2 cd 48 bd 55 49 93 bd
       -0.10842309 -0.07234635 -0.04902423 -0.07191721
000080 c0 1a bb 3c 48 84 f1 3c 7f e1 7d bd 5f 5e d6 bd
       0.022839904 0.029482022 -0.061982628 -0.104672186
000090 d2 30 ed ba 73 f7 75 bd 88 b4 3c ba 8a b3 3d bd
       -0.0018096215 -0.06005044 -0.0007198532 -0.0463138
0000a0 ca e6 c3 bc 69 91 ca bd 9c a3 a3 bd f1 0f b5 bd
       -0.02391376 -0.09891016 -0.079901904 -0.08840931
0000b0 a6 24 d2 bd 7f da 59 bd af 10 c2 bd 6a e4 0e bd
       -0.102608964 -0.05318689 -0.094758384 -0.0348858
0000c0 8e 21 98 bd d0 4b d5 bc dc 2b 35 bd 54 6e a2 bd
       -0.07428275 -0.026037127 -0.04423128 -0.079312
0000d0 ff bf ee bd 00 bb 8c bd e0 ee 67 3d 7a c5 22 bd
       -0.11657714 -0.06871605 0.056624293 -0.03973911
0000e0 da cd 02 bd 91 8b c7 bd 00 9e 95 ba b6 51 f3 3a
       -0.031934597 -0.09743417 -0.0011414886 0.001856378
0000f0 ad a9 f8 bd fd fc 86 bc a9 92 ea bd 90 b6 03 bc
       -0.12141738 -0.016478056 -0.114537545 -0.008039132
000100 a2 f6 c5 ba 36 10 e2 bd a0 06 54 bb 1a e0 50 bd
       -0.001510341 -0.11038248 -0.0032352582 -0.05099497
000110 ab a0 e8 3b 8b 91 be bd 22 df 0a bd 7f 6c 26 bd
       0.0070992312 -0.09305104 -0.033904202 -0.040630814
000120 9a de ea bc 68 f7 12 bd 66 e2 41 bd 45 85 c1 bd
       -0.028670598 -0.035880476 -0.04733505 -0.09449247
000130 62 e2 a2 bd bc 1c cc bd 94 75 4c bd 5e 6e 0a bd
       -0.07953335 -0.09966418 -0.04991682 -0.03379666
000140 18 99 cf bc 9f 09 43 bd f9 a3 96 bd 58 c5 12 3d
       -0.025341555 -0.047616597 -0.07355494 0.035832733
000150 fc 52 9e ba 2b de b4 bd a4 a5 a1 39 e8 4c 65 3c
       -0.0012079175 -0.08831438 0.00030831725 0.013995387
000160 62 9b 61 bd 3a 1a ac bd ca 22 ae bd db 24 99 bd
       -0.055079825 -0.0840344 -0.08502729 -0.07477733
000170 c7 27 1b bd 1b 71 b5 bd 32 4d 9b 39 0b 9d cb bd
       -0.03787973 -0.08859464 0.0002962142 -0.09942063
000180 62 7f 7e bd 4e b9 80 3b e9 d9 91 bb 23 26 c3 bd
       -0.0621332 0.00392834 -0.0044510257 -0.095287584
000190 da d2 b7 bd ec b4 1c 3d 2c 52 16 3d d8 94 61 bd
       -0.089757636 0.038258478 0.03669946 -0.05507359
0001a0 aa dc 43 3d e2 d0 f2 bc 57 f4 36 bd d9 32 34 bd
       0.047817864 -0.029640619 -0.044666614 -0.043993805
0001b0 1e e2 a4 bc ae f5 1d 3d b7 9b 68 bd 4a b8 ba bd
       -0.020127352 0.038564377 -0.056789126 -0.091171816
0001c0 d4 8f d8 bc 77 35 9c bb 64 02 82 bd f9 87 98 bc
       -0.02643577 -0.0047671157 -0.06348112 -0.018619524
0001d0 4d 55 94 ba 14 7b d6 bc db 01 0f bd 9d ea 4c bd
       -0.0011316926 -0.026181735 -0.03491388 -0.050028432
0001e0 f8 70 c2 3c f4 e5 1a 3d 20 63 6b 3d 1b b4 ae bd
       0.023735508 0.037816957 0.05746758 -0.08530446
0001f0 86 50 a6 bd 20 38 2d 3d fd 92 f5 bc c0 47 6d 3b
       -0.081208274 0.042289853 -0.029977316 0.0036206096
000200 5a ee 6f bd 25 33 a0 bd be f1 4a 3d 50 98 99 3b
       -0.05857692 -0.07822255 0.04954695 0.0046873465
000210 13 f0 80 bc 99 6e 9d bd 44 48 51 bc 70 f2 ad bd
       -0.015739476 -0.076871105 -0.012773577 -0.08493507
000220 00 66 a1 bd ba 62 24 bd c1 fd 98 bc d5 6d aa bd
       -0.07880783 -0.040133215 -0.018675687 -0.0832173
000230 1d cd d3 bd 6c b2 d2 bc d0 28 31 bd 82 34 19 bd
       -0.10341857 -0.025719844 -0.043251812 -0.03740359
000240 96 6e 61 bd 34 f5 b7 bd 56 56 7c bd 3c e6 0a bc
       -0.055037104 -0.08982316 -0.061605774 -0.008477744
000250 76 95 1e bd 81 0f 94 bd c9 d8 9f bd 55 93 f0 bd
       -0.038716756 -0.0722952 -0.0780502 -0.11746851
000260 68 30 eb bd ec 37 50 bd b5 dc 8d bd c0 01 b5 bc
       -0.11483842 -0.05083458 -0.06926862 -0.022095561
000270 58 d4 c6 bd cd e4 9b bd 78 3e fb bc 74 75 f5 3c
       -0.0970847 -0.07612 -0.030669436 0.029963233
000280 b0 76 41 bc fb b7 b7 bd 65 89 dc bd a1 e9 88 bd
       -0.011808082 -0.08970638 -0.107683934 -0.06685186
000290 25 ae ad bd c4 15 5e bc b0 ca 63 bd 74 c0 4a 3d
       -0.08480481 -0.013554994 -0.05561322 0.049499944
0002a0 c9 3a 97 bd f9 72 87 bd cd 93 45 3a 58 8f 47 3d
       -0.07384259 -0.06613726 0.00075369776 0.048720688
0002b0 e5 c5 bc bd 6a cb 60 ba b0 29 d4 3c b2 34 49 bd
       -0.09217433 -0.0008575233 0.025898784 -0.04912252
0002c0 12 91 c4 bc 24 e3 d1 bd 27 ad d1 bd 48 04 34 bc
       -0.023994956 -0.10248402 -0.10238104 -0.010987349
0002d0 bb 60 64 bd f5 9b 52 ba 08 26 1f bc e6 19 20 bd
       -0.055756312 -0.00080341037 -0.009713657 -0.0390872
0002e0 15 0c 87 bd 2a a2 c8 bd b0 2e d4 bc 40 71 2a bd
       -0.06594101 -0.09796555 -0.025901169 -0.04161191
0002f0 24 d2 e7 bd 3b 71 cb bd 3e 6b 99 bd 68 07 94 bc
       -0.11319378 -0.099337064 -0.07491158 -0.018069938
000300 7f 5f b1 bd 5b c8 a9 bc 30 5e 6e 3d da 95 5b 3d
       -0.086607926 -0.02072542 0.058195293 0.053609706
000310 99 fe ae bb d6 b5 90 bd d2 8c 42 bd 1b dd 41 bd
       -0.005340409 -0.070659325 -0.047497578 -0.047330003
000320 88 01 79 bd 3a 4b c9 bd fb 7e 29 bd 7e 01 da bd
       -0.060792476 -0.098288015 -0.041380864 -0.10644816
000330 18 6e a3 bd 77 fc 9d bd 3a b3 3e bd de f5 54 bd
       -0.07979983 -0.077141695 -0.046557643 -0.05199229
000340 81 b6 a6 bd d7 6f b7 bd 8f 3d 98 bd de 96 71 3d
       -0.081402786 -0.08956879 -0.07433616 0.05898177
000350 8d 93 a0 bd 3d 42 36 bd f8 4f 2b bd b4 78 60 3d
       -0.07840643 -0.044496763 -0.04182431 0.05480261
000360 fa de 62 3d ee 8e 6d bc 5b 77 76 bc 22 11 c5 bd
       0.05538843 -0.014499409 -0.015043105 -0.096224084
000370 b2 09 89 bd 89 af 3d bd f8 07 c3 bb 19 32 54 bc
       -0.06691302 -0.04630998 -0.0059518777 -0.012951397
000380 96 97 a8 bd 7e 5a d7 bd e1 d5 02 bd 90 c9 c4 bd
       -0.08232038 -0.10515307 -0.031942252 -0.096087575
000390 a8 df c4 bd 40 6d b1 bd 60 db 20 bd 34 50 cf bd
       -0.096129715 -0.08663416 -0.039271712 -0.101227194
0003a0 a8 6d 3e 3c 2c 08 de ba 13 ca 18 bd 0f 78 aa bd
       0.011622824 -0.0016939691 -0.037302088 -0.083236806
0003b0 31 a8 ab bd d6 5d 3a 3d cd b3 b3 bb f0 92 f3 3c
       -0.08381689 0.045499645 -0.0054840804 0.029733151
0003c0 00 2a 99 ba 00 69 99 bd b5 a1 37 bd bc 8f 74 bd
       -0.0011685491 -0.0749073 -0.04483195 -0.05970739
0003d0 60 8a 84 3b e4 6b 68 bd 18 27 57 3c 34 d2 d5 3c
       0.004044816 -0.056743518 0.013131879 0.02610121
0003e0 a2 fb 5a 3d f9 7c e1 bc 88 24 c5 bc b3 b7 1b 3b
       0.053462632 -0.027525412 -0.024065271 0.0023760616
0003f0 18 4d 1f 3c 06 c8 3b bd b0 43 fc 3a b0 d6 e9 bc
       0.00972297 -0.045845054 0.0019246247 -0.028544754

graph_matcher.mlp.0.bias f4 [128]
000000 00 93 a7 bd 3f 04 d5 bd a7 7e 23 be 58 d0 01 be
       -0.08182335 -0.104012005 -0.15966283 -0.12677133
000010 18 cc af bd bf 57 87 bc 9c 56 21 bd f3 51 bf 3d
       -0.0858385 -0.016521333 -0.039389238 0.093418024
000020 48 ad ad bd 77 87 ac bb ee 1d a9 bd 34 7a d3 bd
       -0.084803164 -0.005265172 -0.08257662 -0.10326043
000030 91 d7 a3 bd 6e 81 04 be 4a c4 40 bd 27 90 a8 3e
       -0.080001004 -0.12939999 -0.047062196 0.3292248
000040 c7 51 db bc e2 c5 d6 bd ef 82 a1 3d 7e 30 ad bc
       -0.026772393 -0.10486962 0.07886302 -0.021141287
000050 fa 07 9e bd 16 c6 f5 3d 70 c7 fe bd b8 74 3e bc
       -0.07716365 0.120006725 -0.124403834 -0.011624508
000060 b5 f5 fa bc 52 41 d5 bd c5 e3 42 bd 02 81 4d bc
       -0.03063474 -0.104128495 -0.0475805 -0.012542965
000070 f0 5d 60 bd 46 fc 85 bd a8 d8 d7 bd 98 c0 44 bd
       -0.054777086 -0.06542258 -0.10539371 -0.048035234
000080 df 64 98 3e b4 c0 ec 3d 62 93 d2 bd a6 fd 4c bd
       0.2976446 0.11560193 -0.10282017 -0.050046586
000090 5f a9 2e 3e 63 e0 08 bd b1 fe 0f 3e 27 d6 2c be
       0.17056797 -0.033417117 0.14062001 -0.16878568
0000a0 30 24 d5 3e 00 01 c6 bc 37 21 cd bd 57 0f 22 be
       0.4162917 -0.024170399 -0.10016101 -0.15826164
0000b0 7b 73 2d bd 6b ca b8 3d 35 04 a6 3e 98 7f 9d 3e
       -0.04234646 0.09022983 0.32425085 0.3076141
0000c0 6d 8a 2e be 41 e0 9f bd 33 2d 37 be 03 1b 8c bd
       -0.17044993 -0.07806445 -0.17888336 -0.068410896
0000d0 e9 22 16 bd d3 7b d6 bd 0e 31 37 bd 0f 8e 2a be
       -0.036654387 -0.10472836 -0.044724517 -0.16655754
0000e0 fc 88 bf bd 17 f2 15 3e 42 52 13 3d 6e dc 13 bd
       -0.093522996 0.14643131 0.03596712 -0.03609889
0000f0 85 17 00 3e 5a 4b e2 bd 6d be 20 be 97 e9 02 be
       0.12508972 -0.110495284 -0.15697642 -0.1278442
000100 d2 77 d6 bd 9d 61 2d bd e0 7f d5 bd a4 ca 89 3e
       -0.10472073 -0.04232942 -0.10424781 0.26912415
000110 43 43 70 3d 18 3f a7 bd d4 27 65 bd d2 f6 09 3e
       0.058657896 -0.08166331 -0.055946186 0.1347306
000120 e1 85 4a be 94 34 23 3e cf 20 79 3e 6d 1b a1 bd
       -0.19777633 0.15938026 0.24328922 -0.07866559
000130 6f bd cc bd 67 ca 1d be 1c 55 30 be 25 6e a8 3d
       -0.09997069 -0.15409242 -0.17219967 0.082241334
000140 6e 86 84 bc 0c 36 91 3d f5 d2 ab bd f8 48 63 bc
       -0.016177382 0.07090387 -0.08389846 -0.013872378
000150 02 2e 8f bd ea 91 d6 bd a2 a9 b7 bb f9 a5 91 3d
       -0.06991197 -0.1047705 -0.0056049386 0.07111735
000160 0e 16 6d bc a8 09 f5 3d 59 c3 53 be 38 d2 d3 bd
       -0.01447059 0.119647324 -0.20679988 -0.103428304
000170 f8 d0 57 bd 7f 6b f7 bc a8 0c ed 3d 67 52 c0 bc
       -0.052689523 -0.030202625 0.115746796 -0.023476792
000180 5b a1 01 3e 8b 24 46 3e 39 23 36 bd 7e 67 ae bd
       0.12659208 0.19349878 -0.044467185 -0.08515833
000190 28 2f 18 bd 83 3a 52 bd 9c 0d fb bd 81 a0 96 bd
       -0.037154347 -0.051325332 -0.12258455 -0.073548324
0001a0 50 9d 6e 3e 07 07 f9 3d 3e 73 46 bd 47 3e a3 3e
       0.23302197 0.121595435 -0.048449747 0.3188345
0001b0 d4 7c d3 bd d1 47 9d 3e f9 50 7d be a1 4c 43 bd
       -0.103265435 0.30718854 -0.2473792 -0.0476805
0001c0 e0 9e b2 bd 62 60 db bd bf 9a 87 bc 62 bc a6 bd
       -0.08721709 -0.10711743 -0.01655328 -0.081414
0001d0 4e 5d 66 3e bb d2 f2 bc 0f 38 d3 bc 24 76 ff bc
       0.2249653 -0.0296415 -0.025783567 -0.031184264
0001e0 93 e8 d3 bd d9 db 85 bd dd 1d d0 bd b7 d8 e5 bd
       -0.103470944 -0.06536073 -0.10161946 -0.11222976
0001f0 b6 d4 94 bd 48 0c e7 bd 79 b6 36 be f2 54 02 be
       -0.07267134 -0.11281639 -0.17843045 -0.12727717

graph_matcher.mlp.2.weight f4 [128, 128]
000000 60 49 88 3b 54 40 c8 3c 74 59 96 bd 80 84 92 bc
       0.0041591376 0.024444737 -0.073412806 -0.017885447
000010 ed 25 ac 3d b3 5c 28 bd de 46 1a 3d 70 0d 0f be
       0.08405671 -0.04110403 0.03766524 -0.1396997
000020 eb 98 84 3d 37 e5 02 bd 10 7a 51 3c 00 a6 c9 3c
       0.06474479 -0.031956878 0.01278545 0.024615288
000030 25 0b b3 3d a6 7c f9 bc 1c ed 14 3d 9d fd 06 bd
       0.0874236 -0.030454945 0.036358938 -0.03295671
000040 2c b5 fd 3c 30 1c f5 bb f1 22 ab bd 10 51 f8 3b
       0.030970179 -0.007480167 -0.08356274 0.007578023
000050 9a 94 0b 3d f5 15 1a be 00 01 0f 3b b8 82 99 bc
       0.034077264 -0.15047438 0.0021820664 -0.01873909
000060 3b 3d 80 3d 00 f6 fa 39 eb a6 ad 3d 06 0e 67 bd
       0.06261679 0.00047867 0.08479103 -0.05640986
000070 a4 b7 85 bc 32 2d 45 3d e2 b3 1c 3d 58 f9 9b 3c
       -0.016322918 0.048138805 0.038257487 0.019039795
000080 b4 25 29 be 60 54 97 bc 6b f2 90 3d 94 2d 8c bc
       -0.16518289 -0.01847285 0.070774876 -0.017111577
000090 bd 48 0d bc fc b4 b3 bd 4f 16 a8 bd 82 90 95 bd
       -0.008623299 -0.087747544 -0.0820738 -0.07302953
0000a0 99 6e 32 be e0 ca e7 bb 6d 94 93 3d 3c 85 e9 bc
       -0.17425002 -0.007073745 0.07206044 -0.028505914
0000b0 3a fa 22 bd 11 c4 e6 3d 75 0d 9d 3d 67 dd 46 be
       -0.039789416 0.112678654 0.07668582 -0.19420396
0000c0 5a 9c 3f bd 74 21 ac bc 93 1e 2c bd 4a 85 48 bd
       -0.046779968 -0.021012045 -0.042021345 -0.04895524
0000d0 80 17 89 ba a0 8c 2b bc 8b ee 32 bd a8 19 1a bc
       -0.0010459274 -0.010470539 -0.043684524 -0.009405531
0000e0 4e bd 3f 3d 91 19 d6 bd e5 27 95 3b 5e 22 67 3d
       0.046811394 -0.10454095 0.004551875 0.05642926
0000f0 54 bd 4c bd 38 9f c7 bc 30 77 9d bc 48 60 9c bd
       -0.049985245 -0.024367914 -0.019221872 -0.07635552
000100 e7 3e d0 3d 8b 90 0a bd 65 f6 9e 3d fb 2e c1 bd
       0.10168248 -0.033829253 0.0776184 -0.09432789
000110 cb 0d 60 bc 00 e7 6e bc 54 1d 87 3c 72 f0 e9 bd
       -0.0136751635 -0.014581442 0.016493477 -0.114228144
000120 f2 07 2e 3d 71 05 36 bd 1a d7 45 be 60 3a bf bc
       0.042488046 -0.044438783 -0.19320336 -0.023343265
000130 c0 5b ac ba 5e 43 e9 bc b8 e9 3b bc 9d de dc bc
       -0.0013149902 -0.028474506 -0.011469297 -0.026961619
000140 ad 29 87 3d e5 a8 91 bd 90 53 cf 3c 28 34 ff bc
       0.06599746 -0.07112292 0.0253084 -0.0311528
000150 32 d7 4b 3d d4 7b fd 3c 06 c3 27 3d b9 ed a0 bd
       0.049765773 0.030942835 0.040957473 -0.07857842
000160 1b 49 ad 3d 53 61 1c bd a0 09 53 3b f0 5d 69 bc
       0.084612094 -0.038178753 0.0032201782 -0.014243588
000170 04 63 c3 3c 33 1b 82 bd 98 f7 4d bd 44 97 d1 3c
       0.023850925 -0.06352844 -0.050284952 0.025584824
000180 b9 7a 9d bd fc 2c 0d be ea 46 48 3d a6 a7 a8 bd
       -0.07689423 -0.13786691 0.048895754 -0.082351014
000190 7b 6e 82 3d a4 32 a2 3c 9a 62 74 3d 5a 64 03 3d
       0.06368729 0.019799538 0.059664346 0.032078125
0001a0 35 d4 df bd ae 4b af bc 80 d9 39 bc 86 7e 84 bd
       -0.10929147 -0.021398392 -0.01134336 -0.06469445
0001b0 82 d1 7a 3d 2a ff 49 bd be c9 53 3d 34 15 c2 3c
       0.06123496 -0.04931561 0.05170607 0.023691751
0001c0 70 43 7c 3c 18 26 c6 3c e9 90 46 bd 40 8e 41 3c
       0.015396938 0.024188086 -0.04847804 0.0118137
0001d0 29 10 64 be 96 7e 2c bd f2 3d d9 bc 36 c2 2e 3d
       -0.2227179 -0.04211291 -0.026518796 0.042665683
0001e0 6d a6 a2 3d 91 c5 ac 3d b4 1a 9d bc a5 18 9d 3d
       0.079418994 0.0843612 -0.019177772 0.07670716
0001f0 de 56 47 3d 3e 4b 4e 3d ba 68 59 bd 83 78 9d 3d
       0.048666827 0.050364725 -0.05307839 0.076890014
000200 a0 53 74 bc 60 0d ab bc 28 68 24 bc 4a e5 9d bd
       -0.014912516 -0.020880401 -0.010034598 -0.07709749
000210 10 04 a2 3b 2a 08 49 3d 87 51 94 3d 9d 04 5c bd
       0.004944332 0.04908005 0.072421126 -0.053715337
000220 10 8d 1f bd 78 f3 a4 bc 22 ab 64 3d a2 d8 42 3d
       -0.038952887 -0.020135626 0.055827267 0.04756988
000230 22 d2 6d 3d 20 dd df bc a6 02 5c 3d 1f 09 91 bd
       0.058061726 -0.02732712 0.053713463 -0.07081818
000240 c2 96 a5 bd ba 0a 70 3d 40 22 25 3c 78 a8 fd bc
       -0.080853954 0.05860398 0.010078967 -0.030964121
000250 6a 5d 1e 3d 28 fa 7d bd 40 15 78 bd fe 4b 84 bd
       0.038663305 -0.062006146 -0.06056714 -0.06459807
000260 8a 82 ab bd 42 5b 7d bd c9 56 82 3d 90 07 dd 3b
       -0.08374508 -0.06185461 0.06364209 0.0067452863
000270 88 f0 12 3c e3 cf b2 3d 00 0a e6 bb 6e 7b 39 3d
       0.00896848 0.087310575 -0.007020235 0.045283727
000280 1b 63 8a be 69 0a a5 3d d0 a6 44 bc 9a a9 3b 3d
       -0.27028736 0.08058626 -0.012002662 0.04581604
000290 1f e8 8a 3d ab 9b 98 3d 27 69 9f bd d9 b5 80 3d
       0.06782555 0.07451566 -0.07783728 0.06284685
0002a0 4c f4 87 be 63 fc 8c bd 42 3c 8f bd b8 5d 75 bd
       -0.2655357 -0.068840764 -0.06993915 -0.05990383
0002b0 80 ac 88 3b 7c 03 02 3d 94 17 88 bd 95 f0 ae 3d
       0.004170954 0.031741604 -0.06645122 0.08541981
0002c0 f8 91 59 3c 78 d0 80 bd bf 84 ad 3d 87 5c b1 3d
       0.013279431 -0.06289762 0.08472585 0.08660226
0002d0 b6 0e 49 3d 84 ee fc bc 15 42 a3 bd 70 2c 21 bc
       0.049086295 -0.030875452 -0.079715885 -0.009837255
0002e0 52 ef 76 3d e5 e5 98 bd 9e 01 71 be d0 91 90 3c
       0.060286827 -0.07465724 -0.23535773 0.017647654
0002f0 60 12 dc 3b a3 0b 9e 3d 4c d0 e1 bc bc 3d 84 bd
       0.0067160577 0.07717063 -0.027565144 -0.064570874
000300 20 cf e8 3b 7c 57 ac 3c bd c5 54 bd 35 e6 57 bd
       0.0071047693 0.02103781 -0.05194639 -0.052709777
000310 e2 67 18 be 7c 43 9c bd 20 b4 fc 3b ca 4c 5a 3d
       -0.14883378 -0.07630059 0.0077119023 0.053295888
000320 f9 5b 04 bd e0 a5 54 be 9b 9b 74 be 1e 5d 05 3d
       -0.032314274 -0.20766401 -0.23887484 0.032559507
000330 f9 89 90 3d 54 c4 12 3d 1e 18 81 bd 00 b4 ed b8
       0.07057566 0.035831764 -0.06303428 -0.00011334568
000340 f0 71 ac 3c 90 c4 53 3c 98 0d 32 bc ae cc 6f 3d
       0.021050423 0.012925282 -0.010867499 0.058544807
000350 d8 f9 67 3c 23 e6 a3 3d 75 d9 ac 3d 67 95 91 be
       0.0141586885 0.080028795 0.08439914 -0.28434297
000360 7c 80 8a 3c 40 5f c8 3a 99 4f ac 3d 8e e4 08 bd
       0.01690697 0.0015287176 0.084136195 -0.03342109
000370 b0 77 72 bd 90 6a 0d 3d 66 b3 72 3d 92 a2 a6 bd
       -0.059196174 0.034525454 0.05925312 -0.081364766
000380 de bc e3 bc dd 2d 41 be 6e 52 38 3d e0 bb 9c 3c
       -0.02780002 -0.18865152 0.045000486 0.019132555
000390 c8 00 b1 bd 4d 5e 87 3d 9c f5 f4 3c e7 f6 92 3d
       -0.08642727 0.06609783 0.029902272 0.07175999
0003a0 1b 79 00 be df 11 51 bd 02 7c 7c 3d 58 92 a0 3c
       -0.12546198 -0.051042434 0.0616417 0.019601032
0003b0 4d 80 90 bd f8 5d bf bc d8 0e 69 bc 00 32 68 39
       -0.070557214 -0.023360237 -0.01422473 0.0002214387
0003c0 c6 b7 5b 3d c8 9a d9 3c 86 3b 34 3d 45 30 a7 3d
       0.053642057 0.026563063 0.04400208 0.081635036
0003d0 20 39 de bb e6 09 1a bd 30 97 ea 3b a6 31 41 3d
       -0.006781712 -0.037607096 0.0071591362 0.04716649
0003e0 28 ce 22 3c 56 44 38 3d fd aa 4e bd 55 52 ad 3d
       0.009936847 0.044987045 -0.050456036 0.08462969
0003f0 68 f1 72 3c cc ca 92 bc 00 de f6 b9 37 56 b3 3d
       0.014828064 -0.017918967 -0.0004708618 0.087566786

graph_matcher.mlp.2.bias f4 [128]
000000 56 78 92 be be a0 6d be 2b fd da bc 2f 8f 17 bd
       -0.28607434 -0.2320585 -0.026732048 -0.037001785
000010 aa 90 a3 bd 04 51 d6 bc 7b 26 27 be 67 ae 39 be
       -0.07986577 -0.026161678 -0.16323273 -0.18132935
000020 c7 6d 93 39 da 2b 1e 3e 29 ca 10 be ea 10 31 bd
       0.00028119815 0.15446416 -0.14139618 -0.04322902
000030 50 9a 9f 3e a3 24 43 bd 4a 09 ca bd dd ed 2f b8
       0.3117242 -0.04764236 -0.09865053 -4.194478e-05
000040 76 63 e3 bd f5 0a 49 be bd e0 15 be 9f 69 fd bd
       -0.11102955 -0.19633086 -0.14636512 -0.12373661
000050 71 5a bd 3b fa 95 ec bd 7c 34 ab 3e bc cf 96 3c
       0.0057786037 -0.11552043 0.3343848 0.018409602
000060 c6 95 35 bd e3 86 97 3e cf 32 e8 3b f8 02 13 3c
       -0.04433229 0.29595098 0.007086135 0.008972876
000070 df 38 fa bd 77 ee 44 be bc a6 bd bd 79 2d e4 3d
       -0.122178786 -0.19231592 -0.09260318 0.11141486
000080 9b 51 27 3e 82 e5 85 be 59 cd 98 be 8a 1d 1d 3e
       0.16339724 -0.26151663 -0.29844168 0.153433
000090 a7 87 fe be 9f ac 0a 3e bd 62 8f bd ae 5c 0c 3d
       -0.4971287 0.13542412 -0.07001255 0.034268074
0000a0 b7 41 b4 3d 35 61 5b bd bb cb 24 bb f2 e3 20 be
       0.088015966 -0.0535595 -0.0025145847 -0.15711954
0000b0 73 65 e6 3d 3a 9c 9c bd d3 a4 b9 bd ae ca 9e bd
       0.11249819 -0.07646985 -0.09064641 -0.07753502
0000c0 4f 59 3d be ff 27 23 be 37 7d ce be 50 85 e2 bd
       -0.184911 -0.15933226 -0.40329906 -0.110605836
0000d0 3a 94 2d be b5 b5 ae bd fa e9 76 bd 9f a1 11 be
       -0.16951075 -0.085307516 -0.06028173 -0.1422181
0000e0 90 77 3e be a2 83 63 bc cd ba eb be 64 ec f8 bc
       -0.18600297 -0.013886364 -0.46040955 -0.030386157
0000f0 39 be 61 be 7c 99 c2 bd ed f4 88 be e9 6e 90 3d
       -0.2204522 -0.09501931 -0.26749364 0.070524044
000100 07 1f d3 3b f5 8f a9 bd 2f ff 1f be 03 94 d2 bd
       0.0064429077 -0.08279411 -0.15624689 -0.10282137
000110 0d 4a 4d bd c1 fd fd bd 45 a1 6f bd 35 09 9f bd
       -0.05011945 -0.12401915 -0.058503408 -0.07765428
000120 f7 73 a9 bc 92 f2 ad be 59 cb 95 3e 0b ef 35 bd
       -0.02068518 -0.3397413 0.29256704 -0.044417422
000130 07 92 31 be 04 a1 45 be eb 03 1c 3c 4a ee 42 3c
       -0.17340861 -0.19299704 0.0095224185 0.011897633
000140 42 ae 65 bc 3e b3 91 bd 91 59 8a 3e af d5 94 bd
       -0.014018597 -0.07114266 0.2702146 -0.072673194
000150 32 39 f0 3d e0 9b 95 be 2d ec 93 bc 1f fc 40 bd
       0.11729659 -0.29220486 -0.018056953 -0.04711544
000160 39 02 e3 bd df e4 c6 bd 3e 28 1e bd 54 19 95 bb
       -0.11084408 -0.097116224 -0.038612597 -0.0045501385
000170 e2 97 76 be dc e8 a7 bd bf 45 39 3e 10 a3 18 3d
       -0.24081376 -0.08198711 0.18093012 0.037264884
000180 ed f0 27 be 64 f2 a7 3c 86 8a d7 bd 0f bc 86 be
       -0.164005 0.020501323 -0.10524468 -0.26315352
000190 8c ea 4e 3e 45 c1 bc 3e ab e4 4b be 6e 68 4e bd
       0.2020666 0.36866203 -0.19911449 -0.05039256
0001a0 f4 92 ba be fc 97 16 3e ec 62 96 bb 79 05 96 bd
       -0.3644024 0.14706415 -0.004589429 -0.073252626
0001b0 14 c7 31 be af 43 d0 bd 47 4e 89 bd cb 6d ca bd
       -0.17361099 -0.101691596 -0.06704383 -0.098842226
0001c0 91 ec 35 be 8f 91 0a bd 24 1f 90 ba 8c 78 94 be
       -0.17766024 -0.03383022 -0.0010995609 -0.2899822
0001d0 df d4 38 3d 83 f5 31 be 51 57 07 be 36 9f bf bd
       0.045124885 -0.17378812 -0.13216902 -0.09356539
0001e0 c9 05 28 3e 7c c0 57 be b9 f6 b4 bd ae 69 80 bc
       0.16408457 -0.2106952 -0.08836121 -0.015675392
0001f0 46 e3 e8 3b d4 98 66 be 78 ee d9 bc 8f 57 16 be
       0.007107171 -0.22519237 -0.026602969 -0.14681838

graph_matcher.mlp.4.weight f4 [64, 128]
000000 90 bc e3 bc 75 28 bc bd 3d 12 a4 bc d3 78 33 bd
       -0.027799875 -0.09187404 -0.020028228 -0.0438164
000010 0e dc 3f bd 3f 29 0d be 90 10 da bc 32 3c ec 3c
       -0.04684072 -0.13785265 -0.026619226 0.028837297
000020 c3 3f 0c be 5b e5 a0 be 38 7c 9c bd 86 c7 e4 3c
       -0.13696198 -0.31424984 -0.0764088 0.027927171
000030 76 40 0e 3f a6 8f a2 bc 93 ef e6 be e4 64 07 be
       0.5556711 -0.019843888 -0.45104656 -0.1322208
000040 a8 5f aa bd 88 54 b2 3d 15 a6 56 3c 9c 8a 06 be
       -0.08319026 0.08707529 0.0131011205 -0.13138813
000050 f5 56 6f bd a9 7a 66 bc 5d ad 75 3f 9f 0c d9 3c
       -0.058432538 -0.01406733 0.95967656 0.026495276
000060 23 6b 4c 3c 26 b2 1d 3e ca 4b c4 bd d8 c4 47 3c
       0.012476715 0.1539999 -0.09584768 0.012192927
000070 66 8d fd 3d 17 1e 93 3c e7 8a c0 bd 37 22 71 be
       0.12380485 0.017958684 -0.094014935 -0.23548208
000080 45 60 ad bc 3c 72 33 3e 86 8f fd 3c 2b 02 20 3f
       -0.021164069 0.17524046 0.030952226 0.6250331
000090 3e d1 d1 3d c0 f2 60 bd c2 21 33 3d 67 b6 28 be
       0.10244988 -0.054919004 0.043733366 -0.16475831
0000a0 d6 6f 4f be a2 01 da 3b 02 fc 58 bd 3e 0f 18 bd
       -0.20257506 0.0066530267 -0.05297471 -0.03712391
0000b0 29 76 bf be e6 33 dc bd 00 fe c8 bc a4 58 44 bc
       -0.37394837 -0.10752086 -0.02453518 -0.011984024
0000c0 6f b9 25 3d 7f a0 2a 3e d1 3a c5 bd 7f 1d fa 3d
       0.040460046 0.16662787 -0.09630359 0.12212657
0000d0 00 1f 55 b9 35 1d f0 3d 5c 9b 2d be b5 82 05 3e
       -0.00020324811 0.11724321 -0.16953796 0.13038142
0000e0 6e 78 cf 3c 45 dc 33 bd 64 a4 e0 be 7e 8e 26 be
       0.02532598 -0.043911237 -0.4387542 -0.16265294
0000f0 4d 4f d1 bd 02 0c f5 bb 90 5d 9b 3e 4a 18 9e be
       -0.102202035 -0.007478238 0.3034482 -0.30877906
000100 52 49 a5 bd 2f 4e 96 bd e5 9d 82 bd a1 f2 8b bd
       -0.08070625 -0.07339131 -0.06377772 -0.06833387
000110 27 64 e2 3c d3 29 cf 3c 53 b9 b3 bd eb 40 a3 3c
       0.027635647 0.025288498 -0.08775582 0.019928416
000120 5b 24 57 bd 60 4a fc bd 60 ad bc be 7c 0b 84 bc
       -0.052524906 -0.123188734 -0.36851025 -0.016118757
000130 8d 2d 2e 3d eb 58 90 3e fc 43 0b bd 61 17 63 3d
       0.04252391 0.2819284 -0.03400038 0.055442218
000140 d7 6a 93 bd 6c 4e 35 3e 87 4b ea 3e 55 b3 4b bd
       -0.071981125 0.17705697 0.45760748 -0.04973157
000150 e1 08 5b bd 21 7b 49 be de 8b cd 3c 4b ad dd bd
       -0.053475264 -0.19675876 0.025091108 -0.10824069
000160 13 31 d4 bd 4c d7 e5 bd 3a bd bc bd 3d 5d 27 bd
       -0.10360923 -0.11222705 -0.092157796 -0.040860403
000170 4f b9 42 be e1 2a d1 3b f9 54 43 be f5 3f 96 bb
       -0.19016002 0.0063832854 -0.19075383 -0.004585261
000180 78 2d 85 3c e5 b1 9a bd 38 b0 fe 3c 0c 6d 0b bd
       0.016257033 -0.07553462 0.031089887 -0.034039542
000190 91 95 a8 be 00 7b 58 3f e2 0d c0 bb c4 a1 7f bc
       -0.3292661 0.84562683 -0.00586103 -0.015602533
0001a0 3f 24 ad bd f5 a0 aa be 7b 45 96 bd 7a eb ae bd
       -0.08454179 -0.33325925 -0.07337471 -0.08541007
0001b0 1d 94 79 3d 08 1d d8 3c a7 2a 2d bd ad 18 8a bd
       0.060932267 0.02638103 -0.042277005 -0.06742988
0001c0 0b 79 56 bc bd 0d 27 be 67 3e c8 3c 19 3a ba bd
       -0.013090382 -0.16313834 0.024443818 -0.090931125
0001d0 19 d7 a9 3d 44 07 1d 3d ce a7 f7 bd 80 b5 da 3c
       0.0829298 0.038337007 -0.12092553 0.026697874
0001e0 e0 30 68 be bb 05 d5 3d 40 7c 96 3d c5 d3 06 be
       -0.22674894 0.104014836 0.073479176 -0.13166721
0001f0 d7 87 65 bd 3c 94 cb 3d 3a 1e b6 bd c4 30 c1 39
       -0.05603775 0.09940383 -0.08892484 0.00036848162
000200 2e 73 ce 3d d1 23 a6 bd 4d 72 98 3d b7 a5 91 bd
       0.100805625 -0.081123 0.07443676 -0.07111686
000210 2c d9 49 3d f4 d7 a6 bc e3 7d 5a bd 89 1a 1f bc
       0.049279377 -0.020366646 -0.05334271 -0.009710916
000220 a4 77 73 bd a4 b9 20 bd 1b 67 a4 bd a7 c2 30 be
       -0.05944027 -0.03923954 -0.08027478 -0.17261754
000230 d2 5a 8b be 6e 18 d6 bd cb 45 f8 bd 87 0f 6a bd
       -0.27217728 -0.10453878 -0.12122687 -0.057143714
000240 b5 74 5b 3d a2 d9 40 3d 53 06 3d bd b6 41 13 3d
       0.053578097 0.04708255 -0.04614861 0.03595134
000250 54 6e a2 bd b8 1d 94 3a 3d 13 62 be 72 90 2b be
       -0.079312 0.0011300361 -0.22077651 -0.1675432
000260 75 f2 81 3d 54 6f e2 bd 0b 11 ae bd d4 c8 a5 bd
       0.06345073 -0.110563904 -0.084993444 -0.080949455
000270 c6 f0 02 be 73 a2 84 be 2c cd 65 3d 94 35 e5 bc
       -0.1278716 -0.2590519 0.05610387 -0.02797965
000280 6d df a7 bc e7 23 c7 3c 3e d8 84 bd 9f 32 09 be
       -0.02049228 0.024309112 -0.064865574 -0.13398217
000290 2d 82 96 be 06 5a 9c bc 04 01 25 3d 5e 8b 00 be
       -0.2939619 -0.019085895 0.04028417 -0.12553164
0002a0 16 a7 99 3d af 5b 05 3d ee 43 7a bc fd c2 22 3d
       0.07502572 0.03255814 -0.015274985 0.039736737
0002b0 3a ad 89 3d fb 24 f5 3b 4e 4e 80 bd 3d 9e 19 3b
       0.067224935 0.007481215 -0.062649354 0.0023440265
0002c0 41 78 18 3d 19 f9 b3 3e 00 97 b7 3e 58 c4 d4 be
       0.037224058 0.35150984 0.3585739 -0.41556048
0002d0 65 fc 54 3d 1d 87 d4 3c 50 f0 d4 3d 5f b4 e9 3d
       0.051998515 0.025943333 0.103973985 0.11411356
0002e0 7a c3 58 bd 80 76 aa 3d 03 db 93 3e c3 10 1a 3e
       -0.052920796 0.08323383 0.2887803 0.15045457
0002f0 b5 8b ae bd ce 38 67 3d 8c 10 9a be 1d e7 79 3d
       -0.08522741 0.056450658 -0.3009075 0.061011422
000300 dd 59 2d bd 85 c4 9c bd 16 cf af bd c8 ee 66 3d
       -0.04232203 -0.076546706 -0.085844204 0.056380063
000310 cd b6 f0 3d 76 c8 44 bd 6b 91 fd 3b c5 2f c3 bc
       0.117536165 -0.048042737 0.0077382824 -0.02382649
000320 2b 2d d6 bd b3 d2 ea 3d 9e 48 0c 3d 3f 92 77 bd
       -0.10457834 0.11465969 0.03424894 -0.060442206
000330 f5 f6 aa bd 7c ef a7 3e 8a c9 20 be 5e 8f 2a 3d
       -0.083478846 0.327999 -0.15701881 0.04164063
000340 cd 0a 19 bc 04 86 a5 bd 3c e7 46 be 77 30 b2 bc
       -0.009340954 -0.08082202 -0.19424146 -0.021751625
000350 55 1b 43 bd 3e 6f 7c 3e 95 a7 33 3d 08 de f4 bc
       -0.047633488 0.2465181 0.04386099 -0.029891029
000360 9a e6 a0 bc 43 da c5 bc 42 3c 9a b9 2c b2 25 3d
       -0.01964121 -0.024151927 -0.00029418065 0.04045312
000370 a8 b4 65 be f6 57 89 3d 95 d6 28 3d 22 9e 0b be
       -0.22432196 0.0670623 0.041220266 -0.13634542
000380 97 f1 08 be f6 2d ba 3d 3e ab f1 bd 03 a8 d5 bd
       -0.13373409 0.090907976 -0.1180024 -0.10432436
000390 5e ef 5a 3c a7 ac 04 be 0e a0 01 3b e6 03 91 bd
       0.013362734 -0.12956487 0.0019779238 -0.07080822
0003a0 a0 2b dc 3d 6e 57 90 bd 3c c8 06 be e8 66 74 3d
       0.10750508 -0.07047926 -0.13162321 0.05966845
0003b0 1f e3 67 bc 2e fc a4 3d c4 99 4a 3d c2 4b 3c 3d
       -0.014153271 0.08055912 0.04946305 0.045970686
0003c0 be c8 fe 3d d9 04 1d bd ed 3e 79 bb 55 63 7b 3d
       0.12440632 -0.0383347 -0.0038031891 0.061374027
0003d0 50 d9 a1 3d 3e 44 d3 3c 09 77 8b 3e d1 b1 08 be
       0.07902777 0.025789376 0.27239254 -0.13349082
0003e0 44 00 06 be 8a ac 4a be 4a 0a 61 3d 4b 12 a5 bd
       -0.13086039 -0.19792381 0.054941453 -0.0806013
0003f0 03 50 19 3d 41 b0 43 3d ca 45 55 3c 63 fc 84 bd
       0.03742982 0.04777551 0.013017127 -0.064934514

graph_matcher.mlp.4.bias f4 [64]
000000 b8 fd 06 be 39 bb cd 3d aa b8 05 3e 8e 9f 24 be
       -0.13182724 0.100454755 0.13058725 -0.1607649
000010 88 e3 0d 3d 4c 62 18 be 83 a8 ec bc f6 07 11 be
       0.03464082 -0.14881247 -0.028888946 -0.14163193
000020 27 aa 44 be cd da a2 be 6a d2 a7 bb db 55 95 bd
       -0.19205533 -0.31807557 -0.005121519 -0.07291766
000030 28 6b 0b be 32 77 3a bc 2e 2b 76 3e de 5f 48 be
       -0.13615096 -0.011380957 0.24039909 -0.1956782
000040 7b ce 7d be 2a db f7 bd 50 36 6f bc 82 55 55 bd
       -0.24785797 -0.12102349 -0.014600351 -0.0520835
000050 f0 ad 15 be 21 4f 89 3e de c2 1a be d9 e7 ae bc
       -0.14617133 0.26818183 -0.15113398 -0.021350788
000060 d4 fd 7f be 3b e7 68 be 9e da ba bd 8b 72 eb bd
       -0.24999171 -0.22744457 -0.09123729 -0.11496457
000070 66 bc 8f 3c 2f c6 19 3e f3 48 7c 3d e6 82 93 be
       0.01754589 0.15017007 0.061593007 -0.28810805
000080 e7 2d 00 be 08 0b 29 3e 6c 71 35 3e 51 10 a2 3d
       -0.1251751 0.16508114 0.17719048 0.07913268
000090 89 eb 0b be 57 39 42 bd 6c 33 29 be 10 d1 35 3d
       -0.13664068 -0.047417965 -0.16523522 0.04438883
0000a0 26 fc 08 3e fa c6 20 3e 59 f9 0c 3b 23 6d 6d bd
       0.13377437 0.15700904 0.0021510927 -0.05796541
0000b0 a3 cf 8f 3d fa 2f 22 be 84 66 36 bc 5b 5b 86 bd
       0.070220254 -0.15838614 -0.01113284 -0.065603934
0000c0 1a c4 66 bb 36 f0 c3 bd 9a 91 25 3e 31 f4 3e 3d
       -0.00352121 -0.09567301 0.16168824 0.046619598
0000d0 ff bc 8c 3c 47 57 2f 3e d4 e1 7b 3e ee 3b 78 3b
       0.017179964 0.17123137 0.24597865 0.0037877518
0000e0 86 95 62 3e 71 f4 63 bd 32 a6 31 be c2 db 89 be
       0.22127351 -0.05565304 -0.17348555 -0.26925474
0000f0 6d 0f 25 be c6 22 8b 3b c5 60 4e bd 99 d1 8d bd
       -0.16119166 0.0042460887 -0.050385255 -0.06924743
