Result/GCN/5000_sample/model_epoch_22_f1_0.6965.pth (torch, 841514 bytes, 42 tensors)

graph_matcher.gnn.conv1.bias f4 [64]
0.066308595 -0.06988024 -0.04000167 -0.019207641 0.008334858 0.13412665 -0.057266686 0.13782395
0.036205724 -0.06977502 -0.020079268 -0.043267973 0.08571006 0.18160203 0.033232413 -0.090826355
0.12642208 0.089683115 0.0 0.08652892 -0.015433635 0.08511213 -0.16553757 -0.151425
0.079926245 0.01750028 -0.03165449 0.012397725 0.057760462 0.08928764 -0.15527305 -0.004265484
-0.07411532 -0.21562867 0.04547532 0.3106179 -0.049884982 -0.11323423 -0.22556841 -0.040287346
-0.08984163 0.14857128 -0.03484087 0.15545644 0.048804585 -0.124731965 -0.027340166 -0.0050173304
-0.059905063 0.06675304 0.038044315 0.05044253 0.08882186 -0.02805061 -0.1292109 0.024485271
0.009968555 0.1053044 0.02408372 -0.05421658 0.018641938 0.29636815 -0.028705884 -0.07458822
00000000: cdcc 873d 5f1d 8fbd cbd8 23bd 5859 9dbc
00000010: ee8e 083c 7f58 093e 7990 6abd b921 0d3e
00000020: 744c 143d 35e6 8ebd 477d a4bc c239 31bd
00000030: c288 af3d e2f5 393e b61e 083d 2b03 babd
00000040: ca74 013e c8ab b73d 0000 0000 1336 b13d
00000050: 5bdd 7cbc 454f ae3d ae82 29be 280f 1bbe
00000060: 5fb0 a33d bf5c 8f3c 23a8 01bd d41f 4b3c
00000070: 3c96 6c3d 70dc b63d e6ff 1ebe 79c5 8bbb
00000080: c6c9 97bd c3cd 5cbe 5444 3a3d 4f09 9f3e
00000090: 3254 4cbd 59e7 e7bd 68fb 66be 5804 25bd
000000a0: e3fe b7bd 1223 183e 4db5 0ebd f92f 1f3e
000000b0: 51e7 473d 7973 ffbd 7cf8 dfbc 6b68 a4bb
000000c0: 035f 75bd d1b5 883d 5bd4 1b3d d49c 4e3d
000000d0: 3ce8 b53d 65ca e5bc dd4f 04be 5695 c83c
000000e0: 2653 233c d5a9 d73d 394b c53c 3412 5ebd
000000f0: fab6 983c 91bd 973e 9a28 ebbc b5c1 98bd

graph_matcher.gnn.conv1.lin.weight f4 [64, 4]
0.10509364 -0.72755784 -0.6502766 0.33539554 -0.20466971 -0.11715613 0.04427669 -0.13627902
1.0289778 -1.1461012 -1.0159968 -0.046728153 -0.63250446 0.3181643 -0.3690038 0.2690888
0.37685466 0.015910015 0.8034696 -0.1808414 -0.044454694 0.82658166 -0.88157123 -0.28664044
0.44468665 0.062492482 0.77725935 -0.30050638 -0.047088284 0.18027142 0.80930185 -0.5251602
0.25470006 0.15803237 0.8502729 -0.26609352 -0.1506915 0.001066061 -0.11658515 0.012631161
-0.042616725 -0.797672 1.060915 -0.18267171 0.42406878 -0.14707255 0.91665244 -0.16763121
0.11977163 -0.022539126 1.0018618 -0.29757792 0.118168116 0.3755503 1.0043166 -0.30388108
0.2664666 0.019374412 0.87096035 -0.17921187 -0.10863136 -0.052650962 -0.051660217 -0.007653919
0.20881438 0.21211664 0.8981248 -0.2752067 0.179233 -0.08589315 0.72972393 -0.15320562
-0.09325753 -0.07398377 -0.040029436 -0.23539248 0.9576456 -1.4486244 -1.1745685 0.13395807
0.078137495 0.4192729 0.83404547 -0.21641077 -0.7473766 0.12622473 -0.34333834 0.21406387
-0.105730996 0.02204074 -0.012157951 0.027219318 -0.33256125 0.13815792 -0.32463294 0.09880904
-0.64650255 0.4852266 -0.20941475 0.25565228 -0.6975038 0.6625095 0.24648002 0.020585338
-1.133021 0.5955796 0.82422143 -1.028023 0.008943769 0.3801574 0.9489656 -0.3153563
-0.6320812 -0.4536096 -0.32545543 0.32506073 0.18434863 0.5070209 0.95381385 -0.2577279
-0.10587788 0.021981183 -0.3416581 0.1014434 0.039990664 0.79797304 -1.1149561 -0.8087373
-0.53673637 -0.11565173 -0.51750517 0.19992162 -0.20159566 0.26780656 -0.081983514 0.058304712
0.26859897 0.028707631 0.96641505 -0.21524529 -1.5175079 0.8974581 0.8664553 -0.6886942
-0.3888791 -0.46436077 -0.35300666 0.29493865 -0.28735283 -0.0046852636 -0.19662829 0.078466386
-0.37572616 0.095392026 -0.17218678 0.051896628 0.020930078 -0.6434316 0.9563039 -0.11259982
-0.25334635 0.035906248 -0.2625464 -0.20208658 0.10645871 0.42704087 0.9911323 -0.3366226
0.4829474 -0.09196546 0.8128551 -0.18187276 0.053151563 -0.1648354 0.8247685 -0.21459772
0.17646858 0.5591182 0.8288727 -0.7658449 0.59544384 0.0544579 0.7242071 -0.08727294
0.4303341 0.08817943 0.93650836 -0.1180078 -0.6388109 0.049920145 -0.5113904 0.30177948
-0.24778104 -0.2844553 -0.051812485 -0.047246996 -0.4644264 -0.5580034 -0.32341668 0.28070438
0.4560387 0.10668835 0.7737307 -0.12847747 -0.56025785 0.16849712 -0.41261855 0.1555874
0.2398106 -0.023975918 0.80381316 -0.27640682 0.3898596 0.062192004 0.8533401 -0.4094483
0.027265225 -0.044598393 -0.096594065 -0.048591167 -0.08356483 0.11640695 0.9289875 -0.39101332
-0.3060381 -0.4165493 -0.29921117 0.36897615 0.13385692 0.3221074 0.9042532 -0.18411326
0.14946811 0.41087615 0.7742412 -0.25627434 0.47953674 -0.04055176 0.851773 -0.17667331
-0.7369785 0.31048653 -0.38532785 0.18571246 -1.4515424 0.88866067 0.6426012 -0.4796681
0.67216116 -0.028066946 0.7004001 -0.02527512 -0.5303922 0.42095605 0.60534865 -0.2793478
00000000: 563b d73d 3b41 3abf 8778 26bf f7b8 ab3e
00000010: f094 51be 8eef efbd 795b 353d ba8c 0bbe
00000020: 8bb5 833f 72b3 92bf 2f0c 82bf 0566 3fbd
00000030: d0eb 21bf 6ee6 a23e 11ee bcbe 02c6 893e
00000040: 18f3 c03e b855 823c 2fb0 4d3f 7d2e 39be
00000050: 2016 36bd db9a 533f a7ae 61bf 89c2 92be
00000060: f8ad e33e 1ef8 7f3d 78fa 463f f9db 99be
00000070: a5df 40bd 1299 383e 682e 4f3f e670 06bf
00000080: 0c68 823e 3dd3 213e 7cab 593f 693d 88be
00000090: df4e 1abe 12bb 8b3a 32c4 eebd eef2 4e3c
000000a0: e08e 2ebd 3b34 4cbf 10cc 873f 4b0e 3bbe
000000b0: 8b1f d93e 309a 16be bca9 6a3f 84a7 2bbe
000000c0: d44a f53d f9a3 b8bc 023d 803f 225c 98be
000000d0: 2002 f23d 2148 c03e 728d 803f 4d96 9bbe
000000e0: 4f6e 883e 16b7 9e3c 42f7 5e3f 5183 37be
000000f0: 1e7a debd 89a8 57bd aa99 53bd bacd fabb
00000100: 70d3 553e 1b35 593e 82eb 653f e5e7 8cbe
00000110: db88 373e bfe8 afbd 30cf 3a3f efe1 1cbe
00000120: cefd bebd ce84 97bd e8f5 23bd ba0a 71be
00000130: 4328 753f 866c b9bf 4358 96bf 4e2c 093e
00000140: 8d06 a03d f0aa d63e 0184 553f c99a 5dbe
00000150: 1354 3fbf 0e41 013e 0bca afbe 8f33 5b3e
00000160: 7e89 d8bd c88e b43c 2432 47bc 0cfb de3c
00000170: 7845 aabe 4579 0d3e 4a36 a6be 655c ca3d
00000180: 3181 25bf 9f6f f83e d270 56be dbe4 823e
00000190: 9c8f 32bf 399a 293f 4265 7c3e 95a2 a83c
000001a0: d506 91bf e877 183f 2d00 533f 4296 83bf
000001b0: e388 123c fea3 c23e 69ef 723f 6276 a1be
000001c0: 13d0 21bf 843f e8be 18a2 a6be 5c6e a63e
000001d0: e3c5 3c3e 1fcc 013f 252d 743f e9f4 83be
000001e0: 80d6 d8bd e211 b43c cfed aebe 8fc1 cf3d
000001f0: 40cd 233d f647 4c3f e2b6 8ebf 6809 4fbf
00000200: 8e67 09bf d0da ecbd 387b 04bf 41b8 4c3e
00000210: 186f 4ebe f11d 893e f9e6 a7bd ecd0 6e3d
00000220: ce85 893e 442c eb3c fa66 773f 4369 5cbe
00000230: b33d c2bf d0bf 653f 04d0 5d3f 434e 30bf
00000240: 291b c7be b2c0 edbe 4abd b4be 3302 973e
00000250: e91f 93be d786 99bb ed58 49be fcb2 a03d
00000260: 2e5f c0be e55c c33d bb51 30be 8f91 543d
00000270: 8e75 ab3c efb7 24bf 55d0 743f bc9a e6bd
00000280: 9db6 81be 6e12 133d 7b6c 86be c9ef 4ebe
00000290: 0607 da3d 1aa5 da3e d9ba 7d3f cc59 acbe
000002a0: e244 f73e 6358 bcbd 4617 503f da3c 3abe
000002b0: 74b5 593d 9cca 28be 0724 533f 81bf 5bbe
000002c0: 2eb4 343e 5f22 0f3f 0031 543f 690e 44bf
000002d0: 026f 183f 3f0f 5f3d a365 393f 28bc b2bd
000002e0: c054 dc3e 6b97 b43d 03bf 6f3f 13ae f1bd
000002f0: 1c89 23bf 1179 4c3d 7bea 02bf d782 9a3e
00000300: 50ba 7dbe 20a4 91be 5439 54bd 1186 41bd
00000310: 4cc9 edbe 50d9 0ebf df96 a5be 7cb8 8f3e
00000320: e87d e93e 6c7f da3d 3713 463f 998f 03be
00000330: 0f6d 0fbf 828a 2c3e bd42 d3be 4e52 1f3e
00000340: e990 753e 2569 c4bc b3c6 4d3f 3285 8dbe
00000350: ad9b c73e 0bbd 7e3d 7f74 5a3f 35a3 d1be
00000360: 525b df3c ceac 36bd 1cd3 c5bd 8807 47bd
00000370: 0a24 abbd c466 ee3d 20d2 6d3f e632 c8be
00000380: 07b1 9cbe f345 d5be 3532 99be 71ea bc3e
00000390: ca11 093e 43eb a43e 237d 673f 3088 3cbe
000003a0: 2b0e 193e 5c5e d23e ac34 463f 6436 83be
000003b0: d785 f53e 9a19 26bd cc0d 5a3f d9e9 34be
000003c0: 9faa 3cbf 17f8 9e3e b149 c5be 682b 3e3e
000003d0: 24cc b9bf 447f 633f 8381 243f 0f97 f5be
000003e0: c112 2c3f a7ec e5bc 6c4d 333f c50d cfbc
000003f0: c9c7 07bf 8d87 d73e 21f8 1a3f ad06 8fbe

graph_matcher.gnn.conv2.bias f4 [128]
0.064305924 -0.13639903 -0.24884555 -0.07650385 -0.0976361 -0.09678183 -0.07411225 -0.124180056
-0.21715444 -0.071010746 -0.08272417 -0.07259465 -0.076588534 -0.026982939 -0.06362846 -0.0540868
-0.09620687 -0.12551086 0.08278949 -0.28896028 -0.03650541 -0.071619585 -0.08024184 -0.12779652
-0.08046838 -0.064716585 -0.15418778 -0.087588325 -0.11790981 -0.1468834 -0.09776425 0.06993425
-0.25039464 -0.05781744 -0.06377292 -0.0810655 -0.09674292 -0.11307885 -0.20101312 -0.05251143
-0.14923897 -0.04076177 -0.1085344 -0.18567711 -0.15533972 -0.11453778 0.004740016 -0.11212975
-0.087041914 0.0680847 -0.13630854 -0.09087975 -0.042256907 -0.081981786 0.03615872 -0.1996733
-0.092981905 -0.11397824 0.05201723 -0.087923616 -0.040598225 -0.06180501 -0.09482906 0.040959872
-0.028757893 -0.1015711 0.055133462 -0.10580166 -0.2513325 -0.10061427 -0.18419081 -0.09052624
-0.08628569 -0.10559148 -0.08685986 -0.17434977 -0.086858146 -0.08136052 0.065116264 -0.1631212
-0.11512818 -0.07864036 0.081981964 -0.06583222 -0.09385216 -0.10981986 -0.14380082 0.12067177
-0.078682244 0.104180634 -0.05264005 -0.052869886 -0.06974527 -0.11579347 -0.113645814 0.0013120964
-0.058404155 0.046168488 0.061703578 -0.18071026 -0.093894295 0.03692181 0.030887574 -0.08614983
0.043166563 -0.0875215 -0.16255668 -0.0805444 -0.08513829 -0.104773656 -0.13869382 0.19949333
-0.0065287426 0.12105894 0.03998466 -0.114425465 -0.12761755 0.13829364 -0.17589614 0.034309976
-0.24305087 -0.065551765 -0.09050546 -0.17487563 -0.06879053 0.044964842 -0.05500613 0.11782663
00000000: d3b2 833d 30ac 0bbe 5ed1 7ebe 0dae 9cbd
00000010: 70f5 c7bd 8d35 c6bd 2ac8 97bd 1d52 febd
00000020: bc5d 5ebe 156e 91bd 4a6b a9bd 81ac 94bd
00000030: 73da 9cbd 530b ddbc a34f 82bd 1f8a 5dbd
00000040: 1c08 c5bd eb85 00be 898d a93d 9af2 93be
00000050: b286 15bd 4aad 92bd d555 a4bd 17dd 02be
00000060: 9bcc a4bd 218a 84bd 67e3 1dbe 8261 b3bd
00000070: b37a f1bd 9a68 16be a038 c8bd b039 8f3d
00000080: ba33 80be fbd1 6cbd 609b 82bd ab05 a6bd
00000090: 2721 c6bd e295 e7bd 62d6 4dbe 3a16 57bd
000000a0: 1ad2 18be d0f5 26bd 4947 debd 2422 3ebe
000000b0: 6011 1fbe c992 eabd 2352 9b3b 48a4 e5bd
000000c0: 0843 b2bd fe6f 8b3d 7794 0bbe 2a1f babd
000000d0: 9415 2dbd 11e6 a7bd 2a1b 143d 2877 4cbe
000000e0: 4c6d bebd 6c6d e9bd 0510 553d 4c11 b4bd
000000f0: 534a 26bd 4027 7dbd bd35 c2bd 8ac5 273d
00000100: ac95 ebbc 8204 d0bd a0d3 613d 8aae d8bd
00000110: a7ae 80be db0e cebd 849c 3cbe d265 b9bd
00000120: 8db6 b0bd 5940 d8bd 95e3 b1bd bf88 32be
00000130: afe2 b1bd 58a0 a6bd ad5b 853d 3e09 27be
00000140: 53c8 ebbd 320e a1bd 29e6 a73d 0bd3 86bd
00000150: 9035 c0bd 3ce9 e0bd 8640 13be c322 f73d
00000160: 2824 a1bd a85c d53d 189d 57bd 188e 58bd
00000170: 9cd6 8ebd 2025 edbd 23bf e8bd a6fa ab3a
00000180: 3239 6fbd 2b1b 3d3d e4bc 7c3d 1c0c 39be
00000190: a74b c0bd 533b 173d f007 fd3c 526f b0bd
000001a0: 6ccf 303d 793e b3bd 4275 26be 76f4 a4bd
000001b0: fc5c aebd 9293 d6bd c105 0ebe fb47 4c3e
000001c0: 10ef d5bb c0ed f73d f4c6 233d e657 eabd
000001d0: 2dae 02be d99c 0d3e 1e1e 34be 9e88 0c3d
000001e0: 54e2 78be 0140 86bd ed5a b9bd 9912 33be
000001f0: 0de2 8cbd 0e2d 383d 1c4e 61bd 174f f13d

graph_matcher.gnn.conv2.lin.weight f4 [128, 64]
0.04152831 0.06309222 0.1431635 -0.23342474 0.40500087 -0.35018897 0.2883478 0.3531088
0.42219204 -0.025067223 0.49886626 0.29853132 0.39098492 0.4026583 0.15516019 -0.050241046
0.48347652 0.5344458 0.027777687 -0.14809814 0.18240035 -0.08829078 0.04569634 -0.22069962
-0.30895585 -0.25239894 -0.38812864 0.14861433 0.049142573 0.006965987 0.03154247 -0.15252921
-0.16362491 -0.0475335 0.39291137 -0.32241157 -0.09660642 -0.14450677 -0.24276635 0.3924398
-0.007805029 0.4186609 0.3453954 0.1840216 -0.059271265 -0.04143211 0.3262497 -0.012562696
-0.091397986 -0.050082758 0.447903 -0.11479186 0.21002026 0.19037667 0.006978601 0.16520381
-0.09654514 0.22340813 0.23809133 0.3912596 -0.258091 -0.4485053 0.19678667 -0.22655287
-0.13050891 0.05693921 -0.13238597 -0.01786092 -0.19435985 0.15143752 -0.29467767 0.35450754
-0.36245656 -0.0032809381 -0.16990905 -0.22236106 -0.2952821 -0.29766643 -0.39612255 -0.06766222
-0.45157257 -0.4550835 -0.0024943948 0.12023645 -0.3917526 -0.0371026 0.020382132 0.09243994
-0.37682486 -0.26363742 -0.19991744 -0.5106475 -0.18336308 -0.24194242 -0.11527691 0.36066815
0.04144481 -0.034020055 -0.15666161 -0.027324852 0.08852616 -0.07347029 0.02562707 -0.09747143
-0.18006063 -0.17636429 -0.42229286 -0.310343 0.19899817 -0.22554384 -0.36589292 -0.06340511
0.12806065 0.11858708 -0.13058364 -0.4263252 -0.44041538 -0.68096167 -0.036755923 -0.114148416
-0.165225 -0.21270919 -0.4250754 -0.4324502 -0.32609388 0.45628315 -0.22092758 -0.090550765
-0.11777308 0.12719549 -0.13302445 -0.06405267 0.046352517 -0.11583106 -0.0037618072 -0.047255874
0.022238635 -0.098080605 0.11460782 -0.07084296 -0.036172766 -0.026678804 0.059595 0.08867586
0.006659594 -0.050805688 -0.13536689 -0.24839656 -0.00576633 -0.0780093 -0.0063199815 -0.2036988
-0.16464685 -0.15127604 -0.10514364 -0.15753026 -0.14910465 -0.13594712 -0.046669208 0.012298118
-0.037020028 -0.13936016 -0.07649481 0.09680525 -0.09381004 -0.12290621 -0.0066498755 0.17664829
0.08401748 -0.028850343 -0.0068101394 -0.07784638 -0.09736881 -0.20779526 -0.19665721 -0.10668889
0.15077 -0.10137897 -0.21570915 -0.19489579 0.117910035 -0.026799357 0.10700424 -0.022107119
-0.15594982 -0.12495607 0.0128058335 -0.21940348 -0.20834048 0.010363892 -0.027055997 -0.22572008
0.06536563 -0.0362401 -0.12480224 -0.10224214 -0.064904794 0.00742968 0.042241413 0.08939507
-0.1665105 0.0521541 0.0060628853 0.020809518 -0.2523521 -0.27232864 -0.29276663 0.13705876
-0.10573954 0.0868643 0.002962634 -0.0693884 -0.07547251 -0.121218525 -0.30660465 -0.0311249
-0.048753094 -0.24314919 0.038242802 -0.1720751 -0.005042578 -0.10131668 -0.18867956 -0.0045722444
-0.11926578 -0.27983397 -0.07382984 0.097677544 -0.30469847 0.089013115 0.06409287 -0.15969698
0.061211467 0.020409696 0.021529144 0.014441946 -0.2497971 0.10744558 -0.14536262 -0.06587162
-0.15538779 -0.2245898 0.1044358 -0.09729308 -0.034466606 -0.08279714 -0.0979902 0.032189395
-0.30305886 -0.25505564 -0.24133416 0.00856785 0.09165644 -0.0024807155 -0.1519381 -0.072422214
00000000: 9719 2a3d 7e36 813d 7499 123e e506 6fbe
00000010: 465c cf3e f84b b3be 53a2 933e adca b43e
00000020: 8e29 d83e c759 cdbc 666b ff3e 19d9 983e
00000030: 2d2f c83e 3b29 ce3e 50e2 1e3e 8ec9 4dbd
00000040: 3c8a f73e 71d1 083f 088e e33c 0aa7 17be
00000050: 28c7 3a3e ccd1 b4bd 162c 3b3d 15ff 61be
00000060: 762f 9ebe 6f3a 81be ccb8 c6be 5b2e 183e
00000070: b949 493d ef42 e43b ad32 013d 9e30 1cbe
00000080: 4a8d 27be 7db2 42bd ae2b c93e 2113 a5be
00000090: 96d9 c5bd 95f9 13be be97 78be dfed c83e
000000a0: 54c1 ffbb b95a d63e aad7 b03e 2970 3c3e
000000b0: 6dc6 72bd b7b4 29bd 330a a73e c4d3 4dbc
000000c0: de2e bbbd 9423 4dbd 8b53 e53e ff17 ebbd
000000d0: 8d0f 573e 1af2 423e c0ac e43b 302b 293e
000000e0: 75b9 c5bd 1ac5 643e 37ce 733e 2e53 c83e
000000f0: 8124 84be 7da2 e5be 7282 493e 7afd 67be
00000100: 21a4 05be 1739 693d 3090 07be 1051 92bc
00000110: 4506 47be 7012 1b3e fedf 96be 0382 b53e
00000120: e893 b9be 0205 57bb a3fc 2dbe 9eb2 63be
00000130: 372f 97be bc67 98be 93d0 cabe 7d92 8abd
00000140: 8534 e7be b400 e9be 0079 23bb 873e f63d
00000150: cc93 c8be e5f8 17bd 6ef8 a63c 2751 bd3d
00000160: 30ef c0be 7cfb 86be 28b7 4cbe cbb9 02bf
00000170: 88c3 3bbe c1bf 77be 4d16 ecbd 7fa9 b83e
00000180: 08c2 293d 9d58 0bbd e76b 20be 5ed8 dfbc
00000190: 344d b53d 9777 96bd dcef d13c 1a9f c7bd
000001a0: d061 38be d798 34be c536 d8be 47e5 9ebe
000001b0: 2dc6 4b3e f7f4 66be 5156 bbbe 8ada 81bd
000001c0: 5522 033e c8dd f23d b8b7 05be 4c47 dabe
000001d0: 207e e1be 8153 2ebf 618d 16bd a5c6 e9bd
000001e0: be30 29be 70d0 59be 7ca3 d9be 1d6a ddbe
000001f0: c7f5 a6be f29d e93e d73a 62be ae72 b9bd
00000200: 0333 f1bd 893f 023e 9037 08be 0c2e 83bd
00000210: 23dc 3d3d d638 edbd a788 76bb 608f 41bd
00000220: cc2d b63c 7cde c8bd 81b7 ea3d 1d16 91bd
00000230: e529 14bd 828d dabc e319 743d b09b b53d
00000240: b938 da3b a019 50bd 9e9d 0abe ab5b 7ebe
00000250: 7bf3 bcbb 57c3 9fbd d917 cfbb 6b96 50be
00000260: 2f99 28be 1be8 1abe 8c55 d7bd 9d4f 21be
00000270: e4ae 18be b935 0bbe 3628 3fbd 0c7e 493c
00000280: 50a2 17bd 6eb4 0ebe 50a9 9cbd d541 c63d
00000290: 7a1f c0bd 40b6 fbbd 33e7 d9bb 4ae3 343e
000002a0: 5b11 ac3d 8e57 ecbc 9727 dfbb ec6d 9fbd
000002b0: 4c69 c7bd 48c8 54be 8260 49be b47f dabd
000002c0: 7363 1a3e c79f cfbd dce2 5cbe c392 47be
000002d0: d17a f13d 538a dbbc 0a25 db3d fd19 b5bc
000002e0: 4fb1 1fbe f8e8 ffbd 8fcf 513c 4eab 60be
000002f0: 3557 55be 50cd 293c 8aa4 ddbc 2a23 67be
00000300: 6ade 853d 8070 14bd 5198 ffbd 5464 d1bd
00000310: ceec 84bd ac74 f33b 5505 2d3d c314 b73d
00000320: ba81 2abe 8a9f 553d 2bab c63b b978 aa3c
00000330: 4b34 81be a96e 8bbe 82e5 95be 2259 0c3e
00000340: f98d d8bd e9e5 b13d c028 423b 811b 8ebd
00000350: 5591 9abd 6b41 f8bd 49fb 9cbe a5f9 febc
00000360: 53b1 47bd 1afc 78be 7ca4 1c3d 7434 30be
00000370: 363c a5bb 1f7f cfbd 3735 41be c4d2 95bb
00000380: 9e41 f4bd 6646 8fbe 1934 97bd 2a0b c83d
00000390: 7001 9cbe 824c b63d 1f43 833d 9b87 23be
000003a0: e0b8 7a3d 3c32 a73c e35d b03c e99d 6c3c
000003b0: d0ca 7fbe 6e0c dc3d f0d9 14be b3e7 86bd
000003c0: fa1d 1fbe defa 65be 70e2 d53d 9841 c7bd
000003d0: db2c 0dbd 8c91 a9bd 16af c8bd 07d9 033d
000003e0: 882a 9bbe a796 82be 4d20 77be 2b60 0c3c
000003f0: 5fb6 bb3d 8093 22bb a995 1bbe 1952 94bd

graph_matcher.mlp.0.weight f4 [128, 256]
-0.019539006 -0.06171009 -0.015515253 0.037172616 -0.006666347 -0.09157035 -0.12177701 -0.07381958
0.007762501 -0.094348885 -0.11598118 -0.06350202 -0.08733166 -0.041462228 -0.10056619 -0.11423817
-0.06063957 -0.01996082 0.010260572 -0.09266428 -0.019206084 -0.009681169 -0.093124725 -0.07103627
-0.0020962807 -0.051672954 -0.11169655 -0.021464478 -0.10842309 -0.07234635 -0.04902423 -0.07191721
0.022839904 0.029482022 -0.061982628 -0.104672186 -0.0018096215 -0.06005044 -0.0007198532 -0.0463138
-0.02391376 -0.09891016 -0.079901904 -0.08840931 -0.102608964 -0.05318689 -0.094758384 -0.0348858
-0.07428275 -0.026037127 -0.04423128 -0.079312 -0.11657714 -0.06871605 0.056624293 -0.03973911
-0.031934597 -0.09743417 -0.0011414886 0.001856378 -0.12141738 -0.016478056 -0.114537545 -0.008039132
-0.001510341 -0.11038248 -0.0032352582 -0.05099497 0.0070992312 -0.09305104 -0.033904202 -0.040630814
-0.028670598 -0.035880476 -0.04733505 -0.09449247 -0.07953335 -0.09966418 -0.04991682 -0.03379666
-0.025341555 -0.047616597 -0.07355494 0.035832733 -0.0012079175 -0.08831438 0.00030831725 0.013995387
-0.055079825 -0.0840344 -0.08502729 -0.07477733 -0.03787973 -0.08859464 0.0002962142 -0.09942063
-0.0621332 0.00392834 -0.0044510257 -0.095287584 -0.089757636 0.038258478 0.03669946 -0.05507359
0.047817864 -0.029640619 -0.044666614 -0.043993805 -0.020127352 0.038564377 -0.056789126 -0.091171816
-0.02643577 -0.0047671157 -0.06348112 -0.018619524 -0.0011316926 -0.026181735 -0.03491388 -0.050028432
0.023735508 0.037816957 0.05746758 -0.08530446 -0.081208274 0.042289853 -0.029977316 0.0036206096
-0.05857692 -0.07822255 0.04954695 0.0046873465 -0.015739476 -0.076871105 -0.012773577 -0.08493507
-0.07880783 -0.040133215 -0.018675687 -0.0832173 -0.10341857 -0.025719844 -0.043251812 -0.03740359
-0.055037104 -0.08982316 -0.061605774 -0.008477744 -0.038716756 -0.0722952 -0.0780502 -0.11746851
-0.11483842 -0.05083458 -0.06926862 -0.022095561 -0.0970847 -0.07612 -0.030669436 0.029963233
-0.011808082 -0.08970638 -0.107683934 -0.06685186 -0.08480481 -0.013554994 -0.05561322 0.049499944
-0.07384259 -0.06613726 0.00075369776 0.048720688 -0.09217433 -0.0008575233 0.025898784 -0.04912252
-0.023994956 -0.10248402 -0.10238104 -0.010987349 -0.055756312 -0.00080341037 -0.009713657 -0.0390872
-0.06594101 -0.09796555 -0.025901169 -0.04161191 -0.11319378 -0.099337064 -0.07491158 -0.018069938
-0.086607926 -0.02072542 0.058195293 0.053609706 -0.005340409 -0.070659325 -0.047497578 -0.047330003
-0.060792476 -0.098288015 -0.041380864 -0.10644816 -0.07979983 -0.077141695 -0.046557643 -0.05199229
-0.081402786 -0.08956879 -0.07433616 0.05898177 -0.07840643 -0.044496763 -0.04182431 0.05480261
0.05538843 -0.014499409 -0.015043105 -0.096224084 -0.06691302 -0.04630998 -0.0059518777 -0.012951397
-0.08232038 -0.10515307 -0.031942252 -0.096087575 -0.096129715 -0.08663416 -0.039271712 -0.101227194
0.011622824 -0.0016939691 -0.037302088 -0.083236806 -0.08381689 0.045499645 -0.0054840804 0.029733151
-0.0011685491 -0.0749073 -0.04483195 -0.05970739 0.004044816 -0.056743518 0.013131879 0.02610121
0.053462632 -0.027525412 -0.024065271 0.0023760616 0.00972297 -0.045845054 0.0019246247 -0.028544754
00000000: 4410 a0bc b8c3 7cbd b033 7ebc 5042 183d
00000010: 5f71 dabb 3c89 bbbd 3a66 f9bd b82e 97bd
00000020: 945c fe3b fd39 c1bd 8a87 edbd 590d 82bd
00000030: f1da b2bd 4cd4 29bd a6f5 cdbd b4f5 e9bd
00000040: 3361 78bd e084 a3bc f51b 283c c5c6 bdbd
00000050: 1456 9dbc c49d 1ebc 2db8 bebd 777b 91bd
00000060: c161 09bb 05a7 53bd 29c1 e4bd 46d6 afbc
00000070: ed0c debd 532a 94bd a2cd 48bd 5549 93bd
00000080: c01a bb3c 4884 f13c 7fe1 7dbd 5f5e d6bd
00000090: d230 edba 73f7 75bd 88b4 3cba 8ab3 3dbd
000000a0: cae6 c3bc 6991 cabd 9ca3 a3bd f10f b5bd
000000b0: a624 d2bd 7fda 59bd af10 c2bd 6ae4 0ebd
000000c0: 8e21 98bd d04b d5bc dc2b 35bd 546e a2bd
000000d0: ffbf eebd 00bb 8cbd e0ee 673d 7ac5 22bd
000000e0: dacd 02bd 918b c7bd 009e 95ba b651 f33a
000000f0: ada9 f8bd fdfc 86bc a992 eabd 90b6 03bc
00000100: a2f6 c5ba 3610 e2bd a006 54bb 1ae0 50bd
00000110: aba0 e83b 8b91 bebd 22df 0abd 7f6c 26bd
00000120: 9ade eabc 68f7 12bd 66e2 41bd 4585 c1bd
00000130: 62e2 a2bd bc1c ccbd 9475 4cbd 5e6e 0abd
00000140: 1899 cfbc 9f09 43bd f9a3 96bd 58c5 123d
00000150: fc52 9eba 2bde b4bd a4a5 a139 e84c 653c
00000160: 629b 61bd 3a1a acbd ca22 aebd db24 99bd
00000170: c727 1bbd 1b71 b5bd 324d 9b39 0b9d cbbd
00000180: 627f 7ebd 4eb9 803b e9d9 91bb 2326 c3bd
00000190: dad2 b7bd ecb4 1c3d 2c52 163d d894 61bd
000001a0: aadc 433d e2d0 f2bc 57f4 36bd d932 34bd
000001b0: 1ee2 a4bc aef5 1d3d b79b 68bd 4ab8 babd
000001c0: d48f d8bc 7735 9cbb 6402 82bd f987 98bc
000001d0: 4d55 94ba 147b d6bc db01 0fbd 9dea 4cbd
000001e0: f870 c23c f4e5 1a3d 2063 6b3d 1bb4 aebd
000001f0: 8650 a6bd 2038 2d3d fd92 f5bc c047 6d3b
00000200: 5aee 6fbd 2533 a0bd bef1 4a3d 5098 993b
00000210: 13f0 80bc 996e 9dbd 4448 51bc 70f2 adbd
00000220: 0066 a1bd ba62 24bd c1fd 98bc d56d aabd
00000230: 1dcd d3bd 6cb2 d2bc d028 31bd 8234 19bd
00000240: 966e 61bd 34f5 b7bd 5656 7cbd 3ce6 0abc
00000250: 7695 1ebd 810f 94bd c9d8 9fbd 5593 f0bd
00000260: 6830 ebbd ec37 50bd b5dc 8dbd c001 b5bc
00000270: 58d4 c6bd cde4 9bbd 783e fbbc 7475 f53c
00000280: b076 41bc fbb7 b7bd 6589 dcbd a1e9 88bd
00000290: 25ae adbd c415 5ebc b0ca 63bd 74c0 4a3d
000002a0: c93a 97bd f972 87bd cd93 453a 588f 473d
000002b0: e5c5 bcbd 6acb 60ba b029 d43c b234 49bd
000002c0: 1291 c4bc 24e3 d1bd 27ad d1bd 4804 34bc
000002d0: bb60 64bd f59b 52ba 0826 1fbc e619 20bd
000002e0: 150c 87bd 2aa2 c8bd b02e d4bc 4071 2abd
000002f0: 24d2 e7bd 3b71 cbbd 3e6b 99bd 6807 94bc
00000300: 7f5f b1bd 5bc8 a9bc 305e 6e3d da95 5b3d
00000310: 99fe aebb d6b5 90bd d28c 42bd 1bdd 41bd
00000320: 8801 79bd 3a4b c9bd fb7e 29bd 7e01 dabd
00000330: 186e a3bd 77fc 9dbd 3ab3 3ebd def5 54bd
00000340: 81b6 a6bd d76f b7bd 8f3d 98bd de96 713d
00000350: 8d93 a0bd 3d42 36bd f84f 2bbd b478 603d
00000360: fade 623d ee8e 6dbc 5b77 76bc 2211 c5bd
00000370: b209 89bd 89af 3dbd f807 c3bb 1932 54bc
00000380: 9697 a8bd 7e5a d7bd e1d5 02bd 90c9 c4bd
00000390: a8df c4bd 406d b1bd 60db 20bd 3450 cfbd
000003a0: a86d 3e3c 2c08 deba 13ca 18bd 0f78 aabd
000003b0: 31a8 abbd d65d 3a3d cdb3 b3bb f092 f33c
000003c0: 002a 99ba 0069 99bd b5a1 37bd bc8f 74bd
000003d0: 608a 843b e46b 68bd 1827 573c 34d2 d53c
000003e0: a2fb 5a3d f97c e1bc 8824 c5bc b3b7 1b3b
000003f0: 184d 1f3c 06c8 3bbd b043 fc3a b0d6 e9bc

graph_matcher.mlp.0.bias f4 [128]
-0.08182335 -0.10367075 -0.15966283 -0.12677133 -0.0858385 -0.016521333 -0.039389238 0.107891396
-0.084803164 -0.005265172 -0.08257662 -0.10326043 -0.080001004 -0.12939999 -0.047062196 0.26729575
-0.026772393 -0.10486962 0.091557905 -0.021141287 -0.07716365 0.13510486 -0.1244031 -0.011624508
-0.03063474 -0.104128495 -0.0475805 -0.012542965 -0.054777086 -0.06542258 -0.10539371 -0.048035234
0.23812534 0.12352272 -0.10282017 -0.050046586 0.17226492 -0.033417117 0.15632646 -0.16878568
0.35025972 -0.024170399 -0.10016101 -0.15826164 -0.04234646 0.08270493 0.28347385 0.21420847
-0.17044993 -0.07806445 -0.17888336 -0.068410896 -0.036654387 -0.10472836 -0.044724517 -0.16655754
-0.093522996 0.16297185 0.014916393 -0.03609889 0.13883646 -0.110495284 -0.15697642 -0.1278442
-0.15969211 -0.04232942 -0.10424781 0.20774405 0.03856455 -0.08166331 -0.055946186 0.14437604
-0.19777633 0.109593235 0.22770637 -0.07866559 -0.09997069 -0.15409242 -0.17219967 0.09494952
-0.016177382 0.08622782 -0.08389846 -0.013872378 -0.06991197 -0.1047705 -0.0056049386 0.07311797
-0.01447059 0.12701574 -0.20679988 -0.103428304 -0.052689523 -0.030202625 0.13128996 -0.023476792
0.14605579 0.17108059 -0.044467185 -0.08515833 -0.037154347 -0.051325332 -0.12258455 -0.073548324
0.24704392 0.13426341 -0.048449747 0.24477968 -0.103265435 0.26061028 -0.2473792 -0.0476805
-0.08721709 -0.10711743 -0.01655328 -0.081414 0.21474715 -0.0296415 -0.025783567 -0.031184264
-0.103470944 -0.06536073 -0.10161946 -0.11222976 -0.07267134 -0.11281639 -0.17843045 -0.12727717
00000000: 0093 a7bd 5551 d4bd a77e 23be 58d0 01be
00000010: 18cc afbd bf57 87bc 9c56 21bd 2af6 dc3d
00000020: 48ad adbd 7787 acbb ee1d a9bd 347a d3bd
00000030: 91d7 a3bd 6e81 04be 4ac4 40bd fdda 883e
00000040: c751 dbbc e2c5 d6bd b682 bb3d 7e30 adbc
00000050: fa07 9ebd ee58 0a3e 0dc7 febd b874 3ebc
00000060: b5f5 fabc 5241 d5bd c5e3 42bd 0281 4dbc
00000070: f05d 60bd 46fc 85bd a8d8 d7bd 98c0 44bd
00000080: 21d7 733e 7bf9 fc3d 6293 d2bd a6fd 4cbd
00000090: 3766 303e 63e0 08bd 0b14 203e 27d6 2cbe
000000a0: 3e55 b33e 0001 c6bc 3721 cdbd 570f 22be
000000b0: 7b73 2dbd 3461 a93d 7c23 913e 7759 5b3e
000000c0: 6d8a 2ebe 41e0 9fbd 332d 37be 031b 8cbd
000000d0: e922 16bd d37b d6bd 0e31 37bd 0f8e 2abe
000000e0: fc88 bfbd 18e2 263e e363 743c 6edc 13bd
000000f0: 252b 0e3e 5a4b e2bd 6dbe 20be 97e9 02be
00000100: 5486 23be 9d61 2dbd e07f d5bd dbba 543e
00000110: ddf5 1d3d 183f a7bd d427 65bd 50d7 133e
00000120: e185 4abe 6b72 e03d dc2b 693e 6d1b a1bd
00000130: 6fbd ccbd 67ca 1dbe 1c55 30be e574 c23d
00000140: 6e86 84bc 3698 b03d f5d2 abbd f848 63bc
00000150: 022e 8fbd ea91 d6bd a2a9 b7bb e0be 953d
00000160: 0e16 6dbc 6a10 023e 59c3 53be 38d2 d3bd
00000170: f8d0 57bd 7f6b f7bc e070 063e 6752 c0bc
00000180: a68f 153e c02f 2f3e 3923 36bd 7e67 aebd
00000190: 282f 18bd 833a 52bd 9c0d fbbd 81a0 96bd
000001a0: 15f9 7c3e 597c 093e 3e73 46bd 86a7 7a3e
000001b0: d47c d3bd b66e 853e f950 7dbe a14c 43bd
000001c0: e09e b2bd 6260 dbbd bf9a 87bc 62bc a6bd
000001d0: ade6 5b3e bbd2 f2bc 0f38 d3bc 2476 ffbc
000001e0: 93e8 d3bd d9db 85bd dd1d d0bd b7d8 e5bd
000001f0: b6d4 94bd 480c e7bd 79b6 36be f254 02be

graph_matcher.mlp.2.weight f4 [128, 128]
0.0041591376 0.024444737 -0.073412806 -0.017885447 0.08405671 -0.04110403 0.03766524 -0.085083455
0.06474479 -0.031956878 0.01278545 0.024615288 0.0874236 -0.030454945 0.036358938 0.17406353
0.030970179 -0.007480167 -0.06378613 0.007578023 0.034077264 -0.074914925 0.0021820664 -0.01873909
0.06261679 0.00047867 0.08479103 -0.05640986 -0.016322918 0.048138805 0.038257487 0.019039795
-0.1590727 0.047958247 0.070774876 -0.017111577 0.07687747 -0.087747544 -0.007272944 -0.07302953
-0.16179004 -0.007073745 0.07206044 -0.028505914 -0.039789416 0.016527265 0.29424152 -0.008102119
-0.046779968 -0.021012045 -0.042021345 -0.04895524 -0.0010459274 -0.010470539 -0.043684524 -0.009405531
0.046811394 -0.032647137 -0.0027518086 0.05642926 0.026943944 -0.024367914 -0.019221872 -0.07635552
0.11804329 -0.033829253 0.0776184 0.08014173 -0.014958605 -0.014581442 0.016493477 -0.026023928
0.042488046 -0.026698172 -0.17541735 -0.023343265 -0.0013149902 -0.028474506 -0.011469297 0.019037202
0.06599746 -0.06760517 0.0253084 -0.0311528 0.049765773 0.030942835 0.040957473 -0.05997149
0.084612094 0.021199591 0.0032201782 -0.014243588 0.023850925 -0.06352844 0.0115068555 0.025584824
0.029755056 -0.12081985 0.048895754 -0.082351014 0.06368729 0.019799538 0.059664346 0.032078125
-0.10174995 0.05312165 -0.01134336 0.14379874 0.06123496 0.14698367 0.05170607 0.023691751
0.015396938 0.024188086 -0.04847804 0.0118137 -0.040172543 -0.04211291 -0.026518796 0.042665683
0.079418994 0.0843612 -0.019177772 0.07670716 0.048666827 0.050364725 -0.05307839 0.076890014
-0.014912516 -0.020880401 -0.010034598 -0.07709749 0.004944332 0.04908005 0.072421126 -0.053715337
-0.038952887 -0.020135626 0.055827267 0.04756988 0.058061726 -0.02732712 0.053713463 -0.07081818
-0.080853954 0.05860398 0.010078967 -0.030964121 0.038663305 -0.062006146 -0.06056714 -0.06459807
-0.08374508 -0.06185461 0.06364209 0.0067452863 0.00896848 0.087310575 -0.007020235 0.045283727
-0.27028736 0.08058626 -0.012002662 0.04581604 0.06782555 0.07451566 -0.07783728 0.06284685
-0.2655357 -0.068840764 -0.06993915 -0.05990383 0.004170954 0.031741604 -0.06645122 0.08541981
0.013279431 -0.06289762 0.08472585 0.08660226 0.049086295 -0.030875452 -0.079715885 -0.009837255
0.060286827 -0.07465724 -0.23535773 0.017647654 0.0067160577 0.07717063 -0.027565144 -0.064570874
0.0071047693 0.02103781 -0.05194639 -0.052709777 -0.14883378 -0.07630059 0.0077119023 0.053295888
-0.032314274 -0.20766401 -0.23887484 0.032559507 0.07057566 0.035831764 -0.06303428 -0.00011334568
0.021050423 0.012925282 -0.010867499 0.058544807 0.0141586885 0.080028795 0.08439914 -0.28434297
0.01690697 0.0015287176 0.084136195 -0.03342109 -0.059196174 0.034525454 0.05925312 -0.081364766
-0.02780002 -0.18865152 0.045000486 0.019132555 -0.08642727 0.06609783 0.029902272 0.07175999
-0.12546198 -0.051042434 0.0616417 0.019601032 -0.070557214 -0.023360237 -0.01422473 0.0002214387
0.053642057 0.026563063 0.04400208 0.081635036 -0.006781712 -0.037607096 0.0071591362 0.04716649
0.009936847 0.044987045 -0.050456036 0.08462969 0.014828064 -0.017918967 -0.0004708618 0.087566786
00000000: 6049 883b 5440 c83c 7459 96bd 8084 92bc
00000010: ed25 ac3d b35c 28bd de46 1a3d 3c40 aebd
00000020: eb98 843d 37e5 02bd 107a 513c 00a6 c93c
00000030: 250b b33d a67c f9bc 1ced 143d b63d 323e
00000040: 2cb5 fd3c 301c f5bb 4da2 82bd 1051 f83b
00000050: 9a94 0b3d ff6c 99bd 0001 0f3b b882 99bc
00000060: 3b3d 803d 00f6 fa39 eba6 ad3d 060e 67bd
00000070: a4b7 85bc 322d 453d e2b3 1c3d 58f9 9b3c
00000080: f4e3 22be de6f 443d 6bf2 903d 942d 8cbc
00000090: ef71 9d3d fcb4 b3bd e051 eebb 8290 95bd
000000a0: 4aac 25be e0ca e7bb 6d94 933d 3c85 e9bc
000000b0: 3afa 22bd 3064 873c d3a6 963e c0be 04bc
000000c0: 5a9c 3fbd 7421 acbc 931e 2cbd 4a85 48bd
000000d0: 8017 89ba a08c 2bbc 8bee 32bd a819 1abc
000000e0: 4ebd 3f3d 01b9 05bd b057 34bb 5e22 673d
000000f0: 8cb9 dc3c 389f c7bc 3077 9dbc 4860 9cbd
00000100: aec0 f13d 8b90 0abd 65f6 9e3d 5921 a43d
00000110: f014 75bc 00e7 6ebc 541d 873c 2230 d5bc
00000120: f207 2e3d 20b6 dabc 9ba0 33be 603a bfbc
00000130: c05b acba 5e43 e9bc b8e9 3bbc e8f3 9b3c
00000140: ad29 873d 9474 8abd 9053 cf3c 2834 ffbc
00000150: 32d7 4b3d d47b fd3c 06c3 273d aaa4 75bd
00000160: 1b49 ad3d c4aa ad3c a009 533b f05d 69bc
00000170: 0463 c33c 331b 82bd 4087 3c3c 4497 d13c
00000180: e0c0 f33c 6670 f7bd ea46 483d a6a7 a8bd
00000190: 7b6e 823d a432 a23c 9a62 743d 5a64 033d
000001a0: 4762 d0bd 1696 593d 80d9 39bc fa3f 133e
000001b0: 82d1 7a3d e382 163e bec9 533d 3415 c23c
000001c0: 7043 7c3c 1826 c63c e990 46bd 408e 413c
000001d0: f78b 24bd 967e 2cbd f23d d9bc 36c2 2e3d
000001e0: 6da6 a23d 91c5 ac3d b41a 9dbc a518 9d3d
000001f0: de56 473d 3e4b 4e3d ba68 59bd 8378 9d3d
00000200: a053 74bc 600d abbc 2868 24bc 4ae5 9dbd
00000210: 1004 a23b 2a08 493d 8751 943d 9d04 5cbd
00000220: 108d 1fbd 78f3 a4bc 22ab 643d a2d8 423d
00000230: 22d2 6d3d 20dd dfbc a602 5c3d 1f09 91bd
00000240: c296 a5bd ba0a 703d 4022 253c 78a8 fdbc
00000250: 6a5d 1e3d 28fa 7dbd 4015 78bd fe4b 84bd
00000260: 8a82 abbd 425b 7dbd c956 823d 9007 dd3b
00000270: 88f0 123c e3cf b23d 000a e6bb 6e7b 393d
00000280: 1b63 8abe 690a a53d d0a6 44bc 9aa9 3b3d
00000290: 1fe8 8a3d ab9b 983d 2769 9fbd d9b5 803d
000002a0: 4cf4 87be 63fc 8cbd 423c 8fbd b85d 75bd
000002b0: 80ac 883b 7c03 023d 9417 88bd 95f0 ae3d
000002c0: f891 593c 78d0 80bd bf84 ad3d 875c b13d
000002d0: b60e 493d 84ee fcbc 1542 a3bd 702c 21bc
000002e0: 52ef 763d e5e5 98bd 9e01 71be d091 903c
000002f0: 6012 dc3b a30b 9e3d 4cd0 e1bc bc3d 84bd
00000300: 20cf e83b 7c57 ac3c bdc5 54bd 35e6 57bd
00000310: e267 18be 7c43 9cbd 20b4 fc3b ca4c 5a3d
00000320: f95b 04bd e0a5 54be 9b9b 74be 1e5d 053d
00000330: f989 903d 54c4 123d 1e18 81bd 00b4 edb8
00000340: f071 ac3c 90c4 533c 980d 32bc aecc 6f3d
00000350: d8f9 673c 23e6 a33d 75d9 ac3d 6795 91be
00000360: 7c80 8a3c 405f c83a 994f ac3d 8ee4 08bd
00000370: b077 72bd 906a 0d3d 66b3 723d 92a2 a6bd
00000380: debc e3bc dd2d 41be 6e52 383d e0bb 9c3c
00000390: c800 b1bd 4d5e 873d 9cf5 f43c e7f6 923d
000003a0: 1b79 00be df11 51bd 027c 7c3d 5892 a03c
000003b0: 4d80 90bd f85d bfbc d80e 69bc 0032 6839
000003c0: c6b7 5b3d c89a d93c 863b 343d 4530 a73d
000003d0: 2039 debb e609 1abd 3097 ea3b a631 413d
000003e0: 28ce 223c 5644 383d fdaa 4ebd 5552 ad3d
000003f0: 68f1 723c ccca 92bc 00de f6b9 3756 b33d

graph_matcher.mlp.2.bias f4 [128]
-0.18753424 -0.2320585 -0.026732048 -0.035020366 -0.07986577 -0.026161678 -0.16323273 -0.18095233
0.05796288 0.14055361 -0.14139618 -0.023305852 0.3791868 0.07892994 -0.16508101 0.0053632655
-0.11101712 -0.19616307 -0.14636512 -0.12373661 0.008743338 -0.11552043 0.34493917 0.016252307
-0.044737197 0.28402835 0.010496474 0.011847747 -0.122178786 -0.19231592 -0.09260318 0.14066102
0.16782765 -0.26151663 -0.29844168 0.13806342 -0.49634117 0.14447199 -0.07001255 0.04450113
0.04918041 -0.055924885 -0.0021920276 -0.15711954 0.094391145 -0.07646985 -0.09064641 -0.07543843
-0.184911 -0.15662052 -0.40329906 -0.06134591 -0.16633582 -0.085307516 -0.06028173 -0.14163826
-0.18600297 -0.013886364 -0.25575474 -0.030386157 -0.08784282 -0.09023801 -0.1985962 0.04176553
0.008860746 -0.08279411 -0.15613444 -0.10281984 -0.05011945 -0.12396778 -0.058503408 -0.07765428
-0.02068518 -0.23102401 0.2900958 -0.044417422 -0.17340861 -0.19299704 0.019498164 0.012267798
-0.014367229 -0.066047505 0.30844098 -0.058113012 0.056543116 -0.29220462 -0.018919561 -0.04711544
-0.11083503 -0.097116224 -0.038612597 -0.0045497376 -0.24081376 -0.08198711 0.17459136 0.041899968
-0.10679993 0.023307763 -0.10531657 -0.26315352 0.14108337 0.3621246 -0.19911449 -0.050516065
-0.3644024 0.124876 -0.0048114997 -0.073252626 -0.17361099 -0.10058894 -0.06704383 -0.098842226
-0.17766024 -0.03383022 -0.00014894977 -0.28995675 -0.006306474 -0.17378812 -0.13525547 -0.09356539
0.08773355 -0.2106952 -0.08836121 -0.015675392 0.005636919 -0.22519237 -0.026602969 -0.14681838
00000000: fa08 40be bea0 6dbe 2bfd dabc 8471 0fbd
00000010: aa90 a3bd 0451 d6bc 7b26 27be 914b 39be
00000020: 7c6a 6d3d 49ed 0f3e 29ca 10be eaeb bebc
00000030: c624 c23e 05a6 a13d ff0a 29be 55be af3b
00000040: f25c e3bd f9de 48be bde0 15be 9f69 fdbd
00000050: 3840 0f3c fa95 ecbd de9b b03e 8f23 853c
00000060: 5a3e 37bd 2a6c 913e 67f9 2b3c 0d1d 423c
00000070: df38 fabd 77ee 44be bca6 bdbd 7109 103e
00000080: 03db 2b3e 82e5 85be 59cd 98be 7f60 0d3e
00000090: 6e20 febe 77f0 133e bd62 8fbd d146 363d
000000a0: 6671 493d 7e11 65bd 1fa8 0fbb f2e3 20be
000000b0: 2550 c13d 3a9c 9cbd d3a4 b9bd 777f 9abd
000000c0: 4f59 3dbe 2161 20be 377d cebe d945 7bbd
000000d0: f053 2abe b5b5 aebd fae9 76bd 9f09 11be
000000e0: 9077 3ebe a283 63bc 49f2 82be 64ec f8bc
000000f0: f0e6 b3bd b5ce b8bd cd5c 4bbe 5512 2b3d
00000100: aa2c 113c f58f a9bd b5e1 1fbe 3593 d2bd
00000110: 0d4a 4dbd d2e2 fdbd 45a1 6fbd 3509 9fbd
00000120: f773 a9bc 8f91 6cbe 7087 943e 0bef 35bd
00000130: 0792 31be 04a1 45be 9dba 9f3c e0fe 483c
00000140: 8764 6bbc ea43 87bd faeb 9d3e e907 6ebd
00000150: c199 673d d89b 95be 32fd 9abc 1ffc 40bd
00000160: 7afd e2bd dfe4 c6bd 3e28 1ebd f715 95bb
00000170: e297 76be dce8 a7bd 14c8 323e 4d9f 2b3d
00000180: ecb9 dabd ecef be3c 37b0 d7bd 0fbc 86be
00000190: 2978 103e 6568 b93e abe4 4bbe efe9 4ebd
000001a0: f492 babe fdbe ff3d c9a9 9dbb 7905 96bd
000001b0: 14c7 31be 9301 cebd 474e 89bd cb6d cabd
000001c0: 91ec 35be 8f91 0abd 662f 1cb9 3675 94be
000001d0: 8aa6 cebb 83f5 31be 6980 0abe 369f bfbd
000001e0: a6ad b33d 7cc0 57be b9f6 b4bd ae69 80bc
000001f0: e7b5 b83b d498 66be 78ee d9bc 8f57 16be

graph_matcher.mlp.4.weight f4 [64, 128]
-0.056480136 -0.09187404 -0.020028228 -0.043283172 -0.04684072 -0.13785265 -0.026619226 0.02601441
-0.12377032 -0.28457668 -0.0764088 0.020643426 0.55729413 0.18915927 -0.44045678 -0.13261952
-0.083977975 0.085920006 0.0131011205 -0.13138813 -0.06073031 -0.01406733 0.90882677 0.024730168
0.012618195 0.17900532 -0.09628613 0.009853893 0.12380485 0.017958716 -0.094014935 -0.23516257
0.0075803027 0.17524046 0.030952226 0.62040657 0.10243724 -0.024983998 0.043733366 -0.16892442
-0.16874272 0.008281861 -0.05298921 -0.03712391 -0.3425787 -0.10752086 -0.02453518 -0.014131698
0.040460046 0.16267136 -0.09630359 0.28344494 0.0072981287 0.11724315 -0.16953796 0.13025385
0.02532598 -0.043911237 -0.44405243 -0.16265294 0.020164018 0.008104104 0.21859656 -0.28814703
-0.082035914 -0.07339131 -0.06396009 -0.06833382 0.027635647 0.025298031 -0.08775582 0.019928416
-0.052524906 -0.11216916 -0.31292048 -0.016118757 0.04252391 0.2819284 -0.03970615 0.052194584
-0.07187607 0.17039488 0.43383977 -0.048169874 -0.045330737 -0.1967584 0.026504489 -0.10824069
-0.103628576 -0.11222705 -0.092157796 -0.040860437 -0.19016002 0.0063832854 -0.17615715 -0.006887397
0.1492229 -0.100454785 0.03430327 -0.034039542 -0.30061528 0.8671997 -0.00586103 -0.015089928
-0.08454179 -0.31463727 -0.07332223 -0.08541007 0.060932267 0.028034657 -0.042277005 -0.06742988
-0.013090382 -0.16313834 0.024370406 -0.09096225 0.06891658 0.038337007 -0.1155375 0.026697874
-0.18870424 0.104014836 0.073479176 -0.13166721 -0.057542346 0.09940383 -0.08892484 0.00036848162
0.12352849 -0.081123 0.07443676 -0.072366156 0.049279377 -0.020366646 -0.05334271 -0.011115768
-0.054326866 0.04204983 -0.08027478 -0.1737844 -0.25450736 -0.21062268 -0.118613 -0.056768425
0.04975819 0.046733543 -0.04614861 0.03595134 -0.078199275 0.0011300361 -0.21096821 -0.16653092
0.06345245 -0.098226786 -0.084735565 -0.080146685 -0.1278716 -0.2590519 0.05610387 -0.007574781
-0.0412388 0.024309112 -0.064865574 -0.11844816 -0.2938742 0.027478851 0.04028417 -0.12512524
0.08810028 0.042687736 -0.015279952 0.039736737 0.07237133 0.007481215 -0.062649354 -0.00025557392
0.037224058 0.34837094 0.3585739 -0.21133532 0.052572556 0.025943317 0.103973985 0.11470366
-0.052920796 0.08323383 0.275997 0.15045457 -0.13695955 0.049995895 -0.24561945 0.071168914
-0.041799355 -0.076546706 -0.085873015 0.056380082 0.117536165 -0.048045218 0.0077382824 -0.02382649
-0.10457834 0.1271433 0.16437721 -0.060442206 -0.083478846 0.327999 -0.17016251 0.04248337
-0.0093256505 -0.08065509 -0.17427059 -0.021519942 0.025668891 0.24651778 0.043736666 -0.029891029
-0.019639527 -0.024151927 -0.00029418065 0.040453125 -0.22432196 0.0670623 0.053265683 -0.13578224
-0.13724615 0.10752764 -0.12122618 -0.10432436 0.06807306 -0.0904563 0.0019779238 -0.071052656
0.10750508 -0.009880376 -0.13151966 0.05966845 -0.014153271 0.08198904 0.04946305 0.045970686
0.12440632 -0.0383347 -0.003777784 0.061347496 0.10229993 0.025789376 0.27571282 -0.13349082
-0.03027638 -0.19792381 0.054941453 -0.0806013 0.037691038 0.04777551 0.013017127 -0.064934514
00000000: b757 67bd 7528 bcbd 3d12 a4bc b249 31bd
00000010: 0edc 3fbd 3f29 0dbe 9010 dabc 2c1c d53c
00000020: 4b7b fdbd 09b4 91be 387c 9cbd 671c a93c
00000030: d4aa 0e3f f8b2 413e 8d83 e1be 69cd 07be
00000040: a5fc abbd d4f6 af3d 15a6 563c 9c8a 06be
00000050: 58c0 78bd a97a 66bc dfa8 683f ec96 ca3c
00000060: 8cbc 4e3c 2c4d 373e aa31 c5bd 3972 213c
00000070: 668d fd3d 281e 933c e78a c0bd 75ce 70be
00000080: 3064 f83b 3c72 333e 868f fd3c f7d2 1e3f
00000090: 9eca d13d 3eab ccbc c221 333d 86fa 2cbe
000000a0: e4ca 2cbe a5b0 073c 370b 59bd 3e0f 18bd
000000b0: 7a66 afbe e633 dcbd 00fe c8bc a388 67bc
000000c0: 6fb9 253d 5293 263e d13a c5bd b21f 913e
000000d0: 2425 ef3b 2d1d f03d 5c9b 2dbe 4461 053e
000000e0: 6e78 cf3c 45dc 33bd d75a e3be 7e8e 26be
000000f0: 032f a53c 13c7 043c c7d7 5f3e 0288 93be
00000100: 7202 a8bd 2f4e 96bd 82fd 82bd 9af2 8bbd
00000110: 2764 e23c d13d cf3c 53b9 b3bd eb40 a33c
00000120: 5b24 57bd f2b8 e5bd 1d37 a0be 7c0b 84bc
00000130: 8d2d 2e3d eb58 903e eaa2 22bd fdc9 553d
00000140: c333 93bd ff7b 2e3e 3f20 de3e c64d 45bd
00000150: b9ac 39bd 097b 49be f11f d93c 4bad ddbd
00000160: 383b d4bd 4cd7 e5bd 3abd bcbd 465d 27bd
00000170: 4fb9 42be e12a d13b 8a62 34be acaf e1bb
00000180: e3cd 183e 3dbb cdbd 9681 0c3d 0c6d 0bbd
00000190: 3fea 99be cd00 5e3f e20d c0bb bf3b 77bc
000001a0: 3f24 adbd 2318 a1be f729 96bd 7aeb aebd
000001b0: 1d94 793d f0a8 e53c a72a 2dbd ad18 8abd
000001c0: 0b79 56bc bd0d 27be 72a4 c73c 6b4a babd
000001d0: 2324 8d3d 4407 1d3d ed9e ecbd 80b5 da3c
000001e0: af3b 41be bb05 d53d 407c 963d c5d3 06be
000001f0: 86b1 6bbd 3c94 cb3d 3a1e b6bd c430 c139
00000200: 81fc fc3d d123 a6bd 4d72 983d b534 94bd
00000210: 2cd9 493d f4d7 a6bc e37d 5abd e91e 36bc
00000220: d985 5ebd 713c 2c3d 1b67 a4bd 8af4 31be
00000230: ca4e 82be 79ad 57be 5feb f2bd 0286 68bd
00000240: 3ecf 4b3d ac6b 3f3d 5306 3dbd b641 133d
00000250: f126 a0bd b81d 943a 0d08 58be 1587 2abe
00000260: 5cf3 813d 202b c9bd d789 adbd f223 a4bd
00000270: c6f0 02be 73a2 84be 2ccd 653d de35 f8bb
00000280: 04ea 28bd e723 c73c 3ed8 84bd f394 f2bd
00000290: ae76 96be 541b e13c 0401 253d d520 00be
000002a0: eb6d b43d 56d9 2e3d c458 7abc fdc2 223d
000002b0: 6b37 943d fb24 f53b 4e4e 80bd 8dfe 85b9
000002c0: 4178 183d ad5d b23e 0097 b73e 4968 58be
000002d0: 5256 573d 1487 d43c 50f0 d43d c1e9 ea3d
000002e0: 7ac3 58bd 8076 aa3d 7b4f 8d3e c310 1a3e
000002f0: 203f 0cbe 7fc8 4c3d aa83 7bbe 02c1 913d
00000300: cd35 2bbd 85c4 9cbd 31de afbd cdee 663d
00000310: cdb6 f03d 10cb 44bd 6b91 fd3b c52f c3bc
00000320: 2b2d d6bd da31 023e 8052 283e 3f92 77bd
00000330: f5f6 aabd 7cef a73e 153f 2ebe 0b03 2e3d
00000340: 9dca 18bc 7f2e a5bd fd73 32be 974a b0bc
00000350: 9147 d23c 286f 7c3e 3825 333d 08de f4bc
00000360: 13e3 a0bc 43da c5bc 423c 9ab9 2db2 253d
00000370: a8b4 65be f657 893d 1e2d 5a3d 800a 0bbe
00000380: 418a 0cbe 7437 dc3d 6e45 f8bd 03a8 d5bd
00000390: e369 8b3d 2741 b9bd 0ea0 013b 0e84 91bd
000003a0: a02b dc3d 4de1 21bc 17ad 06be e866 743d
000003b0: 1fe3 67bc dfe9 a73d c499 4a3d c24b 3c3d
000003c0: bec8 fe3d d904 1dbd b394 77bb 8347 7b3d
000003d0: a082 d13d 3e44 d33c 3b2a 8d3e d1b1 08be
000003e0: 2c06 f8bc 8aac 4abe 4a0a 613d 4b12 a5bd
000003f0: eb61 1a3d 41b0 433d ca45 553c 63fc 84bd

graph_matcher.mlp.4.bias f4 [64]
-0.12477595 0.13446663 0.11699392 -0.20117664 0.0563186 -0.12584983 -0.019069558 -0.13271408
-0.16941543 -0.30520034 -0.005517498 -0.08390881 -0.14269488 -0.017032057 0.2236472 -0.16874695
-0.22989628 -0.10418897 -0.016207354 -0.052550957 -0.12717542 0.2632631 -0.14439511 -0.01663573
-0.23840895 -0.21733785 -0.046323057 -0.12195628 0.02920298 0.1438983 0.051569108 -0.2789394
-0.15947403 0.19505584 0.17128989 0.08020608 -0.12885916 -0.037403528 -0.15561539 0.13262488
0.144148 0.14533922 -0.006606249 -0.04685065 0.11075515 -0.16036992 -0.066576496 -0.09984635
-0.007263313 -0.09163208 0.14390329 0.021461435 0.009530257 0.18212399 0.24051552 -0.00074194185
0.23050901 -0.046282288 -0.17185524 -0.2503726 -0.1701949 0.016326986 -0.051686533 -0.06675101
00000000: 898a ffbd 9fb1 093e 829a ef3d 4001 4ebe
00000010: 55ae 663d c7de 00be c337 9cbc 33e6 07be
00000020: 3d7b 2dbe 3843 9cbe 21cc b4bb 62d8 abbd
00000030: 9b1e 12be d086 8bbc c603 653e 00cc 2cbe
00000040: ee69 6bbe 0761 d5bd 49c5 84bc ac3f 57bd
00000050: 463a 02be 6cca 863e 50dc 13be a847 88bc
00000060: 7a21 74be d08d 5ebe 3fbd 3dbd 37c4 f9bd
00000070: 173b ef3c 135a 133e 213a 533d 25d1 8ebe
00000080: 294d 23be b8bc 473e 9e66 2f3e 1643 a43d
00000090: a8f3 03be 7134 19bd a459 1fbe d1ce 073e
000000a0: 899b 133e ced3 143e 3c79 d8bb 78e6 3fbd
000000b0: 99d3 e23d 0338 24be 4259 88bd 3e7c ccbd
000000c0: 1601 eebb 9aa9 bbbd 625b 133e e4cf af3c
000000d0: cc24 1c3c b67e 3a3e b349 763e e07e 42ba
000000e0: 8e0a 6c3e 7f92 3dbd d2fa 2fbe d630 80be
000000f0: 9247 2ebe 2cc0 853c 42b5 53bd c1b4 88bd

classifier.0.weight f4 [32, 64]
-0.27069184 0.11645113 0.23707715 -0.01975776 0.13213831 -0.07637227 0.029513888 -0.06378546
-0.18775533 -0.12006964 0.11141846 -0.05731422 -0.22315077 -0.10397492 0.1796555 -0.19388056
-0.14842412 -0.03712833 0.14265968 -0.07386677 -0.05566108 0.051566213 0.016309306 0.016662212
-0.12698159 -0.061159655 0.07078675 -0.075876966 0.006486932 0.028698027 0.022458022 -0.19375713
-0.03957696 0.1472145 0.046775855 0.20118862 0.08574786 -0.2914199 0.061953634 -0.0013560717
0.21040495 0.080401555 -0.089227274 -0.019016188 0.19543931 -0.06383455 0.0695203 -0.0911931
0.037690796 0.055325262 0.16713382 0.031150261 -0.06907827 0.17311431 0.1808701 0.04264827
0.12578197 -0.18793286 -0.11710695 -0.1654275 -0.21872349 0.006139296 0.039870795 0.09000615
0.052907553 0.08170319 0.12006261 -0.016778802 0.09029772 -0.2277417 -0.061340395 -0.038592774
-0.14623396 0.02640224 0.02969327 -0.13824183 0.13815264 -0.02918857 0.029119063 0.017580291
-0.09626558 0.07280301 -0.11994014 -0.04155163 0.08177089 0.015495056 0.14126106 0.12804906
-0.11437653 -0.14301366 0.0864459 0.11010224 -0.042930875 -0.15059088 -0.03670872 0.06989828
0.14729063 -0.09661727 0.02296494 -0.06936991 0.10250997 0.0543418 0.09228806 -0.07511615
0.018800486 0.10790196 0.01577421 -0.0065848464 -0.0078877965 0.10849718 0.12657335 -0.0051018544
0.109361805 -0.05545018 -0.087778814 -0.17762332 -0.03633273 -0.21651663 0.008186792 0.091453515
-0.08774151 0.124485284 -0.043900102 0.04864865 0.21169397 0.0037743342 0.08752588 -0.13917476
0.005809013 0.10351945 0.09612868 0.07393516 -0.023915565 -0.16609837 -0.16729657 0.115222804
-0.10553714 0.15636039 -0.021949826 -0.1216825 0.07012231 -0.117121376 -0.042046472 -0.0024533703
-0.057051126 -0.06502056 -0.03610853 -0.21132758 0.098939456 -0.07178528 -0.024049351 0.1325347
-0.30542278 -0.04907718 0.08964939 0.022101382 -0.014211135 -0.071575955 -0.09594351 0.1521838
0.058898132 0.07392731 -0.07442142 0.0010957831 0.07471639 0.11103311 -0.12969448 -0.049743418
-0.16865416 -0.028113268 0.121769354 -0.11974614 -0.060580734 0.15661946 0.077023506 -0.027272595
0.15441829 0.13527955 -0.07545186 -0.098871306 0.13402946 0.08519722 -0.10288552 0.20047548
0.03200685 0.0388969 -0.098729886 -0.07696977 0.082124904 -0.07785665 -0.04503985 -0.13299106
-0.053314403 -0.0013111541 0.07849465 -0.01809347 -0.18295898 -0.17023614 -0.08681392 0.010514176
-0.27313492 -0.1900807 -0.088510014 0.023900766 0.10543317 0.04503745 0.0755629 -0.16172622
-0.11472888 -0.20105965 -0.0071335565 -0.034589954 -0.2691478 0.18812798 -0.056510057 -0.1577933
-0.11187526 -0.2134407 -0.31116262 0.022729147 0.12474021 0.07436303 0.09048636 -0.17717883
0.029726354 0.06296912 0.057389226 0.00083842035 -0.08201075 -0.023930067 -0.16725565 -0.030489301
0.0011952575 0.13677712 0.03205892 -0.009646104 -0.09545996 -0.14853828 -0.055961937 0.07788069
0.08688808 -0.0768413 0.040389307 0.11536157 0.015033552 -0.030225528 0.10180691 -0.12767167
0.03113477 0.03146651 -0.093920596 -0.17811814 0.05354805 0.009368198 -0.01600906 -0.033325344
00000000: 1f98 8abe ee7d ee3d 5ac4 723e 07db a1bc
00000010: 444f 073e 1169 9cbd 1cc7 f13c f4a1 82bd
00000020: ef42 40be 12e7 f5bd 5d2f e43d 51c2 6abd
00000030: a381 64be cef0 d4bd 9df7 373e a088 46be
00000040: 7efc 17be e013 18bd 6115 123e 7647 97bd
00000050: dffc 63bd 1837 533d 189b 853c 317f 883c
00000060: 7607 02be 8c82 7abd a5f8 903d 6265 9bbd
00000070: 5490 d43b 2018 eb3c e3f9 b73c 4568 46be
00000080: 731b 22bd 66bf 163e 0a98 3f3d 6404 4e3e
00000090: 939c af3d fd34 95be 18c3 7d3d 37be b1ba
000000a0: 6574 573e 92a9 a43d cabc b6bd d6c7 9bbc
000000b0: 3e21 483e b0bb 82bd a960 8e3d 73c3 babd
000000c0: aa61 1a3d be9c 623d 2125 2b3e d52e ff3c
000000d0: e878 8dbd e144 313e 0336 393e f4af 2e3d
000000e0: fdcc 003e 7971 40be c5d5 efbd d465 29be
000000f0: 0df9 5fbe 262c c93b 8f4f 233d 2555 b83d
00000100: 97b5 583d 0154 a73d 63e3 f53d b373 89bc
00000110: 03ee b83d 1f35 69be 1140 7bbd 7513 1ebd
00000120: 5bbe 15be 8349 d83c 4d3f f33c 448f 0dbe
00000130: e377 0d3e de1c efbc 1a8b ee3c 8b04 903c
00000140: e326 c5bd bf19 953d 2da3 f5bd 0b32 2abd
00000150: 7f77 a73d fade 7d3c bda6 103e 4b1f 033e
00000160: 3e3e eabd 2c72 12be 8c0a b13d 497d e13d
00000170: 49d8 2fbd 7f34 1abe e25b 16bd d426 8f3d
00000180: 5bd3 163e 46df c5bd f820 bc3c d011 8ebd
00000190: bff0 d13d 8295 5e3d 8601 bd3d 7fd6 99bd
000001a0: 7a03 9a3c b4fb dc3d eb38 813c b2c5 d7bb
000001b0: d13b 01bc c533 de3d 729c 013e 752d a7bb
000001c0: 15f9 df3d ba1f 63bd 61c5 b3bd e3e2 35be
000001d0: a1d1 14bd 89b6 5dbe e521 063c fb4b bb3d
000001e0: d2b1 b3bd 24f2 fe3d 98d0 33bd cf43 473d
000001f0: 4ec6 583e d25a 773b c540 b33d d483 0ebe
00000200: 8859 be3b 0102 d43d 1ddf c43d 516b 973d
00000210: 93ea c3bc b115 2abe cb4f 2bbe eff9 eb3d
00000220: db23 d8bd f01c 203e 1fd0 b3bc ad34 f9bd
00000230: 499c 8f3d 55dd efbd ec38 2cbd b9c8 20bb
00000240: 71ae 69bd 8029 85bd 8ae6 13bd 4266 58be
00000250: c5a0 ca3d 2904 93bd 2503 c5bc 2db7 073e
00000260: 6060 9cbe 2705 49bd 199a b73d f50d b53c
00000270: d2d5 68bc 6a96 92bd 087e c4bd 12d6 1b3e
00000280: 2b3f 713d 3467 973d 426a 98bd 61a0 8f3a
00000290: e804 993d 5465 e33d a1ce 04be c1bf 4bbd
000002a0: adb3 2cbe cc4d e6bc 3662 f93d 773d f5bd
000002b0: 8123 78bd da60 203e 80be 9d3d c76a dfbc
000002c0: d41f 1e3e b986 0a3e 8186 9abd 0a7d cabd
000002d0: 053f 093e e17b ae3d a5b5 d2bd 7249 4d3e
000002e0: 9d19 033d 5b52 1f3d e532 cabd 54a2 9dbd
000002f0: 1a31 a83d 4f73 9fbd b57b 38bd cf2e 08be
00000300: 3460 5abd 08db abba cec1 a03d c238 94bc
00000310: 9959 3bbe 6252 2ebe 7fcb b1bd a743 2c3c
00000320: 57d8 8bbe 84a4 42be bd44 b5bd 8acb c33c
00000330: 59ed d73d 3079 383d b9c0 9a3d 8f9b 25be
00000340: faf6 eabd 95e2 4dbe 9cc0 e9bb 32ae 0dbd
00000350: becd 89be 9fa4 403e 1777 67bd 9194 21be
00000360: db1e e5bd 3390 5abe b550 9fbe 7a32 ba3c
00000370: cc77 ff3d a54b 983d ea50 b93d 5e6e 35be
00000380: af84 f33c f4f5 803d f710 6b3d 70c9 5b3a
00000390: 41f5 a7bd fd08 c4bc 1145 2bbe b3c4 f9bc
000003a0: 30aa 9c3a 4d0f 0c3e 3750 033d b10a 1ebc
000003b0: 8380 c3bd 6b1a 18be 5838 65bd e97f 9f3d
000003c0: 61f2 b13d f95e 9dbd 426f 253d b042 ec3d
000003d0: 4a4f 763c 879b f7bc 2480 d03d 5dbc 02be
000003e0: 580e ff3c 07e3 003d 7159 c0bd 9a64 36be
000003f0: 3355 5b3d 127d 193c 6f25 83bc 2880 08bd
