Result/GCN/5000_sample/model_epoch_2_f1_0.5498.pth (torch, 841454 bytes, 42 tensors)

graph_matcher.gnn.conv1.bias f4 [64]
00000000: 746e f93d 0000 0000 0000 0000 00c5 633a
00000010: 09f0 d63c 04c6 c1bb 53e9 0abe 472c e93c
00000020: 440b af3d ae1c debb 2b36 803d 77bf 9abc
00000030: 3703 e8bc cb59 bd3d 428c 443a cfee cb3d
00000040: 0000 0000 b1f5 193d 66c8 033d 78ca 1f3d
00000050: b4f6 db3d d637 8e3d 0000 0000 7e68 23bc
00000060: 0000 0000 fc99 fd3b 9691 3d3d 0000 0000
00000070: bec2 74bd 68f8 6b3d 1b82 053e 099c 77bd
00000080: 1352 04bd 7d3a 5cbd 04f8 f7bd f14f 9c3d
00000090: 385e 83bc 0312 b83c cb7f a8bd 9bcc 56bd
000000a0: 6daf bdbd 20ae 923b 0790 b6bd fbb5 d5bc
000000b0: 99f6 35bd ab05 ab3c 76f9 763c 8e45 fbbc
000000c0: 06ee cfbd 4786 7fbc a433 5bbd 0000 0000
000000d0: 69e7 8dbd 2f75 283c bcf8 9aba fd81 5bbd
000000e0: 87c8 e33c 7797 ad3d cf03 4bbd 1a1e 913b
000000f0: 0000 0000 f3c8 a3bd 3911 f1bd 9f89 89bd
0.121792704 0.0 0.0 0.0008688718 0.026237505 -0.005913498 -0.13565569 0.028463496
0.085470706 -0.006778321 0.06260332 -0.018890126 -0.028321845 0.09245642 0.00074977067 0.099576585
0.0 0.037587825 0.032173537 0.03901145 0.10740414 0.069442436 0.0 -0.009973643
0.0 0.0077393036 0.04628142 0.0 -0.059756033 0.057609946 0.13037913 -0.06045154
-0.032304835 -0.053766716 -0.12107852 0.07632435 -0.016036138 0.022469526 -0.082274996 -0.05244122
-0.092619754 0.0044763237 -0.0891419 -0.026087752 -0.044424627 0.020876726 0.015074125 -0.030672815
-0.10152821 -0.015595979 -0.053516045 0.0 -0.069289036 0.010281845 -0.0011823396 -0.053590763
0.02780558 0.08476155 -0.04956418 0.004428637 0.0 -0.079973124 -0.11770863 -0.06715702

graph_matcher.gnn.conv1.lin.weight f4 [64, 4]
00000000: b4ec 763e 9476 3ebc 8ebd ad3e 37ca 9bbe
00000010: 9ade 47be 7a2d 89be e135 97be 7a3d 86bd
00000020: 2612 88be b2c9 28be e1d9 95be c832 3cbe
00000030: 3db9 033f db93 b93c b741 ce3b 2759 8cbd
00000040: 7877 e03e 2542 55bd d72c 3b3e 68a9 29be
00000050: a037 d83e c63d 073e 7764 e7be 7baa 46bd
00000060: 688c 92be c21a 68be 5187 2fbe 3827 333e
00000070: 1d80 7f3e d636 1e3e 32f9 87be 9deb b1be
00000080: 8cb0 2f3e 1a9e 98bd da6c f33e 8ad0 02be
00000090: a95e aebe 0d6e a43e 0422 21bd bb71 113e
000000a0: caf8 993d a6ae 583c d76e cb3e cd6c f6bd
000000b0: 4f93 81be 5f9c f13d 5422 56be b60c 1c3e
000000c0: 4162 f33e 38cf 98b8 b509 ba3d dcbb d0bd
000000d0: 6c97 563a 044c e73d 5dfe 0d3f 3d96 31be
000000e0: 680f bdbe df3f bcbe ca97 82be 07f9 503e
000000f0: 2a2c c13e 49ba bdbd b246 afbe e927 2dbe
00000100: 5002 38bd 6e4a 8abe 9a2a 9fbd 5035 a7bc
00000110: 5ea0 8fbe 40b6 233e 2407 93be 9d98 c13d
00000120: 1054 a2be ccc3 f93d b46f 883e 0a34 a2be
00000130: 2896 d53e d790 3ebd f2fb a63e 9b6b 42bd
00000140: d3d0 a33e f7a8 a73e a115 f03c 371f b2be
00000150: ac7c 4f3d 5ba1 b6bd 11c4 2c3f fb18 f4bd
00000160: 9e35 1bbe 7c13 91be 8a54 72be e829 14bd
00000170: d112 b3be aca8 483e 685a 7cbe 51ff 673e
00000180: a8ab 61bd 3d86 3dbe 2c0d b6bd 8afa a9bd
00000190: 6040 85be 5d61 48be 6d1e 31be 0be6 763d
000001a0: b23b ea3e 720d 7e3e e3e4 6d3e 3dee 0ebe
000001b0: d07e 10be ff0e 92be 7904 90be d055 ddbc
000001c0: c8ea 42be 45b8 58bd 7346 92be 2ec0 10be
000001d0: 5108 1f3e 9a8b b6bd d33c 2a3f eb0a 0dbe
000001e0: 39c3 c6bc 9982 59bd cdf8 ca3e 8fd0 2ebe
000001f0: 45ee 47be 5e91 8bbe ae82 5abd 4c22 38bd
00000200: 389d f23e c620 1d3d 83b0 303e 1b43 81bd
00000210: cae4 f13e ddce 0b3e a6be b1be 42af 4dbd
00000220: 2ff4 1ebe 47da 403e a0ee c73e e8a1 babe
00000230: 985d 063e d54a 8b3c 6bfc 2c3f 683c abbd
00000240: b064 4bbe 92f4 513d 826f 71be 065f 513e
00000250: 21bd dc3d f963 803d e925 653d 5b64 87be
00000260: f17c 73be 1caa 3abe 08f6 74be 3f58 a5bc
00000270: b2fa fd3e cf8b ee3d 6738 ddbe 75e5 04bd
00000280: 927b 5fbe 303c 95bd 67e2 4b3b 1072 263d
00000290: 38d4 70be 6944 8f3d d6a5 513e 5b69 7bbe
000002a0: a896 b0bd de9c a9bd 470f 5dbd cea0 c63c
000002b0: 246f 283d d7e2 ebbd 0ff0 223f 6fe8 d5bc
000002c0: dd05 4fbe a4a1 7dbe 807d 8ebe 1849 ec3d
000002d0: d2a1 b0be 11c0 433e 76e1 813d 2ebf f2bc
000002e0: a035 a7be db65 873e fdde 68bd 45e4 0c3e
000002f0: 9cf1 88be febe 9c3e e614 b0bd 77c5 0a3e
00000300: 2f9a c7ba 1ced 24bd f3bb 64be 469e 43be
00000310: 8d94 f63e 07dc 713c 85a8 963e 75c7 37bc
00000320: 7e95 15be e02a dabd 6c27 4dbd 2a3b ddbd
00000330: 32ae 78be a9be 22be 6c8e b0bd e021 46bd
00000340: 2328 f53e 12ab 753d 8c61 6abe a612 843c
00000350: f807 83be d934 4b3e 43e5 fbbd 084d 1a3e
00000360: ab22 d2be 9259 c03e 203d a0bd 268e ddbb
00000370: 983e 033d 1a5d 44be c978 31be cc50 8abe
00000380: f02e 1c3e 9502 96be a2f5 80be 47b6 68be
00000390: 9881 833e b05b 493d 75b5 133f c0c8 f5bd
000003a0: 65b5 2cbe e1a8 8fbe b2e5 21be 3f40 7a3e
000003b0: 4c7a 7dbe 8987 8d3d 030a 553d ee96 9abe
000003c0: f0d6 c4bc 3063 4cbe d81f 42be 6447 d1bd
000003d0: a606 9cbe 093e 5cbe 400a 12be 9317 533e
000003e0: dc4f e5bc 368a 57be 2ae0 cd3c 91e6 97be
000003f0: d7dc b93e 7e91 b83c 20a5 e03e ce9b e33c
0.24113733 -0.011624951 0.3393368 -0.30427715 -0.1951851 -0.26792508 -0.29533294 -0.065546945
-0.26576346 -0.1648319 -0.2926779 -0.18378747 0.51454526 0.02265351 0.006294455 -0.06852942
0.43841147 -0.052065033 0.18278824 -0.1656853 0.42229939 0.13207158 -0.45193836 -0.048502427
-0.28622746 -0.22666457 -0.17141463 0.1749543 0.24951215 0.15450606 -0.26557308 -0.3475007
0.17157191 -0.074520305 0.47543985 -0.12774864 -0.34056595 0.32115212 -0.03933908 0.14203541
0.07518156 0.013225233 0.39733002 -0.12032471 -0.253077 0.117974035 -0.20911533 0.15239224
0.475359 -7.286522e-05 0.09083883 -0.10192081 0.0008186016 0.11293796 0.5546625 -0.17342468
-0.36925817 -0.3676748 -0.2550643 0.20407496 0.37729007 -0.09264047 -0.34233624 -0.16909756
-0.04492408 -0.2700991 -0.077717975 -0.020411164 -0.28052038 0.15987492 -0.28716385 0.09452937
-0.3170476 0.121955484 0.26647723 -0.31680328 0.41716123 -0.04652485 0.32614094 -0.0474659
0.31995258 0.32746097 0.029307188 -0.3478944 0.050656006 -0.08917495 0.67486674 -0.11918827
-0.15157172 -0.28335178 -0.23665062 -0.036172777 -0.34975293 0.19595593 -0.24643862 0.22655989
-0.055095345 -0.18508239 -0.08889231 -0.0829974 -0.26025677 -0.19568391 -0.17296763 0.06027798
0.4574867 0.24809816 0.23231845 -0.13958068 -0.14110875 -0.28527066 -0.28128412 -0.027018458
-0.19034874 -0.052910108 -0.28569373 -0.1413581 0.15530516 -0.08913346 0.6649906 -0.13773696
-0.024263011 -0.053103063 0.39642945 -0.17071746 -0.19524486 -0.27259344 -0.053347282 -0.044954583
0.47385573 0.038361333 0.17254834 -0.063116275 0.47244865 0.13653131 -0.34715766 -0.050215967
-0.15522836 0.18833266 0.39049244 -0.3645165 0.1312164 0.017003456 0.6757266 -0.08361131
-0.19862628 0.05125863 -0.23577693 0.20446405 0.10778261 0.06269068 0.055944357 -0.26443753
-0.2377813 -0.18228954 -0.23921978 -0.02018368 0.49605328 0.1164776 -0.43207094 -0.03244539
-0.21824482 -0.072868705 0.0031110288 0.040636122 -0.23518455 0.0699547 0.20473418 -0.24551909
-0.086224854 -0.08281873 -0.053969648 0.0242466 0.041121617 -0.11517876 0.6364755 -0.02611181
-0.2021708 -0.24768692 -0.27830124 0.11537379 -0.3449846 0.19116236 0.063418314 -0.029632177
-0.326581 0.26444897 -0.056853283 0.13758953 -0.26746833 0.30614465 -0.08597736 0.1355189
-0.0015228445 -0.040265188 -0.22337322 -0.19103345 0.4816021 0.014761931 0.29425445 -0.011216988
-0.14607808 -0.10652709 -0.050086424 -0.108023 -0.242852 -0.15893044 -0.08620915 -0.04837215
0.47882184 0.0599776 -0.22888774 0.016122174 -0.25592017 0.19844379 -0.122995876 0.15068448
-0.41042075 0.37568337 -0.07824159 -0.00676133 0.032042116 -0.1917614 -0.17331232 -0.27014768
0.1525228 -0.29298845 -0.25187403 -0.22725783 0.2568481 0.049159706 0.57698756 -0.12001181
-0.16866072 -0.28058532 -0.15810278 0.2443857 -0.24753684 0.06910617 0.0520115 -0.30193275
-0.024028271 -0.19959712 -0.1895746 -0.10218695 -0.30473822 -0.2150804 -0.14261723 0.20614462
-0.027992181 -0.21048817 0.025131304 -0.29668096 0.363013 0.022530314 0.4387598 0.027784254

graph_matcher.gnn.conv2.bias f4 [128]
00000000: 5955 3d3d 9634 bbbd 98ed b1bc 1dab 9dbd
00000010: 1614 953c b771 53ba 383f 73bd c9e7 913d
00000020: bb70 023c 2c8c b43c bc82 f8bd bebb f5bd
00000030: e94d a0bd 23a7 41bd 08b8 2a3d 66e8 aebd
00000040: c9ad e7bd b00e ccbd 8a8e 073d 9d1d 3abc
00000050: 7ba1 a7bd 70d8 d2bd e8ba a4bd c6e5 81bd
00000060: b18d 9fbc bd46 13bd c8f8 88bd 2f9a e4bd
00000070: e7f4 87bd 3063 b8bd f810 a0bd 2bed 82bd
00000080: dbea 72bd ae01 583c d001 cfbd e988 a9bd
00000090: 9624 313d 8025 ccbb f38c 7d3d 7167 abbd
000000a0: cf12 e73b 7fd5 cd3c 23fa 653d f93c e2bb
000000b0: fce8 a1bd f268 4d3c 4892 3d3d 9f5e a2bd
000000c0: 14df bebd a5c7 6dbd d204 103c c3fb 963c
000000d0: 1a21 043d 9ac5 5bbd db38 1bbd 4deb c3bd
000000e0: f06d 12be e977 4b3d fac5 d03c 6918 4a3d
000000f0: 1048 c0bd 593b a8bd 0c05 db3b 0b8c 333d
00000100: 727e b0bd 98b6 f5bc b843 6bbc 70df 00be
00000110: be9b 7e3c 7511 113d ef36 6fbd 2b48 67bd
00000120: 6f3e d4bb 6fa2 3abd bea7 65bd 3085 aabd
00000130: 1788 93bd b7d7 bebd abde c13c 65db 58bd
00000140: d735 c33c 6078 87bd 21e2 b5bc 1134 f43c
00000150: 63c8 9a3d 5ca7 ddbd 3bf6 a4bd d998 ce3c
00000160: d86b 9a3c d69d 0ebd 15c9 8bbd 7688 d9bc
00000170: 0a11 0abd 804e 623d 010f 4fbd 6010 aebd
00000180: a138 b8bd 7294 8a3d 3270 5f3c 7ddf 0abe
00000190: 7cb4 bbbd ff55 1f3c 6862 a1bd 40f6 5d3c
000001a0: 3835 81bb a349 583d bb43 f0bd f6aa c73b
000001b0: 2a65 82bc 4617 00be c317 73bd b03e 3abd
000001c0: b155 a9bd 69dc 3d3d c30a bfbd 638d 1cbd
000001d0: 87dd 5f3d 3932 10bd 440f 753d bb3a 063a
000001e0: 28e0 98bd 5d34 b8bd ee44 1dbc 3d2e 7fbd
000001f0: 5883 5abb c433 e83c e9cb 75bd d22a f43b
0.046223972 -0.09140889 -0.021719739 -0.07698653 0.018198054 -0.0008065956 -0.059386462 0.07124288
0.007961447 0.022039495 -0.121343106 -0.119986996 -0.0782736 -0.047278535 0.041679412 -0.0854042
-0.11312444 -0.09963739 0.03309492 -0.011359599 -0.08185097 -0.102951884 -0.08043462 -0.06342654
-0.019476743 -0.035956133 -0.06688076 -0.11162221 -0.06638508 -0.090032935 -0.078157365 -0.063928925
-0.059306007 0.013183994 -0.101077676 -0.08278067 0.04324778 -0.0062300563 0.061901998 -0.08369339
0.0070518027 0.025126217 0.056146752 -0.006904241 -0.07905766 0.012537228 0.046282083 -0.07928204
-0.093198925 -0.058051724 0.008790212 0.018430596 0.03225813 -0.053655244 -0.03789602 -0.095663644
-0.1429975 0.049674902 0.025485028 0.049339686 -0.09388745 -0.08214445 0.0066839512 0.043834727
-0.086178675 -0.029994294 -0.014359407 -0.12585235 0.0155400615 0.03541704 -0.058401998 -0.05646531
-0.006477169 -0.045565065 -0.056068175 -0.08326185 -0.072036915 -0.09318488 0.023665747 -0.052943606
0.023829384 -0.066147566 -0.022202553 0.029809983 0.07557752 -0.10822937 -0.08054777 0.025219368
0.018850252 -0.034818493 -0.06825463 -0.026554327 -0.033707656 0.055250645 -0.05055142 -0.08499217
-0.08995176 0.06766595 0.013637589 -0.13561817 -0.09165284 0.009725093 -0.07880098 0.01354748
-0.0039431117 0.0528046 -0.117316686 0.006093378 -0.01591738 -0.12508878 -0.059348833 -0.04546994
-0.082682975 0.046352778 -0.093282245 -0.038220774 0.054654624 -0.035204146 0.05982901 0.0005120446
-0.074646294 -0.089943625 -0.009598954 -0.062299956 -0.0033342447 0.028344996 -0.060008917 0.0074513936

graph_matcher.gnn.conv2.lin.weight f4 [128, 64]
00000000: 6378 d73c 7028 a3bc 6ed7 a43d 96ce 81be
00000010: 113b 35be c53d acbe e0b7 22be 34c0 93be
00000020: c5cb d03e 606c 6bbe 136f 923e 1ca3 5dbd
00000030: 36ae 73bc 3404 4a3e ee82 523d ac2a 72be
00000040: 30d8 d13c c600 30be 5679 1dbf 5aed b13c
00000050: 8682 54bd f235 c23e b80d 8a3d b759 b7bd
00000060: e96b dbbd b841 90bd 84e2 96be 2730 d6bd
00000070: a971 87bd 3647 b83e 1006 cc3e 3d7f 27be
00000080: 3e29 3cbe 2b10 91be 8182 05bf ffea ad3e
00000090: 6eb4 12be 8675 e73d 1c81 073d bf70 8fbe
000000a0: de27 763d b5af c5be d790 f0bd 9920 a83e
000000b0: c89e d83b 79a4 1dbc 0884 9d3c 0ec7 03be
000000c0: fd80 d03d 18c8 083e d6c8 d23d e407 b9bd
000000d0: ddd6 24be c894 78bd e8c3 80be 457b 73bd
000000e0: dc70 b4be 373d 983e f1fe be3c 2f10 b6be
000000f0: cca8 49bd 2eba d5bc b9ab a63d b32e 903e
00000100: 5d23 ddbd 0a43 f0bd 2005 18bd aeab 0abe
00000110: f023 eabd 4409 22be 3c23 f9bd d9aa a43a
00000120: 441c 65be a04c b63d ef56 a1bd 67d6 703d
00000130: 02e3 29be 1b9d eebd a91e 46be 1903 46be
00000140: da75 903d 4acd f3bd 5c53 0a3e 747a 5abe
00000150: 394a 10be 0135 8d3d 670f 0fbe 4121 c3bd
00000160: f695 973d 8725 6dbe c4d4 b23d 58dc 9abc
00000170: d93c 2abd 4c8d ffbd bae8 3dbd d391 3b3c
00000180: 2c2d 57be 5b62 18be 3394 133e f22e a6be
00000190: c5d9 3dbe fc4a 2f3e 3885 7fbe 188c 9bbc
000001a0: be8b 493d 36da c8bc 542e e7bb 9815 69bd
000001b0: 40f4 f9bd 5012 b2bd 8b73 38bd e03c 42bb
000001c0: 826e 843d 9697 69be bbbd c63c 85a8 153e
000001d0: f304 7bbe d66d fc3c 2092 e9bc ada8 1abe
000001e0: 44c2 843d 96dd 91bd 7099 59be c980 8e3d
000001f0: 447c 0bbd 4f9b b1bd 32a3 ea3d c9fc 86be
00000200: 60c6 83bb 2d3a 10be 200b 9bbc 2eda c3bd
00000210: aa97 9f3c 9155 8ebd 20a0 0ebd e58c 96be
00000220: aec1 53be 2be1 3a3d e5d5 273d fd79 31be
00000230: d259 87be 308b 74be 877a 25be 298e 42bd
00000240: e7e8 87bd b645 67bd 2718 8cbe d875 85bd
00000250: f138 97be 624d 5ebe 9ec1 aa3d 5874 a3bd
00000260: 7abd c63d c1de 84be d117 1c3e a6fc 86bd
00000270: b4cd 733c c652 44be 5501 e73d 95ce 4cbd
00000280: 8e35 9abe 655d 223e 64ec 2fbe 183f a4be
00000290: 679b c43d d1d8 8e3c d66e f6bd 0c4e 2bbe
000002a0: ab7d 33be 728f 363c 974c 7fbe 73b0 203d
000002b0: 3e88 6bbe 8617 4a3e 3d62 ef3d 83fe ee3c
000002c0: 1d81 20be 21b9 60be ba5a 70bd 005a 9b3a
000002d0: 8435 48be cea5 a23d 47ea 813d a700 41be
000002e0: b44f a8bc e89e b0bd a95e dabd 4214 8d3c
000002f0: c4d8 3a3d 2e31 21be d624 3ebd 5cfe 47be
00000300: 8e7a 5fbe 2ac6 2abe 0cf1 00bd bc7f ae3d
00000310: f950 6fbe cefc ea3c 343b f23d aebd 37be
00000320: a7a2 d9bd 21fd 7abd b540 debd a047 cdbd
00000330: 3df7 55be 2f73 5fbe 491d 35be f249 35be
00000340: 92a2 a83d 415a 5abc e55e 803e 1ab5 13be
00000350: b104 78bd a262 933d 00b7 883d 892e 10be
00000360: ee03 fc3d b3f1 debd c64d 893d 1ee3 bb3d
00000370: c6f9 ef3c 254d 1f3d 404f 0e3c 3bc2 b1bd
00000380: a06d af3c 1930 87bd b752 26be f1c2 e3bd
00000390: b7cb d8bd ff17 01bd b885 033e c1c3 92bd
000003a0: 0f9e b13c 0157 303e 701c 13be 85e9 dabd
000003b0: d416 153c 075d 313d 0cd6 d63d 64ee 5fbe
000003c0: 8fb4 d3bd 6dd0 00bd 84dd 63bc 60f9 6b3c
000003d0: dd0e aebd 36b9 e3bd 17c4 abbd cef4 e3bd
000003e0: 5cc6 693d cd8b be3b fbea f83d d6bd c2bd
000003f0: 9783 113e fe4a 40be 7a30 ee3c 64fb 48bb
0.026302522 -0.019916743 0.080489025 -0.25352925 -0.17698313 -0.33640876 -0.15890455 -0.28857577
0.40780464 -0.2299056 0.28600368 -0.05411063 -0.014873078 0.19728166 0.051394396 -0.2364909
0.025615782 -0.17187795 -0.6151327 0.021719623 -0.05188229 0.37931782 0.06740898 -0.089526586
-0.107139416 -0.07043785 -0.29469693 -0.10458403 -0.06613476 0.3599183 0.39848375 -0.16357131
-0.18375108 -0.28332648 -0.5215226 0.3396835 -0.14326641 0.11301713 0.033082113 -0.28015706
0.060096614 -0.38610616 -0.11746376 0.3283737 0.006610725 -0.009621733 0.019227996 -0.12868902
0.101808526 0.1335758 0.10292213 -0.09034708 -0.16097589 -0.060688764 -0.25149465 -0.05944373
-0.35242355 0.29734203 0.023314925 -0.35559222 -0.049233243 -0.026089754 0.08138222 0.2816063
-0.10797761 -0.11731537 -0.037114263 -0.13542053 -0.11432636 -0.15823847 -0.121649235 0.0012563124
-0.22374064 0.08901334 -0.078779094 0.05879822 -0.16590503 -0.11651059 -0.19347633 -0.19337119
0.070537284 -0.1190439 0.13508362 -0.21335775 -0.14090814 0.06894875 -0.1397072 -0.09527827
0.0740165 -0.23158847 0.08731988 -0.018903896 -0.041561935 -0.12478122 -0.046364523 0.011448341
-0.21013325 -0.1488127 0.14412002 -0.3245769 -0.18540104 0.17118448 -0.24953163 -0.0189877
0.049205534 -0.024518114 -0.0070550833 -0.05690536 -0.1220479 -0.08694899 -0.045032065 -0.0029638335
0.0646639 -0.22811732 0.024260392 0.14615066 -0.24513607 0.030814093 -0.02851206 -0.15103407
0.06482366 -0.07122342 -0.21249938 0.069581576 -0.034054056 -0.08672201 0.11456908 -0.26364735
-0.004021451 -0.14084692 -0.018926203 -0.09563099 0.019481499 -0.06949914 -0.034820676 -0.2940437
-0.20679352 0.045624893 0.04097547 -0.17331691 -0.26435715 -0.23881221 -0.16160022 -0.047498856
-0.066362195 -0.056462966 -0.27362177 -0.065166175 -0.2953563 -0.21709207 0.08337711 -0.07981175
0.097041085 -0.25951198 0.1524346 -0.065911576 0.014880586 -0.191722 0.11279551 -0.0500017
-0.30118984 0.1585594 -0.1718002 -0.32079387 0.09599953 0.01743737 -0.12032859 -0.16728991
-0.17528407 0.011142598 -0.2493156 0.039230775 -0.23001191 0.19735536 0.11688659 0.029174095
-0.15674253 -0.21945621 -0.058680274 0.0011852384 -0.19551665 0.07941781 0.06343513 -0.18847905
-0.020545818 -0.08624059 -0.10662586 0.017221574 0.04561688 -0.15741417 -0.04642185 -0.19530624
-0.21824095 -0.16677156 -0.03147988 0.08520457 -0.23370732 0.028685 0.11827698 -0.17943451
-0.106267266 -0.06127656 -0.10852186 -0.10023427 -0.20895095 -0.21821283 -0.17686953 -0.17703989
0.08234133 -0.013327182 0.250724 -0.14424554 -0.06055135 0.07196547 0.066755295 -0.14080252
0.12305437 -0.10885944 0.06704287 0.091741785 0.029293906 0.03889193 0.008685887 -0.08679625
0.021414578 -0.06600971 -0.1624249 -0.111211665 -0.105857305 -0.031517025 0.12843978 -0.07166243
0.021681814 0.1722069 -0.14366317 -0.106890716 0.009099681 0.04330161 0.10490045 -0.21868283
-0.10337173 -0.03144877 -0.013907794 0.014402717 -0.08498929 -0.111193106 -0.083870105 -0.11130677
0.057073936 0.0058150054 0.12154194 -0.095088646 0.14210354 -0.18778607 0.02907585 -0.0030667419

graph_matcher.mlp.0.weight f4 [128, 256]
00000000: 2f08 8ebd d224 7c3d b412 05bd fce8 623d
00000010: f325 69bd 64a1 acbb ea82 03bd a3de 54bd
00000020: e3f5 ed3c cfa7 11bd bf91 6abd 60a1 5e3d
00000030: 101e 9bbc 0d9e 7fbd e5e8 f93b cd57 fcbd
00000040: aa0c 333d c6ef 1abd 7000 8fbd 9ed0 103d
00000050: 204f 2fbb d357 9bba 3969 0abd c2eb bebc
00000060: cd60 aabd 9b81 bfbc 9684 51bc 5cf3 f8bd
00000070: bcb0 c7bd ddde 1bbc 65b2 9ebd 5a25 52bd
00000080: 4e5c 7bbd 3601 90bd c8f4 34bd a21e 623d
00000090: a10b 7f3c 086d d43c 3e55 ee3a 1cc9 4c3d
000000a0: 59d1 5abd cbbb bebd 124d febc d228 a2bd
000000b0: a2e6 2f3d aee0 1fbe 9f58 5bbd ac5a 843c
000000c0: e011 87bb dd2d 9bbc 65eb 9fbd df0c 80bc
000000d0: 548a 01bd 2dc7 a7bd a11f 1dbd c2c6 87bd
000000e0: 3486 a33d d0b7 8abd 8218 8abd 383e 20bd
000000f0: 1c26 8ebc 782b 733d a81f ba3c 6356 823c
00000100: c947 b5bd c6fc 32bd b858 80bd 6eac 533d
00000110: c1e9 23be 7baa 80bd 4664 f9bd 1603 1e3d
00000120: d83c 16bd 10f9 80bd 9e46 93bd ca74 3dbd
00000130: 8f8c 45bd d8aa 7d3d 4215 c93b c700 44bd
00000140: 3a08 92bd 4015 8d3c 8c0d 9cbd 2d1d 89bd
00000150: 7c9c 5c3c 6a76 39bd e87b 2cbd 519f e9bc
00000160: abbb c2bd 5bf6 d4bd 22de 1cbd 04f5 14be
00000170: ebff 8ebd 1e50 61bc 90ad 16bc 435a 77bd
00000180: f74e c1bc 088f 573c 59dc 14be 5e80 d5bb
00000190: 3d59 133c 9a7c a4bd 04ea 183d 5312 55bd
000001a0: 9129 94bd 584e b8bd 8be6 c6bc 9b07 efbd
000001b0: 5fd1 59bd f882 5ebc ceb9 e1bc 48bc 133d
000001c0: f03e f33b 9afb 16bd d8d4 323d caf1 1a3d
000001d0: cd74 e4bd 54fd 02bd 73a6 f23b 68e7 d5bd
000001e0: 4c54 7a3d a03d 62bc 8b97 adba 006c c23c
000001f0: dde3 99bb c4a9 eebc 93d0 97bd 0727 8cbd
00000200: 29ec bdbd bc4f a53c 0f9b 183c 81df 443c
00000210: f15d b73b 75b3 713c 16c2 3bbd 8248 bcbd
00000220: c0e0 fb3c 189c 3fbd 41a2 d6bd e021 36bd
00000230: 00bb b0bb ed29 033d f706 a8bb 8e07 92bc
00000240: 50e7 913b 38a6 0fbd 5d5d 08bc 1892 5a3d
00000250: a277 77bd 00b6 6f3b 91e3 37bd 1f40 95bc
00000260: 5e70 16be 942d e6bd fe43 2f3d 98fd cabd
00000270: d928 ccbd 3af9 c9bc cf2d bb3c e03e 78bd
00000280: 1053 0d3c e883 98bd 3474 f0bc 921a 673d
00000290: daa9 26be 4c71 92bc f5d7 91bd 4086 17bb
000002a0: 20d7 c6bd 3738 c2bc a1e7 b9bd b8c6 8fbd
000002b0: 00d9 ed39 e4a9 d9bd 6dcf 26bc ce89 1ebd
000002c0: aa54 8ebb 207d 3cbd f919 13be fafb 0d3c
000002d0: 859e d1bd ad92 473d 000b 5ebd 6e1b a6bd
000002e0: 4511 0f3e 925a 0dbe 1e40 36bd f557 b2ba
000002f0: 706f 87bc 56e2 3dbd 81fc d8bd 4163 553b
00000300: c9e6 8c3c 4e3b e3bc 554f 0cbe a8cf d0bc
00000310: 160b 5abd b66a e2bd 1631 07bd 76c8 753d
00000320: 82f6 dfbd cea0 d3bc 1f1a c9bc ccf3 29bd
00000330: 8cf3 14bd 8b9d 7ebc bc23 e7bc 2ce0 90bd
00000340: cb02 d6bd 1020 cd3b ffc3 02be dd18 ccbd
00000350: 4fc4 c3bd 501e 5b3c 8575 babc 8bc3 efbd
00000360: c86a 72bd b9a1 3dbd 1800 a8bc 783e 7ebd
00000370: ad6a 3c3c 1aaa d7bd 3018 b83c 7e89 433d
00000380: 3fe7 443d d49e 9dbd 39c5 bfbd 98f7 8e3c
00000390: ecdd 41bd 6c8f 98bd f439 163d 80b7 1ebd
000003a0: 317e 9fb9 f7cb 8dbd 670e 3dbd 20a1 bfbd
000003b0: b7a3 88bd b26f 6bbd b193 65bd 4cda bfbc
000003c0: acf3 1b3d 1f11 aabd cc66 a53c 640b 3a3d
000003d0: bf8b 0bbd 534d b4bd 5866 c5bd fb25 f3bc
000003e0: 6ea0 2cbd 20bf 643d 9850 acbd 00b4 df3b
000003f0: 4b10 49bd f620 3ebd 6ae5 8bbd de30 afbc
-0.06935155 0.061558552 -0.03248854 0.055397972 -0.056920957 -0.0052682627 -0.03210727 -0.051970135
0.029047912 -0.035560425 -0.0572679 0.054353118 -0.018935233 -0.06240659 0.00762664 -0.12321434
0.04371325 -0.037826322 -0.06982505 0.035355203 -0.0026750043 -0.0011851735 -0.033791754 -0.023305777
-0.083192445 -0.02337723 -0.012787959 -0.12155792 -0.09750506 -0.009513584 -0.0774887 -0.051305152
-0.061367325 -0.07031481 -0.044178754 0.055204995 0.015566737 0.025930896 0.0018183363 0.04999648
-0.053422306 -0.093131624 -0.03104261 -0.07917942 0.042944558 -0.15613052 -0.053551313 0.016156517
-0.004122004 -0.018942768 -0.0780857 -0.015631137 -0.03162606 -0.08192287 -0.03836024 -0.06629707
0.079845816 -0.06773341 -0.06742956 -0.039121836 -0.017352156 0.059367627 0.022720173 0.015910333
-0.088515826 -0.043698095 -0.06266922 0.051678114 -0.16007139 -0.062825166 -0.12177329 0.03857716
-0.03667912 -0.06297505 -0.071912035 -0.046253957 -0.04822975 0.061930507 0.0061365673 -0.047852304
-0.07130475 0.017222047 -0.07619771 -0.06695018 0.013465043 -0.045278944 -0.042110354 -0.02851835
-0.09508451 -0.10398551 -0.03829778 -0.14546591 -0.06982406 -0.013752012 -0.009196654 -0.060388815
-0.023597224 0.01315666 -0.14537181 -0.0065155467 0.008993444 -0.08031578 0.03733255 -0.05201943
-0.07234491 -0.08999318 -0.024279853 -0.116713725 -0.053178187 -0.01358103 -0.027554419 0.03606823
0.007423274 -0.03686104 0.043660015 0.037828244 -0.111550905 -0.031979874 0.007405096 -0.10444528
0.061115548 -0.013808638 -0.0013244016 0.023733139 -0.004696353 -0.029133685 -0.07412829 -0.068433814
-0.092735596 0.020179622 0.009314313 0.012016178 0.0055959155 0.014752259 -0.04583939 -0.09193517
0.030746818 -0.046779722 -0.10480166 -0.0444659 -0.005393386 0.032022405 -0.0051277834 -0.017825868
0.0044526234 -0.035070628 -0.008323041 0.053361982 -0.060416825 0.0036576986 -0.04489476 -0.018219052
-0.14691302 -0.11239162 0.04278945 -0.099116504 -0.099687286 -0.024654973 0.022848992 -0.060606837
0.008625761 -0.07447034 -0.029352285 0.056421824 -0.1627573 -0.01787629 -0.07121269 -0.002312079
-0.097090006 -0.023708446 -0.09077383 -0.070203245 0.0004536584 -0.10628107 -0.01018129 -0.03870564
-0.004343589 -0.046017766 -0.14365377 0.008666033 -0.10235313 0.048723865 -0.05420971 -0.081107005
0.13971432 -0.13804081 -0.04449474 -0.0013606536 -0.01653263 -0.04635843 -0.10595036 0.003256038
0.01719989 -0.02773824 -0.13702138 -0.025489643 -0.05323323 -0.1105551 -0.033005796 0.060005628
-0.109356895 -0.025833514 -0.024548588 -0.04149227 -0.036365077 -0.015540491 -0.028215282 -0.070740074
-0.104497515 0.0062599257 -0.12770079 -0.0996568 -0.09558927 0.013373926 -0.022761116 -0.11707219
-0.059183866 -0.04629681 -0.020507857 -0.062071294 0.011500043 -0.10530491 0.022472471 0.047738545
0.048072096 -0.0769631 -0.09363789 0.017452046 -0.04733078 -0.074492306 0.036676362 -0.038749218
-0.00030420863 -0.06923669 -0.046156313 -0.09356904 -0.06671851 -0.057479568 -0.056049053 -0.023419522
0.03807418 -0.08304047 0.020190619 0.04542102 -0.03406882 -0.08803811 -0.09638661 -0.029681196
-0.042145185 0.055846334 -0.084138095 0.0068268776 -0.049087804 -0.046418153 -0.06830867 -0.021385606

graph_matcher.mlp.0.bias f4 [128]
00000000: c3d6 05be 8277 323d ba05 6dbd 8a8d fbbd
00000010: a6c5 7fbd dbb7 9a3d d4d6 47bd fcaf 85bd
00000020: 4087 bcbd 1898 54bc 7c03 58bc 5116 d2bd
00000030: 670e 38bc 4145 7d3d d083 c13d 44d6 81bd
00000040: 0d2d c1bc 774a a03c 40d3 89bd 7dea 87bd
00000050: 2768 f7bc 68f2 a9bd 70eb a6bd 327f c9bb
00000060: 30b8 f0bc a9ff 86bc 0da1 74bd c422 8ebd
00000070: 22dd e2ba 614b 12bd 65b0 58bb 36d5 133d
00000080: c3ca 43bd e3fa 20bc 174a 90bd 1550 51bd
00000090: c140 aabc 554c cdbb 4b44 4a3d ff23 9b3c
000000a0: cfc2 a1bd 14e2 22bd fb47 6abd 0617 163d
000000b0: d671 b4bd add3 d2bc 0d32 22bd 80fc 02be
000000c0: 94ca 973d fe4f 72bd d426 65bd f0dd 86bd
000000d0: e3ef d6bd 1d80 2d3d 9c0d 5bbd 60bf 35be
000000e0: a02d dbbc a065 b6bd a503 7a3d c0d6 a0bc
000000f0: 507d ebbc ecc0 afbc 476d 683c 88bf 2f3d
00000100: 5c3e fcbb 187a e8bd a737 01be 10f0 3fbd
00000110: a0c0 e5bc c027 873d b47b 49bc b7ed 42bd
00000120: 6ea8 4abd 97d6 debc aa8e 2b3d 9751 75bd
00000130: 79a6 e6bd 17c7 c8bc 5c40 73bd c3df b0bd
00000140: acb2 b3bd 2f48 58bd 0be7 f7bd d2b3 63bd
00000150: e418 b5bc f165 cdbd f5f6 2cbd 495d a7bd
00000160: c815 bcbd f744 983d 916a b9bd 02b6 e03c
00000170: e363 dbbd 1077 dabd 245e e5bd 307b a7bd
00000180: 0544 c4bd 7fb8 37bd a844 c8bc 9788 29bc
00000190: ed85 27bd 35c4 85bd 2479 64bd 1d9c 89bd
000001a0: 39cd 06be 4a7e 03bd 6e42 6fbd 0f45 b2bd
000001b0: d941 ebbd 090f 85bd 8fa2 153b 73ed 60bd
000001c0: 37fa ebbd b8c4 67bc 20c6 46bd 4033 20bd
000001d0: 8fb1 c1bd a7c2 aebd 6678 84bd 62f1 d9bd
000001e0: 5503 893d f21e f2bd 59d2 ebbd dc3e f13c
000001f0: bc07 d2bd ed36 623d 9c40 0ebd 4aa9 afbc
-0.13070206 0.043571003 -0.05786679 -0.12282856 -0.06244435 0.07554599 -0.04878886 -0.06527707
-0.092054844 -0.012975715 -0.0131844245 -0.10258163 -0.011233903 0.061833624 0.09448969 -0.06339696
-0.023581052 0.019566758 -0.06729746 -0.06636522 -0.03020103 -0.082981884 -0.08150375 -0.006149196
-0.029384702 -0.01647933 -0.059723902 -0.06940225 -0.0017308334 -0.03571642 -0.0033064124 0.036092006
-0.04780079 -0.009825441 -0.070453815 -0.051101763 -0.02078283 -0.006265203 0.049381536 0.018938063
-0.07898485 -0.039766386 -0.057197552 0.03664305 -0.08810775 -0.0257357 -0.039598513 -0.12791634
0.074116856 -0.059158318 -0.055945233 -0.065853 -0.104949735 0.042358506 -0.053479776 -0.17748785
-0.026755154 -0.08906102 0.061038632 -0.01963365 -0.028746277 -0.021454297 0.01418621 0.042907268
-0.0076978635 -0.113514125 -0.12618886 -0.0468598 -0.028045952 0.065993786 -0.0122975595 -0.047589984
-0.049477033 -0.027201934 0.041884102 -0.059892263 -0.11262221 -0.024508996 -0.05938755 -0.08636429
-0.08774313 -0.052803215 -0.12104615 -0.055591412 -0.022106595 -0.100292094 -0.042227704 -0.081720896
-0.09183842 0.07435029 -0.09053529 0.027430538 -0.10712411 -0.106672406 -0.111995965 -0.08177793
-0.09583286 -0.044853684 -0.0244468 -0.010347507 -0.040899206 -0.06531564 -0.05577959 -0.06719229
-0.13164224 -0.03210286 -0.05841296 -0.08704578 -0.11487169 -0.06497008 0.0022832488 -0.05491395
-0.11522334 -0.0141460225 -0.04852879 -0.039111376 -0.09457695 -0.08533221 -0.06468277 -0.10641743
0.06690089 -0.118223086 -0.1151473 0.029448919 -0.102553815 0.055228163 -0.034729585 -0.021443028

graph_matcher.mlp.2.weight f4 [128, 128]
00000000: 18b9 f63c 652a 933d a215 7dbd 3993 8fbd
00000010: 9acf 1c3d 7514 aabc 482c 0d3c 3529 83bd
00000020: 48eb 593c d312 66bd 2a73 9abd 5569 3ebd
00000030: 1638 273d 018d 8ebd d1df cb3c 38fe 753c
00000040: 08ab 383c bedb 81bd dbed d9bd d01f cbbc
00000050: d4cf 913c d6d1 28bd 622a 2c3d bc23 9abc
00000060: 7ae6 013d bd1c ad3d 1e4e b2bd e0d0 0fbc
00000070: 5c66 87bc 26b1 363d 8edc 8abd 555c 16bd
00000080: 862c 2fbc ce56 e2bc 1635 6d3d 99a9 00bd
00000090: 1899 8abc 79c5 a5bd 77e6 e8bc f510 2cbd
000000a0: 3ace 1e3d e683 54bd e152 19bd 6dc1 56bd
000000b0: a2a9 7bbd fefb 3f3d bc4d 1fb8 386d 60bc
000000c0: c8ff a6bd cadc 663d b538 2bbd 80e7 603c
000000d0: 6ad9 5dbd c858 aabd 6bee abbd 729d 8cbd
000000e0: 01bf f83b 7c44 e6bc 0b91 04bd edff 893d
000000f0: 007e d73a 6dce 29bd b8de 2dbd 733f 48bd
00000100: c054 7fbd c299 013d 030f 8c3d 2e13 463d
00000110: e8fe a93c 8fa7 08be 30e7 8fbc da94 0cbd
00000120: 7075 9dbc 1e8c 3c3d dc19 13be c58c 3bbd
00000130: 63fb ac3d e773 1dbd 6089 a0bb 5ae0 09bd
00000140: 8bc0 a4bd a27a 4a3d a03a 793b 90e8 19bd
00000150: 4d83 52bd e07f e23b ae8d 6b3d d4a3 88bc
00000160: f2f7 79bd cdb0 08be 97b9 25bd 3149 5fbd
00000170: ce2c f6bc c361 23bd 75ab 4dbd b865 223c
00000180: b41b c7bc 9bf3 b43d fd20 afbd ccb5 e6bd
00000190: 706a 90bc 22ba 753d 285d a93c 8230 aebd
000001a0: 0d8b a93d 20f5 79bb 06fb 273d 72fe 6b3d
000001b0: c4a1 9dbd 7fce 81bd 0860 1dbc 1d27 24bd
000001c0: fd79 893d 96ce 6ebd b75d 8d3d bebe 74bd
000001d0: a08b 9ebc d1dc ad3d f199 00bd 2f1d 983d
000001e0: d086 94bb 12f4 673d b92c 97bd 3405 ba3c
000001f0: 2e3a 7c3d c9b4 da3c f2b0 723d 7dd4 8d3d
00000200: a9b0 943d 5a51 8bbc 1195 463e bef1 463d
00000210: fed6 273d df57 c6bc bdca 42bd b696 5c3d
00000220: 88f7 433c de72 18bd 973f 8b3d 0d89 06bd
00000230: 006a dc39 6f8f ac3c 3663 463d 35f2 4cbd
00000240: 87e1 ae3d 6d06 fdbd 20ed b93b 5036 883c
00000250: 9165 05bd 56c6 0a3d f896 38bc 800e 75bc
00000260: 5454 9fbd f770 a93d e9d6 21bd f3da 963d
00000270: cd38 67bd eaf3 8abd a048 babc 2ad9 30bd
00000280: 9795 2abe 4ae3 c6bd dc0b 30bd 80b5 443b
00000290: e146 30bd a294 53bd 8813 48bc face 1fbe
000002a0: f883 07bc 9b35 8b3d d04a 443c 439b 97bd
000002b0: cd15 00bd c2db 7f3d 4298 453d e9b6 883d
000002c0: 688e aabd 30c0 b7bb 3124 1abd 2029 7a3c
000002d0: 6fbf 49bd c092 0abd 33c0 813d 00a6 383c
000002e0: cd41 2fbd a350 953d c271 a9bd bd0e a6bd
000002f0: 8a9d adbd 23fe 9e3d 3a48 f6bc a58e af3d
00000300: f068 df3c 40d0 42bc 8856 c33c 3ede 473d
00000310: 8e4c 39bd a4dd e0bd 5278 e3bc 3896 79bc
00000320: 094e 89bd e915 b33d ecb0 93bd 6486 77bd
00000330: cadd fcbc 71ea 02bd d61e 7abd dbd7 a3bd
00000340: f62c e4bc 79c6 ac3d 8095 67bc c8df c2bc
00000350: 7e3a 233d 43dd 49bd dc4d 8dbd 735b a5bd
00000360: 4681 353d ee17 5d3d cee1 1b3d 4dd0 b23d
00000370: 249a 9bbd f598 92bd 449e db3c 852e 8bbd
00000380: 8c6f 853c 5ec8 25ba 8479 89bd a609 b3bd
00000390: e529 40bd 96bc e5bc 41ee a43d 3e7e 8dbd
000003a0: 4c89 abbd 563e 9cbd fd12 ac3d b7d0 953d
000003b0: 7cb2 cebc a1ff a73d 0804 18be 77f1 8cbd
000003c0: 4ab1 483d 5855 133c 3ca1 9dbc 7bff 5cbd
000003d0: fc88 b03c e3b9 60bd 55b1 adbd 0016 0bbb
000003e0: 33b3 d9bd 8a8c 073d 3998 8d3d 7b46 e2bd
000003f0: 0515 883d 835a af3d 284f c93c 98d7 ad3c
0.030117556 0.071858205 -0.06178821 -0.07010502 0.03828392 -0.020761708 0.0086165145 -0.06404344
0.013300724 -0.056170296 -0.07541497 -0.04648717 0.040824972 -0.06960488 0.024886997 0.015014224
0.011271246 -0.063407406 -0.106410705 -0.024795443 0.017799295 -0.04121574 0.042032607 -0.018815868
0.03171394 0.08452747 -0.08706306 -0.008777827 -0.016528301 0.044602536 -0.06780349 -0.03670915
-0.010691768 -0.027629282 0.057911955 -0.03141174 -0.016918704 -0.080943055 -0.028430207 -0.04200836
0.03877089 -0.0518836 -0.037432555 -0.05243056 -0.06144107 0.046871178 -3.798095e-05 -0.013697915
-0.08154255 0.056362905 -0.041802127 0.013727069 -0.05416242 -0.08317715 -0.08395084 -0.06865968
0.007591129 -0.028108828 -0.032364886 0.06738267 0.0016440749 -0.04145663 -0.04244873 -0.048888635
-0.062336683 0.031640776 0.06838801 0.048358135 0.020751432 -0.13345169 -0.017566293 -0.034321643
-0.019221038 0.046032064 -0.14365333 -0.045788545 0.08446386 -0.03844061 -0.004899189 -0.033661224
-0.08044537 0.049433358 0.0038029328 -0.037575305 -0.05139475 0.0069122165 0.057508163 -0.016679682
-0.061027475 -0.13348694 -0.040460195 -0.05451316 -0.030050661 -0.039888155 -0.050212342 0.009911947
-0.024305202 0.088355266 -0.08551214 -0.11265144 -0.017628878 0.059991963 0.020674303 -0.08505346
0.08278475 -0.003814049 0.04101088 0.057615705 -0.0769687 -0.06338214 -0.009605415 -0.040076364
0.067127205 -0.058302484 0.0690264 -0.05975222 -0.019353688 0.08489383 -0.03139681 0.07427441
-0.0045326725 0.056629248 -0.07381577 0.02270756 0.061578922 0.026697533 0.05925078 0.069252945
0.07260258 -0.017006565 0.19392802 0.048570387 0.040976517 -0.024211822 -0.047556628 0.053854667
0.0119608715 -0.03721892 0.06799238 -0.032845546 0.00042040646 0.021064488 0.04843446 -0.050035674
0.0853911 -0.12354741 0.0056740195 0.01662746 -0.032567564 0.033880554 -0.0112664625 -0.01495707
-0.07779756 0.082734995 -0.039511595 0.0736598 -0.056450654 -0.06784804 -0.022739708 -0.043175854
-0.16658626 -0.09711321 -0.04298006 0.003001541 -0.043036345 -0.05165542 -0.012211688 -0.15606299
-0.00827121 0.06797334 0.011980727 -0.07402661 -0.03127079 0.062465437 0.048240907 0.06675512
-0.08327943 -0.0056076273 -0.03763217 0.015268594 -0.04925483 -0.033831358 0.06335487 0.011270046
-0.042787362 0.07290771 -0.08273651 -0.0810828 -0.08477314 0.077633165 -0.030063737 0.08572129
0.027271718 -0.011890471 0.023844972 0.04879593 -0.045239024 -0.109797746 -0.027767334 -0.015233569
-0.06704337 0.087444134 -0.072114795 -0.0604309 -0.030867476 -0.031961862 -0.061064564 -0.080001555
-0.02785347 0.08436293 -0.014134765 -0.023788348 0.039850704 -0.049283277 -0.06899616 -0.08074083
0.044312738 0.0539779 0.03805714 0.087311365 -0.07597759 -0.071580805 0.026808865 -0.06795982
0.016288541 -0.00063241075 -0.067126304 -0.08742075 -0.046914954 -0.028044026 0.08053256 -0.069088444
-0.08375797 -0.07629077 0.08402059 0.073152 -0.025231592 0.08203054 -0.14845288 -0.06881993
0.0489972 0.0089925155 -0.019241922 -0.053954583 0.021549694 -0.054864775 -0.08481089 -0.002122283
-0.10629883 0.033093013 0.069138 -0.11048599 0.06644634 0.085621856 0.024573877 0.021220967

graph_matcher.mlp.2.bias f4 [128]
00000000: 565e cbbd 7287 ecbd 971c b23c bc76 82bd
00000010: ded5 66bd 75ac 1c3d d45a a3bd 446a 9bbd
00000020: 5f81 94bd f29f 3ebd ce70 06bd 301a 343e
00000030: b56b 3abd 8e95 acbd 81e9 913d 1c6b 49bd
00000040: 02f8 78bd 3549 a5bd c26a 9a3d 90ef 19bd
00000050: 67c6 71bd cf4a a33d 4a2a 2bbd 5299 b1bd
00000060: f522 e5bc 7139 543c aade 063e d614 4dbd
00000070: 6f82 753d 068b fbbd 66c9 13be 66a1 2b3c
00000080: c690 bdbd d44b f5bc bee3 57bd 6443 19bd
00000090: fb78 cd3d e9e2 9fbc 92ca 693c decd 01bd
000000a0: 50ff d1bc 069e d5bc 3a3b 6fbd 84ee 0bbe
000000b0: 1b32 16bd acfb b4bd 71e7 f2bb e48b 6d3d
000000c0: bae8 663d 74fb 553c 15d2 8cbd 19b6 74bd
000000d0: 1499 4a3d 1e8b 04be 7948 d3bc 6ee3 b73d
000000e0: 3995 f93b d84b f93d 5c84 e9bc b993 543d
000000f0: 9a94 6b3d dee9 0abd b75c 8ebd 6054 dd3c
00000100: 7982 323a 10d7 0b3d 9e0e 5d3d 1a34 983c
00000110: 0167 bd3c c5f4 f73b 9671 1abd d3cd 2abd
00000120: d555 32bd 29eb b1bd b5af 783d 5878 373c
00000130: 9ac1 d3bc 1257 7abc f7ac f63d 0603 d13d
00000140: 4561 65bc 771d 9d3d aa4f 813c 610d 2bbd
00000150: 619f a13d 0094 26bd dbf1 cbbd 3f02 43bd
00000160: e35e 4dbd e147 3d3d c4b9 e3bd 4c00 d4bc
00000170: b4fa 6fbd b43f 4bbc 9689 b2bd 3ac4 d93b
00000180: 0809 19be 5345 f03d 79aa 9abd 7e68 d63d
00000190: d10c 27bd ceec 393d 1925 853d 6e78 d63d
000001a0: 3041 91bd be39 9b3d 6734 a6bc 0565 a53d
000001b0: 996c d4bd 9be3 6cbc c40b a7bd 0701 b6bd
000001c0: 3861 78bc e4f0 a4bd f752 7dbd 80ba 783d
000001d0: 7e96 443d 040f 69bd 03e0 463d 0855 20be
000001e0: 2ae1 7dbd 811e 8b3d 23d9 513d 5d48 85bd
000001f0: 3f28 a13d b3e2 bc3c 6480 ce3d 0060 463b
-0.099301025 -0.11549272 0.021742148 -0.06370303 -0.056356303 0.038250405 -0.079763085 -0.07588628
-0.07251238 -0.046539254 -0.032822423 0.17588115 -0.045512874 -0.08426963 0.071246155 -0.049174413
-0.060783394 -0.08070604 0.07539894 -0.03758198 -0.0590271 0.07973253 -0.041788377 -0.08671822
-0.02797077 0.012953148 0.13170877 -0.0500687 0.059938844 -0.12282376 -0.14432296 0.010475492
-0.09256129 -0.029943384 -0.052707426 -0.037417784 0.10032841 -0.019517379 0.014269488 -0.03169047
-0.025634438 -0.026076328 -0.058406092 -0.13665205 -0.036668878 -0.08837065 -0.007412844 0.05799474
0.05637429 0.013060439 -0.068760075 -0.059743974 0.049462393 -0.12943694 -0.025791394 0.08978926
0.0076166657 0.12172669 -0.028505497 0.05189869 0.057514764 -0.03391444 -0.06951278 0.027017772
0.0006809603 0.034140646 0.05396902 0.018579531 0.023120405 0.0075670206 -0.03770598 -0.041700196
-0.043538887 -0.08687431 0.060714442 0.011198126 -0.025849152 -0.015279548 0.12044709 0.10205655
-0.014000242 0.076716356 0.015785057 -0.041760806 0.07891727 -0.040668488 -0.0995824 -0.047609564
-0.05013932 0.046211127 -0.11119416 -0.025879048 -0.0585887 -0.012405325 -0.08717649 0.0066457065
-0.14944851 0.117319725 -0.07552046 0.10469149 -0.040783707 0.04539185 0.065012164 0.10472189
-0.07092512 0.07579373 -0.02028866 0.080759086 -0.10372276 -0.014458562 -0.08156541 -0.08886915
-0.0151598975 -0.08053759 -0.0618467 0.060724735 0.047995083 -0.056899086 0.048553478 -0.15657437
-0.06198231 0.067929275 0.05123247 -0.06507943 0.078690045 0.023057317 0.10083082 0.0030269623

graph_matcher.mlp.4.weight f4 [64, 128]
00000000: 411d 033e 8042 b9bc ba4c 833d f09e 4dbd
00000010: 3d79 e53d 2e7b b1bd 51e6 db3c 9ca1 00bd
00000020: 60d7 363d b46f 663d af8b 30bb 48b9 a13d
00000030: 63a8 243e 05eb cdbd b436 e83a c345 b6bc
00000040: db0f 9f3c 3cc7 ccbc 0f29 003e f1d9 eb3c
00000050: d5b7 023d f19d 613d a230 6abd 44fe c3bc
00000060: 62d6 4e3d 6496 103d 89f5 2f3d d435 2f3c
00000070: 7a4b a63b 3a10 11bd d107 1cbe 7209 41bc
00000080: 73af 94bc d82e ce3c 0659 7d3d 63ec 9a3d
00000090: 78e7 0a3d 0623 ca3d 7028 8f3b 4f03 26bd
000000a0: faa4 293d ffd3 dcbc cb41 113e da51 4c3d
000000b0: f302 b63c 9996 de3d e253 98bb 2e7e dbbd
000000c0: 5e80 65bc 802d a83c 3ee7 f23c 4ea0 b03d
000000d0: 6a00 5dbd 736e a9bb 6cc7 fc3c d26c 6a3b
000000e0: 6c4e c23d 3db4 f83c 5522 083d 8552 ddbb
000000f0: 1cde d33d b845 1dbd 5761 83bd 1eae 39bd
00000100: 24b1 163e e0de e6bc 1b00 8e3b 4da8 8d3b
00000110: 34ca a9bd 3ec2 13bd f912 80bd d31c b0bd
00000120: 1323 333c bdbe c0bd cecf aa3d e842 653c
00000130: 2618 023e 2b23 4bbd f1d4 d9bc 1dfd 8a3d
00000140: c67c 2c3d deb1 013e 79e3 a1bc 4561 c13b
00000150: 1845 8fbd 4560 ebbc b0b4 a6bc 068d b2bd
00000160: 1ffd b63d 3cc2 f03d 0bfe 7bbc 0577 33bd
00000170: 4c45 c93c 6005 79bd 18e2 b9bc 4c4f b8bd
00000180: 0aaf d1bb 0fc7 443e 1ae6 94bd 6a59 8b3d
00000190: dce5 5c3d e99e c5bd bcaa 4f3d 720e 303e
000001a0: 61c3 5f3b fe0b 613c 4a56 6abb a0b4 ef3c
000001b0: d7ce 053e 2ad9 10bd feed 19bd a99e c9bd
000001c0: f86e 93bd 506c a03b cca5 493d d382 1a3e
000001d0: 7e25 2dbc 76a5 4d3c f5fa e9bd 08d1 62bc
000001e0: d93e d5bd 1308 4ebd 0183 213d 55da 4fbd
000001f0: b3c2 bc3d bfa8 84bc 97a5 00bd 29d8 183d
00000200: 4988 efbc 36b1 7c3d b481 923d d131 42bd
00000210: 1906 b0bb d5ef 8a3d bc0c 993c 165d 683e
00000220: 25d6 58bc 55ba f43d 58b5 c53d e834 073d
00000230: c884 193e 18a5 b83c 1532 e63c 1f18 0e3d
00000240: abdb d2bc c713 04be b78b 983d 0117 943d
00000250: 267b c33d eaf5 c33d 7879 0e3e e2ba 6f3d
00000260: e8f6 1a3e 12e7 2e3d 17ad 163e 37f9 183d
00000270: 7ee9 09bd 9a0a af3d ce8b 86bc 9220 8b3d
00000280: 25c7 883c 9e22 87bd 1042 9a3b ee2d da3d
00000290: 91cf dd3c 9c31 973a 24ef 853d 85e9 1c3d
000002a0: fc05 b1bc e6e5 8c3d cacf 493d f523 c3bc
000002b0: eda8 153d 79c7 de3d 7a24 97bc 0592 073d
000002c0: 9515 243d 673f a43d 88b3 363d 9213 203e
000002d0: b9d0 e93c 7a43 a83d bdfd 0c3e 4cce 053e
000002e0: 98ea a6bd daf6 943d 077c 903d bc6f 213e
000002f0: 029c 0c3a 2488 2abd 9f48 5bbd bc6c 823d
00000300: 649d e23b 62f1 db3d aceb 1a3e 2faf aa3d
00000310: 423d 403d 6520 193e c004 54bb 27c3 8b3d
00000320: 4b34 b5bc bf1d 763e 33f9 063e 05fd 2e3d
00000330: aad6 793c 2575 de3d 32e3 91bd 9868 9d3d
00000340: 0a4f 203e d865 be3d 2025 2f3d e76a c0bd
00000350: 6a79 2c3e ec6e 0e3e 4e78 a1bd c158 a53d
00000360: ebb2 b73d babf c83d 020b 043d e70d 093e
00000370: b53c d0bc f30b c3bd 0d2f 8ebd 5c78 83bd
00000380: c7da 1fbe 4fa5 453e 4567 dd3d 0483 913d
00000390: 733a 043c 9baf 623d 5dc4 803d ffd7 d33d
000003a0: 6a84 203d 7bd1 9b3d 7a3f 863d 3fc8 a63d
000003b0: a027 c4bd d33a 413e 491c 3c3c 08cf e9bd
000003c0: 21dd be3d 364b 283d f2cb 273c fb6f 003e
000003d0: de16 0a3e 83c9 92bd f092 80bd 63d4 f0ba
000003e0: 5695 bbbd e2ba c63d e171 ed3d 073b 05bd
000003f0: 64f6 edbd e670 ef3d 7454 e13d cd8b 8f3d
0.12804128 -0.022614717 0.06411119 -0.050200403 0.11204765 -0.08666073 0.026843222 -0.031404123
0.04463899 0.056258872 -0.0026938727 0.07896668 0.1607986 -0.10054592 0.0017716498 -0.022250062
0.01941674 -0.024997346 0.12515663 0.028790446 0.031913597 0.055082265 -0.057175286 -0.023924954
0.05049742 0.035299674 0.04295877 0.010693986 0.0050749155 -0.035415865 -0.15237357 -0.011782037
-0.018150067 0.025168821 0.061852477 0.075646184 0.033912152 0.098699614 0.004368834 -0.0405305
0.0414171 -0.026956556 0.14185254 0.049882747 0.022218203 0.10868568 -0.0046486715 -0.10717426
-0.014007656 0.020529509 0.02965128 0.08624326 -0.053955473 -0.0051706373 0.03085681 0.0035770428
0.09487614 0.030359382 0.033235867 -0.006754222 0.103450984 -0.038396567 -0.064150505 -0.045332067
0.14716011 -0.028182447 0.0043335087 0.0043230415 -0.0829052 -0.036073916 -0.06253619 -0.08599248
0.010933655 -0.094113804 0.08340417 0.0139930025 0.12704524 -0.049594086 -0.026590796 0.06786559
0.04211118 0.12665507 -0.019761788 0.005901488 -0.069956005 -0.028732428 -0.02034983 -0.08718304
0.08934998 0.11755797 -0.015380393 -0.043814678 0.024569176 -0.06079614 -0.022690818 -0.089995
-0.00639904 0.1921656 -0.07270451 0.06804164 0.05393015 -0.0964945 0.050699934 0.1719301
0.0034143555 0.013735769 -0.0035756999 0.029260933 0.13067184 -0.035363354 -0.037580483 -0.09844715
-0.071989 0.0048957244 0.04923038 0.15088968 -0.010568021 0.012551656 -0.114248194 -0.013843782
-0.10412378 -0.05030067 0.039431576 -0.050745327 0.092168234 -0.016193746 -0.03140792 0.03731552
-0.02923979 0.06169244 0.07153645 -0.04741079 -0.0053718206 0.067840256 0.01868283 0.2269176
-0.01323465 0.119496025 0.09653729 0.03300944 0.14992058 0.02253966 0.028100053 0.034690972
-0.025739511 -0.1289817 0.074485235 0.0723095 0.09544973 0.09568389 0.13913524 0.058527835
0.1513325 0.042700835 0.14714466 0.037347045 -0.03366994 0.08546944 -0.016424086 0.06793322
0.016696522 -0.065983996 0.0047075823 0.10653292 0.027076514 0.001153517 0.06539753 0.03830864
-0.021609299 0.06879787 0.04927043 -0.023820857 0.036538053 0.1087789 -0.01845001 0.03309824
0.040059645 0.080199055 0.044604808 0.15632465 0.02854191 0.08215995 0.13768668 0.13066977
-0.08150214 0.07273646 0.07054906 0.1576528 0.0005363823 -0.04163374 -0.053536054 0.06368396
0.006915735 0.107393995 0.15128964 0.08334195 0.04693342 0.14953764 -0.0032351464 0.06824332
-0.022119662 0.24034785 0.13181 0.042721767 0.015248934 0.10862187 -0.07123412 0.07685965
0.15655151 0.09296769 0.042760015 -0.0939539 0.16843191 0.13909501 -0.078842744 0.08073569
0.08969673 0.09802194 0.03223706 0.1338421 -0.025419572 -0.095237635 -0.06942568 -0.06419441
-0.156108 0.19301341 0.10810713 0.07105067 0.008070576 0.05534325 0.06287453 0.10343932
0.03918878 0.076083146 0.06555076 0.08143663 -0.0957787 0.18870096 0.011481353 -0.11416441
0.09319521 0.04108735 0.010241495 0.12542717 0.13485286 -0.071673416 -0.06278026 -0.0018373843
-0.09159343 0.09703614 0.11593986 -0.032526996 -0.11619261 0.116914555 0.11002436 0.07009087

graph_matcher.mlp.4.bias f4 [64]
00000000: 7274 3e3e 59ad adba 2e2c 7cbc 3fa0 923d
00000010: 2e07 153e 2e4d 01be d72b eb3d 0be4 aa3c
00000020: aa55 ed3b c736 37bd 3ce4 1a3e eda1 e1bb
00000030: 255f ff3b 6514 1cbe e1fe 8b3a eb0f 053e
00000040: 5331 1d3e 92e2 693c 9877 ce3c de4e 093d
00000050: bbe6 1ebe 09dc 3dbe af72 383e 6c7a 383e
00000060: 5991 69bd 3422 853e 4abd bc3d 9820 653e
00000070: ef8f debd ed82 433d f04e 3cbe ee9f bebd
00000080: a535 263d 05bb bcbc 8c0f 5b3d 281c 62bd
00000090: ed98 9a3c 33f6 44bd 166a 583d 01b6 853d
000000a0: 762c 0f3e 4d7a 633e 8295 133e 2e7d 103d
000000b0: d535 0f3e 162e 35bd 1444 6bbe 7ae9 06bc
000000c0: 0c67 8f3e 70cb 243e 24b9 16be 7555 4e3d
000000d0: 0a5e b43d 4958 833d 90fd a93c 058d ae3d
000000e0: 95be eebd 3a5f 1b3d 39b5 213e 5e3e 7d3d
000000f0: 05d9 f7bc c83a c93d 04d5 103e dbda 30bd
0.18599108 -0.0013250514 -0.015391393 0.07159471 0.1455352 -0.12627098 0.11482971 0.020860692
0.007242878 -0.044729974 0.15126127 -0.006885758 0.0077933245 -0.15242155 0.0010680818 0.12994353
0.15350847 0.01427521 0.025203511 0.03352248 -0.15517704 -0.18540968 0.18012498 0.1801545
-0.05702338 0.26002657 0.092157915 0.22375715 -0.10867297 0.047732282 -0.18389487 -0.09307848
0.040578503 -0.023038397 0.053481624 -0.055202633 0.018871749 -0.048086356 0.052835546 0.06528855
0.13981804 0.22214623 0.14412501 0.03527563 0.13985379 -0.044233404 -0.22975188 -0.008234376
0.28008306 0.1609323 -0.14719063 0.050374467 0.08806999 0.064133234 0.02075079 0.08522991
-0.116574444 0.037932612 0.15791787 0.061827056 -0.03025485 0.09825665 0.14143759 -0.043177467
