Result/GCN/5000_sample/model_epoch_8_f1_0.6817.pth (torch, 841454 bytes, 42 tensors)

graph_matcher.gnn.conv1.bias f4 [64]
00000000: d744 cc3d 0000 0000 0000 0000 3f68 bf3c
00000010: 8b4a 76bd 22c9 92bd 02ef 89bd a30d 453d
00000020: fe97 603d e31d 753d 5298 be3c 68e5 cf3b
00000030: 5a10 653c d84f 003e 45a4 4e3d 1191 b13d
00000040: 0000 0000 6f91 b43d b6d6 f93d 6419 00bc
00000050: 9cd9 8a3d 636e 9f3d 0000 0000 fad4 47bb
00000060: 0000 0000 638e 1d3d 7ef2 20bd 0000 0000
00000070: acc8 74bd 9bf3 d03d 4c0c 243d 22aa 77bd
00000080: db36 89bd 9a94 81bd de79 483c a587 9d3d
00000090: 18de 58bd c314 003e 7886 a8bd bff2 d9bd
000000a0: 35b9 bdbd bb68 cf3d 0a96 b6bd b3a4 ccbc
000000b0: c5f0 af3d fa19 173d 8c69 e83c 9f79 6c3d
000000c0: 4200 d0bd 1172 49bd b237 5bbd 0000 0000
000000d0: 58c0 debd e608 ae3c 219d 4b3d 259e 5bbd
000000e0: 9c54 a43d 7a34 0a3d 383f 87bd 17cb 3c3d
000000f0: 0000 0000 8787 3abb d819 f1bd 57aa 8bbd
0.09974068 0.0 0.0 0.023365138 -0.060129683 -0.07167269 -0.0673504 0.048108708
0.05483245 0.059842955 0.023265991 0.006344486 0.013980949 0.12530458 0.05044963 0.08670247
0.0 0.08816802 0.12199156 -0.007818554 0.06779787 0.077847265 0.0 -0.0030491934
0.0 0.03846587 -0.03929376 0.0 -0.059761688 0.10202714 0.04005079 -0.060464986
-0.06699916 -0.063271716 0.012236087 0.07691888 -0.05294618 0.1250792 -0.08228773 -0.10642003
-0.09263841 0.101273976 -0.089153364 -0.024980878 0.08590845 0.036890008 0.028370641 0.057733174
-0.10156299 -0.049181048 -0.053519912 0.0 -0.108765304 0.021244477 0.049710397 -0.053617615
0.080239505 0.03374145 -0.06603855 0.04609212 0.0 -0.0028462128 -0.117725074 -0.06819599

graph_matcher.gnn.conv1.lin.weight f4 [64, 4]
00000000: ccc5 733e 71e5 16be d457 153f 2b65 c1be
00000010: 9ade 47be 7a2d 89be e135 97be 7a3d 86bd
00000020: 2612 88be b2c9 28be e1d9 95be c832 3cbe
00000030: 4235 fa3e 1d9f 593d 8d05 dc3d afc2 79bd
00000040: e388 923e ce7c 28bc 46b2 f23e 3aed 6fbe
00000050: ff5b c03e e8a7 8c3b 1d5c febe b298 87bd
00000060: 3e90 92be 9a6e 68be 1b9b 2fbe f026 7d3e
00000070: b9bc a23e 362e 693e 10d8 f9bd d6ce 1abf
00000080: 9330 313e 712e c23c 074b 1d3f 0aa5 40be
00000090: b92a f9be 2a4f 053f ba52 12bd 8d44 3c3e
000000a0: a651 913d 5e51 47bb 4f56 1a3f d22f 86be
000000b0: 1941 cdbe ad96 7a3e 53a2 b1be 0796 2d3e
000000c0: d2c0 023f 96ee 0abd 9372 213f 9c27 20be
000000d0: 095b 4e3e b4f8 873d 2a43 313f f41c adbe
000000e0: de02 2bbe 3581 e1be f555 25be ee10 7c3e
000000f0: 9d26 d23e 3322 3abe f9f5 0fbf 833f 4fbe
00000100: 5002 38bd 6e4a 8abe 9a2a 9fbd 5035 a7bc
00000110: 5077 04bf 6c84 7f3e c04a e3bd 965d 0c3e
00000120: e9db 50bf 29da 033e dc00 083f 8152 e4be
00000130: 29c1 903e db8e 103d 6e14 cf3e 4423 b4bd
00000140: 2ac0 643e 50ea bd3e 96bb 963e 03ee f5be
00000150: ddb2 193e 4db4 813d 66e4 2a3f 9a5e 18be
00000160: 9e35 1bbe 7c13 91be 8a54 72be e829 14bd
00000170: 52fc b6be b066 ad3e 5313 9abe a508 603e
00000180: a8ab 61bd 3d86 3dbe 2c0d b6bd 8afa a9bd
00000190: 6040 85be 041c 72be b2a0 61be 82dd bc3d
000001a0: 55bf 9f3e f9e1 233e 1b5d cc3e d36a 4dbe
000001b0: d07e 10be ff0e 92be 7904 90be d055 ddbc
000001c0: c8ea 42be 33be 58bd 7346 92be 2ec0 10be
000001d0: db09 513e d905 a33d 5b27 473f 2157 38be
000001e0: 686a 2fbd 05ce bbbd 89a4 f53e 4e1f bebe
000001f0: 45ee 47be 5e91 8bbe 118a 5abd 4e30 38bd
00000200: d6c7 e03e d0b2 82bd c6f3 1e3f 9629 12be
00000210: b860 ee3e ff6e 9f3d dc6a debe 07ea dbbc
00000220: 7704 5abf c6fd 143f 3cb9 303f 81cf 3dbf
00000230: c45a 263e e451 f73c c723 383f 8e78 f2bd
00000240: 5ba2 97be ec41 19bd 5996 56be 65d5 3b3e
00000250: 24f1 e83d bcef 133e 523d 133f 8460 f4be
00000260: f17c 73be 1caa 3abe 08f6 74be 1573 a5bc
00000270: 2c79 1c3f 0773 27be 38cb 40bf 0bbe dbbd
00000280: 927b 5fbe eb42 95bd a09c 4a3b 905d 263d
00000290: 215a 2ebf 063f b13e 5f0a d03e c774 22bf
000002a0: 5899 b0bd 2ba5 a9bd 9d13 5dbd 1089 c63c
000002b0: 18bd 203e 7b86 1fbe 6807 3e3f bfb1 ccbd
000002c0: 077b 5bbe 7c7e fbbe 16ab 99be a441 853e
000002d0: db49 e7be 0652 b43e 0e0a 153e 085a 0abd
000002e0: c654 27bf 72f5 f33e f035 2bbe 052c 093e
000002f0: 97ad 0bbf 0ff2 043f 406a 193c 2b51 413e
00000300: feab ccba 44f8 24bd f3bb 64be 259f 43be
00000310: 15db de3e 5529 83ba a7b9 d33e e385 73bd
00000320: 7e95 15be e02a dabd 7a2b 4dbd 2a3b ddbd
00000330: 32ae 78be a9be 22be 6c8e b0bd e021 46bd
00000340: 6afe fd3e 468f 9ebe 46fd d0be b814 713d
00000350: 51fe 91be eed4 c83e 872e 6ebd 2c3f 0e3e
00000360: da0f 30bf d948 153f 39f7 6fbe 68c2 1fbd
00000370: 7f22 033d 1a5d 44be 287d 31be cc50 8abe
00000380: 1e81 b23e c29f edbe f24d e2be 8d68 c7be
00000390: 3351 793e 323a 79bd c8a3 383f 6f01 42be
000003a0: e391 3abe 9f19 b7be c527 96be a9e5 823e
000003b0: 1773 07bf 8ab7 2a3e 740b 7a3e 386c f3be
000003c0: f0d6 c4bc 3063 4cbe d81f 42be 6447 d1bd
000003d0: 8b1a d0be a64c c1be 5e22 36be 692a 943e
000003e0: 806e e5bc 368a 57be f1bb cd3c 91e6 97be
000003f0: a2c9 b43e 2a83 713e f03a 0c3f 3806 6dbc
0.23805922 -0.14735962 0.5833714 -0.37772498 -0.1951851 -0.26792508 -0.29533294 -0.065546945
-0.26576346 -0.1648319 -0.2926779 -0.18378747 0.48868757 0.053130258 0.10743246 -0.06097668
0.2862006 -0.010283662 0.47401637 -0.23430339 0.37570187 0.004292477 -0.49679652 -0.06620921
-0.28625673 -0.22698441 -0.17149012 0.24721885 0.3178461 0.22771534 -0.12199414 -0.60471857
0.17303686 0.023703786 0.6144261 -0.18812957 -0.48665407 0.5207392 -0.035723425 0.18385525
0.07095651 -0.003041349 0.60287946 -0.2620836 -0.40088728 0.24471541 -0.34694156 0.16951762
0.5107547 -0.03391894 0.6306545 -0.1564011 0.20151915 0.06639233 0.6924311 -0.33811152
-0.16700312 -0.4404389 -0.16146071 0.24615833 0.41045085 -0.18177108 -0.562347 -0.20239072
-0.04492408 -0.2700991 -0.077717975 -0.020411164 -0.51744556 0.24952859 -0.11098242 0.13707575
-0.81585556 0.1287619 0.5312631 -0.44594195 0.2827237 0.035292488 0.40445274 -0.08795789
0.2233893 0.3709283 0.29439992 -0.4803315 0.15009637 0.06333218 0.6675476 -0.14879838
-0.15157172 -0.28335178 -0.23665062 -0.036172777 -0.3573938 0.33867407 -0.30092868 0.21878298
-0.055095345 -0.18508239 -0.08889231 -0.0829974 -0.26025677 -0.236435 -0.22033957 0.09221937
0.31200662 0.1600417 0.39914784 -0.20060281 -0.14110875 -0.28527066 -0.28128412 -0.027018458
-0.19034874 -0.052915763 -0.28569373 -0.1413581 0.20413916 0.079601 0.77794427 -0.18001987
-0.042826086 -0.091701545 0.47977093 -0.3713326 -0.19524486 -0.27259344 -0.053354327 -0.044967942
0.43902463 -0.06381762 0.6209072 -0.14273676 0.46558166 0.07784843 -0.43440902 -0.026844991
-0.8516306 0.5819973 0.69032645 -0.7414475 0.16245562 0.030190416 0.7192959 -0.118394
-0.29616055 -0.037416384 -0.2095579 0.18343122 0.11374119 0.1444692 0.5751544 -0.47729886
-0.2377813 -0.18228954 -0.23921978 -0.020196477 0.61122394 -0.16352473 -0.7531009 -0.10729607
-0.21824482 -0.07288154 0.003091611 0.040616572 -0.68106276 0.34618396 0.40632913 -0.6345944
-0.08622998 -0.082834564 -0.053973783 0.024235278 0.15697134 -0.15578644 0.7423005 -0.0999484
-0.2143365 -0.49119937 -0.3001334 0.26026642 -0.45173535 0.3521883 0.14554617 -0.033777267
-0.6536373 0.47648197 -0.16719794 0.13395698 -0.5456175 0.5193185 0.009363711 0.1887862
-0.0015615223 -0.040275827 -0.22337322 -0.19103678 0.4352652 -0.0010006825 0.4135258 -0.059453856
-0.14607808 -0.10652709 -0.05009029 -0.108023 -0.242852 -0.15893044 -0.08620915 -0.04837215
0.49608165 -0.30968684 -0.40818232 0.05885765 -0.2851434 0.39224952 -0.05814984 0.13891286
-0.6877419 0.5831428 -0.23434152 -0.03900376 0.03201532 -0.1917614 -0.173329 -0.27014768
0.34864134 -0.46410948 -0.44200093 -0.38946953 0.24347381 -0.060846515 0.7212491 -0.1894586
-0.18219714 -0.35761735 -0.29327217 0.25565842 -0.5290999 0.16671577 0.24418432 -0.47543502
-0.024028271 -0.19959712 -0.1895746 -0.10218695 -0.4064525 -0.3775379 -0.17786548 0.28938606
-0.028006792 -0.21048817 0.025114032 -0.29668096 0.35310084 0.23585191 0.5477743 -0.014466815

graph_matcher.gnn.conv2.bias f4 [128]
00000000: 1688 df3d 509a c7bd e004 c9bd 7eb2 9dbd
00000010: 65ca 4cbb 77dc df3d 286d a4bd 263f b73d
00000020: 8e9b 9eba 7ebb 183c 7e8f 44be 46cb f5bd
00000030: cc51 a0bd 3af5 3ebd b3f9 a23d ec19 e5bd
00000040: 23b7 e7bd 13b8 ccbd 3620 af3d 7484 5e3d
00000050: 2c0d abbd 5250 0fbe 1d9d acbd e215 55bd
00000060: 697e 34bd 8d25 f5bc 362d 3bbe de38 3cbe
00000070: 8da8 89bd 4e7e b8bd 8a43 a0bd 0cf4 82bd
00000080: 9cf0 72bd 052c f03c 3b22 cfbd 1d8d a9bd
00000090: 0f4d a23c ed6e 513c 2ac7 063e ea6b abbd
000000a0: 441f d43b 70e6 fb3d 50b9 163e a0b2 43bc
000000b0: 21ed a1bd bb6e 17bd 29cc 2c3e b4b4 63be
000000c0: 0a1a d0bd 1abf 39bc 8c6d 043d fc0f 893c
000000d0: 630a 6f3d caa3 62bd 92f7 14bd 94de 42be
000000e0: 03c9 12be 3a21 543d 4f3a 08bc 5037 303d
000000f0: 0950 c0bd ba3f a8bd edd7 84bc 8748 6a3c
00000100: fa9e b0bd c77d adbc a0f0 debc afe4 00be
00000110: 64fc e0bc 2897 263e d4e0 85bd b74d 67bd
00000120: dce1 cdbc 8e6c ecbd 9e4b 68bd a189 aabd
00000130: bf93 93bd 5462 c0bd ecba 213d 9859 71bd
00000140: 81f4 a63d d37b 87bd aa9d dcbb 7f59 2c3c
00000150: 5d71 003e 0198 debd e4fa a4bd ddae 363d
00000160: 7925 5bbc 11d9 bbbd 442c 8fbd 069b 15bd
00000170: dbdb 51bc da11 6e3d 1cb7 8dbd d97a aebd
00000180: 1041 47be a7de 923d 4bc0 edbb d3ea 0abe
00000190: 1af4 51be 7e40 8e3d 1f24 b6bd c886 0bbc
000001a0: 2243 a6bc d1c3 783b d514 f6bd ca62 5cbc
000001b0: b88f cf38 eede 00be 0f47 73bd 085d 6bbd
000001c0: 1e5a a9bd 6192 1c3d e40f bfbd e6a9 e9bc
000001d0: f486 9c3d 8997 2abd 9013 4c3d 1604 dbbc
000001e0: 315c 15be e957 b8bd 475b 12bc 177b aebd
000001f0: 3e6f 3ebc d9bc 7bbd c402 86bd df98 0f3d
0.10914628 -0.0974623 -0.09815383 -0.0770006 -0.0031248566 0.10930722 -0.080286324 0.089475915
-0.0012100802 0.009322045 -0.19195363 -0.12001662 -0.078281015 -0.046620585 0.079577826 -0.11186585
-0.113142274 -0.09996047 0.085510656 0.054325536 -0.08352122 -0.13995484 -0.084284045 -0.052022822
-0.044065867 -0.029925132 -0.18278965 -0.18381068 -0.06721602 -0.09008466 -0.07825382 -0.063942045
-0.059311494 0.029317865 -0.10113951 -0.08278868 0.019812135 0.012782794 0.13161913 -0.08370192
0.0064734537 0.12299812 0.14719129 -0.011944443 -0.07906557 -0.036970835 0.16874756 -0.22236902
-0.101612166 -0.011337066 0.032331035 0.016731255 0.058359515 -0.055331983 -0.036368914 -0.1903022
-0.14334492 0.0517895 -0.008314683 0.0430215 -0.093902655 -0.0821528 -0.016216243 0.014299518
-0.086240724 -0.02117814 -0.027214348 -0.12587236 -0.0274641 0.16268599 -0.06537023 -0.0564706
-0.025132112 -0.11544143 -0.05671274 -0.08327032 -0.07205915 -0.093937546 0.039484903 -0.058923334
0.08152104 -0.066154145 -0.006732662 0.010519384 0.12543245 -0.10868836 -0.08055666 0.044600356
-0.013375633 -0.091722615 -0.06990865 -0.036524795 -0.012808765 0.058122493 -0.06919691 -0.08519525
-0.19458413 0.07171374 -0.007255589 -0.13566141 -0.20503274 0.06945895 -0.08893608 -0.008516021
-0.020295683 0.0037958513 -0.12015692 -0.0134512875 9.897299e-05 -0.12585041 -0.05939394 -0.05746177
-0.082691416 0.038225535 -0.09329203 -0.028523397 0.07642928 -0.04164842 0.049823344 -0.026735347
-0.1458595 -0.090011425 -0.008932895 -0.08519571 -0.011623202 -0.061459396 -0.06543496 0.0350579

graph_matcher.gnn.conv2.lin.weight f4 [128, 64]
00000000: 2bc7 af3d 7028 a3bc 6ed7 a43d 1c0a 27be
00000010: bbbb 04be 7144 8cbe bdf1 45be 21ad 9c3e
00000020: d18b e83e 8cb2 8fbd 8208 ba3e 5809 b33d
00000030: c404 8c3e 9ea3 ab3e b03f 773c b483 d5be
00000040: 30d8 d13c 8b11 97bd 8ffa 81bf 4cdc 5e3d
00000050: 525c 0d3f 6197 b53e b80d 8a3d 6db4 02be
00000060: e96b dbbd 0ccd 52be e09b c7bd 2730 d6bd
00000070: a471 87bd 3f5b ae3e e31e e33e 4c7f 27be
00000080: 286b 01be 0b2b b7be f940 aebf 7d30 b73e
00000090: 85cb 4fbe 2ef9 633f 1c81 073d 24e3 08bf
000000a0: 0625 763d 3796 87bf 7592 f0bd 588b 993e
000000b0: 62b4 dfbd b8d1 87bb 8545 063e 0f6b 27bc
000000c0: a880 d03d 474e 053e dbc8 d23d e407 b9bd
000000d0: ca09 d9be 0a45 fd3d 721f ba3d 3e7b 73bd
000000e0: 7fd1 2bbf a0ee aa3e e578 dabd 69f3 54bf
000000f0: cca8 49bd bd24 68be 49a9 a63d 254e c93e
00000100: 6a03 80be 0a43 f0bd 2005 18bd 5bc5 0abe
00000110: 0d47 eabd 4d9f 23be d535 f9bd ae29 c8bd
00000120: 3dd4 66be 3ed3 7a3d f944 c2bd cc52 15bc
00000130: 98d6 29be d3da fcbd 1a25 46be 8e19 46be
00000140: da75 903d 20fa 09be ef88 ac3d 9f90 5abe
00000150: 3fc1 16be 7337 8c3d 670f 0fbe 77c7 aebd
00000160: f695 973d d728 6dbe d643 af3d 58dc 9abc
00000170: e03b 2abd e988 18be fc30 29be e275 3b3c
00000180: 2741 74be 370c 1abe f808 043e 5038 a6be
00000190: 5fdf 4abe cc75 033e 2387 7fbe 8cf5 9bbc
000001a0: 298f 493d 7965 3abd b26f e7bb 343d 69bd
000001b0: 67e9 f9bd 33ec c9bd ecc3 a0bd 172c b9bc
000001c0: b069 843d 459c 69be b2bd c63c 85a8 153e
000001d0: 9811 7bbe 2b29 aa37 1ad4 93bc 27ab 1abe
000001e0: 84bd 843d cf28 a8bd d696 59be 8225 753d
000001f0: 447c 0bbd 56a5 b1bd d1a0 ea3d b1a6 90be
00000200: 3803 cdbc 2d3a 10be 200b 9bbc a1be 07be
00000210: 49bb c8bd 4bcf 9dbd a4aa 17be fc3b b4be
00000220: 0de9 80be 75a9 86bd 207c 223e dc7e 77be
00000230: 0e17 afbe d271 adbe 140f 98be 3a48 1bbd
00000240: e7e8 87bd da28 1dbe 333c ddbe c82d f1bd
00000250: ff27 8abe fb62 70be 9ec1 aa3d dc2a 5ebe
00000260: 7abd c63d b78d c9be 4483 0c3e a6fc 86bd
00000270: 83cd 733c 2023 3abe 08ee 573d a3d5 4cbd
00000280: 5581 2abe 8582 153e 5fa0 91be 30c8 dabe
00000290: e431 92bd e4ec 6c3d c572 f6bd 3c22 32be
000002a0: 0182 33be 5499 fdbd 4a4f 7fbe 5e1e 0bbd
000002b0: 0d5f b3be 97e6 283e 27d1 ef3d c843 05bd
000002c0: c785 20be 598c 93be ba5a 70bd 005a 9b3a
000002d0: 44dc 46be 0064 533d f6bd cd3c 5100 41be
000002e0: 2849 253e 695b dbbc bfdc a5be 54c7 e539
000002f0: c4d8 3a3d 6909 e3be 0130 3ebd 160a 65be
00000300: 117e 5fbe 2ac6 2abe 0cf1 00bd 7079 ae3d
00000310: f952 6fbe e6e3 ea3c 5434 f23d 5fc1 37be
00000320: d6a9 d9bd c70b 7bbd 0541 debd 4a4f cdbd
00000330: 9df9 55be bd75 5fbe d420 35be ab4b 35be
00000340: 92a2 a83d be91 5abc 5f60 803e 21b9 13be
00000350: f20f 78bd 695a 933d 00b7 883d fe31 10be
00000360: ee03 fc3d c7f5 debd 6948 893d 1ee3 bb3d
00000370: 39fb ef3c a23c 1f3d 6f48 0e3c f7c8 b1bd
00000380: 9858 af3c 8233 87bd 4451 26be 9cc9 e3bd
00000390: fbd1 d8bd 1414 01bd 6e82 033e 5cca 92bd
000003a0: cf84 b13c 4d59 303e b01f 13be 33f1 dabd
000003b0: 86df 143c 806b 313d c8cf d63d 25f2 5fbe
000003c0: fdb8 d3bd 01d9 00bd a0de 63bc 60f9 6b3c
000003d0: 8215 aebd c0bf e3bd 04cb abbd b6f9 e3bd
000003e0: 81ba 693d 25fb bd3b 22e4 f83d 96bc c2bd
000003f0: 9783 113e 644e 40be 6c1a ee3c e3f1 49bb
0.0858291 -0.019916743 0.080489025 -0.1631245 -0.12962238 -0.27395967 -0.19330497 0.30600837
0.4541917 -0.07016477 0.36334616 0.087420166 0.27347386 0.33523268 0.015090868 -0.41702044
0.025615782 -0.07376393 -1.015459 0.05440931 0.55218995 0.35467055 0.06740898 -0.1276414
-0.107139416 -0.20586032 -0.09746528 -0.10458403 -0.06613472 0.3405399 0.44359502 -0.16357154
-0.12638533 -0.35775027 -1.3613578 0.3577918 -0.2029248 0.89052093 0.033082113 -0.5347159
0.060093902 -1.0592717 -0.117466845 0.29989123 -0.10923077 -0.0041448735 0.13112457 -0.010218396
0.10180789 0.13018142 0.102922164 -0.09034708 -0.4239028 0.12366684 0.09088029 -0.059443705
-0.6711654 0.3338518 -0.1066759 -0.83183914 -0.049233243 -0.22670265 0.08137757 0.39317432
-0.25002605 -0.11731537 -0.037114263 -0.13551848 -0.11439333 -0.15978737 -0.12168471 -0.09773575
-0.225419 0.061236612 -0.09485812 -0.009113979 -0.16585767 -0.12346425 -0.1935009 -0.19345686
0.070537284 -0.13474321 0.084245555 -0.21344231 -0.14722155 0.068465136 -0.1397072 -0.08534139
0.0740165 -0.2316011 0.085578606 -0.018903896 -0.041561007 -0.14895977 -0.16522592 0.01144168
-0.23852979 -0.15043722 0.12894046 -0.32464838 -0.19811772 0.12837905 -0.24953894 -0.019037984
0.049208794 -0.045506928 -0.0070628757 -0.056943133 -0.12202721 -0.098595046 -0.07849869 -0.022604031
0.06465471 -0.22813518 0.024260376 0.14615066 -0.2451843 2.028475e-05 -0.018045474 -0.15104352
0.0648146 -0.082109086 -0.21248946 0.059850223 -0.034054056 -0.086741135 0.114564545 -0.28252175
-0.025025949 -0.14084692 -0.018926203 -0.13256313 -0.09801347 -0.077055536 -0.14811188 -0.35202014
-0.25177804 -0.0657529 0.15867662 -0.24169487 -0.34197277 -0.338759 -0.29699004 -0.037910677
-0.066362195 -0.15347615 -0.4320999 -0.1177631 -0.2698364 -0.23475258 0.08337711 -0.21696037
0.097041085 -0.39365932 0.13721949 -0.065911576 0.014880541 -0.18177462 0.05271724 -0.050008427
-0.16650899 0.1460057 -0.28442666 -0.42730856 -0.07138422 0.057843104 -0.12033609 -0.17395872
-0.17530061 -0.12382761 -0.2493259 -0.033964507 -0.35033455 0.16494213 0.117098145 -0.032535344
-0.15676032 -0.28818014 -0.058680274 0.0011852384 -0.19419962 0.05160904 0.025114994 -0.18847777
0.16141188 -0.026776986 -0.32394978 0.00043826795 0.04561688 -0.44343117 -0.0464325 -0.22367129
-0.21825434 -0.16677156 -0.03147988 0.08519256 -0.23371495 0.028673124 0.11826387 -0.17944859
-0.10628097 -0.06129053 -0.10852245 -0.10024889 -0.20896001 -0.21822257 -0.17688304 -0.17704646
0.08234133 -0.013340412 0.25073525 -0.1442609 -0.06056208 0.07194979 0.066755295 -0.1408157
0.12305437 -0.10886722 0.06703264 0.091741785 0.029294597 0.038876183 0.008684262 -0.08680909
0.02140455 -0.06601621 -0.16241938 -0.11122438 -0.105869256 -0.03151329 0.12842724 -0.07167503
0.021669773 0.17221566 -0.14367557 -0.10690536 0.009086495 0.04331541 0.1048885 -0.21869715
-0.10338018 -0.03145695 -0.013908058 0.014402717 -0.08500196 -0.11120558 -0.083883315 -0.11131613
0.05706263 0.005797761 0.12152888 -0.09508626 0.14210354 -0.18779904 0.029065333 -0.0030814342

graph_matcher.mlp.0.weight f4 [128, 256]
00000000: 663f 8ebd fa3f 7c3d 3f9e 05bd fce8 623d
00000010: 4886 69bd 9f33 afbb ea82 03bd f25f 55bd
00000020: 75b4 ed3c e62f 12bd 30d1 6abd 60a1 5e3d
00000030: 101e 9bbc f6ce 7fbd 3612 f73b df93 fcbd
00000040: aa0c 333d c6ef 1abd ac2d 8fbd 9ed0 103d
00000050: 204f 2fbb dea3 9fba c178 0abd abd3 bebc
00000060: eda8 aabd bc48 c0bc da30 52bc e42a f9bd
00000070: 31e6 c7bd 2e73 1bbc 4dd1 9ebd 5a25 52bd
00000080: 4e5c 7bbd ac2a 90bd c8f4 34bd a21e 623d
00000090: 3d46 7e3c 086d d43c cf02 e53a 1cc9 4c3d
000000a0: 3b42 5bbd 9be3 bebd c50c ffbc 6d71 a2bd
000000b0: a2e6 2f3d 9305 20be 3bb8 5bbd ac5a 843c
000000c0: e011 87bb aea0 9bbc e22f a0bd 3ed2 80bc
000000d0: 760f 02bd c1e5 a7bd c9a6 1dbd a8e3 87bd
000000e0: c5a1 a33d 0ff7 8abd 7b4c 8abd 217d 20bd
000000f0: 1c26 8ebc 782b 733d ab73 b93c d7b4 813c
00000100: af7b b5bd c6fc 32bd b4a3 80bd 6eac 533d
00000110: 4f0e 24be ead7 80bd 66a9 f9bd 1603 1e3d
00000120: 9ecb 16bd ac39 81bd b963 93bd ca74 3dbd
00000130: 5fad 45bd d8aa 7d3d 8b78 c63b b387 44bd
00000140: 533a 92bd 4015 8d3c d757 9cbd b466 89bd
00000150: 9974 5b3c 6a76 39bd e87b 2cbd 2b7d eabc
00000160: e004 c3bd 6a3d d5bd 22de 1cbd 0319 15be
00000170: 3816 8fbd ab1f 63bc 90ad 16bc d57c 77bd
00000180: 22b8 c1bc 2127 563c 2e01 15be bc28 d4bb
00000190: 1e22 143c 98bc a4bd 04ea 183d 7ea5 55bd
000001a0: 8e59 94bd 6179 b8bd dda4 c7bc 8a45 efbd
000001b0: e951 5abd f882 5ebc cd1d e2bc 48bc 133d
000001c0: f03e f33b 444e 17bd d8d4 323d caf1 1a3d
000001d0: 82a8 e4bd 3988 03bd e795 ef3b ae16 d6bd
000001e0: 4c54 7a3d a03d 62bc 0fb2 b7ba 006c c23c
000001f0: 63b1 9cbb 4b7f efbc c3ed 97bd 8c4e 8cbd
00000200: ad1f bebd b777 a53c 9813 173c 7eed 443c
00000210: 7502 b43b cb25 703c 16c2 3bbd dc74 bcbd
00000220: 8e6c fb3c 271d 40bd 53dc d6bd b43e 36bd
00000230: 00bb b0bb e530 033d bb4b abbb dab4 92bc
00000240: 50e7 913b 38a6 0fbd e700 0abc a69c 5a3d
00000250: a277 77bd 00b6 6f3b cae3 37bd a2ec 94bc
00000260: 4291 16be aa5b e6bd b33a 2f3d c521 cbbd
00000270: d26a ccbd 56d6 c9bc 0c86 ba3c e03e 78bd
00000280: 1053 0d3c 73b4 98bd 3474 f0bc 921a 673d
00000290: 83ce 26be 4c71 92bc c706 92bd 4086 17bb
000002a0: 5416 c7bd 97fe c2bc bc20 babd 3f0a 90bd
000002b0: 00d9 ed39 6eef d9bd ae75 28bc ce89 1ebd
000002c0: d1f7 8dbb 0898 3cbd 0939 13be db51 0c3c
000002d0: cae3 d1bd 86bb 473d f58c 5ebd d445 a6bd
000002e0: fb2e 0f3e 8a7c 0dbe 65ad 36bd 973d bdba
000002f0: 706f 87bc 56e2 3dbd 722c d9bd 9645 4f3b
00000300: 6ea0 8c3c 916f e3bc 8b6f 0cbe a8cf d0bc
00000310: e794 5abd fe9f e2bd 907f 07bd 76c8 753d
00000320: 6a3c e0bd 1037 d4bc ae07 c9bc ccf3 29bd
00000330: 8cf3 14bd 218b 7ebc 6df7 e7bc 8c17 91bd
00000340: 5b38 d6bd 1020 cd3b f8e6 02be a35d ccbd
00000350: 4af6 c3bd 501e 5b3c 6887 babc 3700 f0bd
00000360: f2f5 72bd 3325 3ebd 1800 a8bc ffc4 7ebd
00000370: bb68 3c3c 48ed d7bd 3018 b83c ed8b 433d
00000380: 41f2 443d 57d6 9dbd 8a0a c0bd b9a0 8f3c
00000390: d102 42bd 4ec6 98bd f439 163d 4042 1fbd
000003a0: 042b d0b9 32ff 8dbd 7e41 3dbd d6e9 bfbd
000003b0: b9e7 88bd b26f 6bbd 8aca 65bd 5be6 bfbc
000003c0: acf3 1b3d 3544 aabd cc66 a53c 931b 3a3d
000003d0: 5cf8 0bbd 9e7c b4bd 6fa0 c5bd e814 f4bc
000003e0: 6ea0 2cbd 20bf 643d e791 acbd 00b4 df3b
000003f0: 677c 49bd 44a4 3ebd c609 8cbd e8ef afbc
-0.06945686 0.06158445 -0.03262162 0.055397972 -0.057012826 -0.00534673 -0.03210727 -0.052093454
0.029016713 -0.03569021 -0.057328403 0.054353118 -0.018935233 -0.062453233 0.0075400127 -0.12332892
0.04371325 -0.037826322 -0.06991133 0.035355203 -0.0026750043 -0.0012179574 -0.033806566 -0.02329429
-0.08333001 -0.023472182 -0.01282903 -0.12166384 -0.097607024 -0.00948791 -0.07754765 -0.051305152
-0.061367325 -0.07039389 -0.044178754 0.055204995 0.015519676 0.025930896 0.001747215 0.04999648
-0.05352996 -0.09320756 -0.031134019 -0.079317905 0.042944558 -0.15627126 -0.053642493 0.016156517
-0.004122004 -0.018997516 -0.07821633 -0.015725251 -0.031753026 -0.08198119 -0.038489137 -0.06635219
0.079898395 -0.06785404 -0.06752869 -0.039181832 -0.017352156 0.059367627 0.022638163 0.015833301
-0.088614814 -0.043698095 -0.06281224 0.051678114 -0.16021083 -0.06291182 -0.12190513 0.03857716
-0.03681528 -0.06309828 -0.07196755 -0.046253957 -0.048261043 0.061930507 0.0060568503 -0.047980975
-0.07140031 0.017222047 -0.076339416 -0.06709042 0.013394498 -0.045278944 -0.042110354 -0.028624138
-0.09522414 -0.104121044 -0.03829778 -0.14560322 -0.0698666 -0.013862531 -0.009196654 -0.060421783
-0.023647372 0.0130708525 -0.14551231 -0.0064745825 0.009041337 -0.08043784 0.03733255 -0.05215978
-0.07243644 -0.09007526 -0.024370605 -0.116831854 -0.05330077 -0.01358103 -0.0276021 0.03606823
0.007423274 -0.036939874 0.043660015 0.037828244 -0.11164953 -0.032112334 0.007311571 -0.104535446
0.061115548 -0.013808638 -0.0014014858 0.023733139 -0.0047818883 -0.029235503 -0.07418396 -0.06850919
-0.092833854 0.020198686 0.00922098 0.012019513 0.005493457 0.014657448 -0.04583939 -0.09201977
0.030691411 -0.0469028 -0.10491242 -0.044493392 -0.005393386 0.03202905 -0.0052275336 -0.017908502
0.0044526234 -0.035070628 -0.008423067 0.053372048 -0.060416825 0.0036576986 -0.04489497 -0.018179242
-0.14703849 -0.11247952 0.04278059 -0.099185504 -0.09981312 -0.024638336 0.022768997 -0.060606837
0.008625761 -0.07456293 -0.029352285 0.056421824 -0.16289715 -0.01787629 -0.07130199 -0.002312079
-0.097210556 -0.023803039 -0.09088275 -0.07033204 0.0004536584 -0.10641371 -0.010281963 -0.03870564
-0.0043325205 -0.046043426 -0.14377226 0.008564438 -0.102485254 0.04876282 -0.054333646 -0.081187874
0.13982765 -0.13817039 -0.044598956 -0.0014437911 -0.01653263 -0.04635843 -0.106041804 0.003162717
0.017166343 -0.02776316 -0.13714425 -0.025489643 -0.05336466 -0.11065672 -0.033080637 0.060005628
-0.10949023 -0.025905162 -0.024539795 -0.04149227 -0.036365077 -0.015536101 -0.028316224 -0.07084569
-0.10459968 0.0062599257 -0.1278342 -0.09978797 -0.0956846 0.013373926 -0.022769645 -0.11718791
-0.059316583 -0.046422195 -0.020507857 -0.06219959 0.011499579 -0.10543305 0.022472471 0.047740865
0.048082594 -0.07706898 -0.0937701 0.017532693 -0.047365967 -0.074596986 0.036676362 -0.03888154
-0.000397049 -0.0693344 -0.046205036 -0.093707725 -0.066848226 -0.057479568 -0.05610136 -0.023425272
0.03807418 -0.08313791 0.020190619 0.045436453 -0.0341724 -0.08812831 -0.09649741 -0.029795125
-0.042145185 0.055846334 -0.08426266 0.0068268776 -0.049190905 -0.046543375 -0.06837802 -0.0214767

graph_matcher.mlp.0.bias f4 [128]
00000000: 06fd 05be 0d59 cd3c b082 473a ded3 fbbd
00000010: b0cb 7fbd 81ae 583d d4d6 47bd 17b4 85bd
00000020: 97c6 bcbd 2aac 54bc b81b 58bc 4be6 d2bd
00000030: 9c26 38bc 8ace b53d 245d dd3d 2bd9 81bd
00000040: 2b39 c1bc 9741 ae3d 4bf4 89bd 80ed 87bd
00000050: 4474 f7bc 6bf5 a9bd 73ee a6bd 5f8d cdbb
00000060: 30b8 f0bc 6713 87bc a38a 87bd 5928 8ebd
00000070: eb2f c13d 6b51 12bd 4c11 59bb e7f6 8d3d
00000080: bea6 80bd 3f3a 53bc 6150 90bd 1f56 51bd
00000090: df4c aabc 1f82 cdbb cb2b 633d 096e a83d
000000a0: 9719 a2bd 1ee8 22bd 054e 6abd f8e8 9f3d
000000b0: 7f86 b4bd c9df d2bc 5ace 22bd 3673 0fbe
000000c0: a2d2 663d fe4f 72bd d426 65bd c5e3 86bd
000000d0: df19 06be 72ac 903d 7a18 5bbd 2bf7 35be
000000e0: 138c abbb 017c b6bd 1f40 b53d 4823 a2bc
000000f0: 0ce2 943d 9cd2 afbc 78aa 523d c371 993d
00000100: cc6e fcbb 8090 e8bd 0f42 01be 1af6 3fbd
00000110: a0c0 e5bc 64fa a43d f093 49bc c0f3 42bd
00000120: 78ae 4abd b5e2 debc b9f2 9a3d 696e 75bd
00000130: 24ac e6bd ce2e c9bc 5c40 73bd 2eb6 cbbd
00000140: afb5 b3bd a050 58bd f846 f8bd d2b3 63bd
00000150: e418 b5bc 0d6b cdbd fffc 2cbd 468a 25bc
00000160: 6f2e bcbd 91db b93d 946d b9bd c9be 8e3d
00000170: 4782 dbbd 137a dabd a083 e5bd f9d1 a7bd
00000180: 5d5f c4bd 26a4 ebbc 8a54 c8bc 9b23 45bc
00000190: 3db7 27bd 4bda 85bd 2d7f 64bd 3fdb 89bd
000001a0: 67f3 06be 7819 00be 6e42 6fbd 1248 b2bd
000001b0: 3f58 ebbd af40 85bd c10c f3bc ee10 92bd
000001c0: a74a 04be d822 2bbe d4fc 46bd f739 20bd
000001d0: e4f0 c1bd be92 eebd 946a b1bd ed18 dabd
000001e0: 8194 373d d057 f2bd 5cd5 ebbd 175b 97bd
000001f0: b16b d2bd e8ac 8b3d a646 0ebd 5504 b0bc
-0.13084802 0.025066877 0.00076107215 -0.1229627 -0.06245011 0.052900795 -0.04878886 -0.0652849
-0.092175655 -0.0129805 -0.013190202 -0.10297831 -0.011239674 0.08877285 0.10808781 -0.0634025
-0.02358683 0.08508604 -0.06736048 -0.066370964 -0.030206807 -0.08298763 -0.08150949 -0.0062729563
-0.029384702 -0.016488744 -0.0661824 -0.069412895 0.09432968 -0.035722177 -0.0033121882 0.069318585
-0.062818035 -0.012892305 -0.07046581 -0.051107522 -0.020788608 -0.006271615 0.055461686 0.082241125
-0.07915037 -0.039772145 -0.05720331 0.07808107 -0.088147156 -0.025741475 -0.039747573 -0.14008793
0.05635322 -0.059158318 -0.055945233 -0.06586412 -0.13095807 0.07064141 -0.05349014 -0.17770068
-0.005235204 -0.089103706 0.08850121 -0.019792214 0.072696775 -0.021462731 0.051432103 0.074924015
-0.0077036377 -0.11355686 -0.12622856 -0.04686556 -0.028045952 0.08055571 -0.012303337 -0.04759574
-0.049482793 -0.027207712 0.07565827 -0.05991975 -0.11263302 -0.024558451 -0.05938755 -0.099468574
-0.08774888 -0.052811265 -0.12122911 -0.055591412 -0.022106595 -0.10030184 -0.042233463 -0.010103768
-0.09188544 0.09075082 -0.090541035 0.06969983 -0.10718208 -0.10667815 -0.11206746 -0.08194346
-0.095885016 -0.028764796 -0.024454374 -0.012032415 -0.040946234 -0.06535777 -0.055785347 -0.06731271
-0.13178788 -0.12509716 -0.05841296 -0.087051526 -0.11491441 -0.06506478 -0.029669167 -0.07132135
-0.12919103 -0.1671251 -0.04858096 -0.03911778 -0.09469774 -0.116490826 -0.08662906 -0.106492855
0.04481936 -0.11833155 -0.115153044 -0.07390421 -0.10274447 0.068200886 -0.034735344 -0.02148644

graph_matcher.mlp.2.weight f4 [128, 128]
00000000: 18b9 f63c 259e 17be a215 7dbd 3993 8fbd
00000010: 9acf 1c3d 58db 67be 482c 0d3c 3529 83bd
00000020: 48eb 593c d312 66bd 2a73 9abd 5569 3ebd
00000030: 1638 273d beae 8ebd f758 cb3c 38fe 753c
00000040: 08ab 383c 59e6 3dbe d30e dabd d01f cbbc
00000050: d4cf 913c d6d1 28bd 622a 2c3d bc23 9abc
00000060: 7ae6 013d bd1c ad3d 1e4e b2bd e0d0 0fbc
00000070: 5c66 87bc 26b1 363d 8edc 8abd b69f 16bd
00000080: c12a 523d ce56 e2bc 1635 6d3d 99a9 00bd
00000090: 1899 8abc 79c5 a5bd 9269 e9bc 8931 66be
000000a0: 3ace 1e3d e683 54bd e152 19bd e104 57bd
000000b0: a2a9 7bbd fefb 3f3d fd18 d6b8 386d 60bc
000000c0: 50e4 85be cadc 663d b538 2bbd 80e7 603c
000000d0: 6ad9 5dbd 797a aabd 6bee abbd 729d 8cbd
000000e0: 8ca7 f63b 7c44 e6bc 63d4 04bd edff 893d
000000f0: 007e d73a 6dce 29bd 2222 2ebd e782 48bd
00000100: c054 7fbd c299 013d 030f 8c3d 2e13 463d
00000110: e8fe a93c 61b8 08be 30e7 8fbc da94 0cbd
00000120: 7075 9dbc 1e8c 3c3d a22a 13be c58c 3bbd
00000130: 63fb ac3d e773 1dbd 6089 a0bb 5ae0 09bd
00000140: 8bc0 a4bd a27a 4a3d a03a 793b 90e8 19bd
00000150: 4d83 52bd e07f e23b ae8d 6b3d d4a3 88bc
00000160: f2f7 79bd 9ac1 08be 97b9 25bd 9b8c 5fbd
00000170: ce2c f6bc c361 23bd 75ab 4dbd b865 223c
00000180: b41b c7bc d1ec 9abd fd20 afbd 55d7 e6bd
00000190: 706a 90bc 22ba 753d 285d a93c 8230 aebd
000001a0: 0d8b a93d 20f5 79bb 06fb 273d 72fe 6b3d
000001b0: c4a1 9dbd 97c8 81bd 0860 1dbc 2593 28be
000001c0: fd79 893d d13c 3bbe b75d 8d3d bebe 74bd
000001d0: a08b 9ebc 0de5 ad3d f199 00bd 2f1d 983d
000001e0: 1b91 30be 12f4 673d b92c 97bd 57fa 9c3d
000001f0: 2e3a 7c3d 1b2e da3c f2b0 723d 7dd4 8d3d
00000200: a9b0 943d 6076 2ebd ff3d 493e bef1 463d
00000210: fed6 273d e063 c1bd bdca 42bd b696 5c3d
00000220: 88f7 433c de72 18bd 973f 8b3d 0d89 06bd
00000230: 006a dc39 40c0 cb3c 3663 463d 35f2 4cbd
00000240: 87e1 ae3d 76e3 07be 20ed b93b 5036 883c
00000250: 9165 05bd 56c6 0a3d f896 38bc 800e 75bc
00000260: 5454 9fbd f770 a93d e9d6 21bd f3da 963d
00000270: cd38 67bd eaf3 8abd a048 babc 2ad9 30bd
00000280: 8777 30be c041 cfbd dc0b 30bd 80b5 443b
00000290: e146 30bd a294 53bd 8813 48bc d4a3 3bbe
000002a0: f883 07bc 9b35 8b3d d04a 443c 439b 97bd
000002b0: cd15 00bd c2db 7f3d 4298 453d e9b6 883d
000002c0: b681 22be 30c0 b7bb 3124 1abd 2029 7a3c
000002d0: 6fbf 49bd c092 0abd 33c0 813d 00a6 383c
000002e0: f473 09bc a350 953d c271 a9bd bd0e a6bd
000002f0: 8a9d adbd 23fe 9e3d 3a48 f6bc a58e af3d
00000300: f068 df3c 40d0 42bc 8856 c33c 3ede 473d
00000310: 8e4c 39bd 784f ebbd 5278 e3bc 3896 79bc
00000320: 094e 89bd e915 b33d ecb0 93bd 6486 77bd
00000330: cadd fcbc 71ea 02bd d61e 7abd dbd7 a3bd
00000340: f62c e4bc 79c6 ac3d 8095 67bc c8df c2bc
00000350: 7e3a 233d 43dd 49bd dc4d 8dbd 3936 cc3b
00000360: 4681 353d ee17 5d3d cee1 1b3d 4dd0 b23d
00000370: 249a 9bbd f598 92bd 449e db3c 852e 8bbd
00000380: 8c6f 853c 5d0c dabd 8479 89bd a609 b3bd
00000390: e529 40bd 96bc e5bc 41ee a43d 3e7e 8dbd
000003a0: 4c89 abbd 8572 c73c fd12 ac3d b7d0 953d
000003b0: 7cb2 cebc a1ff a73d c0fa 1ebe 4e55 a3bd
000003c0: 4ab1 483d 778d ee3d 3ca1 9dbc 7bff 5cbd
000003d0: fc88 b03c e3b9 60bd 55b1 adbd 0016 0bbb
000003e0: 0c4c 51be 8a8c 073d 3998 8d3d 3b09 eebd
000003f0: 0515 883d 835a af3d 284f c93c 98d7 ad3c
0.030117556 -0.14806421 -0.06178821 -0.07010502 0.03828392 -0.22642267 0.0086165145 -0.06404344
0.013300724 -0.056170296 -0.07541497 -0.04648717 0.040824972 -0.06966923 0.024822695 0.015014224
0.011271246 -0.18544902 -0.10647359 -0.024795443 0.017799295 -0.04121574 0.042032607 -0.018815868
0.03171394 0.08452747 -0.08706306 -0.008777827 -0.016528301 0.044602536 -0.06780349 -0.036773406
0.051310305 -0.027629282 0.057911955 -0.03141174 -0.016918704 -0.080943055 -0.028492723 -0.22479834
0.03877089 -0.0518836 -0.037432555 -0.052494887 -0.06144107 0.046871178 -0.000102089696 -0.013697915
-0.2615075 0.056362905 -0.041802127 0.013727069 -0.05416242 -0.08324141 -0.08395084 -0.06865968
0.0075272974 -0.028108828 -0.03242911 0.06738267 0.0016440749 -0.04145663 -0.04251302 -0.048952963
-0.062336683 0.031640776 0.06838801 0.048358135 0.020751432 -0.13351585 -0.017566293 -0.034321643
-0.019221038 0.046032064 -0.14371732 -0.045788545 0.08446386 -0.03844061 -0.004899189 -0.033661224
-0.08044537 0.049433358 0.0038029328 -0.037575305 -0.05139475 0.0069122165 0.057508163 -0.016679682
-0.061027475 -0.13355103 -0.040460195 -0.05457745 -0.030050661 -0.039888155 -0.050212342 0.009911947
-0.024305202 -0.075647004 -0.08551214 -0.1127154 -0.017628878 0.059991963 0.020674303 -0.08505346
0.08278475 -0.003814049 0.04101088 0.057615705 -0.0769687 -0.063370876 -0.009605415 -0.16462381
0.067127205 -0.18284918 0.0690264 -0.05975222 -0.019353688 0.084909536 -0.03139681 0.07427441
-0.17242853 0.056629248 -0.07381577 0.07664936 0.061578922 0.026633313 0.05925078 0.069252945
0.07260258 -0.04259336 0.19652556 0.048570387 0.040976517 -0.09442878 -0.047556628 0.053854667
0.0119608715 -0.03721892 0.06799238 -0.032845546 0.00042040646 0.024871945 0.04843446 -0.050035674
0.0853911 -0.13270363 0.0056740195 0.01662746 -0.032567564 0.033880554 -0.0112664625 -0.01495707
-0.07779756 0.082734995 -0.039511595 0.0736598 -0.056450654 -0.06784804 -0.022739708 -0.043175854
-0.17233096 -0.10119963 -0.04298006 0.003001541 -0.043036345 -0.05165542 -0.012211688 -0.18324214
-0.00827121 0.06797334 0.011980727 -0.07402661 -0.03127079 0.062465437 0.048240907 0.06675512
-0.15869793 -0.0056076273 -0.03763217 0.015268594 -0.04925483 -0.033831358 0.06335487 0.011270046
-0.008389462 0.07290771 -0.08273651 -0.0810828 -0.08477314 0.077633165 -0.030063737 0.08572129
0.027271718 -0.011890471 0.023844972 0.04879593 -0.045239024 -0.11489767 -0.027767334 -0.015233569
-0.06704337 0.087444134 -0.072114795 -0.0604309 -0.030867476 -0.031961862 -0.061064564 -0.080001555
-0.02785347 0.08436293 -0.014134765 -0.023788348 0.039850704 -0.049283277 -0.06899616 0.00623205
0.044312738 0.0539779 0.03805714 0.087311365 -0.07597759 -0.071580805 0.026808865 -0.06795982
0.016288541 -0.10646889 -0.067126304 -0.08742075 -0.046914954 -0.028044026 0.08053256 -0.069088444
-0.08375797 0.0243466 0.08402059 0.073152 -0.025231592 0.08203054 -0.15525341 -0.07975255
0.0489972 0.11648076 -0.019241922 -0.053954583 0.021549694 -0.054864775 -0.08481089 -0.002122283
-0.20439166 0.033093013 0.069138 -0.11622854 0.06644634 0.085621856 0.024573877 0.021220967

graph_matcher.mlp.2.bias f4 [128]
00000000: 2381 a4be 6b8f 65be 75ee 21bc 321e 30be
00000010: a082 95bd 9b6e cd3d 9a7c a3bd 5654 e63d
00000020: 6284 94bd f390 36be ce78 06bd b3d9 a53e
00000030: dbde 93bd ab9a acbd ac3f 903c 1a4a 6cbd
00000040: 0bfe 78bd d363 5dbe 5990 c03d 2b1c 41bd
00000050: 71cc 71bd c8c4 0e3d c478 8b3d 8bcd 57be
00000060: 9b25 f6bd b1c8 343d 659b f93d 305b 6abd
00000070: 6eb8 23bb 85b7 09be 34dd d3bc 4a19 a7bb
00000080: ab1c 84be de5b 2dbe bee3 57bd a752 19bd
00000090: d656 863d 65c6 6ebd 9aaf 8ebd e5d6 01bd
000000a0: f3fe 01be d279 82bd d2d5 71bd b344 50be
000000b0: 2cc2 f0bd c60f b5bd 14db c2bd b588 0e3c
000000c0: d508 043d 2559 65bc 96d6 8cbd 6e4a acbd
000000d0: 4943 d539 ef9f 04be 60a5 22bd 7c9d a53d
000000e0: 8ca9 98bd ae38 073e 9891 e9bc a1a1 44bb
000000f0: 4d43 b33c 3b08 61be d6f3 f2bd 5c87 40bb
00000100: 7267 85bd a0a6 1abc 50ea e63a 4396 013e
00000110: cc08 2f3d 735e b83b 719a 07be 40d4 2bbd
00000120: df5b 32bd 86c5 d63d 2081 283d f96e 01be
00000130: 7779 8fbd 540c 95bc e57f 023e 1b93 f43d
00000140: 53e5 febc e59f 913d 817b 97bd 2c7c 41bd
00000150: 8924 483d 80d1 d4be 2620 9bbd 3f02 43bd
00000160: 4b89 6bbe e2d9 8a3d 32ce e3bd 474a dabc
00000170: eca0 02be f50f d1bc a63f 6fbe 9d83 dfbc
00000180: 0c6a 28be 9714 093e 3db7 c63d 639a 9c3d
00000190: 58c7 2cbe 22d2 68bc a317 ff3d 2c60 ed3d
000001a0: 90af 91bd 83ff 513d aa8f b1bc 9a17 c63c
000001b0: 3e85 d4bd 0e05 89bc 1b0f a7bd 3637 41be
000001c0: 299a 55bd 7012 1ebe 67cd fbbd 06e3 1d3d
000001d0: bda2 0fbe 5b6e 2bbe a4df bbba 20ec 25be
000001e0: 4be6 5cbd 1634 883d 0e2e 203d 92f0 95bd
000001f0: cca0 a63d 5702 42bd b0cc b63d 36e6 c13c
-0.32129773 -0.22417991 -0.009883513 -0.17199019 -0.07300305 0.10030862 -0.0798275 0.112465546
-0.072518125 -0.17828731 -0.032830052 0.32392654 -0.07220241 -0.08427938 0.017608486 -0.057687856
-0.06078915 -0.21620111 0.09402532 -0.047146004 -0.05903286 0.034855634 0.068101436 -0.21074502
-0.120188914 0.044136707 0.12187842 -0.05721587 -0.0024981755 -0.13448913 -0.025862314 -0.0050994502
-0.25803122 -0.16929576 -0.052707426 -0.03743234 0.065595314 -0.058294673 -0.06967087 -0.03169908
-0.12694912 -0.06370892 -0.059041806 -0.20338707 -0.11755785 -0.08840899 -0.09514442 0.008699586
0.032234985 -0.0139983045 -0.068768665 -0.08412634 0.00040676657 -0.12951635 -0.039708495 0.080866784
-0.074542135 0.13205215 -0.028511807 -0.0030003565 0.021882677 -0.21975796 -0.11862914 -0.0029377555
-0.06513871 -0.009439141 0.0017617438 0.12654977 0.042733 0.0056264936 -0.13242508 -0.041950464
-0.043544646 0.10486893 0.04113877 -0.12639989 -0.070055895 -0.018194355 0.127441 0.11942121
-0.03111521 0.071105756 -0.073966034 -0.04723756 0.048862968 -0.41566086 -0.07574491 -0.047609564
-0.23001592 0.06779839 -0.11123313 -0.026646746 -0.127567 -0.025520304 -0.23364124 -0.027284438
-0.16446704 0.1338676 0.09702919 0.076466344 -0.16872919 -0.014210256 0.1245568 0.11590609
-0.07113564 0.051269066 -0.02167495 0.024181176 -0.103769764 -0.016726043 -0.08157178 -0.18868718
-0.05214897 -0.15436721 -0.12295037 0.038546585 -0.14026923 -0.16741316 -0.0014333618 -0.16203356
-0.053930562 0.066505596 0.03910642 -0.07321276 0.08136138 -0.047365513 0.0892576 0.023669343

graph_matcher.mlp.4.weight f4 [64, 128]
00000000: 74e3 c2bd 735e 143e e9b0 853d cf17 8c3d
00000010: 0262 243e d4f6 9ebc ab68 dc3c 0fda 60bd
00000020: 5fdd 363d a480 463d e2d6 30bb 4554 413e
00000030: dffd 963d 38ef cdbd f694 043d 37c3 c4bc
00000040: d506 9f3c 3794 a2bd e4ac 283e f6c7 763d
00000050: d9bd 023d c60b 9a3d 49b7 e3bd 893a f93d
00000060: de24 443d 709d b93d bd31 9f3d a3cb 493c
00000070: d3cf 8a3c 28df 3cbd d0f3 0dbe d592 37bc
00000080: e5ba cbbc 0dc8 e1bd 0659 7d3d eced 9a3d
00000090: 0819 543d ac5a c13d 2531 39bc d600 26bd
000000a0: 19c1 3ebd 535e e3bc b833 113e 66a9 553b
000000b0: 789d 533c 8899 de3d afe0 9eba 7454 c3bd
000000c0: 4805 7fbb dfed 6d3c 35e7 f23c 763c d93d
000000d0: cd13 87bc 5fe6 a6bb b82e 033d 9c0d 973c
000000e0: cee8 e03d b92d 9ebd 672e 083d ed11 a5bb
000000f0: 52c5 3c3d 6029 fc3d afb8 4fbe 07d3 3bbd
00000100: c82e f53d 1693 82ba 89d2 1e3d b9d5 8fbd
00000110: a65c 5ebd 9dae 13bd f09d 433c 4214 b0bd
00000120: 353b 333c bee3 20be 58f4 1a3d 9329 363a
00000130: 4522 193e 6307 4bbd f88a fbbd c4e7 94bd
00000140: 7ea3 463d d2f8 0a3e bc22 a7bc 8466 5b3c
00000150: 4359 38bd 7594 12be 33d5 ac3d 068d b2bd
00000160: 5582 233d 74f7 e13d 525e 7cbc e2af 33bd
00000170: 3f6e f4bc bb40 63bd bb0d eb3d 410a a2bd
00000180: 500f adbc e004 613e d7f1 fbbd f251 c03d
00000190: 2e2e a3bd 3f97 adbd 7060 d13c 6f31 4a3e
000001a0: d6cc 583b 9120 f73c 715b 67bb bce7 633d
000001b0: 12d9 053e feb5 10bd a9f4 19bd 49f5 d8bd
000001c0: 82cd 04be 78b5 b93d c2e9 cd3d 0f27 c33d
000001d0: 453e d73c 079a 21bd 09f8 93bd 1011 15bd
000001e0: a36b 4abe 5718 fcbc 073b 5b3d 46a2 483e
000001f0: 79fd da3d 9f1b 9dbc 06e7 14bc 332e 25bd
00000200: 2e73 93be 12ad e93d c9b7 7b3d e506 2abe
00000210: 601b 70bb 2f08 5bbd 788f 993c 305e 383e
00000220: 01be 58bc 21e5 cd3d a0b8 c53d 0383 59be
00000230: 3024 023e 2dae b83c 90b5 d8b9 7771 0a3d
00000240: 17e3 d2bc 0d2e 8ebe 3a2b 7e3d d4b2 b23d
00000250: 277e c33d fae6 873d 3b14 c53d 42f8 9c3c
00000260: 55f0 433d 3cf4 293d 36c5 c43d 8568 183d
00000270: 077c 0bbd ef48 6e3d 19db 92bd 4486 8c3d
00000280: 8d36 0dbe 56ac 913d 1042 9a3b f330 da3d
00000290: 97a5 c1bc 097e 2b39 a770 6e3d adef 1c3d
000002a0: 72c1 f1bd 9e5b 8b3d 096a 493d 270b b3bb
000002b0: e80a 43bb 73ca de3d dae4 ccbb df31 c53c
000002c0: 7e6b 2a3c af20 a33c 1fba 363d 5ec8 7f3e
000002d0: f16d 123d 816c a83d ca55 0d3e f88e b13d
000002e0: 5187 163d 2dcb 9a3b e27d 903d 9649 0c3e
000002f0: b414 5bbd ec9b d43d 55b8 04be 1ea0 7d3d
00000300: e50a 47ba 105f e23d 5dc6 083e 7000 4b3d
00000310: aead 073d 9d2f 193e 3615 9cbd 28db 8b3d
00000320: 3228 b5bc 7aac 293e a0c5 bd3d 5ee8 cbbd
00000330: 3c8c 7d3c 8287 de3d 2426 3ebe 6893 41bc
00000340: 56c9 303e a683 2a3d e30d 2e3d ce91 203c
00000350: d81c 0a3e b7e6 bd3d afda 6f3c c158 a53d
00000360: a28c 05bd b8ec 1a3d 6c3c 043d c4f4 083e
00000370: d430 e63d 3434 b6bd 9597 203d ea78 a3bd
00000380: 6eeb 2ebe ac14 1c3e ae2b 5c3d 50e8 c33c
00000390: 97de f9bd 5e5c 573d 8441 423b 6529 833d
000003a0: aa82 203d af18 283d 7d27 863d b809 4a3d
000003b0: 463b c4bd fef9 403e e636 3c3c ef95 5bbe
000003c0: 8ea4 83bd 3174 e43d 65fd a6bb 8002 a63d
000003d0: 6fd4 213e 01ab b23d d0f7 5dbd c1a8 c5bc
000003e0: 48fa 30be 28c4 8d3d 6eda c03d 83fd a6bc
000003f0: e324 03be 43cd 993d e9d9 8d3d b259 593c
-0.095160395 0.14489155 0.065278836 0.06840479 0.16053012 -0.019404806 0.026905378 -0.054895457
0.04464471 0.048462525 -0.002698355 0.18879803 0.07372641 -0.10055393 0.032368623 -0.024018867
0.019412437 -0.07938426 0.16472203 0.06024929 0.031919334 0.07521777 -0.11118943 0.12169368
0.04788672 0.09063232 0.07773159 0.012316617 0.016944801 -0.046111256 -0.13862538 -0.011204441
-0.024869392 -0.11024485 0.061852477 0.07564911 0.051781684 0.094411224 -0.011303221 -0.04052814
-0.04657087 -0.027754938 0.14179885 0.003260219 0.012915961 0.108691275 -0.0012121404 -0.095375925
-0.003891306 0.014522045 0.029651264 0.10607235 -0.016488934 -0.0050933803 0.032026976 0.018439107
0.10981904 -0.07723565 0.033247378 -0.0050375373 0.046086617 0.12312579 -0.20285295 -0.04585555
0.119718134 -0.0009962048 0.038775 -0.07023186 -0.054287575 -0.036055196 0.011939511 -0.08597614
0.010939409 -0.15711877 0.03783068 0.0006948944 0.14954479 -0.04956759 -0.122823656 -0.07270768
0.048495762 0.1357148 -0.020402305 0.013391141 -0.045007 -0.14314444 0.08439102 -0.08718304
0.039919216 0.11033526 -0.015403347 -0.043868907 -0.029837726 -0.055481654 0.11477228 -0.07912112
-0.021125466 0.21974516 -0.12301987 0.0939063 -0.079677925 -0.084761135 0.02555868 0.1974542
0.0033081076 0.030166896 -0.0035302306 0.05564092 0.13071087 -0.03532981 -0.03758684 -0.105936594
-0.1296902 0.090678155 0.100543514 0.09528934 0.02627481 -0.039453533 -0.07225043 -0.036393225
-0.19767623 -0.030773325 0.05352309 0.19593152 0.10692877 -0.01917821 -0.009088283 -0.040327262
-0.28798813 0.11409964 0.061454568 -0.16604193 -0.003663741 -0.0534746 0.018745169 0.1800468
-0.013228894 0.100534685 0.09654355 -0.21241383 0.12709117 0.022543991 -0.00041334005 0.033799615
-0.02574305 -0.2776951 0.062052943 0.08725515 0.09545546 0.06635852 0.09622999 0.019161347
0.04783662 0.041492686 0.096079275 0.037209053 -0.03405383 0.058175024 -0.07170696 0.06861547
-0.1379034 0.071129486 0.0047075823 0.106538676 -0.02363853 0.00016354783 0.058212902 0.03831451
-0.11804475 0.06804584 0.04917339 -0.005463976 -0.002976114 0.10878458 -0.006252867 0.024071632
0.010401605 0.019913046 0.044611093 0.24978778 0.03574938 0.082238205 0.13802257 0.08669847
0.03675014 0.0047239275 0.0705526 0.13699946 -0.05348654 0.10381302 -0.12960942 0.061920278
-0.0007592871 0.11053288 0.1335692 0.049560964 0.03312462 0.1495957 -0.07621233 0.0682891
-0.022113893 0.16569701 0.092662096 -0.0995643 0.015475329 0.1086569 -0.18569237 -0.01181493
0.17264304 0.041629456 0.042493712 0.009800388 0.13487566 0.09272521 0.014639541 0.08073569
-0.03260482 0.03782341 0.032284185 0.1337462 0.11239782 -0.08896676 0.03920706 -0.07982047
-0.17081997 0.1524226 0.053752594 0.023914486 -0.12200659 0.052578323 0.00296411 0.0640438
0.03918711 0.041039165 0.065505005 0.049325675 -0.09581618 0.18845364 0.011487698 -0.21443914
-0.06427871 0.11154974 -0.005096125 0.081059456 0.15803693 0.08724023 -0.05419141 -0.02412832
-0.17282975 0.069221795 0.09416662 -0.020384556 -0.1280704 0.07509854 0.06926329 0.013266014

graph_matcher.mlp.4.bias f4 [64]
00000000: 4c13 3a3e ed20 75bd 3cc5 44bd 8f54 d23d
00000010: 5709 093e 6405 f7bd 5d7e cb3d 9f12 acbd
00000020: d364 6a3d 5219 e6bd a9c0 4c3e 00a2 d5bb
00000030: 2e38 9f3d e250 f9bd acad ddbc ef03 123e
00000040: edf5 353e 4280 acbc 66c9 163d a76a ec3b
00000050: c5db 14be 4e4d 2abe 2b79 463e 7bbc 203e
00000060: 08e0 0ebd 1bad 7a3e 4488 983d dcc9 6e3e
00000070: cace 9bbd 6561 023d 1b04 57be 026e debd
00000080: 1ff3 8ebb 221f f63c f534 143c b6ac a6bc
00000090: 68f9 203d b23e 25bd 88b0 d63a 98c1 913d
000000a0: cf59 343e 60c9 793e 964b d83d 26dc 953b
000000b0: a8fb 003e 891e d7bc 5025 6cbe 4021 8138
000000c0: 322b 8e3e 4195 223e 19c5 0abe a97c 823b
000000d0: b910 283e 0813 0d3c c137 8dbc 6253 913d
000000e0: 7e73 e9bd 94d0 cb3b cc68 383e 96f6 5f3d
000000f0: 437f a2bd 88b2 973d 20f8 353e 5c93 e0bd
0.18171424 -0.059845854 -0.04803966 0.102700345 0.13382469 -0.12061575 0.09936211 -0.08401989
0.05722506 -0.11235298 0.19995369 -0.006519556 0.07774387 -0.1217363 -0.027060352 0.14259313
0.17769594 -0.021057252 0.036813162 0.0072148624 -0.1453696 -0.16631052 0.1938216 0.156969
-0.03488162 0.24480097 0.074478656 0.2331919 -0.07607801 0.031831164 -0.2099766 -0.10860826
-0.0043624784 0.030044142 0.009045829 -0.020346027 0.039300352 -0.040342994 0.0016379515 0.07117003
0.17612384 0.24393225 0.10561292 0.004573363 0.12595999 -0.026259677 -0.23061109 6.1573926e-05
0.2776733 0.15877248 -0.1355175 0.003982146 0.16412629 0.008610494 -0.0172385 0.07095982
-0.113989815 0.006219933 0.18008727 0.054678522 -0.079344295 0.07407099 0.17770433 -0.109656066
