Result/GCN/5000_sample/model_epoch_1_f1_0.5087.pth (torch, 841454 bytes, 42 tensors)

graph_matcher.gnn.conv1.bias f4 [64]
0	0xbdac059b	-0.08399507
1	0xbd8988d1	-0.06715549
2	0xbe06ccf6	-0.13164124
3	0xbd7da6d2	-0.06192667
4	0x3d06ecc5	0.032940645
5	0xbd419abc	-0.047266707
6	0xbc424124	-0.011856351
7	0x3e295202	0.1653519
8	0x3da63633	0.081158064
9	0xbd8e913c	-0.06961295
10	0x3a840019	0.001007083
11	0xbd78c81f	-0.060737725
12	0x3ddb5d25	0.10711125
13	0x3d9a6fbc	0.07540843
14	0x3e009062	0.12555078
15	0xbdb7a263	-0.0896652
16	0x3dc438a1	0.095811136
17	0x3dc7304b	0.09726008
18	0x00000000	0.0
19	0xbe1def98	-0.15423429
20	0xbae445cf	-0.0017415824
21	0x3d04689e	0.032326333
22	0xbda6c43f	-0.081429
23	0x3bb6ae7b	0.005574999
24	0xbd2fd2bd	-0.042925585
25	0xbdbcdd4e	-0.09221898
26	0xbc565613	-0.013082045
27	0x3cf699e4	0.030102678
28	0xbd243a7c	-0.040094838
29	0xbd5ebe38	-0.054380625
30	0xbdae6caa	-0.0851682
31	0xbd41cdb6	-0.047315322
32	0xbce50a4b	-0.02795901
33	0xbd940de1	-0.0722921
34	0x3d74f32e	0.059802227
35	0xbd469263	-0.04847945
36	0xbdc5d963	-0.09660604
37	0xbce5d447	-0.028055323
38	0xbd880437	-0.06641429
39	0x3b02cc64	0.0019958252
40	0xbdb72ba7	-0.08943873
41	0xbc66a8d9	-0.014078342
42	0xbb80b558	-0.003927868
43	0x3e555fea	0.2083737
44	0xbc5e2476	-0.013558498
45	0xbdb013ab	-0.08597501
46	0xbd0da010	-0.034576476
47	0xbd1aaf23	-0.03776468
48	0xbd74dc61	-0.059780482
49	0x3ca60ad9	0.020268844
50	0x3bb1d93a	0.0054275068
51	0xbc3c3b8f	-0.011488809
52	0x3dcd3cc2	0.10021354
53	0x3d90f736	0.07078402
54	0xbd4c2493	-0.049839567
55	0x3e02599e	0.12729499
56	0xbd916c60	-0.07100749
57	0x3cb2a653	0.021807825
58	0x3c6eec71	0.014582739
59	0xbc579402	-0.013157846
60	0xbb8679cd	-0.0041038753
61	0xbcc2f838	-0.0238
62	0xbd1343ee	-0.035953455
63	0xbdb56434	-0.08857003

graph_matcher.gnn.conv1.lin.weight f4 [64, 4]
0	0xbe1a1eee	-0.15050861
1	0xbe72d984	-0.23715788
2	0xbe7f9468	-0.24958956
3	0x3e4a25a1	0.19740917
4	0xbe5194f0	-0.20466971
5	0xbdefef8e	-0.11715613
6	0x3d4088a9	0.04700533
7	0xbe0b6c12	-0.13615444
8	0x3ea1f7ba	0.31634313
9	0xbe34b479	-0.1764697
10	0xbe030b57	-0.12797295
11	0x3da2e89c	0.07954523
12	0xbeafc888	-0.3433268
13	0x3e733e4e	0.23754236
14	0xbe1f1e8c	-0.15538996
15	0x3e68110e	0.22662756
16	0x3ebd8fef	0.37023875
17	0x3caf1962	0.021374408
18	0x3effa3c6	0.49929637
19	0xbdda5567	-0.106608205
20	0xbe436f22	-0.19085363
21	0x3de2f789	0.1108237
22	0xbbd971ef	-0.0066358964
23	0xbdc6dc79	-0.097100206
24	0x3ecafbb3	0.39645156
25	0xb96a5ad8	-0.00022349821
26	0x3ea570f4	0.3231274
27	0xbd948852	-0.072525635
28	0xbdac514f	-0.08413946
29	0xbd300ab7	-0.04297897
30	0x3efa9b9b	0.48946843
31	0xbe7b3881	-0.24533273
32	0x3eddf4c0	0.43350792
33	0x3da09051	0.07840026
34	0x3e8db0b5	0.2767388
35	0xbe203d2a	-0.15648332
36	0xbe1a4edf	-0.1506915
37	0x3aa6af37	0.0012717013
38	0xbdeec432	-0.11658515
39	0x3c51904c	0.012790751
40	0xbb94151b	-0.0045191175
41	0xbe0068ed	-0.12540026
42	0x3f0b0d43	0.5431711
43	0xbd9ac23f	-0.07556581
44	0x3e92d6e6	0.2867958
45	0xbe96121c	-0.2931069
46	0x3eceec9e	0.404149
47	0x3cfacc97	0.030615134
48	0x3e67fd57	0.22655235
49	0xbe33682f	-0.17520212
50	0x3f07ec52	0.5309497
51	0xbe5e4fd5	-0.21710141
52	0x3e9bdca3	0.3044177
53	0xbcab38f4	-0.02090118
54	0x3f1320d0	0.5747194
55	0xbdebd67e	-0.115155205
56	0x3ed9f0d8	0.42566562
57	0x3d988a43	0.07448246
58	0x3f2230ba	0.633556
59	0xbdc15588	-0.09440142
60	0xbdddfe86	-0.10839562
61	0xbd54c1e5	-0.051942725
62	0xbd4f1891	-0.050560538
63	0xbbd6c740	-0.006554514
64	0x3e687aba	0.22703066
65	0xbdbada55	-0.09123675
66	0x3f07d7d5	0.5306371
67	0xbe182f4d	-0.14861794
68	0xbde497bb	-0.11161753
69	0xbe0c571d	-0.13705106
70	0x3eee8d7e	0.46592325
71	0xbdba4351	-0.09094871
72	0xbdbefdce	-0.09325753
73	0xbd9784ce	-0.07398377
74	0xbd23f5e8	-0.040029436
75	0xbe710aba	-0.23539248
76	0x3e9661dc	0.29371536
77	0xbe72191f	-0.23642395
78	0xbe89e698	-0.26933742
79	0x3d3ac03f	0.045593496
80	0x3e6df1e1	0.232368
81	0x3df25c33	0.11833992
82	0x3f0af34e	0.54277503
83	0xbde7e981	-0.11323834
84	0xbeb47b7c	-0.3525046
85	0x3d493f26	0.04913249
86	0xbe621a3a	-0.22080317
87	0x3e1f854a	0.1557819
88	0xbdd7a0a4	-0.10528687
89	0x3dd17845	0.10228018
90	0x3cc9bc2a	0.024625856
91	0x3ddfbac5	0.10924295
92	0xbe970ebf	-0.29503438
93	0x3e22e131	0.15906216
94	0xbe9f64e5	-0.31131664
95	0x3e6f056d	0.23341914
96	0xbe874f6d	-0.26427785
97	0x3e9818ac	0.29706323
98	0xbe46f1d6	-0.1942819
99	0x3e1b0512	0.15138653
100	0xbe3d17d4	-0.18466121
101	0x3e976efc	0.29576862
102	0xbd11f62e	-0.035635166
103	0xbbec6766	-0.0072144745
104	0xbe93050b	-0.28714785
105	0x3e282dcf	0.16423725
106	0xbe922b22	-0.28548533
107	0xbe9fa251	-0.31178525
108	0xbca6e63b	-0.020373454
109	0x3e5d5034	0.21612626
110	0x3efe7ccd	0.4970459
111	0xbdc970e2	-0.09835984
112	0xbe9f625c	-0.3112973
113	0xbda31003	-0.07962038
114	0xbeb6cac5	-0.35701576
115	0x3e46fd01	0.19432451
116	0x3d77eab9	0.060526583
117	0x3dfa7d16	0.122308895
118	0x3e93c402	0.2886048
119	0xbe3c192d	-0.18368979
120	0xbd12c476	-0.03583189
121	0x3df0d36c	0.117590755
122	0xbe81dc57	-0.25363418
123	0x3e14a4ac	0.14515942
124	0x3e24bba3	0.16087203
125	0x3e7be94b	0.24600713
126	0xbeb6fba9	-0.35738876
127	0xbeba0d63	-0.36338338
128	0xbe9fb9af	-0.31196353
129	0x3c8021e5	0.015641162
130	0xbe7affaf	-0.24511598
131	0x3e575b06	0.21030816
132	0xbe4e8e9b	-0.20171587
133	0x3e94763d	0.2899646
134	0xbe05e33a	-0.13074961
135	0x3e555561	0.2083335
136	0x3e925b25	0.28585163
137	0xbc660b52	-0.014040785
138	0x3efbd067	0.49182436
139	0xbde24e9e	-0.11050151
140	0xbe5cb4de	-0.2155337
141	0x3e6da6d4	0.23208171
142	0x3bfe7a8b	0.007766073
143	0xbebb71d3	-0.36610278
144	0xbe2c70f6	-0.16839966
145	0xbe137d4e	-0.14403269
146	0xbdb84e5e	-0.08999322
147	0x3e3a845f	0.18214558
148	0xbe92e738	-0.2869203
149	0xbc5ac5e6	-0.013352847
150	0xbe1fb958	-0.15598047
151	0x3e2b78c9	0.16745295
152	0xbebfe1ef	-0.3747706
153	0x3ca06e0b	0.019583723
154	0xbe266d96	-0.16252741
155	0x3e6637c0	0.22482204
156	0xbc035cfc	-0.008017775
157	0xbe0aabec	-0.13542145
158	0x3eef398e	0.46723598
159	0xbbb7aa77	-0.005605038
160	0xbe81b69d	-0.25334635
161	0x3d14b8e9	0.036309157
162	0xbe866c7b	-0.2625464
163	0xbe4eefc9	-0.20208658
164	0x3e2a5456	0.16633734
165	0x3e72856e	0.23683712
166	0x3e2a0af6	0.16605744
167	0xbe8d09b9	-0.2754648
168	0x3e7f5384	0.24934202
169	0x3d058d1b	0.03260527
170	0x3e4f1ed2	0.20226601
171	0xbd1c9ab4	-0.038233474
172	0x3e327649	0.17427935
173	0xbe817578	-0.25284934
174	0x3ee2d4a6	0.44302863
175	0xbdfcda15	-0.12346283
176	0x3e402c69	0.18766941
177	0x3e642323	0.22279029
178	0x3eb06f92	0.3446012
179	0xbecf6342	-0.40505415
180	0x3ea8bcee	0.32956642
181	0x3da5d85a	0.080979064
182	0x3ec9a6f2	0.39385182
183	0x3d90fc58	0.07079381
184	0x3e9d3fcd	0.3071274
185	0xbbb27e86	-0.0054472117
186	0x3eeae43d	0.45877257
187	0x3c5b4b9d	0.013384727
188	0xbed2dbad	-0.41183224
189	0x3cac96f3	0.021068072
190	0xbe3cfeb2	-0.18456534
191	0x3e774b7e	0.24149892
192	0xbe7dba50	-0.24778104
193	0xbe91a420	-0.2844553
194	0xbd543954	-0.051812485
195	0xbd4103a7	-0.047122624
196	0xbec59902	-0.38593298
197	0xbe9a7dd8	-0.30174136
198	0xbe9b3624	-0.30314744
199	0x3e5b1f8f	0.21398757
200	0x3eca5062	0.39514452
201	0x3d89d26f	0.0672959
202	0x3e566b5b	0.2093939
203	0xbd921350	-0.0713259
204	0xbe16ed4d	-0.1473896
205	0x3db4ce3b	0.08828398
206	0xbe631774	-0.22176915
207	0x3da66152	0.08124031
208	0x3e99b0a5	0.30017582
209	0xbdb98a51	-0.09059585
210	0x3e5c8d7b	0.21538346
211	0xbe30fd1a	-0.1728405
212	0x3ed12cee	0.4085459
213	0x3e28b560	0.16475439
214	0x3e97a2df	0.29616448
215	0xbe7a579c	-0.24447483
216	0x3e14587a	0.14486876
217	0x3c1616ca	0.009160707
218	0xbdc54ede	-0.09634183
219	0xbb3064a4	-0.0026915455
220	0x3e6ada56	0.22934851
221	0xbe4756ce	-0.19466707
222	0x3eeea12b	0.46607336
223	0xbe8353d3	-0.2564989
224	0x3d2c8a78	0.04212424
225	0xbdf5b347	-0.11997085
226	0xbe1fe711	-0.15615489
227	0x3e7230e8	0.23651469
228	0xbc900389	-0.01757981
229	0x3d61be58	0.055113167
230	0x3efcb43d	0.4935626
231	0xbd99d8aa	-0.075120285
232	0x3e8d217d	0.27564612
233	0xbb36beb8	-0.0027884673
234	0x3f05b534	0.5222962
235	0xbdbd1369	-0.09232218
236	0x3ec7f316	0.39052647
237	0xbc851d81	-0.01624942
238	0x3ef68a13	0.48152217
239	0xbd443dc8	-0.04791048
240	0xbea7f4b7	-0.3280389
241	0x3e5197de	0.20468089
242	0xbe759170	-0.23981261
243	0x3e23cd1d	0.15996213
244	0xbea103cc	-0.3144821
245	0x3e2d009a	0.1689476
246	0x3d8e0926	0.06935339
247	0xbe99e620	-0.30058384
248	0x3ed103fe	0.40823358
249	0xbe0aad93	-0.13542776
250	0x3e81e0bd	0.25366774
251	0x3d245e09	0.04012874
252	0x3d61a8a3	0.055092465
253	0x3e2b1be8	0.16709864
254	0xbd9dd0e8	-0.07705861
255	0xbe27cc04	-0.1638642

graph_matcher.gnn.conv2.bias f4 [128]
0	0x3c9dc2cc	0.019257925
1	0xbcead767	-0.028667165
2	0xbd999348	-0.07498795
3	0xbd960f47	-0.07327133
4	0xbd488dd4	-0.048963383
5	0xbdc5b22d	-0.09653125
6	0xbd170ccd	-0.036877442
7	0xbdfdaa38	-0.12385982
8	0xbded1391	-0.115759976
9	0xbd23679e	-0.03989374
10	0xbda9063b	-0.082531415
11	0x389f8aa0	7.607532e-05
12	0xbd354437	-0.044254508
13	0x3cd3b792	0.02584437
14	0xbd153f39	-0.036437247
15	0xbc7cc155	-0.015426953
16	0xbdc48b00	-0.09596825
17	0xbcd433b9	-0.02590357
18	0xbb828ad6	-0.0039838357
19	0xbd899ff0	-0.06719959
20	0xbd14dabb	-0.03634141
21	0xbd12514f	-0.035722073
22	0xbd8830b0	-0.066499114
23	0xbc55cc48	-0.013049193
24	0xbcdf1808	-0.027233139
25	0xbcc9025e	-0.024537262
26	0xbd8a0e5d	-0.06741021
27	0xbd4721d5	-0.04861625
28	0xbdd66c54	-0.10469881
29	0xbcbb37b0	-0.022853702
30	0xbd940e3f	-0.0722928
31	0x3cbb9251	0.022896918
32	0xbdc86e4e	-0.09786664
33	0xbc206014	-0.009788532
34	0xbd14b87d	-0.036308754
35	0xbd43aefb	-0.047774296
36	0xbd7c8ba4	-0.06165661
37	0xbd7641ff	-0.060121533
38	0xbd898631	-0.06715048
39	0xbce870be	-0.028374072
40	0xbd6a8939	-0.057259772
41	0xbc906801	-0.017627718
42	0xbd91551f	-0.07096314
43	0xbd1a87ff	-0.037727352
44	0xbd499972	-0.049218602
45	0xb87501a0	-5.8414065e-05
46	0x3d205d83	0.03915168
47	0xbd10d6d7	-0.035361137
48	0xbd8fcba9	-0.07021267
49	0xbd8e0d5f	-0.06936144
50	0xbc5e44ca	-0.013566205
51	0xbb3cf724	-0.002883383
52	0xbbe38fb2	-0.00694462
53	0xbcf39601	-0.029734613
54	0x3c4874d9	0.01223489
55	0xbe1b37ff	-0.1515808
56	0xbdbdf241	-0.09274722
57	0xbcf2adef	-0.029623954
58	0x3d346192	0.044038363
59	0xbc6f490d	-0.014604819
60	0x3c581b54	0.013190109
61	0x3ca25f85	0.019820938
62	0xbd866c89	-0.0656367
63	0x3ca49001	0.020088198
64	0xbcd109bc	-0.025517337
65	0xbd91f101	-0.07126046
66	0x3c4f1b10	0.01264073
67	0xbd3967bf	-0.045264956
68	0xbd06473e	-0.032782786
69	0xbd0cf1f6	-0.03441044
70	0xbda0316e	-0.07821928
71	0xba07fa7c	-0.00051871664
72	0xbdb04ca6	-0.086083695
73	0xbd9513d6	-0.07279174
74	0xbda0ab16	-0.07845132
75	0xbd05e37e	-0.032687657
76	0xbd91a864	-0.07112196
77	0xbcfde78b	-0.030994197
78	0x3c4f6bf5	0.012660016
79	0xbd7e011b	-0.062012773
80	0xbd86e34d	-0.06586323
81	0xbd5e9640	-0.05434251
82	0x3cfd0e32	0.030890558
83	0xbd86507b	-0.06558319
84	0xbd6178df	-0.055046912
85	0xbdd6c49a	-0.104867175
86	0xbd86c303	-0.06580164
87	0x3c754840	0.014970839
88	0xbda0c82e	-0.07850681
89	0x3c9f37b8	0.019435748
90	0xbcdbec6c	-0.026846133
91	0xbd3378b2	-0.043816276
92	0xbd6ee1de	-0.058320872
93	0xbd94b285	-0.072606124
94	0xbd440d93	-0.047864508
95	0xbd8dfb0a	-0.069326475
96	0xbcf5bf44	-0.02999843
97	0x3c636060	0.013877958
98	0x3d58b578	0.052907437
99	0xbd24b48f	-0.040211257
100	0xbcfa1058	-0.030525371
101	0xbca236f0	-0.019801587
102	0xbc00bdc0	-0.00785774
103	0xbd2188a5	-0.039436955
104	0x3d43b640	0.04778123
105	0xbd664a8c	-0.056223437
106	0xbda28814	-0.07936111
107	0xbd91bf5d	-0.07116578
108	0xbd196196	-0.03744658
109	0xbcec1ea3	-0.028823202
110	0xbd93a837	-0.07209819
111	0x3ce1d21f	0.027566014
112	0x3d48582d	0.048912216
113	0x3c896c41	0.016775252
114	0xbd0a8f1c	-0.033827886
115	0xbd81907a	-0.06326385
116	0xbd3fae11	-0.046796862
117	0x3d1a725a	0.03770671
118	0xbd7aa167	-0.06118908
119	0x3d1b8928	0.0379726
120	0xbd9448bb	-0.07240435
121	0xbd85ef5c	-0.06539795
122	0xbc79be8f	-0.015243187
123	0xbd8505ba	-0.06495233
124	0xbd31ce57	-0.04340967
125	0x3cbcb1fe	0.023034092
126	0xbd3e8a5e	-0.046518676
127	0xbc32368f	-0.010877266

graph_matcher.gnn.conv2.lin.weight f4 [128, 64]
0	0xbdcfba14	-0.101429135
1	0x3d84d30d	0.06485567
2	0xbda387b1	-0.079848655
3	0xbe3aadf7	-0.18230425
4	0x3eb2e3f6	0.34939545
5	0x3e59002b	0.2119147
6	0x3e748260	0.23877859
7	0x3e73cdec	0.23809022
8	0x3ea2b679	0.3177984
9	0xbccb7c28	-0.024839476
10	0x3d916259	0.070988365
11	0x3e3115ca	0.17293468
12	0x3e5c8c58	0.21537912
13	0x3ea21613	0.31657466
14	0x3e503f9d	0.20336767
15	0xbd4953c7	-0.049152162
16	0x3ee176fc	0.4403609
17	0x3ed2370a	0.41057616
18	0x3ce38e08	0.027777687
19	0xbe0f287c	-0.13980287
20	0x3e3ff316	0.18745074
21	0x3d38f5ab	0.045156162
22	0x3d3bdf9d	0.04586755
23	0xbe43bf32	-0.19115904
24	0xbe2920c2	-0.16516402
25	0xbe135e22	-0.14391378
26	0xbd2854b0	-0.04109639
27	0x3e530269	0.20606388
28	0x3da8cd83	0.08242323
29	0x3c788962	0.015169473
30	0x3c2aac03	0.010416987
31	0x3ddbc89f	0.10731625
32	0xbe2e77b0	-0.17037845
33	0x3cc2dccd	0.023786927
34	0x3e8df835	0.2772843
35	0x3d7449f6	0.059640847
36	0xbdf5b343	-0.11997082
37	0xbe122d73	-0.1427515
38	0xbe56746e	-0.20942852
39	0x3d0f2306	0.03494551
40	0xbc06b41e	-0.008221654
41	0x3ea26e0d	0.31724587
42	0x3dc91198	0.09817809
43	0x3e20734f	0.15668987
44	0x3e36372a	0.17794481
45	0xbdbd1c7f	-0.09233951
46	0x3d38ff72	0.045165487
47	0x3d8648b2	0.06556834
48	0xbdbb1dbc	-0.09136531
49	0xbda3b01d	-0.07992575
50	0x3e6a28d9	0.22867145
51	0xbe181e81	-0.14855386
52	0x3e8f00b5	0.27930227
53	0x3e5dc0c3	0.21655564
54	0xbbd9a732	-0.0066422457
55	0x3e3daa51	0.18522002
56	0xbd9ed198	-0.077548206
57	0x3e2fa96c	0.17154473
58	0x3ec4e490	0.3845563
59	0x3e5a3c5f	0.21312092
60	0xbd8ba8c1	-0.06819297
61	0x3d1993ae	0.037494354
62	0x3b72aa60	0.003702782
63	0xbdedebac	-0.116172165
64	0xbdc88c88	-0.09792429
65	0x3d6a2265	0.057161707
66	0xbd79c444	-0.06097819
67	0x3e13e532	0.144429
68	0x3d3f24a5	0.046665806
69	0x3d2d52e0	0.042315364
70	0xbe0cdd0b	-0.13756196
71	0x3ce75bb2	0.028241966
72	0xbe847988	-0.2587397
73	0xbb516d4d	-0.0031956017
74	0xbc5e166a	-0.013555149
75	0xbd74d6a7	-0.05977502
76	0xbe4556d7	-0.19271408
77	0xbd7b490b	-0.061348956
78	0xbe169e00	-0.1470871
79	0xbd8bb8a6	-0.06822328
80	0xbe857830	-0.26068258
81	0xbe1198bf	-0.14218424
82	0xbb237900	-0.0024943948
83	0x3e185a77	0.1487826
84	0xbe36dcd1	-0.17857672
85	0x3d8e9d51	0.069635995
86	0x3cc9401b	0.0245667
87	0x3e0d2256	0.1378263
88	0xbe52376e	-0.20528957
89	0x3e017412	0.12641934
90	0xbe278e38	-0.16362846
91	0xbe1db4e7	-0.1540104
92	0xbe1e19ba	-0.15439501
93	0xbd9c51ec	-0.07632813
94	0xbdd7abc3	-0.10530808
95	0x3d0254ac	0.03181903
96	0x3da66dec	0.08126435
97	0xbc0409de	-0.008058993
98	0x3df469c3	0.11934235
99	0x3dbb1a93	0.09135928
100	0x3de57059	0.11203069
101	0xbd693cc5	-0.05694272
102	0x3d3831f4	0.044969514
103	0x3dc1f38f	0.09470283
104	0xbe382be1	-0.17985488
105	0xbe469fda	-0.19396916
106	0xbc5e568e	-0.013570441
107	0xbda24e89	-0.07925136
108	0xbe616f7d	-0.22015186
109	0xbd2b899d	-0.041879285
110	0xbe0c579d	-0.13705297
111	0x3c78d1bd	0.015186724
112	0x3e0303b1	0.12794377
113	0x3e1d8f8f	0.15386795
114	0x3dee13a3	0.11624839
115	0xbe3de971	-0.18546082
116	0xbdb3261d	-0.08747504
117	0xbe8fdf6f	-0.28100154
118	0xbd172e49	-0.036909375
119	0x3da1d6ff	0.079023354
120	0xbe171ffe	-0.14758298
121	0xbc9cf30a	-0.019158859
122	0xbe1ca73a	-0.15298167
123	0xbddc8f68	-0.1076954
124	0xbe41cdab	-0.18926112
125	0x3d4686ff	0.048468586
126	0xbe14f5c4	-0.14546877
127	0x3afc8309	0.0019265126
128	0xbdf101f1	-0.117679484
129	0x3e023f89	0.12719549
130	0xbe0819ec	-0.13291138
131	0xbd833b1c	-0.064077586
132	0x3d3e4dd6	0.04646095
133	0xbded1c89	-0.11577708
134	0xbb6f8015	-0.0036544849
135	0xbd418f60	-0.047255874
136	0x3cb71890	0.02235058
137	0xbdc8b65f	-0.098004095
138	0x3deab408	0.114601195
139	0xbd90eadb	-0.07076045
140	0xbd13e12d	-0.036103416
141	0xbcd9ce56	-0.026587646
142	0x3d748e3a	0.05970595
143	0x3db58c96	0.08864705
144	0x3bdbe907	0.0067111286
145	0xbd5019a0	-0.050805688
146	0xbe0a9d9e	-0.13536689
147	0xbe3eaec7	-0.1862136
148	0xbbba3127	-0.005682129
149	0x3dcab28c	0.09897336
150	0xbbca991f	-0.0061828042
151	0xbe508b9e	-0.2036576
152	0xbe288db7	-0.1646031
153	0xbe1ae81b	-0.15127604
154	0xbdd7558c	-0.10514364
155	0xbe213b82	-0.15745357
156	0x3cebc205	0.02877904
157	0xbe0b253f	-0.13588427
158	0xbd3e7fac	-0.046508476
159	0x3c4b3988	0.012403853
160	0xbd17a250	-0.037020028
161	0xbe0e9a35	-0.13926013
162	0xbd9c8985	-0.07643417
163	0x3dc670a0	0.0968945
164	0xbdbfebc6	-0.09371142
165	0xbdfbb818	-0.122909725
166	0xbbd61c4a	-0.006534134
167	0x3e34dcef	0.17662404
168	0x3dac2e36	0.084072515
169	0xbceb7e00	-0.028746605
170	0xbbdb8320	-0.006698981
171	0xbd9f6f4f	-0.07784902
172	0xbdc7347f	-0.0972681
173	0xbe54a075	-0.20764334
174	0xbe494a22	-0.19657186
175	0xbdda7fb4	-0.10668889
176	0x3e1a6373	0.15077
177	0x3d9b6d88	0.07589251
178	0xbe5cc696	-0.2156013
179	0xbc9048b6	-0.017612796
180	0x3df1b075	0.11801235
181	0xbcda9f40	-0.026687264
182	0x3ddb597b	0.107104264
183	0xbcb471a3	-0.022026842
184	0xbe1f95ad	-0.1558444
185	0xbdffe8f8	-0.12495607
186	0x3c5300c3	0.0128786
187	0xbe608fd4	-0.21929866
188	0xbe5535f4	-0.20821363
189	0x3c29cd50	0.010363892
190	0xbcdc80db	-0.026916912
191	0xbe670bb7	-0.22563063
192	0x3d8d5664	0.06901243
193	0xbd147080	-0.0362401
194	0xbdfdf970	-0.12401092
195	0xbdcb2c27	-0.09920531
196	0xbd8578f8	-0.065172136
197	0x3bf7b993	0.007559964
198	0x3d2abd94	0.041684702
199	0x3db57abc	0.088613
200	0xbe277aea	-0.16355482
201	0x3d55c64c	0.052191064
202	0x3bbb4bb0	0.0057158098
203	0x3cc1bf08	0.023650661
204	0xbe7ec0bc	-0.2487821
205	0xbe89dcfe	-0.26926416
206	0xbe93f739	-0.28899553
207	0x3e0ba577	0.13637339
208	0xbddac628	-0.106823266
209	0x3db1a780	0.08674526
210	0x3b4228c0	0.002962634
211	0xbd8d3c2f	-0.06896245
212	0xbd959424	-0.07303646
213	0xbdf1e92a	-0.11812051
214	0xbe9b6ad4	-0.3035494
215	0xbce4c49e	-0.027925786
216	0xbd3bc46a	-0.045841612
217	0xbe75741c	-0.23970073
218	0x3d1d2daf	0.038373645
219	0xbe2cfcc5	-0.16893299
220	0xbb029508	-0.0019925255
221	0xbdcf2480	-0.10114384
222	0xbe3e6b22	-0.18595555
223	0xbb91b164	-0.0044461954
224	0xbdee9e66	-0.11651306
225	0xbe8db456	-0.27676648
226	0xbd98a95a	-0.07454176
227	0x3dc855dd	0.09782002
228	0xbe9a6565	-0.30155483
229	0x3dbcc24d	0.092167474
230	0x3d8a77ba	0.06761117
231	0xbe20b013	-0.15692167
232	0x3d7b4d04	0.061352745
233	0x3ca8941e	0.02057844
234	0x3ca8da1c	0.020611815
235	0x3c94f542	0.018183354
236	0xbe7e40f1	-0.2482946
237	0x3de24f86	0.11050324
238	0xbe156c02	-0.14591983
239	0xbd7ef163	-0.062241923
240	0xbe1f196f	-0.15537046
241	0xbe621ecd	-0.22082062
242	0x3dd768e6	0.10518055
243	0xbdc066fd	-0.093946435
244	0xbd174996	-0.03693541
245	0xbda30428	-0.07959777
246	0xbdc7eb87	-0.0976172
247	0x3d12ef2d	0.035872627
248	0xbe9948ea	-0.29938442
249	0xbe825f88	-0.2546351
250	0xbe73b278	-0.23798549
251	0x3c01bc31	0.0079184035
252	0x3dc2c2d0	0.09509814
253	0xbb1ace03	-0.0023621328
254	0xbe17fa99	-0.14841689
255	0xbd940ce0	-0.07229018

graph_matcher.mlp.0.weight f4 [128, 256]
0	0xbca01044	-0.019539006
1	0xbd7c4612	-0.06159026
2	0xbc7e33b0	-0.015515253
3	0x3d184250	0.037172616
4	0xbbd67ce4	-0.00654565
5	0xbdbb4a01	-0.091449745
6	0xbdf925b1	-0.12165392
7	0xbd96fb0b	-0.073721014
8	0x3c004982	0.007830026
9	0xbdc0fa16	-0.094227
10	0xbded4c02	-0.11586763
11	0xbd81cc90	-0.06337845
12	0xbdb29dfd	-0.0872154
13	0xbd29537f	-0.041339394
14	0xbdcdb4d4	-0.10044256
15	0xbde9b712	-0.11411871
16	0xbd77e091	-0.060516898
17	0xbca295a7	-0.01984675
18	0x3c2960fc	0.010338064
19	0xbdbd8947	-0.09254699
20	0xbc9c95cf	-0.019114403
21	0xbc1d20c7	-0.009590334
22	0xbdbe8a29	-0.09303696
23	0xbd913f6c	-0.07092175
24	0xbb014cd3	-0.0019729629
25	0xbd5326cd	-0.051550675
26	0xbde48039	-0.11157269
27	0xbcaed1c8	-0.021340266
28	0xbddddb72	-0.108328715
29	0xbd93ec7b	-0.072228394
30	0xbd484f65	-0.04890384
31	0xbd931bd2	-0.07183041
32	0x3cbb1ac0	0.022839904
33	0x3cf18448	0.029482022
34	0xbd7d8693	-0.061895918
35	0xbdd62a65	-0.10457305
36	0xbae60d5a	-0.0017551586
37	0xbd75e7fa	-0.060035683
38	0xba230c6e	-0.0006219809
39	0xbd3db38a	-0.0463138
40	0xbcc324f8	-0.023821339
41	0xbdca5d6f	-0.09881102
42	0xbda37c66	-0.079827115
43	0xbdb4fe3d	-0.088375546
44	0xbdd1f387	-0.10251527
45	0xbd5961de	-0.05307185
46	0xbdc1eb78	-0.0946874
47	0xbd0e6a5b	-0.034769397
48	0xbd97e0c8	-0.074159205
49	0xbcd44db6	-0.025915962
50	0xbd34adbc	-0.044111
51	0xbda24101	-0.07922555
52	0xbdee86b1	-0.11646784
53	0xbd8c7cc9	-0.068597384
54	0x3d67eee0	0.056624293
55	0xbd2246c8	-0.039618284
56	0xbd025323	-0.031817567
57	0xbdc74ac1	-0.09731055
58	0xba959e00	-0.0011414886
59	0x3b01b093	0.0019789084
60	0xbdf868f5	-0.12129394
61	0xbc85f7c5	-0.016353497
62	0xbdea51ec	-0.114414066
63	0xbc03b690	-0.008039132
64	0xbaba8f0e	-0.0014233307
65	0xbde1d180	-0.11026287
66	0xbb5406a0	-0.0032352582
67	0xbd50e01a	-0.05099497
68	0x3beb601c	0.007183088
69	0xbdbe557b	-0.09293648
70	0xbd0a60f4	-0.033783868
71	0xbd25ead3	-0.04050715
72	0xbce9e27c	-0.028550379
73	0xbd1275b4	-0.03575678
74	0xbd418964	-0.047250167
75	0xbdc14460	-0.094368696
76	0xbda2a7cf	-0.07942163
77	0xbdcbdd1f	-0.09954285
78	0xbd4c2d82	-0.049848087
79	0xbd0a3ee3	-0.03375138
80	0xbcce96d6	-0.025218409
81	0xbd428826	-0.047493123
82	0xbd96696f	-0.073443286
83	0x3d12c558	0.035832733
84	0xba90b6f9	-0.0011040858
85	0xbdb4a31e	-0.08820175
86	0x39e0f268	0.00042905216
87	0x3c654ce8	0.013995387
88	0xbd619b62	-0.055079825
89	0xbdabe999	-0.083941646
90	0xbdade7cf	-0.084914796
91	0xbd98e5a2	-0.07465674
92	0xbd1acdd0	-0.037793934
93	0xbdb533b7	-0.088477544
94	0x39dbb64e	0.00041906763
95	0xbdcb62f7	-0.099309854
96	0xbd7e7f62	-0.0621332
97	0x3b845729	0.0040387106
98	0xbb8e057e	-0.004334151
99	0xbdc2e51a	-0.09516354
100	0xbdb7a06a	-0.089661434
101	0x3d1cb4ec	0.038258478
102	0x3d16522c	0.03669946
103	0xbd61134e	-0.05495005
104	0x3d43dcaa	0.047817864
105	0xbcf1d256	-0.029519241
106	0xbd36733a	-0.044543482
107	0xbd33b797	-0.043876257
108	0xbca3e11c	-0.020004801
109	0x3d1df5ae	0.038564377
110	0xbd68196c	-0.05666487
111	0xbdba7c1f	-0.091057055
112	0xbcd7f811	-0.026363404
113	0xbb9844c8	-0.0046468712
114	0xbd81c2b5	-0.063359655
115	0xbc9785d2	-0.018496428
116	0xba890d58	-0.0010456247
117	0xbcd67b14	-0.026181735
118	0xbd0e86fd	-0.034796704
119	0xbd4c8793	-0.04993398
120	0x3cc270f8	0.023735508
121	0x3d1aee14	0.037824705
122	0x3d6b6320	0.05746758
123	0xbdae7355	-0.085180916
124	0xbda6174a	-0.08109911
125	0x3d2d3820	0.042289853
126	0xbcf49024	-0.029853888
127	0x3b6d47c0	0.0036206096
128	0xbd6fee5a	-0.05857692
129	0xbd9ff647	-0.078106456
130	0x3d4af1be	0.04954695
131	0x3b999850	0.0046873465
132	0xbc7fe87e	-0.015619395
133	0xbd9d3031	-0.076752074
134	0xbc4f42d4	-0.01265021
135	0xbdadbd07	-0.0848332
136	0xbda12ce7	-0.078698926
137	0xbd23e0fb	-0.04000948
138	0xbc9804aa	-0.018556911
139	0xbdaa2d43	-0.08309414
140	0xbdd38f6e	-0.103300914
141	0xbcd1af10	-0.025596172
142	0xbd30a6cc	-0.04312782
143	0xbd18b3e5	-0.037280936
144	0xbd60eddf	-0.05491435
145	0xbdb7c4a9	-0.08973057
146	0xbd7c5656	-0.061605774
147	0xbc08f1f1	-0.008358465
148	0xbd1e9576	-0.038716756
149	0xbd93e949	-0.0722223
150	0xbd9f9bc8	-0.07793385
151	0xbdf0581c	-0.117355555
152	0xbdeaefe2	-0.11471535
153	0xbd4fb6e6	-0.050711535
154	0xbd8d9ba2	-0.0691445
155	0xbcb3fd69	-0.021971421
156	0xbdc69784	-0.09696868
157	0xbd9ba56e	-0.075999126
158	0xbcfa437a	-0.030549753
159	0x3cf57574	0.029963233
160	0xbc4176b0	-0.011808082
161	0xbdb781aa	-0.08960278
162	0xbddc55e5	-0.107585706
163	0xbd88abdb	-0.06673404
164	0xbdad9645	-0.08475927
165	0xbc5cb9bf	-0.01347202
166	0xbd63cab0	-0.05561322
167	0x3d4ac074	0.049499944
168	0xbd96fccf	-0.07372438
169	0xbd8739dc	-0.06602833
170	0x3a64cedf	0.0008728336
171	0x3d478f58	0.048720688
172	0xbdbcb776	-0.0921468
173	0xba43927e	-0.00074604887
174	0x3cd429b0	0.025898784
175	0xbd48bd41	-0.04900861
176	0xbcc38dc3	-0.023871308
177	0xbdd1a388	-0.10236269
178	0xbdd17ebd	-0.102292515
179	0xbc335ea7	-0.01094786
180	0xbd63ed97	-0.055646505
181	0xba338e6e	-0.0006849532
182	0xbc1f2608	-0.009713657
183	0xbd1f9bc7	-0.03896692
184	0xbd86cc47	-0.065819316
185	0xbdc86151	-0.09784187
186	0xbcd42eb0	-0.025901169
187	0xbd29f8c0	-0.041496992
188	0xbde791a8	-0.113070786
189	0xbdcb2ffc	-0.09921262
190	0xbd992a2b	-0.07478746
191	0xbc940768	-0.018069938
192	0xbdb124e0	-0.086496115
193	0xbca8cce8	-0.02060552
194	0x3d6e5e30	0.058195293
195	0x3d5b95da	0.053609706
196	0xbbab5a9f	-0.0052293087
197	0xbd907d2c	-0.07055125
198	0xbd420d07	-0.047375705
199	0xbd415b69	-0.047206316
200	0xbd7882b4	-0.060671523
201	0xbdc90a27	-0.098163895
202	0xbd2928dc	-0.041298732
203	0xbdd9c064	-0.10632399
204	0xbda32f57	-0.07968014
205	0xbd9dbf0d	-0.07702456
206	0xbd3eb33a	-0.046557643
207	0xbd54f5de	-0.05199229
208	0xbda675b4	-0.08127919
209	0xbdb72f33	-0.089445494
210	0xbd980067	-0.07421952
211	0x3d7196de	0.05898177
212	0xbda06965	-0.078326024
213	0xbd35cf2a	-0.04438702
214	0xbd2ad618	-0.041708082
215	0x3d6078b4	0.05480261
216	0x3d62defa	0.05538843
217	0xbc6befe9	-0.014400461
218	0xbc74da7a	-0.014944667
219	0xbdc4e26b	-0.09613498
220	0xbd88ef34	-0.066862494
221	0xbd3d4088	-0.04620412
222	0xbbbefdab	-0.0058285794
223	0xbc52ed4a	-0.012873957
224	0xbda8720e	-0.08224879
225	0xbdd734bd	-0.10508106
226	0xbd026b0e	-0.031840377
227	0xbdc48923	-0.09596469
228	0xbdc4be3a	-0.09606595
229	0xbdb15bc2	-0.086600795
230	0xbd20db60	-0.039271712
231	0xbdcf0f39	-0.10110325
232	0x3c3e6da8	0.011622824
233	0xbacdde7e	-0.0015706567
234	0xbd18485b	-0.03717838
235	0xbdaa3cac	-0.083123535
236	0xbdab6741	-0.083693035
237	0x3d3a5dd6	0.045499645
238	0xbbafa17d	-0.005359827
239	0x3cf392f0	0.029733151
240	0xba992a00	-0.0011685491
241	0xbd992926	-0.074785516
242	0xbd3723db	-0.04471193
243	0xbd740fbf	-0.05958533
244	0x3b848a60	0.004044816
245	0xbd686be4	-0.056743518
246	0x3c572718	0.013131879
247	0x3cd5d234	0.02610121
248	0x3d5afba2	0.053462632
249	0xbce0a516	-0.02742247
250	0xbcc52488	-0.024065271
251	0x3b23dd6c	0.0025003804
252	0x3c1f4d18	0.00972297
253	0xbd3bc806	-0.045845054
254	0x3b0641c1	0.002048597
255	0xbce9d6b0	-0.028544754

graph_matcher.mlp.0.bias f4 [128]
0	0xbda7514e	-0.081698045
1	0xbd0f1db3	-0.034940433
2	0xbb782067	-0.003786111
3	0xbd12b845	-0.035820264
4	0xbdae8f75	-0.08523456
5	0x3dc427a3	0.095778726
6	0xbd20e4ba	-0.03928063
7	0x3dacc7d3	0.08436551
8	0xbdad5c28	-0.08464843
9	0xbba86a33	-0.005139613
10	0xbda7ed98	-0.08199614
11	0x3b7c69f2	0.0038515297
12	0xbda395de	-0.07987569
13	0xbd2bd92a	-0.04195515
14	0xbd4040a2	-0.04693664
15	0x3dec95db	0.1155202
16	0xbcd9cbf0	-0.026586503
17	0xbdbb3999	-0.09141845
18	0x3de65f7e	0.112486824
19	0xbcabc3a4	-0.020967312
20	0xbd9b40ba	-0.07580705
21	0x3de82e2b	0.11336931
22	0xbdabcd1f	-0.08388733
23	0xbc3c663f	-0.011498987
24	0xbcf9ee58	-0.030509159
25	0xba84320c	-0.0010085716
26	0xbd424f4a	-0.047438897
27	0xbc4b728c	-0.012417447
28	0xbd605df0	-0.054777086
29	0xbd82232d	-0.063543655
30	0xbdd796f9	-0.105268426
31	0xbd436e91	-0.047712866
32	0xbcbdc4cb	-0.023165127
33	0x3c99188d	0.018688465
34	0xbdd22f50	-0.102629304
35	0xbd4c79fb	-0.049921017
36	0x3d71857b	0.058965188
37	0xbd081e2e	-0.033231907
38	0x3de74b94	0.11293712
39	0xbc9987d0	-0.018741518
40	0x3c66e01e	0.01409152
41	0xbcc60100	-0.024170399
42	0xbdccdf67	-0.10003548
43	0xbe1df944	-0.15427119
44	0xbd2d1473	-0.04225583
45	0x3d231f54	0.0398248
46	0x3de66c16	0.112510845
47	0x3d9fb037	0.07797282
48	0xbd7c60bc	-0.06161569
49	0xbd9f9e70	-0.077938914
50	0xbcc7827c	-0.024354212
51	0xbaaf7bd8	-0.0013388349
52	0xbd159f4d	-0.036528874
53	0xbdd63a06	-0.10460286
54	0xbd36ad66	-0.04459896
55	0xbc1e5d69	-0.009665825
56	0xbcd544d4	-0.026033796
57	0x3d887f18	0.06664866
58	0xbd31a6ee	-0.043372087
59	0xbd29df06	-0.041472457
60	0x3d6604b6	0.056156836
61	0xbde20987	-0.110369734
62	0xbdccb459	-0.09995336
63	0xbe024d74	-0.12724859
64	0xbd58c9ea	-0.052926935
65	0xbd2c3624	-0.04204382
66	0xbdd523f6	-0.1040725
67	0x3d90b77a	0.070662454
68	0xbc1f1314	-0.009709138
69	0x3ba17284	0.0049269814
70	0xbd6495f0	-0.055807054
71	0x3d9922e0	0.07477355
72	0xbd041fce	-0.032256894
73	0xbda47366	-0.08029823
74	0xbd4fad23	-0.050702225
75	0xbda0d332	-0.07852782
76	0xbdcc7b9c	-0.09984514
77	0xbb3acb0e	-0.0028502378
78	0xbd0501cc	-0.032472417
79	0x3d927e61	0.07153011
80	0xbc834d40	-0.016028047
81	0x3dd04332	0.101690665
82	0xbdab9b8e	-0.08379279
83	0xbc613a3d	-0.013746795
84	0xbd8ee568	-0.069773495
85	0xbdd62dd4	-0.1045796
86	0xbbb38c8f	-0.0054794024
87	0xbda90e04	-0.082546264
88	0xbc6b0752	-0.014345007
89	0x3da69009	0.08132941
90	0xbd263168	-0.04057446
91	0xbdd2d1fc	-0.102939576
92	0xbcf93204	-0.030419357
93	0xbcf3677c	-0.029712431
94	0x3df78132	0.12085189
95	0xbc26b23a	-0.010174328
96	0x3dc8e1fe	0.098087296
97	0xbdb8169e	-0.08988689
98	0xbd359f91	-0.044341628
99	0xbdae1e69	-0.08501894
100	0xbd17ab92	-0.037028857
101	0xbd51b6e7	-0.05119982
102	0xbd6c2e47	-0.05766132
103	0xbd965eae	-0.073422775
104	0x3ca4a4a9	0.020098047
105	0x3bfcc7a4	0.0077142287
106	0xbd45c330	-0.04828185
107	0x3de68bf4	0.11257163
108	0x3b8d9c9c	0.004321648
109	0x3e001c32	0.12510756
110	0xbd6ee45c	-0.05832325
111	0xbd42a600	-0.04752159
112	0xbcd74dbc	-0.026282184
113	0xbdd7d768	-0.10539132
114	0xbc869362	-0.0164277
115	0xbda5a2ed	-0.08087716
116	0x3dcd9dfd	0.100398995
117	0xbcf1cb86	-0.029515993
118	0xbcd230b5	-0.025657991
119	0xbcfa8cc9	-0.03058471
120	0xbda92e65	-0.08260802
121	0xbd85635e	-0.065130934
122	0xbdcfdc0a	-0.10149391
123	0xbde40893	-0.11134448
124	0xbd873dc4	-0.06603578
125	0xbd63c67e	-0.05560922
126	0xbd73cee2	-0.05952347
127	0xbe016805	-0.12637337

graph_matcher.mlp.2.weight f4 [128, 128]
0	0x3b884960	0.0041591376
1	0x3cc84054	0.024444737
2	0xbd965974	-0.073412806
3	0x3daee109	0.08539016
4	0x3dac25ed	0.08405671
5	0xbd285cb3	-0.04110403
6	0x3d1a46de	0.03766524
7	0xbdae403c	-0.085083455
8	0x3d8498eb	0.06474479
9	0xbd02e537	-0.031956878
10	0x3c517a10	0.01278545
11	0x3cc9a600	0.024615288
12	0x3db30b25	0.0874236
13	0xbcf97ca6	-0.030454945
14	0x3d14ed1c	0.036358938
15	0xbd13ba3c	-0.03606628
16	0x3cfdb52c	0.030970179
17	0xbbf51c30	-0.007480167
18	0xbd82a24d	-0.06378613
19	0x3bf85110	0.007578023
20	0x3d0b949a	0.034077264
21	0xbd996cff	-0.074914925
22	0x3b0f0100	0.0021820664
23	0xbc9982b8	-0.01873909
24	0x3d803d3b	0.06261679
25	0x39faf600	0.00047867
26	0x3dada6eb	0.08479103
27	0xbd670e06	-0.05640986
28	0xbc85b7a4	-0.016322918
29	0x3d452d32	0.048138805
30	0x3d1cb3e2	0.038257487
31	0x3c9bf958	0.019039795
32	0xbd40e40a	-0.047092475
33	0x3d446fde	0.047958247
34	0x3d90f26b	0.070774876
35	0xbc8c2d94	-0.017111577
36	0x3d9d71ef	0.07687747
37	0xbdb3b4fc	-0.087747544
38	0xbbee51e0	-0.007272944
39	0xbd959082	-0.07302953
40	0xbd14cdf9	-0.036329243
41	0xbbe7cae0	-0.007073745
42	0x3d93946d	0.07206044
43	0xbce9853c	-0.028505914
44	0xbd22fa3a	-0.039789416
45	0x3c876430	0.016527265
46	0x3db007fd	0.08595274
47	0xbc04bec0	-0.008102119
48	0xbd3f9c5a	-0.046779968
49	0xbcac2174	-0.021012045
50	0xbd2c1e93	-0.042021345
51	0xbd48854a	-0.04895524
52	0xba891780	-0.0010459274
53	0xbc2b8ca0	-0.010470539
54	0xbd32ee8b	-0.043684524
55	0xbc1a19a8	-0.009405531
56	0x3d3fbd4e	0.046811394
57	0xbd05b901	-0.032647137
58	0xbd0f5732	-0.034995265
59	0x3d67225e	0.05642926
60	0x3cdcb98c	0.026943944
61	0xbcc79f38	-0.024367914
62	0xbc9d7730	-0.019221872
63	0xbd9c6048	-0.07635552
64	0x3d36955e	0.04457604
65	0xbd0a908b	-0.033829253
66	0x3d9ef665	0.0776184
67	0x3da42159	0.08014173
68	0x3dab360d	0.08359919
69	0xbc6ee700	-0.014581442
70	0x3c871d54	0.016493477
71	0xbcd53022	-0.026023928
72	0x3d2e07f2	0.042488046
73	0x3d2bf57a	0.04198215
74	0x3d1c2d5e	0.038129203
75	0xbcbf3a60	-0.023343265
76	0xbaac5bc0	-0.0013149902
77	0xbce9435e	-0.028474506
78	0xbc3be9b8	-0.011469297
79	0x3c9bf3e8	0.019037202
80	0x3d8729ad	0.06599746
81	0xbd8a7494	-0.06760517
82	0x3ccf5390	0.0253084
83	0xbcff3428	-0.0311528
84	0x3d4bd732	0.049765773
85	0x3cfd7bd4	0.030942835
86	0x3d27c306	0.040957473
87	0x3d117602	0.03551293
88	0x3dad491b	0.084612094
89	0x3cadaac4	0.021199591
90	0x3b5309a0	0.0032201782
91	0xbc695df0	-0.014243588
92	0x3cc36304	0.023850925
93	0xbd821b33	-0.06352844
94	0x3c3c8740	0.0115068555
95	0x3cd19744	0.025584824
96	0x3cf3c0e0	0.029755056
97	0xbcb7bb00	-0.022428036
98	0x3d4846ea	0.048895754
99	0xbda8a7a6	-0.082351014
100	0x3d826e7b	0.06368729
101	0x3ca232a4	0.019799538
102	0x3d74629a	0.059664346
103	0x3d03645a	0.032078125
104	0x3c398c08	0.01132489
105	0x3d599616	0.05312165
106	0xbc39d980	-0.01134336
107	0xbd87add3	-0.06624951
108	0x3d7ad182	0.06123496
109	0xbd7942ce	-0.060854726
110	0x3d53c9be	0.05170607
111	0x3cc21534	0.023691751
112	0x3c7c4370	0.015396938
113	0x3cc62618	0.024188086
114	0xbd4690e9	-0.04847804
115	0x3c418e40	0.0118137
116	0xbd248bf7	-0.040172543
117	0xbd2c7e96	-0.04211291
118	0xbcd93df2	-0.026518796
119	0x3d2ec236	0.042665683
120	0x3da2a66d	0.079418994
121	0x3dacc591	0.0843612
122	0xbc9d1ab4	-0.019177772
123	0x3d9d18a5	0.07670716
124	0x3d4756de	0.048666827
125	0x3d4e4b3e	0.050364725
126	0xbd5968ba	-0.05307839
127	0x3d9d7883	0.076890014
128	0xbc7453a0	-0.014912516
129	0xbcab0d60	-0.020880401
130	0xbc246828	-0.010034598
131	0xbd9de54a	-0.07709749
132	0x3ba20410	0.004944332
133	0x3d49082a	0.04908005
134	0x3d945187	0.072421126
135	0xbd5c049d	-0.053715337
136	0xbd1f8d10	-0.038952887
137	0xbca4f378	-0.020135626
138	0x3d64ab22	0.055827267
139	0x3d42d8a2	0.04756988
140	0x3d6dd222	0.058061726
141	0xbcdfdd20	-0.02732712
142	0x3d5c02a6	0.053713463
143	0xbd91091f	-0.07081818
144	0xbda596c2	-0.080853954
145	0x3d700aba	0.05860398
146	0x3c252240	0.010078967
147	0xbcfda878	-0.030964121
148	0x3d1e5d6a	0.038663305
149	0xbd7dfa28	-0.062006146
150	0xbd781540	-0.06056714
151	0xbd844bfe	-0.06459807
152	0xbdab828a	-0.08374508
153	0xbd7d5b42	-0.06185461
154	0x3d8256c9	0.06364209
155	0x3bdd0790	0.0067452863
156	0x3c12f088	0.00896848
157	0x3db2cfe3	0.087310575
158	0xbbe60a00	-0.007020235
159	0x3d397b6e	0.045283727
160	0xbd8806af	-0.066419
161	0x3da50a69	0.08058626
162	0xbc44a6d0	-0.012002662
163	0x3d3ba99a	0.04581604
164	0x3d8ae81f	0.06782555
165	0x3d989bab	0.07451566
166	0xbd9f6927	-0.07783728
167	0x3d80b5d9	0.06284685
168	0xbd8fa530	-0.07013929
169	0xbd8cfc63	-0.068840764
170	0xbd8f3c42	-0.06993915
171	0xbd755db8	-0.05990383
172	0x3b88ac80	0.004170954
173	0x3d02037c	0.031741604
174	0xbd881794	-0.06645122
175	0x3daef095	0.08541981
176	0x3c5991f8	0.013279431
177	0xbd80d078	-0.06289762
178	0x3dad84bf	0.08472585
179	0x3db15c87	0.08660226
180	0x3d490eb6	0.049086295
181	0xbcfcee84	-0.030875452
182	0xbda34215	-0.079715885
183	0xbc212c70	-0.009837255
184	0x3d76ef52	0.060286827
185	0xbd98e5e5	-0.07465724
186	0xbce8b806	-0.028408062
187	0x3c9091d0	0.017647654
188	0x3bdc1260	0.0067160577
189	0x3d9e0ba3	0.07717063
190	0xbce1d04c	-0.027565144
191	0xbd843dbc	-0.064570874
192	0x3be8cf20	0.0071047693
193	0x3cac577c	0.02103781
194	0xbd54c5bd	-0.05194639
195	0xbd57e635	-0.052709777
196	0x3d6d838e	0.05798679
197	0xbd9c437c	-0.07630059
198	0x3bfcb420	0.0077119023
199	0x3d5a4cca	0.053295888
200	0xbd045bf9	-0.032314274
201	0xba2e1d00	-0.00066418946
202	0xbd027def	-0.03185838
203	0x3d055d1e	0.032559507
204	0x3d9089f9	0.07057566
205	0x3d12c454	0.035831764
206	0xbd81181e	-0.06303428
207	0xb8edb400	-0.00011334568
208	0x3cac71f0	0.021050423
209	0x3c53c490	0.012925282
210	0xbc320d98	-0.010867499
211	0x3d6fccae	0.058544807
212	0x3c67f9d8	0.0141586885
213	0x3da3e623	0.080028795
214	0x3dacd975	0.08439914
215	0xbd9e5df3	-0.07732763
216	0x3c8a807c	0.01690697
217	0x3ac85f40	0.0015287176
218	0x3dac4f99	0.084136195
219	0xbd08e48e	-0.03342109
220	0xbd7277b0	-0.059196174
221	0x3d0d6a90	0.034525454
222	0x3d72b366	0.05925312
223	0xbda6a292	-0.081364766
224	0xbce3bcde	-0.02780002
225	0x3c982088	0.0185702
226	0x3d38526e	0.045000486
227	0x3c9cbbe0	0.019132555
228	0xbdb100c8	-0.08642727
229	0x3d875e4d	0.06609783
230	0x3cf4f59c	0.029902272
231	0x3d92f6e7	0.07175999
232	0x3da73939	0.08165211
233	0xbd5111df	-0.051042434
234	0x3d7c7c02	0.0616417
235	0x3ca09258	0.019601032
236	0xbd90804d	-0.070557214
237	0xbcbf5df8	-0.023360237
238	0xbc690ed8	-0.01422473
239	0x39683200	0.0002214387
240	0x3d5bb7c6	0.053642057
241	0x3cd99ac8	0.026563063
242	0x3d343b86	0.04400208
243	0x3da73045	0.081635036
244	0xbbde3920	-0.006781712
245	0xbd1a09e6	-0.037607096
246	0x3bea9730	0.0071591362
247	0x3d4131a6	0.04716649
248	0x3c22ce28	0.009936847
249	0x3d384456	0.044987045
250	0xbd4eaafd	-0.050456036
251	0x3dad5255	0.08462969
252	0x3c72f168	0.014828064
253	0xbc92cacc	-0.017918967
254	0xb9f6de00	-0.0004708618
255	0x3db35637	0.087566786

graph_matcher.mlp.2.bias f4 [128]
0	0xbdb40ff7	-0.087921076
1	0xbcde119e	-0.02710801
2	0xbc8bb179	-0.017052399
3	0xbca2e0fd	-0.019882673
4	0xbd9aacac	-0.07552466
5	0xbc8ada5d	-0.016949827
6	0xbc3c6958	-0.011499725
7	0xbd0e77f9	-0.034782384
8	0x3ddc7ae4	0.10765627
9	0x3dbfbc18	0.09362048
10	0xbd060f8d	-0.032729674
11	0x3d0258cc	0.031822965
12	0x3d8b7e7f	0.068112366
13	0xbd95eb6d	-0.073202945
14	0xbb82df1c	-0.003993882
15	0x3dd6832f	0.1047424
16	0x3d151cb5	0.03640433
17	0xbdd51078	-0.10403532
18	0xbe097e8e	-0.13427183
19	0xbdb86c96	-0.09005086
20	0x3d98c5f4	0.074596316
21	0xbd4a4cf7	-0.049389806
22	0x3e489973	0.19589786
23	0x3d418cff	0.047253605
24	0xbbcc7012	-0.0062389458
25	0x3e13ed87	0.14446078
26	0x3dfed689	0.12443263
27	0x3dcd65e8	0.10029203
28	0xbd87db3f	-0.06633615
29	0xbd96bdb0	-0.07360399
30	0xbb0e4180	-0.0021706522
31	0x3dd30f69	0.10305674
32	0x3e1907f0	0.14944434
33	0xbc9d568b	-0.019206306
34	0xbd9daa45	-0.07698492
35	0x3e209029	0.15679993
36	0xbd824e3a	-0.06362577
37	0x3bb649ee	0.0055630123
38	0xbd8da621	-0.06916452
39	0x3e02a410	0.12757897
40	0xbe081a8b	-0.13291375
41	0xbddc0812	-0.10743727
42	0x3d91df4b	0.07122668
43	0xbe12b589	-0.14327063
44	0xbdb7e00e	-0.08978282
45	0xbd0382e8	-0.032107264
46	0xbdb91dee	-0.09038912
47	0xbd783558	-0.060597748
48	0xbd93fa63	-0.07225492
49	0xbd3b1c21	-0.045681123
50	0xbe053111	-0.13006999
51	0xbd3f1d83	-0.046659004
52	0xbc84e2e5	-0.016221473
53	0xbd96c6ef	-0.07362162
54	0x3bf33586	0.007422152
55	0xbd0c7e32	-0.034300037
56	0xbdd22b51	-0.10262168
57	0x3b9e1b05	0.0048249983
58	0xbdac56f7	-0.08415025
59	0xbb81290a	-0.00394166
60	0xbdb20456	-0.08692233
61	0xbd932f7d	-0.07186792
62	0x3bf3780c	0.007430082
63	0xbd92769d	-0.0715153
64	0x3dcd7138	0.100313604
65	0xbda8912f	-0.082308166
66	0xbd2be32f	-0.041964706
67	0xbdcca346	-0.099920794
68	0xbd4cc661	-0.049993876
69	0xbdf10f43	-0.11770489
70	0xbb8e9fd7	-0.0043525505
71	0xbd9d1aab	-0.07671102
72	0x3d503cbd	0.050839175
73	0xbcf9bb28	-0.03048475
74	0x3ddfcccb	0.10927733
75	0xbd27dfa3	-0.04098476
76	0xbdb15321	-0.08658434
77	0xbd94eee8	-0.0727213
78	0x3d877b4a	0.066153124
79	0x3d9d7859	0.0768897
80	0x3d70a3b6	0.058749877
81	0x3c895736	0.016765218
82	0x3e4c4f8b	0.19952218
83	0xbd4b8342	-0.049685724
84	0x3de6305f	0.11239695
85	0xbdfd0177	-0.12353795
86	0xbc8a71b6	-0.016899925
87	0xbd3e8694	-0.046515062
88	0xbddc26ca	-0.10749586
89	0xbd98217f	-0.07428264
90	0xbd1d700a	-0.038436927
91	0x3daddc42	0.084892765
92	0xbdac344d	-0.08408413
93	0xbda5e5b4	-0.08100453
94	0x3dcdf188	0.10055834
95	0x3d46236e	0.048373632
96	0xbdc64ab5	-0.09682218
97	0x3bdb18c4	0.006686302
98	0xbc4e7634	-0.012601424
99	0xbdcb9ad8	-0.099416435
100	0x3dbc3262	0.09189297
101	0x3e77ba77	0.24192224
102	0xbe433895	-0.19064553
103	0xbc1ba316	-0.009499332
104	0xbd78d512	-0.060750075
105	0x3db1b869	0.086777516
106	0x3d3cc777	0.046088662
107	0x3cc35cf0	0.023848027
108	0xbdcee8b9	-0.10102982
109	0xbdcc98d4	-0.09990087
110	0xbd6eead2	-0.05832941
111	0xbdc89b8b	-0.097952925
112	0xbdccdc6c	-0.1000298
113	0xbc0cad93	-0.008586305
114	0x3d62b42d	0.05534761
115	0xbdab4915	-0.08363549
116	0xbca3f3fa	-0.020013798
117	0xbdba3756	-0.09092586
118	0xbd9ffc4b	-0.07811793
119	0xbdbe49f9	-0.09291453
120	0x3e02c9f5	0.12772353
121	0xbc9763d8	-0.018480226
122	0xbd0a269c	-0.033728227
123	0x3d8306f6	0.06397812
124	0x3d707028	0.05870071
125	0xbdb5d6f5	-0.088788904
126	0xbb3f902b	-0.0029230218
127	0xbcd16fa8	-0.025565937

graph_matcher.mlp.4.weight f4 [64, 128]
0	0xbd8a1ef4	-0.06744185
1	0xbd834915	-0.06410424
2	0xbd4086bb	-0.04700349
3	0xbda85400	-0.08219147
4	0xbd3a7f10	-0.045531332
5	0xbe0efc5a	-0.13963452
6	0xbda99e1e	-0.082821116
7	0x3bffe304	0.007809045
8	0xbddb727a	-0.10715194
9	0xbe0c16ce	-0.13680574
10	0xbdb709bb	-0.08937403
11	0xbd9816cb	-0.074262224
12	0x3d90d95b	0.07072707
13	0x3b5a1620	0.0033277348
14	0xbdd5ca59	-0.104389854
15	0xbe1437bb	-0.14474384
16	0x3cfdee1a	0.030997325
17	0x3e004e63	0.12529902
18	0x3c7853cb	0.015156697
19	0xbc5afc4b	-0.013365815
20	0xbdd03b3e	-0.101675496
21	0x3c7e0a78	0.015505426
22	0x3e77c6be	0.24196908
23	0xbd88e5c4	-0.06684449
24	0xb9f344f8	-0.00046399958
25	0x3e82ee54	0.25572455
26	0xbdf25b22	-0.118337885
27	0xbcffc932	-0.031223867
28	0x3e0bd20c	0.13654345
29	0x3dd2cfa3	0.1029351
30	0xbde15926	-0.11003332
31	0xbe229072	-0.15875414
32	0x3dc2e395	0.09516064
33	0x3d8d8b03	0.0691128
34	0xbca7ceec	-0.02048441
35	0x3e89615f	0.268321
36	0xbd987b62	-0.074454084
37	0xbddbbbce	-0.1072918
38	0x3d321d4b	0.043484967
39	0xbe3b57bb	-0.18295185
40	0xbdb57fd3	-0.08862271
41	0x3dba041a	0.090828136
42	0xbd608d96	-0.054822527
43	0xbce74f71	-0.028236123
44	0xbe2ef419	-0.17085303
45	0xbdddebf2	-0.108360186
46	0xbcc9878f	-0.024600772
47	0xbcf2fe92	-0.029662404
48	0x3d859853	0.06523194
49	0xbcbf418c	-0.023346685
50	0xbde47027	-0.11154204
51	0xbc6348f0	-0.01387237
52	0xbc46bbd4	-0.012129743
53	0xbab730f9	-0.0013976387
54	0xbde3f526	-0.11130743
55	0x3e19cdeb	0.15019958
56	0xbd608b12	-0.054820128
57	0x3cdb4f56	0.026771229
58	0xbda162a3	-0.078801416
59	0xbd20f358	-0.03929457
60	0x3cac913b	0.021065345
61	0x3d59ff89	0.053222213
62	0xbe3ed682	-0.18636516
63	0xbe3f0640	-0.18654728
64	0xbe13de34	-0.14440233
65	0xbd948b09	-0.07253081
66	0xbd847554	-0.06467691
67	0xbd91aefb	-0.07113453
68	0x3ce36b7d	0.027761215
69	0x3ce21844	0.027599461
70	0xbdc086e6	-0.0940073
71	0x3c95a047	0.018264903
72	0xbd7d15b8	-0.06178829
73	0x3bbd75f8	0.0057818852
74	0xbd6bad2f	-0.057538208
75	0xbc850687	-0.016238464
76	0xbd21da45	-0.0395148
77	0x3d8b1dd1	0.067927964
78	0xbdfdc786	-0.12391572
79	0x3bf3b195	0.007436941
80	0xbde8d09e	-0.113679156
81	0x3dabf31a	0.08395977
82	0x3de26d64	0.11056021
83	0xbd4c5b9d	-0.049892057
84	0xbcfe6f02	-0.031058792
85	0x3c7b3a57	0.0153337335
86	0x3cd52f84	0.026023634
87	0xbdddb6af	-0.1082586
88	0xbde1966c	-0.11015019
89	0xbde3fe6e	-0.11132513
90	0xbdbc8083	-0.09204199
91	0xbd8e9da5	-0.06963662
92	0xbcc57d81	-0.024107696
93	0x3bbfd760	0.005854532
94	0xbd8d2cb0	-0.06893289
95	0xbdd5b82f	-0.10435521
96	0x3d9aea62	0.07564236
97	0xbe0cb8d7	-0.13742386
98	0xbd7ae163	-0.0612501
99	0xbd995825	-0.07487515
100	0xbe37c81b	-0.17947428
101	0x3e987118	0.29773784
102	0x3b178f2b	0.0023126106
103	0xbd820631	-0.06348837
104	0x3c173308	0.009228475
105	0xbe3952f2	-0.18098047
106	0xbe07083e	-0.13186738
107	0x3bd832db	0.0065978593
108	0x3da1c32c	0.07898554
109	0x3ce4d3ad	0.027932966
110	0xbd822f84	-0.06356719
111	0xbd8c9a7f	-0.06865405
112	0x3dcd87bf	0.10035657
113	0xbe258056	-0.16162238
114	0x3c02209e	0.007942347
115	0xbc41a2e0	-0.011818618
116	0xbae657fa	-0.0017573826
117	0xbc88fe0d	-0.016722703
118	0xbc4bbf48	-0.012435742
119	0x3d03c803	0.032173168
120	0xbe30357e	-0.17207906
121	0xbd204b81	-0.039134506
122	0x3b6f78cc	0.0036540506
123	0xbe0aab20	-0.13541842
124	0xbdb96679	-0.09052748
125	0xbd21a5dc	-0.039464816
126	0xbdb62de5	-0.088954724
127	0x3db4414b	0.08801516
128	0x3db3f495	0.08786885
129	0xbdac04a9	-0.08399326
130	0x3d998150	0.074953675
131	0xbcff0ced	-0.031134093
132	0x3d366fae	0.0445401
133	0xbcb7791c	-0.022396617
134	0xbd4ad178	-0.04951617
135	0x3bba8a4f	0.005692757
136	0xbc63cfa4	-0.013904486
137	0xbcabfb6b	-0.020993909
138	0x3c139ca9	0.009009519
139	0x3de07b9b	0.10961076
140	0xbd793c52	-0.06084854
141	0x3d01d88a	0.03170065
142	0x3cdec0fd	0.027191633
143	0x3cecebfb	0.028921118
144	0x3d4feda7	0.050763752
145	0xbd98cd83	-0.07461073
146	0xbd612cb1	-0.05497426
147	0xbc400bd2	-0.011721568
148	0xbc5c04ef	-0.013428911
149	0xbd7a471a	-0.061102964
150	0xbdd8f873	-0.10594263
151	0xbc5a7982	-0.013334634
152	0x3de4b9ee	0.11168276
153	0xbe0ac6e1	-0.13552429
154	0x3c7d0d31	0.01544504
155	0xbcd4cd00	-0.025976658
156	0x3dd9f3cd	0.106422044
157	0xbd44a83b	-0.048012
158	0x3d6b9d89	0.057523284
159	0xbcace107	-0.021103395
160	0xbdda7c8e	-0.10668288
161	0x3bfb34f1	0.007666223
162	0xbde25f4a	-0.11053331
163	0xbd4e79f7	-0.050409283
164	0xbcc0d674	-0.02353976
165	0x3d257bc9	0.040401254
166	0x3d253617	0.040334787
167	0xbd4e19ad	-0.050317455
168	0x3d42fc5d	0.047603954
169	0xbd3f3a63	-0.04668654
170	0x3cb27be7	0.021787597
171	0x3d3e6aff	0.04648876
172	0xbc401762	-0.011724325
173	0x3c01ec6e	0.007929904
174	0xbd8049e1	-0.06264091
175	0x3b383516	0.0028107814
176	0xbcf01534	-0.029306985
177	0x3d3b6f5a	0.04576049
178	0x3d673d7c	0.05645512
179	0xbd801440	-0.062538624
180	0x3d6723f1	0.05643076
181	0xbbe890b0	-0.007097326
182	0x3d5c885d	0.053840984
183	0x3cb51f51	0.02210966
184	0x3cec2e62	0.02883071
185	0x3d9345ce	0.071910486
186	0x3c67d57b	0.014150019
187	0xbd7a6bc0	-0.061137915
188	0xbe0b4fd9	-0.13604678
189	0x3d4c720a	0.049913444
190	0x3e15b148	0.14618409
191	0x3d32345c	0.043506965
192	0x3c477e56	0.012176117
193	0xbd9afb94	-0.07567516
194	0x3c9d68a1	0.01921493
195	0x3d6646fb	0.056220036
196	0x3df074fd	0.11741064
197	0xbd45f080	-0.04832506
198	0x3c06f1e9	0.008236387
199	0xbcbb7206	-0.022881519
200	0xbd63620f	-0.055513438
201	0xbc3af69d	-0.011411336
202	0xbd4aec99	-0.049542043
203	0xbd747a7c	-0.059687123
204	0xba20dc00	-0.0006136298
205	0xbd2071c7	-0.039171007
206	0xbd7bec54	-0.061504677
207	0x3da57c5b	0.080803595
208	0x3d37ecc7	0.044903543
209	0xbda19189	-0.07889087
210	0x3d1b6bb9	0.03794453
211	0xbcb8d018	-0.022560164
212	0x3db58447	0.088631205
213	0x3d54a6c1	0.05191684
214	0x3d329447	0.04359844
215	0xbcf547ad	-0.029941404
216	0xbc9d90de	-0.019234117
217	0xbcca093b	-0.024662605
218	0xb9c30cee	-0.00037202932
219	0x3dc048c2	0.093888775
220	0xbd8fcb05	-0.07021145
221	0x3d89c86c	0.067276806
222	0x3a99c370	0.0011731219
223	0xbb117dff	-0.0022200344
224	0xbe0c4146	-0.13696775
225	0x3dc48abc	0.09596774
226	0x3d122c31	0.035686675
227	0xbddb2073	-0.106995486
228	0x3c8dcc09	0.017309206
229	0xbd769870	-0.06020397
230	0x3aa90b84	0.0012897109
231	0xbbe17b5d	-0.006881161
232	0xbcdc40f6	-0.026886445
233	0xbc8bd023	-0.01706702
234	0x3c393bb8	0.011305742
235	0x3d2b3ce0	0.0418061
236	0xbc8728dc	-0.016498975
237	0x3da7df1e	0.08196853
238	0x3d3fbe83	0.046812546
239	0x3d3ced5c	0.0461248
240	0xbc89f9cd	-0.016842747
241	0xbd252af1	-0.040324155
242	0x3cdef157	0.02721469
243	0x3d26bf86	0.040709995
244	0x3e0aa877	0.13540827
245	0x3c964f0d	0.018348241
246	0x3b8793f7	0.004137512
247	0xbe09ce60	-0.13457632
248	0x3c5def1d	0.013545779
249	0xbd411b64	-0.047145262
250	0x3d3ffca2	0.04687179
251	0xbd6b16c1	-0.057394747
252	0x3d9439e7	0.072376065
253	0x3ce57731	0.028010936
254	0x3c53fa99	0.012938165
255	0xbda7b0e3	-0.08188035

graph_matcher.mlp.4.bias f4 [64]
0	0x3c1cd8c8	0.009573169
1	0x3d515444	0.051105753
2	0xbcb6da66	-0.022320937
3	0xbe17b562	-0.14815286
4	0x3dd0fdd7	0.10204666
5	0x3cd3f0aa	0.025871594
6	0xbd960ec4	-0.07327035
7	0xbe30a8d3	-0.17251901
8	0xbd59e49d	-0.05319654
9	0xbe8bd57a	-0.27311307
10	0xbdaf1c4a	-0.085503176
11	0xbcacdf11	-0.02110246
12	0xbd3c6c40	-0.046001673
13	0x3d6512ea	0.05592624
14	0x3e3d7791	0.18502642
15	0xbdc12fe4	-0.094329625
16	0xbdec657c	-0.11542794
17	0xbe38d3e6	-0.18049583
18	0xbde72a9e	-0.112874255
19	0x3d188114	0.037232473
20	0x3ddaad34	0.10677567
21	0x3e4e90b9	0.20172395
22	0xbe5bf79a	-0.21481171
23	0x3c144a95	0.009050985
24	0xbd9460ba	-0.07245012
25	0xbdece815	-0.11567704
26	0xbd504b1a	-0.050852872
27	0xbd78ae18	-0.060712904
28	0xbdac0664	-0.083996564
29	0x3e3bbb88	0.18333256
30	0x3e031eb0	0.12804675
31	0xbe302698	-0.17202222
32	0xbe135806	-0.14389047
33	0x3d8cecbf	0.06881093
34	0x3e32c9cb	0.1745979
35	0x3c480f9c	0.012210753
36	0xbe39775d	-0.1811194
37	0xbcd2c9a9	-0.025730925
38	0xbe44e333	-0.19227295
39	0x3d435fd6	0.04769882
40	0x3cbc7a36	0.023007493
41	0x3dc80636	0.0976681
42	0x3e066750	0.13125348
43	0xbd1813dc	-0.037128314
44	0x3e3e6bc1	0.18595792
45	0xbdc7e96d	-0.09761319
46	0x3d5f0061	0.05444372
47	0xbdae34f7	-0.08506196
48	0xbdbe833c	-0.09302375
49	0xbe0f2348	-0.13978302
50	0x3e1ad33b	0.1511964
51	0xbc46cf57	-0.012134395
52	0x3dd78ae4	0.10524538
53	0x3e1bc520	0.15211916
54	0x3dfef072	0.12448205
55	0x3da8f354	0.08249536
56	0x3dea173f	0.11430215
57	0xbdbce923	-0.09224155
58	0xbdf16106	-0.11786084
59	0xbe057fe2	-0.13037065
60	0xbdce172b	-0.10063013
61	0x3d54f1d6	0.051988445
62	0xbe039a9c	-0.12851948
63	0xbdee55bd	-0.11637447
