Result/GCN/5000_sample/model_epoch_24_f1_0.7289.pth (torch, 841514 bytes, 42 tensors)

graph_matcher.gnn.conv1.bias f4 [64]
000000 ac 6a 76 3d 00 00 00 00 00 00 00 00 76 08 9a bd
       0.060160324 0.0 0.0 -0.07521145
000010 32 fe 3d bd c7 65 0a be 7e 81 62 bc e0 ce cb 3d
       -0.046384998 -0.13515387 -0.013824819 0.09951568
000020 bd ab 0d 3c 79 cf d2 3d d4 15 9b 3d fc a4 df bb
       0.008646903 0.102934785 0.07572523 -0.0068250876
000030 83 18 4a bd f7 6c 54 3e d6 f5 38 3d ba 66 00 3d
       -0.049339782 0.20744692 0.045156322 0.031347968
000040 00 00 00 00 1c c8 f8 3d 66 23 2c 3d 10 1d 0e bd
       0.0 0.12147543 0.042025946 -0.034695685
000050 50 ac 3a 3e 7d 91 f0 3d 00 00 00 00 c9 7e a1 3d
       0.18229795 0.117465 0.0 0.078855105
000060 00 00 00 00 e6 81 66 3d c7 42 c0 bc 00 00 00 00
       0.0 0.056276225 -0.023469342 0.0
000070 ac c8 74 bd 41 96 01 3d 39 a0 f1 3d 22 aa 77 bd
       -0.059761688 0.031637434 0.11798138 -0.060464986
000080 fc 9f 26 be 36 62 c0 bd 40 df 01 be 11 c2 84 bc
       -0.16271967 -0.09393732 -0.1268282 -0.01620582
000090 0e 80 5c bd 7b 50 ab 3d 78 86 a8 bd e6 c7 b9 bd
       -0.05383306 0.0836496 -0.08228773 -0.09071331
0000a0 35 b9 bd bd 68 76 78 3d 0a 96 b6 bd 72 c7 28 bd
       -0.09263841 0.060659796 -0.089153364 -0.04120583
0000b0 20 c0 60 3d e3 6f b0 3d 4d 77 2a 3b f5 88 06 3d
       0.054870725 0.08615091 0.002601105 0.032845456
0000c0 42 00 d0 bd a5 df f2 bc b2 37 5b bd 00 00 00 00
       -0.10156299 -0.029647658 -0.053519912 0.0
0000d0 8a ef 19 be e4 28 33 3a 53 6c 45 3d 25 9e 5b bd
       -0.15032783 0.0006834401 0.04819901 -0.053617615
0000e0 3e 8b 78 3d 25 d4 c6 3d ff a1 7c 3b ab 9f 8d 3d
       0.060679667 0.09708432 0.0038548706 0.0691522
0000f0 00 00 00 00 60 a6 46 3d d8 19 f1 bd f5 62 22 be
       0.0 0.04849851 -0.117725074 -0.15858062

graph_matcher.gnn.conv1.lin.weight f4 [64, 4]
000000 d5 22 64 3e 15 77 fd bc d7 22 e6 3e 04 5e ed be
       0.22278912 -0.030940572 0.44948456 -0.4636079
000010 9a de 47 be 7a 2d 89 be e1 35 97 be 7a 3d 86 bd
       -0.1951851 -0.26792508 -0.29533294 -0.065546945
000020 26 12 88 be b2 c9 28 be e1 d9 95 be c8 32 3c be
       -0.26576346 -0.1648319 -0.2926779 -0.18378747
000030 80 af f9 3e a3 96 90 3e a4 eb 7e 3e ca 68 de be
       0.48766708 0.28239927 0.24894577 -0.43439323
000040 dc db bc 3e e7 47 43 3e e5 d8 c9 3e c2 c3 b2 be
       0.3688649 0.19070397 0.3942329 -0.34914976
000050 a5 dc 0c 3f e2 af c5 be 9a a9 ff be 78 b9 8d bd
       0.55024177 -0.3861075 -0.49934083 -0.06920141
000060 ee d5 20 bf 36 79 18 bf ce a4 fb be 10 86 eb 3e
       -0.6282643 -0.59559953 -0.49149173 0.4600072
000070 da e5 73 3e 25 c7 f8 3e f4 d1 e1 bc 3b ef 43 bf
       0.2381815 0.48589435 -0.027565934 -0.7653691
000080 68 95 1e 3e db 6d 31 3e d8 e4 08 3f b7 06 81 be
       0.15486681 0.17327063 0.5347419 -0.25200436
000090 ee 23 62 bf 16 a3 2f 3f 3c 6e 81 3e 5b 1a 14 3e
       -0.88336074 0.68608224 0.25279415 0.14463179
0000a0 c3 cc d5 3c 99 39 6d 3e fd b1 19 3f 1b 84 8f be
       0.026098615 0.23166503 0.60037214 -0.28030476
0000b0 d6 28 09 bf 14 cc a3 3e 2d ef be be e7 84 0e 3e
       -0.53577936 0.31991637 -0.37291852 0.13917886
0000c0 45 d6 1b 3f 0d 88 14 3e c2 52 aa 3e d6 7d 97 be
       0.60873824 0.14505024 0.33266264 -0.29588193
0000d0 92 d1 f1 3d 6a 17 92 3e ae 8a 1e 3f e9 d4 3c be
       0.118075505 0.2853349 0.6193036 -0.18440594
0000e0 80 69 ff be e9 e3 37 bf 5b 7a ea be 1c 04 96 3e
       -0.49885178 -0.7183214 -0.45796475 0.2930001
0000f0 0e 44 01 3f 50 61 2a bf f5 00 a6 be ba b7 5f be
       0.5049447 -0.6655474 -0.32422605 -0.2184743
000100 50 02 38 bd 6e 4a 8a be 9a 2a 9f bd 50 35 a7 bc
       -0.04492408 -0.2700991 -0.077717975 -0.020411164
000110 d2 ef 3f bf d4 e5 ee 3e e9 ae f4 3d 32 20 d2 3d
       -0.7497531 0.4665972 0.11947424 0.10260047
000120 c2 0b 86 bf c2 c4 ae 3e 26 83 00 3f 36 f1 25 bf
       -1.0472338 0.3413449 0.50200117 -0.64821184
000130 00 ee c3 3e b8 15 2c 3d be 25 cd 3e b1 da 18 be
       0.38267517 0.0420129 0.40067858 -0.14927174
000140 1c 65 24 3d 50 00 2d 3f a6 d1 0b 3f aa ba dd be
       0.040135488 0.675786 0.54616773 -0.43306476
000150 b9 a0 8e 3d f3 88 a6 3e d6 81 37 3f ca 2c 00 be
       0.06964249 0.3252636 0.7168249 -0.12517086
000160 9e 35 1b be 7c 13 91 be 8a 54 72 be e8 29 14 bd
       -0.15157172 -0.28335178 -0.23665062 -0.036172777
000170 2f ba f1 be e0 64 24 3f c8 60 96 be 31 e9 83 3e
       -0.4721236 0.64216423 -0.29370713 0.25763848
000180 a8 ab 61 bd 3d 86 3d be 2c 0d b6 bd 8a fa a9 bd
       -0.055095345 -0.18508239 -0.08889231 -0.0829974
000190 e0 8b 43 bf 67 b5 3f bf 22 ed 0f bf 03 a4 35 3e
       -0.7638531 -0.74886173 -0.5622121 0.17738347
0001a0 e4 37 0e 3f 56 37 36 3e 36 33 b8 3e 9f 8c 83 be
       0.5555403 0.17794546 0.3597657 -0.25693223
0001b0 d0 7e 10 be ff 0e 92 be 79 04 90 be d0 55 dd bc
       -0.14110875 -0.28527066 -0.28128412 -0.027018458
0001c0 c8 ea 42 be 33 be 58 bd 73 46 92 be 2e c0 10 be
       -0.19034874 -0.052915763 -0.28569373 -0.1413581
0001d0 0c 93 f4 3d 4b 46 88 3e 2a 45 47 3f 3c 9f b2 be
       0.119421095 0.2661613 0.7783991 -0.3488711
0001e0 2f b5 8a 3d 2e a0 af bc 76 82 21 3f e6 22 c4 be
       0.06772839 -0.021438684 0.6308969 -0.38307875
0001f0 45 ee 47 be 5e 91 8b be 11 8a 5a bd 4e 30 38 bd
       -0.19524486 -0.27259344 -0.053354327 -0.044967942
000200 fc d7 cc 3e 5d ac b2 bd 36 88 0f 3f c2 f6 81 be
       0.40008533 -0.08724282 0.56067216 -0.25383574
000210 3d 87 1a 3f b6 2b 02 be fc fb f7 be bd b9 33 bd
       0.6036261 -0.12711987 -0.48434436 -0.043878306
000220 93 ca 88 bf 1a b3 27 3f ac a8 37 3f 03 dc 96 bf
       -1.0686821 0.6550766 0.7174175 -1.1785892
000230 65 77 f6 3c ca 86 50 3e 71 3b 31 3f 3e a6 52 be
       0.030086229 0.20363918 0.69231325 -0.20571229
000240 9b 83 ff be d5 34 09 bf 44 99 8f be 8d 38 af 3e
       -0.49905095 -0.5359624 -0.2804662 0.34222832
000250 cf 6d ff bc 5b 43 f8 3d 65 81 35 3f 89 29 05 bf
       -0.03118029 0.12122222 0.70900565 -0.520165
000260 f1 7c 73 be 1c aa 3a be 08 f6 74 be 15 73 a5 bc
       -0.2377813 -0.18228954 -0.23921978 -0.020196477
000270 50 d6 46 3f fe df 2c bf 41 cb 40 bf b9 bf 61 bd
       0.77670765 -0.67529285 -0.7531014 -0.05511448
000280 92 7b 5f be eb 42 95 bd a0 9c 4a 3b 90 5d 26 3d
       -0.21824482 -0.07288154 0.003091611 0.040616572
000290 2e 45 86 bf 93 b6 e6 3e a2 b0 08 3f 0f 5c 67 bf
       -1.0489862 0.45061168 0.5339452 -0.90374845
0002a0 58 99 b0 bd 2b a5 a9 bd 9d 13 5d bd 10 89 c6 3c
       -0.08622998 -0.082834564 -0.053973783 0.024235278
0002b0 e3 b0 20 3e bc c1 94 be ae 7e 51 3f f8 a1 1a be
       0.15692477 -0.29054058 0.8183392 -0.15100849
0002c0 26 8b 35 bf 32 cd 1f bf ff 6c 04 bf 98 09 9f 3e
       -0.7091545 -0.6242248 -0.51728815 0.31062007
0002d0 38 3d 7c bf 03 e1 26 3f cd ed 33 3f 69 52 05 be
       -0.9853091 0.6518709 0.7028473 -0.13019718
0002e0 49 08 53 bf f4 8e 48 3f d4 9d 85 be 7d b8 1a 3d
       -0.8243452 0.7834313 -0.26096976 0.037773598
0002f0 d4 dd 67 bf da 94 51 3f 57 9d 7c 3e 21 7b 00 3d
       -0.9057286 0.81867754 0.24669395 0.031367425
000300 fe ab cc ba 44 f8 24 bd f3 bb 64 be 25 9f 43 be
       -0.0015615223 -0.040275827 -0.22337322 -0.19103678
000310 59 7a 07 3f c1 52 8c 3d df 53 50 3e 64 c4 59 bd
       0.5292106 0.068517216 0.20344494 -0.05316581
000320 7e 95 15 be e0 2a da bd 7a 2b 4d bd 2a 3b dd bd
       -0.14607808 -0.10652709 -0.05009029 -0.108023
000330 32 ae 78 be a9 be 22 be 6c 8e b0 bd e0 21 46 bd
       -0.242852 -0.15893044 -0.08620915 -0.04837215
000340 b1 b3 2e 3f 24 f2 5c bf cc e2 23 bf 5e 19 2f bd
       0.6824294 -0.8630698 -0.6401794 -0.0427488
000350 cc 23 39 bf 0d 6a 38 3f ca 86 30 3d 2e 33 4f 3d
       -0.72320247 0.7203682 0.043097295 0.050585918
000360 23 73 78 bf 34 b5 3e 3f 18 22 e9 bd b6 3e 1b be
       -0.97050685 0.74495244 -0.11383456 -0.15160641
000370 7f 22 03 3d 1a 5d 44 be 28 7d 31 be cc 50 8a be
       0.03201532 -0.1917614 -0.173329 -0.27014768
000380 ef 31 f3 3e 0d bb 70 bf e0 db 81 bf 63 c7 c1 be
       0.47499034 -0.94035417 -1.0145226 -0.37847432
000390 d7 b5 9b 3e 74 59 ab 3d bd ce 24 3f ef 05 31 be
       0.3041217 0.08366671 0.6437796 -0.1728742
0003a0 ba ac 08 bf ba 8e 25 bf 9a 03 d7 be 62 c1 d3 3e
       -0.5338856 -0.6467091 -0.41994935 0.41358477
0003b0 43 48 65 bf 36 ca 01 3f d2 65 d6 3e f1 22 41 bf
       -0.8956339 0.50699174 0.41874558 -0.7544394
0003c0 f0 d6 c4 bc 30 63 4c be d8 1f 42 be 64 47 d1 bd
       -0.024028271 -0.19959712 -0.1895746 -0.10218695
0003d0 ce ef f9 be 81 29 46 bf 30 b8 fe be 5f 5e d0 3e
       -0.4881577 -0.7740708 -0.497499 0.40697
0003e0 80 6e e5 bc 36 8a 57 be f1 bb cd 3c 91 e6 97 be
       -0.028006792 -0.21048817 0.025114032 -0.29668096
0003f0 14 41 a0 3e 2e 4d 91 3e 07 2d 19 3f 57 27 2e be
       0.3129965 0.28379196 0.5983433 -0.17007194

graph_matcher.gnn.conv2.bias f4 [128]
000000 c5 97 78 3e db 9a c7 bd de 1d c9 bd 9b 03 b4 bd
       0.24276645 -0.09746333 -0.0982015 -0.0878975
000010 4e 6e e8 3d 1c d7 a9 3d d7 43 a5 bd 1a 82 3f 3d
       0.11349164 0.08292982 -0.0806958 0.046754934
000020 5e 15 7f 3e c4 29 6f bd f9 18 4b be f6 20 02 be
       0.24910495 -0.05838944 -0.19833745 -0.12707886
000030 73 c7 da bd b6 78 83 bd 52 e2 71 3e a6 1a e5 bd
       -0.10682573 -0.06419508 0.2362149 -0.111867234
000040 23 b7 e7 bd 07 b9 cc bd 4c 91 6a ba 0f 9c b7 3d
       -0.113142274 -0.09996229 -0.00089480425 0.08965313
000050 dd f4 e7 bd 52 50 0f be 59 f4 b4 bd ee 7c 59 be
       -0.11326001 -0.13995484 -0.08835668 -0.21239063
000060 c2 58 43 bd 19 0a 90 bd 28 e0 43 be 3a c8 9f be
       -0.047692068 -0.07033176 -0.19128478 -0.31207448
000070 27 91 9b bd 99 c0 ac bd 8a a4 a5 bd cd 4d 03 be
       -0.07596045 -0.084351726 -0.08088024 -0.12822647
000080 bc ec ad be c5 34 8b 3e 3b 22 cf bd 1d 8d a9 bd
       -0.33969676 0.27188697 -0.10113951 -0.08278868
000090 7d ca 57 3e e3 1e 4a 3e 25 7f 3c 3e 25 25 ac bd
       0.21073337 0.19738345 0.18407877 -0.08405522
0000a0 72 98 bb 3c 53 97 cb 3d a3 e3 8b 3e 4a b9 00 bd
       0.02289984 0.09940972 0.2732211 -0.031426705
0000b0 21 ed a1 bd 82 41 27 bd f2 7a 60 3e 1d b5 63 be
       -0.07906557 -0.040833957 0.219219 -0.22237058
0000c0 08 6a d1 bd 4a 2f 73 3e 39 b8 c7 3d 24 54 1b 3e
       -0.10225302 0.23748508 0.097519346 0.15168816
0000d0 2a 2d 77 3e fc 32 00 be bf 39 7a bd 2a e0 42 be
       0.24138322 -0.12519449 -0.061090227 -0.19030824
0000e0 38 cd 12 be 7e d0 72 3d 24 db ab 3d 1b 16 8b 3e
       -0.14336097 0.059280865 0.08391407 0.27165303
0000f0 09 50 c0 bd ba 3f a8 bd b9 eb 2e 3e 23 5d 08 3e
       -0.093902655 -0.0821528 0.17082109 0.13316779
000100 fa 9e b0 bd 68 e7 b1 3d df aa 26 bd c2 3b 02 be
       -0.086240724 0.08686715 -0.0406903 -0.12718108
000110 02 34 11 bd f3 a1 07 3e 65 bd 86 bd 46 32 5b be
       -0.03544999 0.13245372 -0.06579093 -0.21405897
000120 61 a0 2a bd 66 7f ec bd 78 ca 99 bd a1 89 aa bd
       -0.041656855 -0.11547737 -0.07509321 -0.08327032
000130 fa dc 11 be 5c 58 1c be 4a 0f 8c 3e fd 13 89 bd
       -0.14244452 -0.15268081 0.27355415 -0.066932656
000140 45 03 2e 3e d3 7b 87 bd 60 aa 0e be 13 93 62 bc
       0.16993435 -0.066154145 -0.1393218 -0.013829011
000150 c0 e6 34 3e 01 98 de bd d1 b1 b5 bd bb c4 87 3d
       0.17666149 -0.10868836 -0.088718064 0.0662932
000160 de eb fe bc 7e da bc bd 87 3a 3c be 48 2b 60 bd
       -0.03111833 -0.092213616 -0.18381701 -0.054728776
000170 18 ca 6d 3d 5d f9 4e 3d 1c b7 8d bd 55 1d ac bd
       0.05805406 0.05053078 -0.06919691 -0.08404032
000180 c1 57 e7 3d 9f d7 4c 3e 06 1c 6c bc d3 ea 0a be
       0.112960346 0.20004128 -0.014410978 -0.13566141
000190 ea 98 54 be 75 9a 8f 3e 1f 24 b6 bd 3b 0e 23 bd
       -0.20761457 0.2804753 -0.08893608 -0.039808493
0001a0 40 d5 6e 3e 5d c6 08 3e 59 f4 f6 bd 4a 4d 7f 3d
       0.23323536 0.1335692 -0.12058324 0.062329568
0001b0 47 b7 9d 3d d5 d1 00 be e6 9e ab bd af c1 b8 bd
       0.07700973 -0.12580045 -0.08379917 -0.09021317
0001c0 1e 5a a9 bd 9b 4f 27 3e e4 0f bf bd d9 29 7f 3d
       -0.082691416 0.16338961 -0.09329203 0.06229577
0001d0 eb 7b eb 3d 2d d2 fe bd 56 7a 1c 3e c2 e6 26 3e
       0.11498245 -0.124424316 0.15281042 0.16298965
0001e0 4d 5c 15 be e9 57 b8 bd 6d d0 17 3d e8 b4 c0 bd
       -0.14585991 -0.090011425 0.037064005 -0.09409505
0001f0 52 c0 d3 3e 3c dd 53 3e 6d d9 e6 bd 44 f0 39 3e
       0.41357666 0.20689863 -0.112719394 0.1815806

graph_matcher.gnn.conv2.lin.weight f4 [128, 64]
000000 46 31 6f 3e 70 28 a3 bc 6e d7 a4 3d f2 dd 01 3e
       0.2335864 -0.019916743 0.080489025 0.12682322
000010 9b 9a 5a 3e 55 ce 09 bf 4f d1 62 be 73 9e 27 3f
       0.2134804 -0.5383046 -0.22150157 0.6547615
000020 54 7a ef 3e 67 e6 26 be 40 0d c2 3e ab 3f 48 3d
       0.46773016 -0.16298829 0.37900734 0.048888844
000030 e4 fb d6 3e 3a 7e 86 3e 8f 35 48 be 22 ff 25 bf
       0.41989052 0.26268178 -0.19551681 -0.64842427
000040 30 d8 d1 3c 5a f3 44 be 0f 6e 72 bf 79 00 50 3e
       0.025615782 -0.19233456 -0.94699186 0.2031268
000050 b5 09 55 3f 72 87 c6 3e b8 0d 8a 3d 61 2d e2 3d
       0.83217937 0.38775212 0.06740898 0.110438116
000060 e9 6b db bd 23 30 a3 be 66 85 fb 3d 27 30 d6 bd
       -0.107139416 -0.31872663 0.12281303 -0.10458403
000070 a4 71 87 bd e3 98 e1 3e b3 59 f5 3e 4c 7f 27 be
       -0.06613472 0.44061956 0.47919998 -0.16357154
000080 4b 01 79 be d5 ce bd be 75 4e 0b c0 e1 34 e8 3e
       -0.243169 -0.37071863 -2.1766636 0.45352843
000090 86 dc b9 be 6a 9c 84 3f 1c 81 07 3d 74 77 6d bf
       -0.3630106 1.0360234 0.033082113 -0.92760396
0000a0 06 25 76 3d 6f 3c d0 bf 75 92 f0 bd 39 ce 4f 3e
       0.060093902 -1.6268443 -0.117466845 0.20293511
0000b0 49 49 e9 be 6f 26 13 bd 67 58 12 3e c2 54 9d bd
       -0.45563725 -0.035925325 0.14291535 -0.07682182
0000c0 a8 80 d0 3d da 53 2e 3e db c8 d2 3d e4 07 b9 bd
       0.10180789 0.17024174 0.102922164 -0.09034708
0000d0 6f eb 88 bf d4 a7 91 3e 4e c7 24 3d 3e 7b 73 bd
       -1.0696849 0.28448355 0.040229134 -0.059443705
0000e0 c0 e7 68 bf 25 21 d8 3e 9a 5e 41 be 11 04 f6 bf
       -0.9097862 0.42212787 -0.18883744 -1.9219991
0000f0 cc a8 49 bd 52 f0 1c bf 49 a9 a6 3d 98 9d e3 3e
       -0.049233243 -0.613042 0.08137757 0.44456172
000100 d6 04 80 be 0a 43 f0 bd 20 05 18 bd 63 c5 0a be
       -0.2500369 -0.11731537 -0.037114263 -0.1355186
000110 0d 47 ea bd 53 9f 23 be d5 35 f9 bd 3f 2c c8 bd
       -0.11439333 -0.15978746 -0.12168471 -0.09774064
000120 12 d5 66 be c1 ce 7a 3d 60 45 c2 bd bd 7d 15 bc
       -0.22542217 0.061232332 -0.094858885 -0.009124217
000130 98 d6 29 be 22 db fc bd 1a 25 46 be 8e 19 46 be
       -0.16585767 -0.12346484 -0.1935009 -0.19345686
000140 da 75 90 3d 48 fb 09 be d9 84 ac 3d 9f 90 5a be
       0.070537284 -0.13474762 0.08423776 -0.21344231
000150 51 c1 16 be 7f 36 8c 3d 67 0f 0f be 7e c7 ae bd
       -0.14722182 0.06846332 -0.1397072 -0.08534144
000160 f6 95 97 3d d7 28 6d be 8f 43 af 3d 58 dc 9a bc
       0.0740165 -0.2316011 0.08557808 -0.018903896
000170 e0 3b 2a bd 2f 8b 18 be 85 32 29 be e2 75 3b 3c
       -0.041561007 -0.14896844 -0.16523178 0.01144168
000180 87 41 74 be 4f 0c 1a be d4 07 04 3e 50 38 a6 be
       -0.23853122 -0.15043758 0.12893611 -0.32464838
000190 85 df 4a be f3 73 03 3e 23 87 7f be 8c f5 9b bc
       -0.19811828 0.128372 -0.24953894 -0.019037984
0001a0 29 8f 49 3d 47 67 3a bd b2 6f e7 bb 34 3d 69 bd
       0.049208794 -0.04550865 -0.0070628757 -0.056943133
0001b0 67 e9 f9 bd 7e ec c9 bd cb c4 a0 bd 68 33 b9 bc
       -0.12202721 -0.098595604 -0.07850035 -0.02260752
0001c0 b0 69 84 3d 45 9c 69 be b2 bd c6 3c 85 a8 15 3e
       0.06465471 -0.22813518 0.024260376 0.14615066
0001d0 98 11 7b be 10 94 5d 37 42 db 93 bc 27 ab 1a be
       -0.2451843 1.32071e-05 -0.018048886 -0.15104352
0001e0 84 bd 84 3d 0e 2a a8 bd d6 96 59 be ad 24 75 3d
       0.0648146 -0.08211146 -0.21248946 0.05984943
0001f0 44 7c 0b bd 56 a5 b1 bd d1 a0 ea 3d e1 a6 90 be
       -0.034054056 -0.086741135 0.114564545 -0.28252319
000200 be 16 cd bc 2d 3a 10 be 20 0b 9b bc de c1 07 be
       -0.025035258 -0.14084692 -0.018926203 -0.13257548
000210 58 c7 c8 bd 43 cf 9d bd 8b b3 17 be 47 40 b4 be
       -0.09803647 -0.07705548 -0.14814584 -0.3520529
000220 e0 ea 80 be 9d c9 86 bd 6c 7b 22 3e 7c 87 77 be
       -0.25179195 -0.065814234 0.15867394 -0.24172777
000230 0a 1a af be 4b 75 ad be d3 13 98 be 24 41 1b bd
       -0.34199554 -0.3387855 -0.29702625 -0.03790392
000240 e7 e8 87 bd b1 35 1d be 3b 41 dd be b3 32 f1 bd
       -0.066362195 -0.15352513 -0.4321383 -0.11777248
000250 89 2a 8a be 9d 65 70 be 9e c1 aa 3d 07 3e 5e be
       -0.26985577 -0.23476262 0.08337711 -0.21703349
000260 7a bd c6 3d 1c 94 c9 be 06 82 0c 3e a6 fc 86 bd
       0.097041085 -0.3937081 0.13721475 -0.065911576
000270 83 cd 73 3c 87 25 3a be f9 d5 57 3d a3 d5 4c bd
       0.014880541 -0.18178378 0.052694295 -0.050008427
000280 3c 80 2a be 07 82 15 3e e1 a4 91 be fa cd da be
       -0.1665048 0.14600383 -0.28446105 -0.42735273
000290 eb 4b 92 bd e8 c8 6c 3d c5 72 f6 bd 7b 24 32 be
       -0.071433865 0.057808787 -0.12033609 -0.17396729
0002a0 01 82 33 be c7 a9 fd bd 4a 4f 7f be 24 2d 0b bd
       -0.17530061 -0.12385898 -0.2493259 -0.033978596
0002b0 30 64 b3 be 6d dd 28 3e 87 bc ef 3d 21 80 05 bd
       -0.35037374 0.16490717 0.117058806 -0.032592896
0002c0 c7 85 20 be c8 8e 93 be ba 5a 70 bd 00 5a 9b 3a
       -0.15676032 -0.2881987 -0.058680274 0.0011852384
0002d0 4a dc 46 be 21 27 53 3d 3f 5d cd 3c 51 00 41 be
       -0.19419971 0.051550988 0.025068877 -0.18847777
0002e0 ed 60 25 3e 97 6c db bc 93 e2 a5 be e5 82 df 39
       0.16150256 -0.026785178 -0.32399425 0.00042631399
0002f0 c4 d8 3a 3d c8 12 e3 be 01 30 3e bd ca 0d 65 be
       0.04561688 -0.44350266 -0.0464325 -0.22368541
000300 11 7e 5f be 2a c6 2a be 0c f1 00 bd 70 79 ae 3d
       -0.21825434 -0.16677156 -0.03147988 0.08519256
000310 f9 52 6f be e6 e3 ea 3c 49 25 ca 3d 5f c1 37 be
       -0.23371495 0.028673124 0.09870393 -0.17944859
000320 d6 a9 d9 bd 1a e6 cf bd 05 41 de bd 4a 4f cd bd
       -0.10628097 -0.1015131 -0.10852245 -0.10024889
000330 9d f9 55 be bd 75 5f be d4 20 35 be ab 4b 35 be
       -0.20896001 -0.21822257 -0.17688304 -0.17704646
000340 92 a2 a8 3d 10 36 12 bd 5f 60 80 3e 21 b9 13 be
       0.08234133 -0.03569609 0.25073525 -0.1442609
000350 f2 0f 78 bd 69 5a 93 3d 00 b7 88 3d fe 31 10 be
       -0.06056208 0.07194979 0.066755295 -0.1408157
000360 ee 03 fc 3d c7 f5 de bd 69 48 89 3d 1e e3 bb 3d
       0.12305437 -0.10886722 0.06703264 0.091741785
000370 39 fb ef 3c a2 3c 1f 3d 6f 48 0e 3c f7 c8 b1 bd
       0.029294597 0.038876183 0.008684262 -0.08680909
000380 98 58 af 3c 82 33 87 bd 44 51 26 be 9c c9 e3 bd
       0.02140455 -0.06601621 -0.16241938 -0.11122438
000390 fb d1 d8 bd 14 14 01 bd 6e 82 03 3e 5c ca 92 bd
       -0.105869256 -0.03151329 0.12842724 -0.07167503
0003a0 cf 84 b1 3c 4d 59 30 3e b0 1f 13 be 33 f1 da bd
       0.021669773 0.17221566 -0.14367557 -0.10690536
0003b0 08 b2 00 3c 6c d0 56 bd f9 61 be 3d 25 f2 5f be
       0.007854946 -0.05244486 0.092960306 -0.21869715
0003c0 fd b8 d3 bd 01 d9 00 bd a0 de 63 bc 60 f9 6b 3c
       -0.10338018 -0.03145695 -0.013908058 0.014402717
0003d0 82 15 ae bd a0 2a f4 bd 04 cb ab bd b6 f9 e3 bd
       -0.08500196 -0.119221926 -0.083883315 -0.11131613
0003e0 81 ba 69 3d 25 fb bd 3b b9 88 ce 3d 96 bc c2 bd
       0.05706263 0.005797761 0.100846715 -0.09508626
0003f0 97 83 11 3e 64 4e 40 be 6c 1a ee 3c e3 f1 49 bb
       0.14210354 -0.18779904 0.029065333 -0.0030814342

graph_matcher.mlp.0.weight f4 [128, 256]
000000 66 3f 8e bd fa 3f 7c 3d 3f 9e 05 bd fc e8 62 3d
       -0.06945686 0.06158445 -0.03262162 0.055397972
000010 48 86 69 bd 9f 33 af bb ea 82 03 bd f2 5f 55 bd
       -0.057012826 -0.00534673 -0.03210727 -0.052093454
000020 75 b4 ed 3c e6 2f 12 bd 30 d1 6a bd 60 a1 5e 3d
       0.029016713 -0.03569021 -0.057328403 0.054353118
000030 10 1e 9b bc f6 ce 7f bd 36 12 f7 3b df 93 fc bd
       -0.018935233 -0.062453233 0.0075400127 -0.12332892
000040 aa 0c 33 3d c6 ef 1a bd ac 2d 8f bd 9e d0 10 3d
       0.04371325 -0.037826322 -0.06991133 0.035355203
000050 20 4f 2f bb de a3 9f ba c1 78 0a bd ab d3 be bc
       -0.0026750043 -0.0012179574 -0.033806566 -0.02329429
000060 ed a8 aa bd bc 48 c0 bc da 30 52 bc e4 2a f9 bd
       -0.08333001 -0.023472182 -0.01282903 -0.12166384
000070 31 e6 c7 bd 2e 73 1b bc 4d d1 9e bd 5a 25 52 bd
       -0.097607024 -0.00948791 -0.07754765 -0.051305152
000080 4e 5c 7b bd ac 2a 90 bd c8 f4 34 bd a2 1e 62 3d
       -0.061367325 -0.07039389 -0.044178754 0.055204995
000090 3d 46 7e 3c 08 6d d4 3c cf 02 e5 3a 1c c9 4c 3d
       0.015519676 0.025930896 0.001747215 0.04999648
0000a0 3b 42 5b bd 9b e3 be bd c5 0c ff bc 6d 71 a2 bd
       -0.05352996 -0.09320756 -0.031134019 -0.079317905
0000b0 a2 e6 2f 3d 93 05 20 be 3b b8 5b bd ac 5a 84 3c
       0.042944558 -0.15627126 -0.053642493 0.016156517
0000c0 e0 11 87 bb ae a0 9b bc e2 2f a0 bd 3e d2 80 bc
       -0.004122004 -0.018997516 -0.07821633 -0.015725251
0000d0 76 0f 02 bd c1 e5 a7 bd c9 a6 1d bd a8 e3 87 bd
       -0.031753026 -0.08198119 -0.038489137 -0.06635219
0000e0 c5 a1 a3 3d 0f f7 8a bd 7b 4c 8a bd 21 7d 20 bd
       0.079898395 -0.06785404 -0.06752869 -0.039181832
0000f0 1c 26 8e bc 78 2b 73 3d ab 73 b9 3c d7 b4 81 3c
       -0.017352156 0.059367627 0.022638163 0.015833301
000100 af 7b b5 bd c6 fc 32 bd b4 a3 80 bd 6e ac 53 3d
       -0.088614814 -0.043698095 -0.06281224 0.051678114
000110 4f 0e 24 be ea d7 80 bd 66 a9 f9 bd 16 03 1e 3d
       -0.16021083 -0.06291182 -0.12190513 0.03857716
000120 9e cb 16 bd ac 39 81 bd b9 63 93 bd ca 74 3d bd
       -0.03681528 -0.06309828 -0.07196755 -0.046253957
000130 5f ad 45 bd d8 aa 7d 3d 8b 78 c6 3b b3 87 44 bd
       -0.048261043 0.061930507 0.0060568503 -0.047980975
000140 53 3a 92 bd 40 15 8d 3c d7 57 9c bd b4 66 89 bd
       -0.07140031 0.017222047 -0.076339416 -0.06709042
000150 99 74 5b 3c 6a 76 39 bd e8 7b 2c bd 2b 7d ea bc
       0.013394498 -0.045278944 -0.042110354 -0.028624138
000160 e0 04 c3 bd 6a 3d d5 bd 22 de 1c bd 03 19 15 be
       -0.09522414 -0.104121044 -0.03829778 -0.14560322
000170 38 16 8f bd ab 1f 63 bc 90 ad 16 bc d5 7c 77 bd
       -0.0698666 -0.013862531 -0.009196654 -0.060421783
000180 22 b8 c1 bc 21 27 56 3c 2e 01 15 be bc 28 d4 bb
       -0.023647372 0.0130708525 -0.14551231 -0.0064745825
000190 1e 22 14 3c 98 bc a4 bd 04 ea 18 3d 7e a5 55 bd
       0.009041337 -0.08043784 0.03733255 -0.05215978
0001a0 8e 59 94 bd 61 79 b8 bd dd a4 c7 bc 8a 45 ef bd
       -0.07243644 -0.09007526 -0.024370605 -0.116831854
0001b0 e9 51 5a bd f8 82 5e bc cd 1d e2 bc 48 bc 13 3d
       -0.05330077 -0.01358103 -0.0276021 0.03606823
0001c0 f0 3e f3 3b 44 4e 17 bd d8 d4 32 3d ca f1 1a 3d
       0.007423274 -0.036939874 0.043660015 0.037828244
0001d0 82 a8 e4 bd 39 88 03 bd e7 95 ef 3b ae 16 d6 bd
       -0.11164953 -0.032112334 0.007311571 -0.104535446
0001e0 4c 54 7a 3d a0 3d 62 bc 0f b2 b7 ba 00 6c c2 3c
       0.061115548 -0.013808638 -0.0014014858 0.023733139
0001f0 63 b1 9c bb 4b 7f ef bc c3 ed 97 bd 8c 4e 8c bd
       -0.0047818883 -0.029235503 -0.07418396 -0.06850919
000200 ad 1f be bd b7 77 a5 3c 98 13 17 3c 7e ed 44 3c
       -0.092833854 0.020198686 0.00922098 0.012019513
000210 75 02 b4 3b cb 25 70 3c 16 c2 3b bd dc 74 bc bd
       0.005493457 0.014657448 -0.04583939 -0.09201977
000220 8e 6c fb 3c 27 1d 40 bd 53 dc d6 bd b4 3e 36 bd
       0.030691411 -0.0469028 -0.10491242 -0.044493392
000230 00 bb b0 bb e5 30 03 3d bb 4b ab bb da b4 92 bc
       -0.005393386 0.03202905 -0.0052275336 -0.017908502
000240 50 e7 91 3b 38 a6 0f bd e7 00 0a bc a6 9c 5a 3d
       0.0044526234 -0.035070628 -0.008423067 0.053372048
000250 a2 77 77 bd 00 b6 6f 3b ca e3 37 bd a2 ec 94 bc
       -0.060416825 0.0036576986 -0.04489497 -0.018179242
000260 42 91 16 be aa 5b e6 bd b3 3a 2f 3d c5 21 cb bd
       -0.14703849 -0.11247952 0.04278059 -0.099185504
000270 d2 6a cc bd 56 d6 c9 bc 0c 86 ba 3c e0 3e 78 bd
       -0.09981312 -0.024638336 0.022768997 -0.060606837
000280 10 53 0d 3c 73 b4 98 bd 34 74 f0 bc 92 1a 67 3d
       0.008625761 -0.07456293 -0.029352285 0.056421824
000290 83 ce 26 be 4c 71 92 bc c7 06 92 bd 40 86 17 bb
       -0.16289715 -0.01787629 -0.07130199 -0.002312079
0002a0 54 16 c7 bd 97 fe c2 bc bc 20 ba bd 3f 0a 90 bd
       -0.097210556 -0.023803039 -0.09088275 -0.07033204
0002b0 00 d9 ed 39 6e ef d9 bd ae 75 28 bc ce 89 1e bd
       0.0004536584 -0.10641371 -0.010281963 -0.03870564
0002c0 d1 f7 8d bb 08 98 3c bd 09 39 13 be db 51 0c 3c
       -0.0043325205 -0.046043426 -0.14377226 0.008564438
0002d0 ca e3 d1 bd 86 bb 47 3d f5 8c 5e bd d4 45 a6 bd
       -0.102485254 0.04876282 -0.054333646 -0.081187874
0002e0 fb 2e 0f 3e 8a 7c 0d be 65 ad 36 bd 97 3d bd ba
       0.13982765 -0.13817039 -0.044598956 -0.0014437911
0002f0 70 6f 87 bc 56 e2 3d bd 72 2c d9 bd 96 45 4f 3b
       -0.01653263 -0.04635843 -0.106041804 0.003162717
000300 6e a0 8c 3c 91 6f e3 bc 8b 6f 0c be a8 cf d0 bc
       0.017166343 -0.02776316 -0.13714425 -0.025489643
000310 e7 94 5a bd fe 9f e2 bd 90 7f 07 bd 76 c8 75 3d
       -0.05336466 -0.11065672 -0.033080637 0.060005628
000320 6a 3c e0 bd 10 37 d4 bc ae 07 c9 bc cc f3 29 bd
       -0.10949023 -0.025905162 -0.024539795 -0.04149227
000330 8c f3 14 bd 21 8b 7e bc 6d f7 e7 bc 8c 17 91 bd
       -0.036365077 -0.015536101 -0.028316224 -0.07084569
000340 5b 38 d6 bd 10 20 cd 3b f8 e6 02 be a3 5d cc bd
       -0.10459968 0.0062599257 -0.1278342 -0.09978797
000350 4a f6 c3 bd 50 1e 5b 3c 68 87 ba bc 37 00 f0 bd
       -0.0956846 0.013373926 -0.022769645 -0.11718791
000360 f2 f5 72 bd 33 25 3e bd 18 00 a8 bc ff c4 7e bd
       -0.059316583 -0.046422195 -0.020507857 -0.06219959
000370 bb 68 3c 3c 48 ed d7 bd 30 18 b8 3c ed 8b 43 3d
       0.011499579 -0.10543305 0.022472471 0.047740865
000380 41 f2 44 3d 57 d6 9d bd 8a 0a c0 bd b9 a0 8f 3c
       0.048082594 -0.07706898 -0.0937701 0.017532693
000390 d1 02 42 bd 4e c6 98 bd f4 39 16 3d 40 42 1f bd
       -0.047365967 -0.074596986 0.036676362 -0.03888154
0003a0 04 2b d0 b9 32 ff 8d bd 7e 41 3d bd d6 e9 bf bd
       -0.000397049 -0.0693344 -0.046205036 -0.093707725
0003b0 b9 e7 88 bd b2 6f 6b bd 8a ca 65 bd 5b e6 bf bc
       -0.066848226 -0.057479568 -0.05610136 -0.023425272
0003c0 ac f3 1b 3d 35 44 aa bd cc 66 a5 3c 93 1b 3a 3d
       0.03807418 -0.08313791 0.020190619 0.045436453
0003d0 5c f8 0b bd 9e 7c b4 bd 6f a0 c5 bd e8 14 f4 bc
       -0.0341724 -0.08812831 -0.09649741 -0.029795125
0003e0 6e a0 2c bd 20 bf 64 3d e7 91 ac bd 00 b4 df 3b
       -0.042145185 0.055846334 -0.08426266 0.0068268776
0003f0 67 7c 49 bd 44 a4 3e bd c6 09 8c bd e8 ef af bc
       -0.049190905 -0.046543375 -0.06837802 -0.0214767

graph_matcher.mlp.0.bias f4 [128]
000000 06 fd 05 be 64 2c 35 3e 12 e8 e4 bb de d3 fb bd
       -0.13084802 0.17692715 -0.0069856727 -0.1229627
000010 b0 cb 7f bd 19 bb 94 3d a7 c1 04 bf 17 b4 85 bd
       -0.06245011 0.072622485 -0.5185799 -0.0652849
000020 97 c6 bc bd a5 1f 62 bd b8 1b 58 bc 52 b1 fd be
       -0.092175655 -0.05520596 -0.013190202 -0.49549347
000030 31 99 55 be 44 74 5b 3e 18 34 51 3e 6c c7 0c be
       -0.20859219 0.2143107 0.20430028 -0.13747948
000040 2b 39 c1 bc 2e 19 aa 3e 4b f4 89 bd 80 ed 87 bd
       -0.02358683 0.33222336 -0.06736048 -0.066370964
000050 44 74 f7 bc 6b f5 a9 bd 73 ee a6 bd 90 ca e1 bd
       -0.030206807 -0.08298763 -0.08150949 -0.11024964
000060 58 d5 50 be 8a 93 72 be a3 8a 87 bd e9 fe 97 be
       -0.20393884 -0.23689094 -0.0661824 -0.2968667
000070 6d 7e 1f bd 6b 51 12 bd 4c 11 59 bb 13 22 45 3c
       -0.03893893 -0.035722177 -0.0033121882 0.01203205
000080 fd 45 3d 3b fa c6 08 be 61 50 90 bd 1f 56 51 bd
       0.0028880828 -0.13357154 -0.07046581 -0.051107522
000090 df 4c aa bc 01 f3 34 be 37 23 a6 3d b4 08 ed 3e
       -0.020788608 -0.17670824 0.081121854 0.46295702
0000a0 6b 4d 87 be 1e e8 22 bd 05 4e 6a bd 0e e5 3e 3e
       -0.26426253 -0.039772145 -0.05720331 0.18642065
0000b0 3d d3 b9 bd c9 df d2 bc 5a ce 22 bd 36 73 0f be
       -0.09073494 -0.025741475 -0.039747573 -0.14008793
0000c0 9f 09 c0 3d fe 4f 72 bd 1d 13 ca be c5 e3 86 bd
       0.09376835 -0.059158318 -0.39467707 -0.06586412
0000d0 df 19 06 be 6d 1f 8b 3c 7a 18 5b bd 2b f7 35 be
       -0.13095807 0.016982758 -0.05349014 -0.17770068
0000e0 05 6f f3 bc 01 7c b6 bd 26 04 5b 3e 48 23 a2 bc
       -0.029716024 -0.089103706 0.21388301 -0.019792214
0000f0 6b ee 08 be 9c d2 af bc 2d 51 25 3c 9e bd 23 3e
       -0.13372199 -0.021462731 0.010090155 0.15990302
000100 cc 6e fc bb 1c cf b2 be 0f 42 01 be 1a f6 3f bd
       -0.0077036377 -0.34923637 -0.12622856 -0.04686556
000110 30 d0 55 be ec d0 fd bc f0 93 49 bc c0 f3 42 bd
       -0.20880198 -0.03098341 -0.012303337 -0.04759574
000120 78 ae 4a bd b5 e2 de bc 10 ee 71 3d 69 6e 75 bd
       -0.049482793 -0.027207712 0.059064925 -0.05991975
000130 24 ac e6 bd 56 b6 52 be 5c 40 73 bd 34 db f7 bd
       -0.11263302 -0.20577368 -0.05938755 -0.121023566
000140 af b5 b3 bd a0 50 58 bd f8 46 f8 bd 6c 21 8c be
       -0.08774888 -0.052811265 -0.12122911 -0.2736925
000150 02 6c 2a be 0d 6b cd bd ff fc 2c bd 78 e1 39 bd
       -0.16642764 -0.10030184 -0.042233463 -0.04538104
000160 6f 2e bc bd 32 3d 21 3e 94 6d b9 bd 4b 7a f1 3d
       -0.09188544 0.15746 -0.090541035 0.11790904
000170 47 82 db bd 13 7a da bd a0 83 e5 bd f9 d1 a7 bd
       -0.10718208 -0.10667815 -0.11206746 -0.08194346
000180 5d 5f c4 bd 44 ad b4 bd 8a 54 c8 bc af 4d 9c bd
       -0.095885016 -0.0882211 -0.024454374 -0.076320045
000190 f3 25 2a be 4b da 85 bd 2d 7f 64 bd 3f db 89 bd
       -0.16616039 -0.06535777 -0.055785347 -0.06731271
0001a0 67 f3 06 be 78 19 00 be 07 93 60 bd 12 48 b2 bd
       -0.13178788 -0.12509716 -0.054827716 -0.087051526
0001b0 3f 58 eb bd af 40 85 bd db 20 9a bd 9d cc 4d be
       -0.11491441 -0.06506478 -0.07525798 -0.20097585
0001c0 a2 a6 b9 be 94 ef db be f9 30 79 be f7 39 20 bd
       -0.36259943 -0.4295622 -0.24335088 -0.03911778
0001d0 e4 f0 c1 bd 76 08 0c be 8b fc b1 bd ed 18 da bd
       -0.09469774 -0.13675103 -0.08690747 -0.106492855
0001e0 7a 40 8e 3c d0 57 f2 bd 5c d5 eb bd c9 24 01 bd
       0.01736473 -0.11833155 -0.115153044 -0.03152922
0001f0 02 be 1b be 84 36 0b 3d a6 46 0e bd 53 6e 89 be
       -0.15209201 0.033987537 -0.034735344 -0.26841983

graph_matcher.mlp.2.weight f4 [128, 128]
000000 18 b9 f6 3c 3f 9e 17 be a2 15 7d bd 39 93 8f bd
       0.030117556 -0.1480646 -0.06178821 -0.07010502
000010 9a cf 1c 3d 75 db 67 be 48 2c 0d 3c 35 29 83 bd
       0.03828392 -0.2264231 0.0086165145 -0.06404344
000020 48 eb 59 3c d3 12 66 bd 2a 73 9a bd 55 69 3e bd
       0.013300724 -0.056170296 -0.07541497 -0.04648717
000030 16 38 27 3d be ae 8e bd f7 58 cb 3c 38 fe 75 3c
       0.040824972 -0.06966923 0.024822695 0.015014224
000040 08 ab 38 3c 73 e6 3d be d3 0e da bd d0 1f cb bc
       0.011271246 -0.1854494 -0.10647359 -0.024795443
000050 d4 cf 91 3c d6 d1 28 bd 62 2a 2c 3d bc 23 9a bc
       0.017799295 -0.04121574 0.042032607 -0.018815868
000060 7a e6 01 3d bd 1c ad 3d 1e 4e b2 bd e0 d0 0f bc
       0.03171394 0.08452747 -0.08706306 -0.008777827
000070 5c 66 87 bc 26 b1 36 3d 8e dc 8a bd b6 9f 16 bd
       -0.016528301 0.044602536 -0.06780349 -0.036773406
000080 7c 2a 52 3d ce 56 e2 bc 16 35 6d 3d 99 a9 00 bd
       0.051310048 -0.027629282 0.057911955 -0.03141174
000090 18 99 8a bc 79 c5 a5 bd 92 69 e9 bc a1 31 66 be
       -0.016918704 -0.080943055 -0.028492723 -0.2247987
0000a0 3a ce 1e 3d e6 83 54 bd e1 52 19 bd e1 04 57 bd
       0.03877089 -0.0518836 -0.037432555 -0.052494887
0000b0 a2 a9 7b bd fe fb 3f 3d fd 18 d6 b8 38 6d 60 bc
       -0.06144107 0.046871178 -0.000102089696 -0.013697915
0000c0 5a e4 85 be ca dc 66 3d b5 38 2b bd 80 e7 60 3c
       -0.2615078 0.056362905 -0.041802127 0.013727069
0000d0 6a d9 5d bd 79 7a aa bd 6b ee ab bd 72 9d 8c bd
       -0.05416242 -0.08324141 -0.08395084 -0.06865968
0000e0 8c a7 f6 3b 7c 44 e6 bc 63 d4 04 bd ed ff 89 3d
       0.0075272974 -0.028108828 -0.03242911 0.06738267
0000f0 00 7e d7 3a 6d ce 29 bd 22 22 2e bd e7 82 48 bd
       0.0016440749 -0.04145663 -0.04251302 -0.048952963
000100 c0 54 7f bd c2 99 01 3d 03 0f 8c 3d 2e 13 46 3d
       -0.062336683 0.031640776 0.06838801 0.048358135
000110 e8 fe a9 3c 61 b8 08 be 30 e7 8f bc da 94 0c bd
       0.020751432 -0.13351585 -0.017566293 -0.034321643
000120 70 75 9d bc 1e 8c 3c 3d a2 2a 13 be c5 8c 3b bd
       -0.019221038 0.046032064 -0.14371732 -0.045788545
000130 63 fb ac 3d e7 73 1d bd 60 89 a0 bb 5a e0 09 bd
       0.08446386 -0.03844061 -0.004899189 -0.033661224
000140 8b c0 a4 bd a2 7a 4a 3d a0 3a 79 3b 90 e8 19 bd
       -0.08044537 0.049433358 0.0038029328 -0.037575305
000150 4d 83 52 bd e0 7f e2 3b ae 8d 6b 3d d4 a3 88 bc
       -0.05139475 0.0069122165 0.057508163 -0.016679682
000160 f2 f7 79 bd 9a c1 08 be 97 b9 25 bd 9b 8c 5f bd
       -0.061027475 -0.13355103 -0.040460195 -0.05457745
000170 ce 2c f6 bc c3 61 23 bd 75 ab 4d bd b8 65 22 3c
       -0.030050661 -0.039888155 -0.050212342 0.009911947
000180 b4 1b c7 bc fd ec 9a bd fd 20 af bd 55 d7 e6 bd
       -0.024305202 -0.07564733 -0.08551214 -0.1127154
000190 70 6a 90 bc 22 ba 75 3d 28 5d a9 3c 82 30 ae bd
       -0.017628878 0.059991963 0.020674303 -0.08505346
0001a0 0d 8b a9 3d 20 f5 79 bb 06 fb 27 3d 72 fe 6b 3d
       0.08278475 -0.003814049 0.04101088 0.057615705
0001b0 c4 a1 9d bd 97 c8 81 bd 08 60 1d bc 40 93 28 be
       -0.0769687 -0.063370876 -0.009605415 -0.16462421
0001c0 fd 79 89 3d ec 3c 3b be b7 5d 8d 3d be be 74 bd
       0.067127205 -0.18284959 0.0690264 -0.05975222
0001d0 a0 8b 9e bc 0d e5 ad 3d f1 99 00 bd 2f 1d 98 3d
       -0.019353688 0.084909536 -0.03139681 0.07427441
0001e0 30 91 30 be 12 f4 67 3d b9 2c 97 bd 32 fa 9c 3d
       -0.17242885 0.056629248 -0.07381577 0.076649085
0001f0 2e 3a 7c 3d 1b 2e da 3c f2 b0 72 3d 7d d4 8d 3d
       0.061578922 0.026633313 0.05925078 0.069252945
000200 a9 b0 94 3d 84 c0 2a be d8 a8 ac 3e be f1 46 3d
       0.07260258 -0.16675001 0.33722568 0.048570387
000210 fe d6 27 3d d3 ee c5 bd 77 d4 b4 3d b6 96 5c 3d
       0.040976517 -0.09664693 0.08829587 0.053854667
000220 88 f7 43 3c de 72 18 bd 97 3f 8b 3d 3e b5 6e 3d
       0.0119608715 -0.03721892 0.06799238 0.058278315
000230 00 6a dc 39 40 c0 cb 3c 36 63 46 3d 10 89 6a 3d
       0.00042040646 0.024871945 0.04843446 0.05725962
000240 87 e1 ae 3d e6 2f 2f be 20 ed b9 3b 50 36 88 3c
       0.0853911 -0.17108116 0.0056740195 0.01662746
000250 91 65 05 bd 56 c6 0a 3d f8 96 38 bc 80 0e 75 bc
       -0.032567564 0.033880554 -0.0112664625 -0.01495707
000260 3a a2 4d be f7 70 a9 3d e9 d6 21 bd f3 da 96 3d
       -0.20081416 0.082734995 -0.039511595 0.0736598
000270 1c 60 5c be ea f3 8a bd a0 48 ba bc 2a d9 30 bd
       -0.21521038 -0.06784804 -0.022739708 -0.043175854
000280 63 c2 c0 be 4b 02 97 be dc 0b 30 bd 80 b5 44 3b
       -0.37648305 -0.29493937 -0.04298006 0.003001541
000290 e1 46 30 bd a2 94 53 bd 88 13 48 bc 3c 17 cc be
       -0.043036345 -0.05165542 -0.012211688 -0.39861476
0002a0 f8 83 07 bc 9b 35 8b 3d d0 4a 44 3c 43 9b 97 bd
       -0.00827121 0.06797334 0.011980727 -0.07402661
0002b0 cd 15 00 bd c2 db 7f 3d 42 98 45 3d e9 b6 88 3d
       -0.03127079 0.062465437 0.048240907 0.06675512
0002c0 17 63 d9 bd 30 c0 b7 bb 6f e1 85 3d 20 29 7a 3c
       -0.10614603 -0.0056076273 0.06537139 0.015268594
0002d0 6f bf 49 bd c0 92 0a bd 33 c0 81 3d 00 a6 38 3c
       -0.04925483 -0.033831358 0.06335487 0.011270046
0002e0 be e3 14 be a3 50 95 3d c2 71 a9 bd bd 0e a6 bd
       -0.14540002 0.07290771 -0.08273651 -0.0810828
0002f0 8a 9d ad bd 23 fe 9e 3d 3a 48 f6 bc a5 8e af 3d
       -0.08477314 0.077633165 -0.030063737 0.08572129
000300 f0 68 df 3c c8 6f c0 bd 88 56 c3 3c 3e de 47 3d
       0.027271718 -0.093963206 0.023844972 0.04879593
000310 8e 4c 39 bd 78 4f eb bd 52 78 e3 bc 38 96 79 bc
       -0.045239024 -0.11489767 -0.027767334 -0.015233569
000320 09 4e 89 bd e9 15 b3 3d ec b0 93 bd 64 86 77 bd
       -0.06704337 0.087444134 -0.072114795 -0.0604309
000330 ca dd fc bc 71 ea 02 bd d6 1e 7a bd db d7 a3 bd
       -0.030867476 -0.031961862 -0.061064564 -0.080001555
000340 f6 2c e4 bc 79 c6 ac 3d 80 95 67 bc c8 df c2 bc
       -0.02785347 0.08436293 -0.014134765 -0.023788348
000350 7e 3a 23 3d 43 dd 49 bd dc 4d 8d bd 95 37 97 3d
       0.039850704 -0.049283277 -0.06899616 0.07383648
000360 46 81 35 3d ee 17 5d 3d ce e1 1b 3d 4d d0 b2 3d
       0.044312738 0.0539779 0.03805714 0.087311365
000370 24 9a 9b bd f5 98 92 bd 44 9e db 3c 85 2e 8b bd
       -0.07597759 -0.071580805 0.026808865 -0.06795982
000380 8c 6f 85 3c e8 a5 94 bd 84 79 89 bd a6 09 b3 bd
       0.016288541 -0.072582066 -0.067126304 -0.08742075
000390 73 ba 82 be 96 bc e5 bc 41 ee a4 3d 3e 7e 8d bd
       -0.25532874 -0.028044026 0.08053256 -0.069088444
0003a0 4c 89 ab bd 85 72 c7 3c 06 d2 5c 3e b7 d0 95 3d
       -0.08375797 0.0243466 0.21564493 0.073152
0003b0 7c b2 ce bc a1 ff a7 3d 0c 34 f3 bd 4f 55 a3 bd
       -0.025231592 0.08203054 -0.118751615 -0.07975256
0003c0 4a b1 48 3d 15 5e 5b be 3c a1 9d bc 7b ff 5c bd
       0.0489972 -0.21422608 -0.019241922 -0.053954583
0003d0 fc 88 b0 3c e3 b9 60 bd 55 b1 ad bd 00 16 0b bb
       0.021549694 -0.054864775 -0.08481089 -0.002122283
0003e0 07 e0 38 be 8a 8c 07 3d 39 98 8d 3d e7 ec 3b 3e
       -0.1805421 0.033093013 0.069138 0.1835209
0003f0 05 15 88 3d 83 5a af 3d 28 4f c9 3c 3f d1 39 3e
       0.06644634 0.085621856 0.024573877 0.18146227

graph_matcher.mlp.2.bias f4 [128]
000000 31 81 a4 be 3d 69 ee be b5 10 9a bd 33 1e 30 be
       -0.32129815 -0.46564665 -0.07522718 -0.1719902
000010 55 e8 3a be 7d 4a a2 3d ea 29 cb bd c4 4e 20 3e
       -0.1825269 0.07924364 -0.09920104 0.15655047
000020 53 b9 b7 be c5 65 80 be 78 2d 42 bd 17 ea 8c 3e
       -0.3588358 -0.25077644 -0.047406644 0.27522346
000030 3f b4 1c be 7f e2 ba bd 03 7f 4f bd ea f8 70 bd
       -0.15303133 -0.09125232 -0.050658237 -0.058831133
000040 d4 4e 62 be ee 63 5d be a2 2c d8 3d 15 ee 3b be
       -0.22100383 -0.21620151 0.10555388 -0.1835254
000050 f8 a3 8a be ca 13 94 3d c6 d9 87 3d 7d 11 e5 be
       -0.27078223 0.07230337 0.06633334 -0.44739905
000060 f9 6c 09 be 39 b9 d0 3d dc 6a 1c 3e da 5d 6a bd
       -0.13420476 0.101915784 0.15275139 -0.05721841
000070 99 b4 75 bc d7 df 0c be 3e c4 f2 bc 4d 19 a7 bb
       -0.014996671 -0.13757263 -0.029634591 -0.0050994516
000080 bc 1c 84 be e0 6b 2d be 13 16 17 bf 85 84 ee bd
       -0.25803173 -0.16935682 -0.5901806 -0.1164637
000090 6f 88 62 3d 65 c6 6e bd 9a af 8e bd e5 d6 01 bd
       0.055305894 -0.058294673 -0.06967087 -0.03169908
0000a0 96 7e a5 be d2 79 82 bd d2 d5 71 bd fd 88 b9 be
       -0.3232314 -0.06370892 -0.059041806 -0.36237326
0000b0 2c 7a 04 be 91 78 25 be 7c eb c2 bd c2 37 9a bc
       -0.1293723 -0.16159274 -0.09517571 -0.018825416
0000c0 57 9a 49 3d 7e 60 68 be 6a af a7 bd 2d e8 9a be
       0.049219456 -0.22693059 -0.081877545 -0.3025526
0000d0 85 d9 81 bc 44 a9 92 be 72 30 4e bd b7 3c ae 3d
       -0.015850792 -0.28644764 -0.05033917 0.08507674
0000e0 b2 a9 98 bd 83 6d b5 3d e8 38 1b be fc 65 42 bc
       -0.07454242 0.08858778 -0.15158427 -0.011865135
0000f0 75 0d 96 bd 1f a6 94 be 1f ce 07 be 1c bc 47 bc
       -0.073267855 -0.2903299 -0.13262223 -0.012190845
000100 56 ec 55 be 00 65 d5 bc e0 3a aa 3d 53 b1 4e bc
       -0.20890936 -0.026049137 0.08312011 -0.01261552
000110 92 a1 2b bd 67 17 9d bd 24 cc 46 be 6f a0 79 bd
       -0.041902132 -0.07670479 -0.19413811 -0.060944017
000120 11 13 d3 be f2 44 3f 3e 75 f2 a1 bd 61 c8 28 be
       -0.41225484 0.18678644 -0.07907573 -0.16482688
000130 70 8e 8f bd fa c0 82 bd c8 53 2a 3e c6 04 c6 3d
       -0.0700959 -0.063844636 0.16633523 0.09668879
000140 96 45 03 bd cc 2e 0f 3e 81 7b 97 bd 4d 4c 49 bd
       -0.032048784 0.13982695 -0.073966034 -0.04914503
000150 30 1e 21 3e 29 24 d6 be f5 1e 9b bd 06 2c 7d be
       0.15734172 -0.41824463 -0.07574264 -0.24723825
000160 66 89 6b be 16 8c e4 3d ac f4 76 be a6 c2 66 bd
       -0.23001632 0.11159532 -0.24116772 -0.056337975
000170 d7 a8 02 be 2c d4 a3 bd 12 fc 72 be b8 6a 9c bc
       -0.1275972 -0.07999453 -0.2372897 -0.019093856
000180 e3 dc eb be 4e 25 5a 3e 0d 10 4c 3d 34 f5 cf 3d
       -0.4606696 0.21303293 0.049819995 0.10154191
000190 2e c8 3f be 18 6a 65 bc a1 9e b8 3d f5 50 24 3e
       -0.18728706 -0.0140023455 0.09014631 0.16046508
0001a0 f8 f8 9a bd 61 8f a4 3d b2 19 db bc 51 c2 65 bd
       -0.07567018 0.0803516 -0.02674565 -0.056093518
0001b0 cb d3 12 be 09 77 dd bd f8 1d 41 be 36 37 41 be
       -0.14338605 -0.1081372 -0.18859088 -0.18868718
0001c0 46 7f 6c bd 03 3d bb be d6 b8 46 be f2 2d 7e bd
       -0.057738565 -0.36569986 -0.19406447 -0.062055536
0001d0 bd 50 78 be 43 30 7a be 4e 3d 2b bb 58 66 e3 be
       -0.24249549 -0.24432473 -0.002612907 -0.4441402
0001e0 7a b0 df bd 96 0c de 3d f0 44 17 3d e8 3b ba bd
       -0.10922332 0.10842244 0.03693098 -0.090934575
0001f0 e3 4e ca bb 7e 17 b6 bd 86 14 5b 3d 46 61 cd 3c
       -0.006173955 -0.088911995 0.05348637 0.025070798

graph_matcher.mlp.4.weight f4 [64, 128]
000000 96 e3 c2 bd 97 58 86 3e c0 76 ac 3d d7 17 8c 3d
       -0.09516065 0.26239464 0.08421087 0.068404846
000010 05 bd e9 3d 56 f2 38 3d e6 b1 f4 3d f1 28 e1 bd
       0.11413006 0.045152985 0.11947994 -0.10994137
000020 42 56 c8 bb 15 1d 0d 3e 6f 18 02 bb 51 08 e9 3d
       -0.0061137984 0.13780625 -0.001985099 0.11378539
000030 fc 2e de 3d 84 8b ab bd 4a fb c9 3c c2 cb c6 bc
       0.10848805 -0.0837622 0.024655957 -0.024267081
000040 a9 d8 49 3e 3b 94 a2 bd 0f 91 0f 3e 09 f0 07 3e
       0.19711556 -0.07938429 0.14020179 0.1327516
000050 44 21 7d 3e fb a0 5f 3d 56 a7 72 be 45 06 3d 3d
       0.24719721 0.054596882 -0.23696646 0.046148557
000060 c1 ba 38 3d f8 9b 38 3e 92 76 4f 3d 0d ce 49 3c
       0.045099977 0.18028247 0.050650187 0.012317193
000070 05 24 89 3c 97 b0 44 bd d1 54 b0 be d5 92 37 bc
       0.016740808 -0.04801997 -0.3443971 -0.011204441
000080 af ba cb bc 03 e7 e1 bd b8 92 07 3e 4c 5f 9c 3d
       -0.024869291 -0.1103039 0.13239563 0.07635364
000090 d1 a2 19 bd ac 5a c1 3d 25 31 39 bc d6 00 26 bd
       -0.03750879 0.094411224 -0.011303221 -0.04052814
0000a0 91 b2 c8 bc 53 5e e3 bc b8 33 11 3e 59 a3 23 3d
       -0.02449921 -0.027754938 0.14179885 0.039950702
0000b0 3c a1 2a bd 69 81 df 3e dd b6 9e ba ad bb c6 bd
       -0.04165767 0.4365342 -0.0012108941 -0.09703765
0000c0 ae 7a 8e bb 04 b2 5b bd 8a 58 a1 3c fd e5 be 3e
       -0.0043481207 -0.053636566 0.019695539 0.37284842
0000d0 ab 9e 87 bc 3a b0 8d be ea 5f ef 3c dd f6 b6 3c
       -0.016555151 -0.27673513 0.02922054 0.02233451
0000e0 d1 e8 e0 3d 74 c2 0f be 24 33 93 3d 1e 83 23 3a
       0.10981906 -0.14039022 0.07187489 0.00062374945
0000f0 e6 e4 d9 3d 3f 5c dd 3d 79 27 4d be 03 d2 2c bd
       0.10639362 0.1080861 -0.20034589 -0.04219247
000100 ca e5 a8 3e 59 f4 83 bc 94 c9 7f 3c 90 97 5c 3c
       0.32987815 -0.016107725 0.015612025 0.01346387
000110 07 0c c6 be 48 0d 56 bb 41 5f 76 3d 95 2b 8a bd
       -0.3868105 -0.0032661725 0.060149435 -0.06746594
000120 0a 8c 14 3e 37 84 f0 bd d4 2b ca 3d a1 f9 86 3b
       0.14506546 -0.11743968 0.09871641 0.0041191136
000130 18 28 19 3e b9 16 4e bd ec c0 bb bd 84 b6 1b bd
       0.14956701 -0.05031464 -0.09167656 -0.038015857
000140 4e a3 46 3d 0a ce 8b 3c bc 22 a7 bc da 04 4f 3c
       0.048495583 0.01706602 -0.020402305 0.012635434
000150 83 9a de bb d5 ee 13 be c9 dd ac 3d 40 fc 32 be
       -0.0067933216 -0.14446576 0.0844074 -0.17479038
000160 08 82 23 3d 32 19 8e 3d 6c fb 0d 3e 06 1a 09 3c
       0.03991893 0.069383994 0.13865441 0.008368021
000170 2d a0 f4 bc 37 b0 cf bb 26 08 f2 3d 38 2f 9c bd
       -0.029861534 -0.006338145 0.118179604 -0.07626194
000180 8b fa c1 bd de e8 8b 3e 86 b6 63 be 91 10 98 3d
       -0.094716154 0.273261 -0.22237596 0.07425035
000190 45 db ca bd f4 55 37 3e 9b 94 fe be 7a bf 5e 3e
       -0.099051036 0.17903882 -0.49722752 0.2175273
0001a0 05 53 ca 3c f1 1d 24 bc 58 67 5c bb b9 7e 4b 3d
       0.02469779 -0.010016904 -0.0033630934 0.0496814
0001b0 93 83 70 3e 21 82 54 bd 94 1e 28 be 49 f5 d8 bd
       0.23487692 -0.051881913 -0.16417915 -0.105936594
0001c0 45 e4 07 be 37 fd 5e 3e 8b a5 23 3e bf db b6 3d
       -0.13270672 0.21776281 0.15981118 0.08928632
0001d0 d0 21 ae 3d 1f ac 1d be 83 36 94 bd a9 b1 6e bd
       0.08502543 -0.1539769 -0.0723696 -0.0582749
0001e0 98 e2 6b be 1f 22 32 bd 90 10 75 3d a2 82 46 3e
       -0.23035657 -0.04348957 0.05983025 0.1938577
0001f0 2d 0b ae 3d 93 d5 89 bc f5 ce e4 bd b0 77 97 bd
       0.08498225 -0.016825473 -0.111722864 -0.073958755
000200 38 73 93 be e6 f9 c9 bd cc dc fe 3c e6 06 2a be
       -0.28798842 -0.098621175 0.031111144 -0.16604194
000210 36 be 4f bd 4c dd 90 3d d2 49 3e bd 2b b4 39 3e
       -0.05071851 0.07073459 -0.04645712 0.18135135
000220 e2 c7 99 be 1d 70 c8 3d 7d d0 c2 3d 06 16 35 be
       -0.3003531 0.09787009 0.09512422 -0.17684183
000230 22 53 17 3e 12 3e d1 bd c0 1e d1 3c 50 03 0a 3d
       0.14777806 -0.10216917 0.025527358 0.033694565
000240 ae ff 1a 3e 17 2e 8e be f4 b8 9f 3d d1 35 60 3e
       0.15136597 -0.2776954 0.07798949 0.2189553
000250 f2 b9 4d 3e 6f 0c 90 3d 71 6b 5e 3d a1 7d 39 3c
       0.20090464 0.070336215 0.054301683 0.011321456
000260 74 94 81 3d 49 b5 52 3e a4 34 37 3e 7b 68 18 3d
       0.06327143 0.20576967 0.17891175 0.037209015
000270 6a 86 10 bd 59 a2 72 3d a8 7f e2 bd 44 86 8c 3d
       -0.035284437 0.059236858 -0.11059505 0.06861547
000280 a7 36 0d be c5 cb 91 3d b6 18 a8 bb 27 f3 d9 3d
       -0.1379038 0.07118944 -0.005129899 0.10642081
000290 0a 49 34 bd 09 7e 2b 39 a7 70 6e 3d ad ef 1c 3d
       -0.044014968 0.00016354783 0.058212902 0.03831451
0002a0 5b c6 d6 bd 9e 5b 8b 3d 09 6a 49 3d 53 95 b3 3d
       -0.10487052 0.06804584 0.04917339 0.08768716
0002b0 d7 da 62 3c 54 ec 1d 3f 41 c0 cc bb e2 71 39 3c
       0.013846121 0.61688733 -0.0062485044 0.011318656
0002c0 73 62 ce bd b3 14 45 bd 98 1f 29 3d d3 93 83 3e
       -0.100773714 -0.048115443 0.041289896 0.25698718
0002d0 21 6e 11 3d 1b 15 f0 bd 41 af a0 3d 25 d0 af 3d
       0.035505418 -0.117227755 0.07845927 0.08584622
0002e0 a9 87 16 3d 1a 4a fa 3d 90 e0 36 3c fa 81 45 3d
       0.03675047 0.12221165 0.011161938 0.04821966
0002f0 50 41 80 3d 99 09 8a 3e f7 64 fe bd 65 ef 73 3d
       0.06262457 0.26960447 -0.12421601 0.059554476
000300 4f 56 c0 3d 29 ae d0 3d 12 e3 ee 3d 90 d0 30 3d
       0.09391462 0.101894684 0.11664404 0.04316765
000310 85 3b d1 bc d7 2d 38 3d af c8 fc bd 2b a6 a7 3d
       -0.025541076 0.04496559 -0.12342965 0.08185991
000320 bf e2 6d be b9 da 4e 3e 1d 9d 27 3e 6f e9 c0 bd
       -0.23231028 0.20200624 0.16368528 -0.09419524
000330 43 8d 7d 3c 3a 09 d8 3d 19 22 f0 bc a2 1b 00 3e
       0.015475574 0.10548635 -0.029313134 0.12510541
000340 ae c8 30 3e 16 df 68 bd e3 0d 2e 3d 95 c7 8b 3c
       0.17264053 -0.056853376 0.042493712 0.017062942
000350 54 68 69 3e 52 6a eb 3d 89 19 70 3c d6 58 38 be
       0.22793704 0.11494888 0.014654526 -0.18002638
000360 0a 8d 05 bd 69 b7 a2 3d 24 1b 42 3e 2a 53 3f 3e
       -0.03260521 0.07945139 0.18955666 0.18684068
000370 73 50 e6 3d 6c 3e 53 bd 14 73 2b 3d 23 83 a5 bd
       0.11245813 -0.051573202 0.041857794 -0.08081653
000380 78 97 fb bd fa bd 8b 3e ee 47 06 3d ad d1 92 3d
       -0.1228475 0.27293378 0.03278344 0.07168899
000390 5e 3c 10 be f9 e1 35 3e bf 35 78 3d 3f d1 21 3e
       -0.14085528 0.17761983 0.06059813 0.15802477
0003a0 81 15 21 3d 84 f5 b1 3d 14 b2 85 3d d8 8f 8a 3d
       0.03932715 0.086894065 0.06528106 0.06765717
0003b0 c0 81 42 be 5f 12 0d 3e 6f c1 0d be ef 95 5b be
       -0.18994808 0.1377654 -0.1384332 -0.21443914
0003c0 e3 d7 9f bd 70 01 44 3e 61 52 ba bc f9 74 0f 3e
       -0.07804849 0.19141173 -0.02274436 0.14009465
0003d0 86 7c 10 3e 7b 86 46 3c 7b f1 5e bd a0 f1 1f bd
       0.14110002 0.012117024 -0.054429512 -0.03904879
0003e0 72 da 38 be ab 32 32 3d 5c f5 b0 3d 43 a6 a2 bc
       -0.1805208 0.043505352 0.086405486 -0.01985467
0003f0 14 ee 7f bc a8 f6 e9 3d 24 83 35 bd a6 8a 7e 3d
       -0.015620727 0.11423999 -0.04431452 0.062143944

graph_matcher.mlp.4.bias f4 [64]
000000 4a 0a ba 3d 16 39 5c be f5 80 1f 3e b3 e2 dc 3d
       0.09083994 -0.21506152 0.15576537 0.10785427
000010 fe b6 29 3e 87 8d 8e be 69 c8 45 3e 98 c2 72 bd
       0.16573712 -0.27842352 0.19314732 -0.05926761
000020 80 e5 06 3c 7f 14 8b bd 1e df 30 3e 67 ab 96 3d
       0.008233428 -0.06791019 0.17272612 0.07356911
000030 0b 19 56 3d 57 36 6c be 00 44 d2 3d a8 73 8a 3d
       0.052269977 -0.23067604 0.10266876 0.06760341
000040 50 f8 1b 3e 1b 9d 45 3d 82 3a 37 3e d0 7d 2c bd
       0.15231442 0.04824553 0.17893413 -0.04211217
000050 e8 3f 6e be 37 a0 0c be 2f cc 97 3e 9d 18 98 3d
       -0.23266566 -0.13732992 0.29647967 0.074265696
000060 44 ff 01 be ba 44 7b 3e 3a db ac 3d f5 fc 90 3e
       -0.12695032 0.24537936 0.08440252 0.2831799
000070 3b 7a 53 3d be f3 e2 3d 1e c9 79 be a7 d5 99 3c
       0.05163024 0.110816464 -0.24393126 0.018778635
000080 70 86 db bd d2 b3 b4 bc 16 eb c3 3d 4a 94 ed bd
       -0.10719001 -0.022058401 0.095663235 -0.116005495
000090 f6 d2 c7 3d 2c 73 85 3d 32 2a 8a 3d a8 a8 1b 3e
       0.097570345 0.06516108 0.06746329 0.15201056
0000a0 e6 3a e1 3d 10 d0 8e 3e 3c a6 2c bd 66 74 cf 3d
       0.10997562 0.27893114 -0.04215072 0.10129623
0000b0 3b 6e 0d 3e da 11 0c 3d a3 40 a3 be 43 eb 8a bd
       0.13811581 0.034196712 -0.3188525 -0.06783154
0000c0 72 84 ae 3e dd 4a 4d 3e 31 a3 1c be 35 71 f7 3c
       0.34085423 0.2004809 -0.15296628 0.030205349
0000d0 3b 53 35 3e 21 a2 c1 3d 64 e8 86 3d 09 2a 20 3e
       0.17707531 0.09454752 0.06587294 0.15641035
0000e0 55 8f 08 bd dd 9e dc 3d 4d ab 90 3d ce e3 8e 3d
       -0.033339817 0.10772488 0.07063923 0.06977044
0000f0 86 b1 3f bd 1b 3c 21 3e 71 a6 ba 3d d9 9c 88 bd
       -0.04680016 0.15745585 0.091137774 -0.06670541
