Result/GCN/5000_sample/model_epoch_79_f1_0.7202.pth (torch, 841514 bytes, 42 tensors)

graph_matcher.gnn.conv1.bias f4 [64]
0	0x3d45d2a5	0.04829659
1	0xbd8f1d5f	-0.06988024
2	0xbe032820	-0.12808275
3	0x3cf1e71f	0.029529152
4	0xbbed9595	-0.0072504976
5	0x3e1dba90	0.15403199
6	0xbd075b1e	-0.03304588
7	0x3e038e9b	0.12847368
8	0x3c309521	0.010777743
9	0xbd8ee635	-0.06977502
10	0x3aa24815	0.0012381101
11	0x3c3cf272	0.011532413
12	0x3d96ad20	0.0735724
13	0x3de4474f	0.111464135
14	0xbc18e86c	-0.009332757
15	0xbdba032b	-0.090826355
16	0x3e273194	0.16327506
17	0x3da96a13	0.08272185
18	0x00000000	0.0
19	0xbd87d04a	-0.06631525
20	0x3d077939	0.03307459
21	0x3deb7349	0.11496598
22	0xbe2982ae	-0.16553757
23	0xbe1b0f46	-0.15142545
24	0x3cdfa494	0.027300157
25	0xbc133f32	-0.008987235
26	0x3e0613ce	0.13093492
27	0x3d9800ac	0.07422003
28	0x3cffa491	0.031206401
29	0x3d95592d	0.072923996
30	0xbe1effe6	-0.15527305
31	0xbcda3e72	-0.026641104
32	0xbd14ad7a	-0.036298253
33	0xbe685e35	-0.22692187
34	0x3a008482	0.00049025577
35	0x3e5f961a	0.21834603
36	0x3cef0a28	0.029179648
37	0xbde7e759	-0.11323423
38	0xbe66fb68	-0.22556841
39	0xbdf10963	-0.117693685
40	0xbdb7fee3	-0.08984163
41	0x3e03d27f	0.12873267
42	0xbcfdab30	-0.030965418
43	0x3df6c3a0	0.12049031
44	0x3d483c3f	0.04888558
45	0xbdb45986	-0.08806138
46	0xbcb37309	-0.021905439
47	0x3c8d9cda	0.017286707
48	0xbd755f03	-0.059905063
49	0x3d262266	0.04056015
50	0xbd87b75c	-0.0662677
51	0x3d492044	0.049103037
52	0x3e00ab6d	0.12565394
53	0x3d050620	0.032476544
54	0xbe044fdd	-0.1292109
55	0x3e64b9d6	0.22336516
56	0xbb81e64d	-0.0039642216
57	0x3d2ca98a	0.042153873
58	0x3dbbab93	0.091635846
59	0xbd889963	-0.06669881
60	0x3da3a30c	0.07990083
61	0x3e2e7b50	0.17039227
62	0xbdb6e58f	-0.089305036
63	0x3da9e32a	0.08295281

graph_matcher.gnn.conv1.lin.weight f4 [64, 4]
0	0x3ea34221	0.3188639
1	0xbf3a413b	-0.72755784
2	0xbf267887	-0.6502766
3	0x3e80580b	0.2506717
4	0xbe5194f0	-0.20466971
5	0xbdefef8e	-0.11715613
6	0x3d355b79	0.04427669
7	0xbe0b8cba	-0.13627902
8	0x3f81c87b	1.0139307
9	0xbf9a75ea	-1.2067235
10	0xbf82e4ce	-1.0226076
11	0xbe23d022	-0.15997365
12	0xbf4a44a4	-0.7901099
13	0x3f369d67	0.71333927
14	0xbe17422c	-0.14771336
15	0x3e7fc7c0	0.24978542
16	0x3e7cb28a	0.24677482
17	0x3e34d031	0.17657544
18	0x3f7befd1	0.98412806
19	0xbe81d764	-0.25359643
20	0xbdf7b3f0	-0.12094867
21	0x3f892d39	1.0716926
22	0xbfc00fa9	-1.5004779
23	0xbecdf77f	-0.40227887
24	0x3ed591e7	0.41712877
25	0x3ddceae7	0.107869916
26	0x3f8a9d0b	1.0829176
27	0xbec4adfb	-0.38413987
28	0x3c48fb1c	0.0122669
29	0x3e1186e9	0.1421162
30	0x3f6541c6	0.8955349
31	0xbf1a2bb9	-0.60222965
32	0x3e8332d6	0.25624722
33	0x3e0ffed1	0.14062048
34	0x3f82cb5c	1.021831
35	0xbec4711a	-0.3836754
36	0xbe1a4edf	-0.1506915
37	0x3a8bbb12	0.001066061
38	0xbdeec432	-0.11658515
39	0x3c4ef2ee	0.012631161
40	0x3e397db5	0.1811436
41	0xbfa05717	-1.2526578
42	0x3f884188	1.0644999
43	0xbe88753c	-0.26651943
44	0x3ea3c730	0.31987906
45	0xbf0058b2	-0.5013534
46	0x3f8efd5a	1.1171067
47	0x3bc85453	0.006113568
48	0x3e01dfcd	0.1268303
49	0xbd5962e7	-0.053072836
50	0x3f8db2b0	1.1070156
51	0xbebd543c	-0.36978328
52	0x3db8a6d1	0.09016193
53	0x3eca7d38	0.3954866
54	0x3f6fd8e0	0.936903
55	0xbed2767e	-0.41106027
56	0x3e507bc7	0.20359717
57	0x3c7d9d8f	0.015479459
58	0x3f855f77	1.0419759
59	0xbe786c22	-0.2426
60	0xbdde7a1e	-0.10863136
61	0xbd57a889	-0.052650962
62	0xbd5399aa	-0.051660217
63	0xbbfacdba	-0.007653919
64	0x3e25d6a7	0.16195165
65	0x3e98c0a6	0.2983448
66	0x3f71e443	0.94488925
67	0xbe850df8	-0.2598722
68	0x3e87ebe6	0.26547164
69	0xbd8dfa16	-0.06932466
70	0x3f2f59a1	0.6849614
71	0xbe533773	-0.20626621
72	0xbdbefdce	-0.09325753
73	0xbd9784ce	-0.07398377
74	0xbd23f5e8	-0.040029436
75	0xbe710aba	-0.23539248
76	0x3f8326a7	1.0246171
77	0xbfb966f1	-1.448454
78	0xbf96a843	-1.1770099
79	0xbda07abd	-0.078359105
80	0x3e18e328	0.14930403
81	0x3f1a2cd2	0.6022464
82	0x3f40a997	0.75258774
83	0xbe9864e9	-0.29764488
84	0xbf3f5413	-0.7473766
85	0x3e1539b8	0.14572799
86	0xbe3546e1	-0.1770282
87	0x3e695dc0	0.22789669
88	0xbdd8897e	-0.105730996
89	0x3cb48ec8	0.02204074
90	0xbc473224	-0.012157951
91	0x3cdefb0c	0.027219318
92	0xbeaa4578	-0.33256125
93	0x3e0d788b	0.13815515
94	0xbea6364a	-0.32463294
95	0x3dca5c54	0.098808914
96	0xbf888492	-1.0665457
97	0x3f72ef98	0.9489684
98	0xbec330fe	-0.38123316
99	0x3e3e8562	0.18605569
100	0xbf8908a5	-1.0705763
101	0x3f61962c	0.8811977
102	0x3e55d682	0.2088261
103	0xbe0d68c1	-0.13809492
104	0xbfba40cf	-1.4551028
105	0x3f889338	1.0669928
106	0x3f8da2e8	1.106534
107	0xbf8f1010	-1.1176777
108	0x3c901d02	0.017591957
109	0x3f09ec37	0.5387606
110	0x3f50158f	0.81282896
111	0xbe99c4d3	-0.30032977
112	0xbf09ac9c	-0.53779006
113	0xbf1e787e	-0.61902606
114	0xbf071166	-0.5276092
115	0x3eaf2a82	0.34212118
116	0x3e412dc5	0.18865116
117	0x3efce1ba	0.49390966
118	0x3f75de9b	0.96042794
119	0xbe96f2bd	-0.2948207
120	0xbdd8d680	-0.10587788
121	0x3cb411e2	0.021981183
122	0xbeaeedcf	-0.3416581
123	0x3dcfc18f	0.1014434
124	0x3bdd181c	0.006747259
125	0x3f7c3263	0.98514384
126	0xbfaa3b98	-1.3299437
127	0xbf8499b8	-1.0359411
128	0xbf09678e	-0.53673637
129	0xbe8490bf	-0.25891683
130	0xbf047b38	-0.51750517
131	0x3e93607b	0.28784546
132	0xbe4e6f18	-0.20159566
133	0x3e288db2	0.16460302
134	0xbda7e6f9	-0.081983514
135	0x3d6e3d55	0.05816396
136	0x3e717400	0.23579407
137	0x3c0fee23	0.008784804
138	0x3f8fdab3	1.1238617
139	0xbeaf334d	-0.34218827
140	0xbfccf225	-1.6011397
141	0x3f5c7635	0.8611787
142	0x3f53a40e	0.826722
143	0xbf4bcfba	-0.7961384
144	0xbf1f8e32	-0.6232635
145	0xbf2d860b	-0.6778266
146	0xbe695fd2	-0.22790459
147	0x3eca485b	0.39508328
148	0xbe931fe9	-0.28735283
149	0xbb9986d7	-0.0046852636
150	0xbe4958ed	-0.19662829
151	0x3da0b2fc	0.078466386
152	0xbec05f2e	-0.37572616
153	0x3dc35ce5	0.095392026
154	0xbe3051bb	-0.17218678
155	0x3d54918f	0.051896628
156	0x3b919ec9	0.0044439775
157	0xbf7b1d84	-0.9809191
158	0x3f8b0efe	1.086395
159	0xbe4f459e	-0.202414
160	0xbe81b69d	-0.25334635
161	0x3d13126e	0.035906248
162	0xbe866c7b	-0.2625464
163	0xbe4eefc9	-0.20208658
164	0x3de476d5	0.11155478
165	0x3ed47a22	0.4149943
166	0x3f5ac83b	0.8546178
167	0xbea99f5d	-0.33129397
168	0x3eeb5df0	0.45970106
169	0xbce90a05	-0.02844716
170	0x3f83bbe9	1.0291721
171	0xbe7a8582	-0.24464992
172	0x3ddbbbdb	0.1072919
173	0xbe966a99	-0.29378203
174	0x3f9103c5	1.1329275
175	0xbe960358	-0.29299426
176	0x3e80736e	0.25088066
177	0x3f196400	0.5991821
178	0x3f58af50	0.84642506
179	0xbf61c92a	-0.88197577
180	0x3f313655	0.6922353
181	0x3e0f0c79	0.13969602
182	0x3f48be59	0.7841545
183	0xbe29f3e7	-0.16596948
184	0x3ec20938	0.37897658
185	0x3b93c1af	0.004509173
186	0x3f90bb71	1.1307203
187	0xbde5be2d	-0.11217914
188	0xbf2a5d40	-0.6654854
189	0xbdfcbf7a	-0.12341209
190	0xbf0244c8	-0.508862
191	0x3ec365b8	0.38163543
192	0xbe7dba50	-0.24778104
193	0xbe91a420	-0.2844553
194	0xbd543954	-0.051812485
195	0xbd418611	-0.047246996
196	0xbefa85fe	-0.48930353
197	0xbf1ca246	-0.6118511
198	0xbeef1fe8	-0.4670403
199	0x3e8f41b7	0.27979824
200	0x3e9b33e7	0.30313036
201	0x3dfed9b8	0.1244387
202	0x3f60e65d	0.87851506
203	0xbe801cb2	-0.25021893
204	0xbf3f7aef	-0.74796957
205	0x3f26ab37	0.65105003
206	0xbebb06db	-0.36528668
207	0x3dc087ee	0.094009265
208	0x3e921950	0.28534937
209	0xbda58270	-0.080815196
210	0x3f91bac3	1.138512
211	0xbe924e13	-0.2857519
212	0x3ec5dee4	0.38646615
213	0x3ea37b07	0.319298
214	0x3f7dc04d	0.9912155
215	0xbf0a3a4d	-0.5399521
216	0x3cdf5b52	0.027265225
217	0xbd36acce	-0.044598393
218	0xbdc5d31c	-0.096594065
219	0xbd470788	-0.048591167
220	0x3d13e75d	0.036109317
221	0x3e6cf9da	0.23142186
222	0x3f83abc8	1.0286798
223	0xbe776d32	-0.24162748
224	0xbf12c610	-0.5733347
225	0xbf0d8c3c	-0.55292106
226	0xbd3b3218	-0.04570207
227	0x3ec0deab	0.37669882
228	0x3e3c3782	0.1838055
229	0x3ea49052	0.32141358
230	0x3f47f677	0.7811045
231	0xbe9de3a9	-0.30837753
232	0x3e44b87d	0.19211002
233	0x3f09b2bf	0.5378837
234	0x3f361ddb	0.71139306
235	0xbe6533a5	-0.22382982
236	0x3f0517b4	0.51989293
237	0x3d5af7f0	0.053459108
238	0x3f5e640f	0.8687143
239	0xbe759bbb	-0.23985188
240	0xbf837fe9	-1.027341
241	0x3f4af7ac	0.7928417
242	0xbea3af9a	-0.3196991
243	0x3e0ff306	0.1405755
244	0xbfc96380	-1.573349
245	0x3f405053	0.75122565
246	0x3f44bf84	0.7685473
247	0xbf1ef41e	-0.62091243
248	0x3f31f822	0.69519246
249	0x3d5aeea1	0.05345023
250	0x3f823a6a	1.0174077
251	0xbe3238aa	-0.17404428
252	0xbf998e37	-1.1996526
253	0x3f129920	0.572649
254	0x3f6b0a29	0.9181238
255	0xbe2e6438	-0.17030418

graph_matcher.gnn.conv2.bias f4 [128]
0	0x3e553605	0.20821388
1	0xbe0b97e3	-0.13632159
2	0xbe7ed15e	-0.24884555
3	0xbd9cae0d	-0.07650385
4	0xbdc7f2cf	-0.09763109
5	0xbde81ef3	-0.11334028
6	0xbd9f6ba0	-0.077842
7	0xbdfe521d	-0.124180056
8	0xbe5e5dbc	-0.21715444
9	0xbd917823	-0.071029924
10	0xbdb43e7b	-0.0880098
11	0xbd9969a0	-0.074908495
12	0xbd9e14fc	-0.07718846
13	0xbd57f3cd	-0.05272274
14	0xbd88bf1b	-0.066770755
15	0xbd6855e9	-0.056722555
16	0xbdc46110	-0.09588826
17	0xbe0085eb	-0.12551086
18	0x3deb3e95	0.11486546
19	0xbea41ad1	-0.3205171
20	0xbd1586b2	-0.03650541
21	0xbdc23af1	-0.094838984
22	0xbda5b6e8	-0.08091527
23	0xbe02dd17	-0.12779652
24	0xbda4cb88	-0.08046633
25	0xbd84a367	-0.06476479
26	0xbe1de367	-0.15418778
27	0xbdaf866f	-0.08570563
28	0xbdf17ab3	-0.11790981
29	0xbe16689a	-0.1468834
30	0xbdc897fd	-0.097946145
31	0x3e6abc08	0.2292329
32	0xbe8033ba	-0.25039464
33	0xbd6e3d1c	-0.058163747
34	0xbd829b60	-0.06377292
35	0xbda60d38	-0.0810799
36	0xbdda4838	-0.10658306
37	0xbc829764	-0.01594133
38	0xbe4dd662	-0.20101312
39	0xbd571bc6	-0.05251672
40	0xbe18d21a	-0.14923897
41	0xbd4a7ae7	-0.049433615
42	0xbdde4749	-0.1085344
43	0xbe3e2224	-0.18567711
44	0xbe735b6b	-0.23765342
45	0xbdea92c9	-0.11453778
46	0x3da9619f	0.08270573
47	0xbde56549	-0.11200959
48	0xbdb24308	-0.087041914
49	0x3e2dad31	0.16960599
50	0xbe0b9477	-0.13630854
51	0xbe15983a	-0.14608851
52	0xbe0c19c0	-0.13681698
53	0xbda4a7b1	-0.08039797
54	0x3dfe8661	0.124279745
55	0xbe4c7728	-0.1996733
56	0xbdbe6d4c	-0.092981905
57	0xbdd90c1a	-0.10598011
58	0x3e35e582	0.17763332
59	0xbdb7f796	-0.0898277
60	0xbd2c7d82	-0.04211188
61	0xbd899798	-0.06718367
62	0xbdcf8c9b	-0.1013424
63	0x3d780fe6	0.060562037
64	0xbcfd9933	-0.03095684
65	0xbdd2ed37	-0.102991514
66	0x3e3c3744	0.18380457
67	0xbdd8ae8a	-0.10580166
68	0xbe80aea7	-0.2513325
69	0xbde387f4	-0.111099154
70	0xbe3c9c84	-0.18419081
71	0xbdb965db	-0.090526305
72	0xbdb0b68d	-0.08628569
73	0xbddaa31e	-0.106756434
74	0xbdadeb64	-0.08492163
75	0xbe3288bf	-0.17434977
76	0xbdb1e2af	-0.086858146
77	0xbda6a058	-0.08136052
78	0x3e40ae2b	0.1881644
79	0xbe2710a3	-0.1631494
80	0xbdebc953	-0.11513009
81	0xbda10e32	-0.07864036
82	0x3de4bf6f	0.111693256
83	0xbdb01e4e	-0.0859953
84	0xbdc03590	-0.09385216
85	0xbde0e93c	-0.10981986
86	0xbe138733	-0.14407043
87	0x3e8fcf26	0.2808773
88	0xbda12428	-0.078682244
89	0x3dd33bd1	0.103141434
90	0xbd57467a	-0.052557446
91	0xbd5f9f5a	-0.05459533
92	0xbda37bf3	-0.07982626
93	0xbded2520	-0.11579347
94	0xbde8bf23	-0.113645814
95	0x3dec3028	0.115326226
96	0xbd78e516	-0.06076535
97	0x3e2d2661	0.16909172
98	0x3de57b56	0.11205165
99	0xbe9a15d9	-0.30094793
100	0xbdc04ba7	-0.093894295
101	0x3e3061a7	0.17224751
102	0x3d6a2b83	0.057170402
103	0xbdb06f52	-0.08614983
104	0x3de5282a	0.11189301
105	0xbdb836cd	-0.089948274
106	0xbe267542	-0.16255668
107	0xbda4f476	-0.0805444
108	0xbdc65ce0	-0.09685683
109	0xbdd69392	-0.104773656
110	0xbe0e05c1	-0.13869382
111	0x3e788ed2	0.24273232
112	0xb9aa4d74	-0.00032482634
113	0x3d5442dc	0.051821575
114	0x3deb2dfe	0.11483382
115	0xbdea57e6	-0.114425465
116	0xbe02ae2d	-0.12761755
117	0x3db3959a	0.087687686
118	0xbe341e1e	-0.17589614
119	0xbc90afd7	-0.017661972
120	0xbe78e254	-0.24305087
121	0xbd864001	-0.065551765
122	0xbdb95aed	-0.09050546
123	0xbe331299	-0.17487563
124	0xbd904e8d	-0.07046232
125	0x3ba863ff	0.0051388736
126	0xbd60d525	-0.05489077
127	0x3e7c8cad	0.24663039

graph_matcher.gnn.conv2.lin.weight f4 [128, 64]
0	0x3e59d872	0.21273974
1	0x3d81367e	0.06309222
2	0x3e4dd33f	0.20100115
3	0xbe99e4dd	-0.3005742
4	0x3f029603	0.5101015
5	0xbee0d7e9	-0.43914726
6	0x3e7d189b	0.24716417
7	0x3ee2d538	0.44303298
8	0x3ee22cc6	0.44174784
9	0xbccd59c7	-0.025067223
10	0x3f3eaf0a	0.7448584
11	0x3ebb4a32	0.36580044
12	0x3eeef9b6	0.4667489
13	0x3e9fc393	0.312039
14	0x3e951384	0.29116452
15	0xbd4dc98e	-0.050241046
16	0x3eb63aeb	0.35591826
17	0x3ede1e13	0.4338232
18	0x3ce38e08	0.027777687
19	0x3dbf0fbf	0.09329175
20	0x3dd0863c	0.10181853
21	0xbe306687	-0.17226611
22	0x3d3b2c16	0.04569634
23	0xbe61ff15	-0.22069962
24	0xbea6d201	-0.32582095
25	0xbec07619	-0.375901
26	0xbebc0722	-0.36724192
27	0x3c9b8e07	0.018988622
28	0x3cac973d	0.02106821
29	0x3d3fddf1	0.04684252
30	0x3d0132ad	0.03154247
31	0xbede5f58	-0.43432117
32	0xbe74dbcc	-0.23911971
33	0xbd41ba45	-0.04729678
34	0x3f028bb0	0.50994396
35	0xbe6a2943	-0.22867303
36	0x3cab3368	0.020898536
37	0xbe13f995	-0.14450677
38	0xbe7897be	-0.24276635
39	0x3f2e4701	0.68077093
40	0xbbffc154	-0.007805029
41	0x3e92f489	0.2870219
42	0x3ee16255	0.44020334
43	0x3f017c68	0.50580454
44	0xbdcf48a1	-0.10121275
45	0x3e0a58f0	0.1351049
46	0x3ec656c7	0.3873808
47	0xbdf9a071	-0.12188805
48	0xbdbb2ede	-0.091397986
49	0xbca5b77c	-0.020229094
50	0x3eb04965	0.34430996
51	0xbdd4e5f4	-0.103954226
52	0x3ed484fd	0.41507712
53	0x3e248822	0.16067556
54	0x3be4acc0	0.006978601
55	0x3e52de4b	0.2059261
56	0xbd6d8212	-0.057985373
57	0xbd8c89b5	-0.06862203
58	0x3e0fe3b2	0.14051703
59	0x3ec1106d	0.37707844
60	0xbe9ff47f	-0.31241223
61	0xbebee983	-0.3728753
62	0x3e43a7c0	0.1910696
63	0xbeb95d0f	-0.3620381
64	0xbe05a421	-0.13050891
65	0x3d693917	0.05693921
66	0xbe079030	-0.13238597
67	0xbc925467	-0.017862512
68	0xbe46ded0	-0.19420934
69	0x3e1ca834	0.1529854
70	0xbe96b93c	-0.29438198
71	0x3eb608fe	0.35553735
72	0xbeb9585b	-0.36200222
73	0xbb570502	-0.0032809381
74	0xbe2dfca3	-0.16990905
75	0xbe63b29f	-0.22236107
76	0xbe972f98	-0.295285
77	0xbe976cba	-0.2957514
78	0xbecabfdc	-0.39599502
79	0xbd8a927d	-0.06766222
80	0xbee7383b	-0.45160088
81	0xbee900da	-0.45508462
82	0xbb237900	-0.0024943948
83	0x3df63e87	0.12023645
84	0xbec7ccbe	-0.39023393
85	0xbd17f97f	-0.037103172
86	0x3ca6f86e	0.020382132
87	0x3dbd5127	0.09243994
88	0xbec0ef54	-0.37682593
89	0xbe86fbd4	-0.26364005
90	0xbe4cb780	-0.19991875
91	0xbf02ba07	-0.51065105
92	0xbe3bc388	-0.18336308
93	0xbe77c1ba	-0.24194995
94	0xbdec164d	-0.11527691
95	0x3eb97ba9	0.36227158
96	0x3d29c208	0.04144481
97	0xbd0b3e56	-0.033994995
98	0xbe203e76	-0.15648827
99	0xbcd73f1e	-0.026275214
100	0x3db54d34	0.08852616
101	0xbd967797	-0.07347029
102	0x3cd1efdc	0.02562707
103	0xbdc79f1a	-0.09747143
104	0xbe3861d0	-0.18006063
105	0xbe33286c	-0.17495888
106	0xbed83787	-0.42229864
107	0xbe9ee547	-0.310343
108	0x3e4bcaac	0.19901532
109	0xbe66e337	-0.22547613
110	0xbebb561e	-0.3658914
111	0xbd81db0c	-0.06340608
112	0x3e032255	0.12806065
113	0x3df2ddc8	0.11858708
114	0xbe05b80c	-0.1305849
115	0xbeda47c4	-0.42632878
116	0xbee17e03	-0.44041452
117	0xbf2e3cfb	-0.680618
118	0xbd168d61	-0.036755923
119	0xbde86f76	-0.113493845
120	0xbe2930be	-0.165225
121	0xbe59d0ad	-0.2127101
122	0xbed92125	-0.424081
123	0xbedd6a14	-0.43244994
124	0xbea6f5a1	-0.32609275
125	0x3eea123f	0.45717046
126	0xbe623ad7	-0.22092758
127	0xbdb51c25	-0.08843259
128	0xbdf13303	-0.11777308
129	0x3e023f89	0.12719549
130	0xbe083790	-0.13302445
131	0xbd832e0c	-0.06405267
132	0x3d3ddc23	0.046352517
133	0xbded38d6	-0.11583106
134	0xbb7688a7	-0.0037618072
135	0xbd418f60	-0.047255874
136	0x3cb62dcc	0.022238635
137	0xbdc8de7c	-0.098080605
138	0x3deab781	0.11460782
139	0xbd91161d	-0.07084296
140	0xbd1429e5	-0.036172766
141	0xbcda8d82	-0.026678804
142	0x3d7419e3	0.059595
143	0x3db59bb0	0.08867586
144	0x3bda38b9	0.006659594
145	0xbd5019a0	-0.050805688
146	0xbe0a9d9e	-0.13536689
147	0xbe7e5bab	-0.24839656
148	0xbbbcf37b	-0.00576633
149	0xbd9fc357	-0.0780093
150	0xbbcf17d9	-0.0063199815
151	0xbe50966b	-0.2036988
152	0xbe28992f	-0.16464685
153	0xbe1ae81b	-0.15127604
154	0xbdd7558c	-0.10514364
155	0xbe214f9d	-0.15753026
156	0xbe18aee4	-0.14910465
157	0xbe0b35b9	-0.13594712
158	0xbd3f2836	-0.046669208
159	0x3c497e0c	0.012298118
160	0xbd17a250	-0.037020028
161	0xbe0eb46e	-0.13936016
162	0xbd9ca950	-0.07649481
163	0x3dc641d5	0.09680525
164	0xbdc01f7a	-0.09381004
165	0xbdfbb640	-0.12290621
166	0xbbd9e733	-0.0066498755
167	0x3e34e34a	0.17664829
168	0x3dac115b	0.08401748
169	0xbcec578e	-0.028850343
170	0xbbdf2797	-0.0068101394
171	0xbd9f6dec	-0.07784638
172	0xbdc7694c	-0.09736881
173	0xbe54c848	-0.20779526
174	0xbe496082	-0.19665721
175	0xbdda7fb4	-0.10668889
176	0x3e1a6373	0.15077
177	0xbdcf9fc7	-0.10137897
178	0xbe5ce2dc	-0.21570915
179	0xbe4792c3	-0.19489579
180	0x3df17ad1	0.117910035
181	0xbcdb8a53	-0.026799357
182	0x3ddb250a	0.10700424
183	0xbcb519fd	-0.022107119
184	0xbe1fb14f	-0.15594982
185	0xbdffe8f8	-0.12495607
186	0x3c51cf8f	0.0128058335
187	0xbe60ab4e	-0.21940348
188	0xbe555735	-0.20834048
189	0x3c29cd50	0.010363892
190	0xbcdda48a	-0.027055997
191	0xbe67232a	-0.22572008
192	0x3d85de6a	0.06536563
193	0xbd147080	-0.0362401
194	0xbdff9851	-0.12480224
195	0xbdd16454	-0.10224214
196	0xbd84ecce	-0.064904794
197	0x3bf374ac	0.00742968
198	0x3d2d0555	0.042241413
199	0x3db714c3	0.08939507
200	0xbe2a81ba	-0.1665105
201	0x3d559f8a	0.0521541
202	0x3bc6ab2b	0.0060628853
203	0x3caa78b9	0.020809518
204	0xbe81344b	-0.2523521
205	0xbe8b6ea9	-0.27232864
206	0xbe95e582	-0.29276663
207	0x3e0c5922	0.13705876
208	0xbdd88df9	-0.10573954
209	0x3db1e5e9	0.0868643
210	0x3b4228c0	0.002962634
211	0xbd8e1b81	-0.0693884
212	0xbd9a9155	-0.07547251
213	0xbdf8416b	-0.121218525
214	0xbe9cfb49	-0.30660465
215	0xbcfef9a5	-0.0311249
216	0xbd47b153	-0.048753094
217	0xbe78fc1a	-0.24314919
218	0x3d1ca47c	0.038242802
219	0xbe303474	-0.1720751
220	0xbba53c36	-0.005042578
221	0xbdcf7f1f	-0.10131668
222	0xbe413537	-0.18867956
223	0xbb95d2c4	-0.0045722444
224	0xbdf4419e	-0.11926578
225	0xbe8f4666	-0.27983397
226	0xbd973419	-0.07382984
227	0x3dc80b2a	0.097677544
228	0xbe9c0170	-0.30469847
229	0x3db64c82	0.089013115
230	0x3d83431f	0.06409287
231	0xbe23879b	-0.15969698
232	0x3d7ab8e0	0.061211467
233	0x3ca7323c	0.020409696
234	0x3cb05de3	0.021529144
235	0x3c6c9de9	0.014441946
236	0xbe7fcad0	-0.2497971
237	0x3ddc0c6e	0.10744558
238	0xbe14d9f0	-0.14536262
239	0xbd86e7b3	-0.06587162
240	0xbe1f1dfa	-0.15538779
241	0xbe65fade	-0.2245898
242	0x3dd5e270	0.1044358
243	0xbdc74198	-0.09729308
244	0xbd0d2cdb	-0.034466606
245	0xbda9918c	-0.08279714
246	0xbdc8af16	-0.0979902
247	0x3d03d907	0.032189395
248	0xbe9b2a88	-0.30305886
249	0xbe8296a7	-0.25505564
250	0xbe77204d	-0.24133416
251	0x3c0c602b	0.00856785
252	0x3dbbb65f	0.09165644
253	0xbb229380	-0.0024807155
254	0xbe1b95a9	-0.1519381
255	0xbd945219	-0.072422214

graph_matcher.mlp.0.weight f4 [128, 256]
0	0xbca01044	-0.019539006
1	0xbd7cc3b8	-0.06171009
2	0xbc7e33b0	-0.015515253
3	0x3d184250	0.037172616
4	0xbbda715f	-0.006666347
5	0xbdbb893c	-0.09157035
6	0xbdf9663a	-0.12177701
7	0xbd972eb8	-0.07381958
8	0x3bfe5c94	0.007762501
9	0xbdc139fd	-0.094348885
10	0xbded878a	-0.11598118
11	0xbd820d59	-0.06350202
12	0xbdb2daf1	-0.08733166
13	0xbd29d44c	-0.041462228
14	0xbdcdf5a6	-0.10056619
15	0xbde9f5b4	-0.11423817
16	0xbd786133	-0.06063957
17	0xbca384e0	-0.01996082
18	0x3c281bf5	0.010260572
19	0xbdbdc6c5	-0.09266428
20	0xbc9d5614	-0.019206084
21	0xbc1e9dc4	-0.009681169
22	0xbdbeb82d	-0.093124725
23	0xbd917b77	-0.07103627
24	0xbb0961c1	-0.0020962807
25	0xbd53a705	-0.051672954
26	0xbde4c129	-0.11169655
27	0xbcafd646	-0.021464478
28	0xbdde0ced	-0.10842309
29	0xbd942a53	-0.07234635
30	0xbd48cda2	-0.04902423
31	0xbd934955	-0.07191721
32	0x3cbb1ac0	0.022839904
33	0x3cf18448	0.029482022
34	0xbd7de17f	-0.061982628
35	0xbdd65e5f	-0.104672186
36	0xbaed30d2	-0.0018096215
37	0xbd75f773	-0.06005044
38	0xba3cb488	-0.0007198532
39	0xbd3db38a	-0.0463138
40	0xbcc3e6ca	-0.02391376
41	0xbdca9169	-0.09891016
42	0xbda3a39c	-0.079901904
43	0xbdb50ff1	-0.08840931
44	0xbdd224a6	-0.102608964
45	0xbd59da7f	-0.05318689
46	0xbdc210af	-0.094758384
47	0xbd0ee46a	-0.0348858
48	0xbd98218e	-0.07428275
49	0xbcd54bd0	-0.026037127
50	0xbd352bdc	-0.04423128
51	0xbda26e54	-0.079312
52	0xbdeebfff	-0.11657714
53	0xbd8cbb00	-0.06871605
54	0x3d67eee0	0.056624293
55	0xbd22c57a	-0.03973911
56	0xbd02cdda	-0.031934597
57	0xbdc78b91	-0.09743417
58	0xba959e00	-0.0011414886
59	0x3af351b6	0.001856378
60	0xbdf8a9ad	-0.12141738
61	0xbc86fcfd	-0.016478056
62	0xbdea92a9	-0.114537545
63	0xbc03b690	-0.008039132
64	0xbac5f6a2	-0.001510341
65	0xbde21036	-0.11038248
66	0xbb5406a0	-0.0032352582
67	0xbd50e01a	-0.05099497
68	0x3be8a0ab	0.0070992312
69	0xbdbe918b	-0.09305104
70	0xbd0adf22	-0.033904202
71	0xbd266c7f	-0.040630814
72	0xbceade9a	-0.028670598
73	0xbd12f768	-0.035880476
74	0xbd41e266	-0.04733505
75	0xbdc18545	-0.09449247
76	0xbda2e262	-0.07953335
77	0xbdcc1cbc	-0.09966418
78	0xbd4c7594	-0.04991682
79	0xbd0a6e5e	-0.03379666
80	0xbccf9918	-0.025341555
81	0xbd43099f	-0.047616597
82	0xbd96a3f9	-0.07355494
83	0x3d12c558	0.035832733
84	0xba9e52fc	-0.0012079175
85	0xbdb4de2b	-0.08831438
86	0x39a1a5a4	0.00030831725
87	0x3c654ce8	0.013995387
88	0xbd619b62	-0.055079825
89	0xbdac1a3a	-0.0840344
90	0xbdae22ca	-0.08502729
91	0xbd9924db	-0.07477733
92	0xbd1b27c7	-0.03787973
93	0xbdb5711b	-0.08859464
94	0x399b4d32	0.0002962142
95	0xbdcb9d0b	-0.09942063
96	0xbd7e7f62	-0.0621332
97	0x3b80b94e	0.00392834
98	0xbb91d9e9	-0.0044510257
99	0xbdc32623	-0.095287584
100	0xbdb7d2da	-0.089757636
101	0x3d1cb4ec	0.038258478
102	0x3d16522c	0.03669946
103	0xbd6194d8	-0.05507359
104	0x3d43dcaa	0.047817864
105	0xbcf2d0e2	-0.029640619
106	0xbd36f457	-0.044666614
107	0xbd3432d9	-0.043993805
108	0xbca4e21e	-0.020127352
109	0x3d1df5ae	0.038564377
110	0xbd689bb7	-0.056789126
111	0xbdbab84a	-0.091171816
112	0xbcd88fd4	-0.02643577
113	0xbb9c3577	-0.0047671157
114	0xbd820264	-0.06348112
115	0xbc9887f9	-0.018619524
116	0xba94554d	-0.0011316926
117	0xbcd67b14	-0.026181735
118	0xbd0f01db	-0.03491388
119	0xbd4cea9d	-0.050028432
120	0x3cc270f8	0.023735508
121	0x3d1ae5f4	0.037816957
122	0x3d6b6320	0.05746758
123	0xbdaeb41b	-0.08530446
124	0xbda65086	-0.081208274
125	0x3d2d3820	0.042289853
126	0xbcf592fd	-0.029977316
127	0x3b6d47c0	0.0036206096
128	0xbd6fee5a	-0.05857692
129	0xbda03325	-0.07822255
130	0x3d4af1be	0.04954695
131	0x3b999850	0.0046873465
132	0xbc80f013	-0.015739476
133	0xbd9d6e99	-0.076871105
134	0xbc514844	-0.012773577
135	0xbdadf270	-0.08493507
136	0xbda16600	-0.07880783
137	0xbd2462ba	-0.040133215
138	0xbc98fdc1	-0.018675687
139	0xbdaa6dd5	-0.0832173
140	0xbdd3cd1d	-0.10341857
141	0xbcd2b26c	-0.025719844
142	0xbd3128d0	-0.043251812
143	0xbd193482	-0.03740359
144	0xbd616e96	-0.055037104
145	0xbdb7f534	-0.08982316
146	0xbd7c5656	-0.061605774
147	0xbc0ae63c	-0.008477744
148	0xbd1e9576	-0.038716756
149	0xbd940f81	-0.0722952
150	0xbd9fd8c9	-0.0780502
151	0xbdf09355	-0.11746851
152	0xbdeb3068	-0.11483842
153	0xbd5037ec	-0.05083458
154	0xbd8ddcb5	-0.06926862
155	0xbcb501c0	-0.022095561
156	0xbdc6d458	-0.0970847
157	0xbd9be4cd	-0.07612
158	0xbcfb3e78	-0.030669436
159	0x3cf57574	0.029963233
160	0xbc4176b0	-0.011808082
161	0xbdb7b7fb	-0.08970638
162	0xbddc8965	-0.107683934
163	0xbd88e9a1	-0.06685186
164	0xbdadae25	-0.08480481
165	0xbc5e15c4	-0.013554994
166	0xbd63cab0	-0.05561322
167	0x3d4ac074	0.049499944
168	0xbd973ac9	-0.07384259
169	0xbd8772f9	-0.06613726
170	0x3a4593cd	0.00075369776
171	0x3d478f58	0.048720688
172	0xbdbcc5e5	-0.09217433
173	0xba60cb6a	-0.0008575233
174	0x3cd429b0	0.025898784
175	0xbd4934b2	-0.04912252
176	0xbcc49112	-0.023994956
177	0xbdd1e324	-0.10248402
178	0xbdd1ad27	-0.10238104
179	0xbc340448	-0.010987349
180	0xbd6460bb	-0.055756312
181	0xba529bf5	-0.00080341037
182	0xbc1f2608	-0.009713657
183	0xbd2019e6	-0.0390872
184	0xbd870c15	-0.06594101
185	0xbdc8a22a	-0.09796555
186	0xbcd42eb0	-0.025901169
187	0xbd2a7140	-0.04161191
188	0xbde7d224	-0.11319378
189	0xbdcb713b	-0.099337064
190	0xbd996b3e	-0.07491158
191	0xbc940768	-0.018069938
192	0xbdb15f7f	-0.086607926
193	0xbca9c85b	-0.02072542
194	0x3d6e5e30	0.058195293
195	0x3d5b95da	0.053609706
196	0xbbaefe99	-0.005340409
197	0xbd90b5d6	-0.070659325
198	0xbd428cd2	-0.047497578
199	0xbd41dd1b	-0.047330003
200	0xbd790188	-0.060792476
201	0xbdc94b3a	-0.098288015
202	0xbd297efb	-0.041380864
203	0xbdda017e	-0.10644816
204	0xbda36e18	-0.07979983
205	0xbd9dfc77	-0.077141695
206	0xbd3eb33a	-0.046557643
207	0xbd54f5de	-0.05199229
208	0xbda6b681	-0.081402786
209	0xbdb76fd7	-0.08956879
210	0xbd983d8f	-0.07433616
211	0x3d7196de	0.05898177
212	0xbda0938d	-0.07840643
213	0xbd36423d	-0.044496763
214	0xbd2b4ff8	-0.04182431
215	0x3d6078b4	0.05480261
216	0x3d62defa	0.05538843
217	0xbc6d8eee	-0.014499409
218	0xbc76775b	-0.015043105
219	0xbdc51122	-0.096224084
220	0xbd8909b2	-0.06691302
221	0xbd3daf89	-0.04630998
222	0xbbc307f8	-0.0059518777
223	0xbc543219	-0.012951397
224	0xbda89796	-0.08232038
225	0xbdd75a7e	-0.10515307
226	0xbd02d5e1	-0.031942252
227	0xbdc4c990	-0.096087575
228	0xbdc4dfa8	-0.096129715
229	0xbdb16d40	-0.08663416
230	0xbd20db60	-0.039271712
231	0xbdcf5034	-0.101227194
232	0x3c3e6da8	0.011622824
233	0xbade082c	-0.0016939691
234	0xbd18ca13	-0.037302088
235	0xbdaa780f	-0.083236806
236	0xbdaba831	-0.08381689
237	0x3d3a5dd6	0.045499645
238	0xbbb3b3cd	-0.0054840804
239	0x3cf392f0	0.029733151
240	0xba992a00	-0.0011685491
241	0xbd996900	-0.0749073
242	0xbd37a1b5	-0.04483195
243	0xbd748fbc	-0.05970739
244	0x3b848a60	0.004044816
245	0xbd686be4	-0.056743518
246	0x3c572718	0.013131879
247	0x3cd5d234	0.02610121
248	0x3d5afba2	0.053462632
249	0xbce17cf9	-0.027525412
250	0xbcc52488	-0.024065271
251	0x3b1bb7b3	0.0023760616
252	0x3c1f4d18	0.00972297
253	0xbd3bc806	-0.045845054
254	0x3afc43b0	0.0019246247
255	0xbce9d6b0	-0.028544754

graph_matcher.mlp.0.bias f4 [128]
0	0xbda79300	-0.08182335
1	0xbdd5043f	-0.104012005
2	0xbe237ea7	-0.15966283
3	0xbe01d058	-0.12677133
4	0xbdafcc18	-0.0858385
5	0xbc8757bf	-0.016521333
6	0xbd21569c	-0.039389238
7	0x3dba93b8	0.09110206
8	0xbdadad48	-0.084803164
9	0xbbac8777	-0.005265172
10	0xbdbc0ff0	-0.09182727
11	0xbdd37a34	-0.10326043
12	0xbda3d791	-0.080001004
13	0xbe04816e	-0.12939999
14	0xbd40c44a	-0.047062196
15	0x3ef87290	0.48524904
16	0xbcdb51c7	-0.026772393
17	0xbdd6c5e2	-0.10486962
18	0x3d92beea	0.0716532
19	0xbcad307e	-0.021141287
20	0xbd9e07fa	-0.07716365
21	0x3df94feb	0.12173446
22	0xbdfec770	-0.124403834
23	0xbc3e74b8	-0.011624508
24	0xbcfaf5b5	-0.03063474
25	0xbdd54152	-0.104128495
26	0xbd42e3c5	-0.0475805
27	0xbc4d8102	-0.012542965
28	0xbd605df0	-0.054777086
29	0xbd85fc46	-0.06542258
30	0xbdd7d8a8	-0.10539371
31	0xbd44c098	-0.048035234
32	0x3eb81de9	0.3596032
33	0x3df3b572	0.11899842
34	0xbdd29362	-0.10282017
35	0xbd4cfda6	-0.050046586
36	0x3e205a46	0.15659437
37	0xbd08e063	-0.033417117
38	0x3e0971f1	0.13422371
39	0xbe2cd627	-0.16878568
40	0x3eee8af0	0.46590376
41	0xbcc60100	-0.024170399
42	0xbdcd2137	-0.10016101
43	0xbe220f57	-0.15826164
44	0xbd2d737b	-0.04234646
45	0x3d75cc24	0.060009137
46	0x3ed56a5c	0.41682708
47	0x3ec2801d	0.37988368
48	0xbe2e8a6d	-0.17044993
49	0xbe731545	-0.23738582
50	0xbe372d33	-0.17888336
51	0xbd8c1b03	-0.068410896
52	0xbd1622e9	-0.036654387
53	0xbdd67bd3	-0.10472836
54	0xbd37310e	-0.044724517
55	0xbe2a8e0f	-0.16655754
56	0xbdbf88fc	-0.093522996
57	0x3e1be257	0.1522306
58	0x3d253965	0.04033794
59	0xbd13dc6e	-0.03609889
60	0x3e12e917	0.14346729
61	0xbde24b5a	-0.110495284
62	0xbe20be6d	-0.15697642
63	0xbe02e997	-0.1278442
64	0xbd80144d	-0.06253872
65	0xbd2d619d	-0.04232942
66	0xbdd57fe0	-0.10424781
67	0x3e28bbed	0.16477938
68	0x3dc0bed9	0.09411401
69	0xbda73f18	-0.08166331
70	0xbd6527d4	-0.055946186
71	0x3e035242	0.12824348
72	0xbe4a85e1	-0.19777633
73	0x3e514723	0.20437293
74	0x3e3b8623	0.18312888
75	0xbda11b6d	-0.07866559
76	0xbdccbd6f	-0.09997069
77	0xbe1dca67	-0.15409242
78	0xbe30551c	-0.17219967
79	0x3d957af3	0.07298841
80	0xbc84866e	-0.016177382
81	0x3d8d7cf5	0.06908599
82	0xbdabd2f5	-0.08389846
83	0xbc6348f8	-0.013872378
84	0xbd8f2e02	-0.06991197
85	0xbdd691ea	-0.1047705
86	0xbe66d7a5	-0.225432
87	0x3be834bc	0.0070863646
88	0xbc6d160e	-0.01447059
89	0x3df19302	0.11795618
90	0xbe53c359	-0.20679988
91	0xbdd3d238	-0.103428304
92	0xbd57d0f8	-0.052689523
93	0xbcf76b7f	-0.030202625
94	0x3de64b03	0.11244776
95	0xbcc05267	-0.023476792
96	0x3e039042	0.12847999
97	0x3e2ccb22	0.16874364
98	0xbd362339	-0.044467185
99	0xbdae677e	-0.08515833
100	0xbd182f28	-0.037154347
101	0xbd523a83	-0.051325332
102	0xbdfb0d9c	-0.12258455
103	0xbd96a081	-0.073548324
104	0x3e472757	0.194486
105	0x3df1bdf7	0.11803811
106	0xbd46733e	-0.048449747
107	0x3ec4c1ac	0.3842901
108	0xbdd37cd4	-0.103265435
109	0x3ecf767b	0.4052008
110	0xbe7d50f9	-0.2473792
111	0xbd434ca1	-0.0476805
112	0xbeb87ed6	-0.36034268
113	0xbddb6062	-0.10711743
114	0xbc879abf	-0.01655328
115	0xbda6bc62	-0.081414
116	0x3e510b62	0.20414498
117	0xbcf2d2bb	-0.0296415
118	0xbcd3380f	-0.025783567
119	0xbcff7624	-0.031184264
120	0xbdd3e893	-0.103470944
121	0xbd85dbd9	-0.06536073
122	0xbdd01ddd	-0.10161946
123	0xbde5d8b7	-0.11222976
124	0xbd94d4b6	-0.07267134
125	0xbde70c48	-0.11281639
126	0xbe36b679	-0.17843045
127	0xbe0254f2	-0.12727717

graph_matcher.mlp.2.weight f4 [128, 128]
0	0x3b884960	0.0041591376
1	0x3cc84054	0.024444737
2	0xbd965974	-0.073412806
3	0xbc928480	-0.017885447
4	0x3dac25ed	0.08405671
5	0xbd285cb3	-0.04110403
6	0x3d1a46de	0.03766524
7	0xbe0f1562	-0.13973
8	0x3d8498eb	0.06474479
9	0xbd02e537	-0.031956878
10	0x3c517a10	0.01278545
11	0x3cc9a600	0.024615288
12	0x3db30b25	0.0874236
13	0xbcf97ca6	-0.030454945
14	0x3d14ed1c	0.036358938
15	0xbd07316b	-0.033006113
16	0x3cfdb52c	0.030970179
17	0xbbf51c30	-0.007480167
18	0xbdaae73e	-0.08344887
19	0x3bf85110	0.007578023
20	0x3d0b949a	0.034077264
21	0xbe1a1eff	-0.15050887
22	0x3b0f0100	0.0021820664
23	0xbc9982b8	-0.01873909
24	0x3d803d3b	0.06261679
25	0x39faf600	0.00047867
26	0x3dada6eb	0.08479103
27	0xbd670e06	-0.05640986
28	0xbc85b7a4	-0.016322918
29	0x3d452d32	0.048138805
30	0x3d1cb3e2	0.038257487
31	0x3c9bf958	0.019039795
32	0xbe2925fc	-0.16518396
33	0xbc979750	-0.018504769
34	0x3d90f26b	0.070774876
35	0xbc8c2d94	-0.017111577
36	0xbc0dc46b	-0.008652787
37	0xbdb3b4fc	-0.087747544
38	0xbda82601	-0.08210374
39	0xbd959082	-0.07302953
40	0xbe3208fb	-0.17386238
41	0xbbe7cae0	-0.007073745
42	0x3d93946d	0.07206044
43	0xbce9853c	-0.028505914
44	0xbd22fa3a	-0.039789416
45	0x3e152713	0.14565687
46	0x3d9cf190	0.07663262
47	0xbe46eb31	-0.19425656
48	0xbd3f9c5a	-0.046779968
49	0xbe83b337	-0.25722668
50	0xbd2c1e93	-0.042021345
51	0xbd48854a	-0.04895524
52	0xba891780	-0.0010459274
53	0xbc2b8ca0	-0.010470539
54	0xbd32ee8b	-0.043684524
55	0xbc1a19a8	-0.009405531
56	0x3d3fbd4e	0.046811394
57	0xbdd62abd	-0.104573704
58	0x3bd8ed29	0.0066200686
59	0x3d67225e	0.05642926
60	0xbd4cdc8e	-0.050015025
61	0xbcc79f38	-0.024367914
62	0xbc9d7730	-0.019221872
63	0xbd9c6048	-0.07635552
64	0x3d1c721c	0.03819476
65	0xbd0a908b	-0.033829253
66	0x3d9ef665	0.0776184
67	0xbdc148c1	-0.09437705
68	0xbc35ec02	-0.011103632
69	0xbc6ee700	-0.014581442
70	0x3c871d54	0.016493477
71	0xbdea0105	-0.11425976
72	0x3d2e07f2	0.042488046
73	0xbd411051	-0.0471347
74	0xbe47c8d8	-0.1951021
75	0xbcbf3a60	-0.023343265
76	0xbaac5bc0	-0.0013149902
77	0xbce9435e	-0.028474506
78	0xbc3be9b8	-0.011469297
79	0xbcdc95f0	-0.026926965
80	0x3d8729ad	0.06599746
81	0xbd925c71	-0.07146538
82	0x3ccf5390	0.0253084
83	0xbcff3428	-0.0311528
84	0x3d4bd732	0.049765773
85	0x3cfd7bd4	0.030942835
86	0x3d27c306	0.040957473
87	0xbda22b52	-0.07918419
88	0x3dad491b	0.084612094
89	0xbd1c8297	-0.038210478
90	0x3b5309a0	0.0032201782
91	0xbc695df0	-0.014243588
92	0x3cc36304	0.023850925
93	0xbd821b33	-0.06352844
94	0xbd4e1a54	-0.050318077
95	0x3cd19744	0.025584824
96	0xbd9d92ba	-0.076940015
97	0xbe0d411f	-0.13794373
98	0x3d4846ea	0.048895754
99	0xbda8a7a6	-0.082351014
100	0x3d826e7b	0.06368729
101	0x3ca232a4	0.019799538
102	0x3d74629a	0.059664346
103	0x3d03645a	0.032078125
104	0xbde16fe7	-0.11007672
105	0xbcaf9240	-0.021432042
106	0xbc39d980	-0.01134336
107	0xbd849610	-0.06473935
108	0x3d7ad182	0.06123496
109	0xbd4a3651	-0.049368206
110	0x3d53c9be	0.05170607
111	0x3cc21534	0.023691751
112	0x3c7c4370	0.015396938
113	0x3cc62618	0.024188086
114	0xbd4690e9	-0.04847804
115	0x3c418e40	0.0118137
116	0xbe6408a8	-0.22268927
117	0xbd2c7e96	-0.04211291
118	0xbcd93df2	-0.026518796
119	0x3d2ec236	0.042665683
120	0x3da2a66d	0.079418994
121	0x3dacc591	0.0843612
122	0xbc9d1ab4	-0.019177772
123	0x3d9d18a5	0.07670716
124	0x3d4756de	0.048666827
125	0x3d4e4b3e	0.050364725
126	0xbd5968ba	-0.05307839
127	0x3d9d7883	0.076890014
128	0xbc7453a0	-0.014912516
129	0xbcab0d60	-0.020880401
130	0xbc246828	-0.010034598
131	0xbd9de54a	-0.07709749
132	0x3ba20410	0.004944332
133	0x3d49082a	0.04908005
134	0x3d945187	0.072421126
135	0xbd5c049d	-0.053715337
136	0xbd1f8d10	-0.038952887
137	0xbca4f378	-0.020135626
138	0x3d64ab22	0.055827267
139	0x3d42d8a2	0.04756988
140	0x3d6dd222	0.058061726
141	0xbcdfdd20	-0.02732712
142	0x3d5c02a6	0.053713463
143	0xbd91091f	-0.07081818
144	0xbda596c2	-0.080853954
145	0x3d700aba	0.05860398
146	0x3c252240	0.010078967
147	0xbcfda878	-0.030964121
148	0x3d1e5d6a	0.038663305
149	0xbd7dfa28	-0.062006146
150	0xbd781540	-0.06056714
151	0xbd844bfe	-0.06459807
152	0xbdab828a	-0.08374508
153	0xbd7d5b42	-0.06185461
154	0x3d8256c9	0.06364209
155	0x3bdd0790	0.0067452863
156	0x3c12f088	0.00896848
157	0x3db2cfe3	0.087310575
158	0xbbe60a00	-0.007020235
159	0x3d397b6e	0.045283727
160	0xbe8a631b	-0.27028736
161	0x3da50a69	0.08058626
162	0xbc44a6d0	-0.012002662
163	0x3d3ba99a	0.04581604
164	0x3d8ae81f	0.06782555
165	0x3d989bab	0.07451566
166	0xbd9f6927	-0.07783728
167	0x3d80b5d9	0.06284685
168	0xbe87f44c	-0.2655357
169	0xbd8cfc63	-0.068840764
170	0xbd8f3c42	-0.06993915
171	0xbd755db8	-0.05990383
172	0x3b88ac80	0.004170954
173	0x3d02037c	0.031741604
174	0xbd881794	-0.06645122
175	0x3daef095	0.08541981
176	0x3c5991f8	0.013279431
177	0xbd80d078	-0.06289762
178	0x3dad84bf	0.08472585
179	0x3db15c87	0.08660226
180	0x3d490eb6	0.049086295
181	0xbcfcee84	-0.030875452
182	0xbda34215	-0.079715885
183	0xbc212c70	-0.009837255
184	0x3d76ef52	0.060286827
185	0xbd98e5e5	-0.07465724
186	0xbe71019e	-0.23535773
187	0x3c9091d0	0.017647654
188	0x3bdc1260	0.0067160577
189	0x3d9e0ba3	0.07717063
190	0xbce1d04c	-0.027565144
191	0xbd843dbc	-0.064570874
192	0x3be8cf20	0.0071047693
193	0x3cac577c	0.02103781
194	0xbd54c5bd	-0.05194639
195	0xbd57e635	-0.052709777
196	0xbe1867e2	-0.14883378
197	0xbd9c437c	-0.07630059
198	0x3bfcb420	0.0077119023
199	0x3d5a4cca	0.053295888
200	0xbd045bf9	-0.032314274
201	0xbe54a5e0	-0.20766401
202	0xbe749b9b	-0.23887484
203	0x3d055d1e	0.032559507
204	0x3d9089f9	0.07057566
205	0x3d12c454	0.035831764
206	0xbd81181e	-0.06303428
207	0xb8edb400	-0.00011334568
208	0x3cac71f0	0.021050423
209	0x3c53c490	0.012925282
210	0xbc320d98	-0.010867499
211	0x3d6fccae	0.058544807
212	0x3c67f9d8	0.0141586885
213	0x3da3e623	0.080028795
214	0x3dacd975	0.08439914
215	0xbe919567	-0.28434297
216	0x3c8a807c	0.01690697
217	0x3ac85f40	0.0015287176
218	0x3dac4f99	0.084136195
219	0xbd08e48e	-0.03342109
220	0xbd7277b0	-0.059196174
221	0x3d0d6a90	0.034525454
222	0x3d72b366	0.05925312
223	0xbda6a292	-0.081364766
224	0xbce3bcde	-0.02780002
225	0xbe412ddd	-0.18865152
226	0x3d38526e	0.045000486
227	0x3c9cbbe0	0.019132555
228	0xbdb100c8	-0.08642727
229	0x3d875e4d	0.06609783
230	0x3cf4f59c	0.029902272
231	0x3d92f6e7	0.07175999
232	0xbe00791b	-0.12546198
233	0xbd5111df	-0.051042434
234	0x3d7c7c02	0.0616417
235	0x3ca09258	0.019601032
236	0xbd90804d	-0.070557214
237	0xbcbf5df8	-0.023360237
238	0xbc690ed8	-0.01422473
239	0x39683200	0.0002214387
240	0x3d5bb7c6	0.053642057
241	0x3cd99ac8	0.026563063
242	0x3d343b86	0.04400208
243	0x3da73045	0.081635036
244	0xbbde3920	-0.006781712
245	0xbd1a09e6	-0.037607096
246	0x3bea9730	0.0071591362
247	0x3d4131a6	0.04716649
248	0x3c22ce28	0.009936847
249	0x3d384456	0.044987045
250	0xbd4eaafd	-0.050456036
251	0x3dad5255	0.08462969
252	0x3c72f168	0.014828064
253	0xbc92cacc	-0.017918967
254	0xb9f6de00	-0.0004708618
255	0x3db35637	0.087566786

graph_matcher.mlp.2.bias f4 [128]
0	0xbe93e1cf	-0.28883216
1	0xbe6da0be	-0.2320585
2	0xbd1d7820	-0.03844464
3	0xbd128e05	-0.03577997
4	0xbda390aa	-0.07986577
5	0xbe21a212	-0.15784481
6	0xbecc8e85	-0.39952484
7	0xbde72e91	-0.11288179
8	0xbcdce9b0	-0.0269669
9	0x3e06a810	0.13150048
10	0xbe10ca29	-0.14139618
11	0xbd0602c0	-0.032717466
12	0x3e9a99ed	0.3019556
13	0xbe3ddc92	-0.18541172
14	0xbda92219	-0.08258457
15	0xba3da472	-0.0007234282
16	0xbdf10764	-0.11768988
17	0xbe4c13ea	-0.19929472
18	0xbe15e0bd	-0.14636512
19	0xbdfd699f	-0.12373661
20	0x393d4106	0.00018048668
21	0xbdeccaa5	-0.11562089
22	0x3ebe7cd1	0.37204602
23	0x3d5084e0	0.05090797
24	0xbd3e6e69	-0.046492014
25	0x3e9dbc1b	0.30807576
26	0x3c3525b7	0.011056355
27	0xb9168bcf	-0.00014357198
28	0xbdfa38df	-0.122178786
29	0xbe44ee77	-0.19231592
30	0xbdbda6bc	-0.09260318
31	0x3e147297	0.14496838
32	0x3e57f547	0.2108966
33	0xbe85e582	-0.26151663
34	0xbe98cd59	-0.29844168
35	0x3e435a6a	0.19077459
36	0xbefe9ed1	-0.49730542
37	0x3d6a0d75	0.05714174
38	0xbda4805c	-0.08032295
39	0x3d87ea9f	0.06636547
40	0x3e27840c	0.16358966
41	0xbd465843	-0.048424017
42	0xbb24cc0a	-0.002514603
43	0xbe20e3f2	-0.15711954
44	0x3e2820ad	0.16418715
45	0xbd9c9c3a	-0.07646985
46	0xbdef9505	-0.11698345
47	0xbd9105ac	-0.0708116
48	0xbe5df265	-0.21674497
49	0xbe232807	-0.15933238
50	0xbece7d37	-0.40329906
51	0xbea07253	-0.31337222
52	0xbe305aaf	-0.17222093
53	0xbdaeb5b5	-0.085307516
54	0xbe199bf9	-0.15000905
55	0xbe17e0b3	-0.1483181
56	0xbe39f25b	-0.18158858
57	0xbc6383a2	-0.013886364
58	0xbef293f5	-0.47378507
59	0xbcf8ec64	-0.030386157
60	0xbe62a6d8	-0.22133958
61	0xbdc39bbf	-0.095511906
62	0xbe9cb705	-0.30608383
63	0x3e11594e	0.14194223
64	0x3bb1e8e3	0.0054293736
65	0xbeb5d9d7	-0.3551776
66	0xbe2016be	-0.15633675
67	0xbdd29403	-0.10282137
68	0xbe07207e	-0.13195989
69	0xbdfdfdc1	-0.12401915
70	0xbe91ab19	-0.2845085
71	0xbd9f0935	-0.07765428
72	0xbca973f7	-0.02068518
73	0xbeb63414	-0.35586607
74	0x3e8f602c	0.2800306
75	0xbda6e2f4	-0.081487566
76	0xbe319207	-0.17340861
77	0xbe45a104	-0.19299704
78	0x3c8ab804	0.016933449
79	0x3d9733fb	0.07382961
80	0xbc82a798	-0.015949056
81	0xbdb1047a	-0.08643432
82	0x3e8fd289	0.28090313
83	0xbd943c74	-0.07238093
84	0x3c6c4f89	0.0144232595
85	0xbe959be0	-0.29220486
86	0xbcc9ae71	-0.024619313
87	0xbe7c00e1	-0.2460971
88	0xbde30239	-0.11084408
89	0xbe1f57b7	-0.15560804
90	0xbd1e283e	-0.038612597
91	0xbc549501	-0.012974978
92	0xbe7697e2	-0.24081376
93	0xbda7e8dc	-0.08198711
94	0x3d2c06bc	0.04199861
95	0x3cc48a0b	0.023991605
96	0xbe3c38e4	-0.18381077
97	0xbd72edf5	-0.059308965
98	0xbe5405d3	-0.20705347
99	0xbed41d1a	-0.41428453
100	0x3e45f749	0.19332613
101	0x3ed36556	0.4128825
102	0xbe4be4ab	-0.19911449
103	0xbd5bcf43	-0.053664457
104	0xbeba92f4	-0.3644024
105	0x3e2466f8	0.16054904
106	0xbbc533b6	-0.0060181273
107	0xbd39d895	-0.045372564
108	0xbe31c714	-0.17361099
109	0xbec3babb	-0.38228402
110	0xbd894e47	-0.06704383
111	0xbdca6dcb	-0.098842226
112	0xbe35f6d1	-0.17769934
113	0xbd93e680	-0.07221699
114	0xbc6cf03d	-0.014461574
115	0xbe948018	-0.29003978
116	0xbdd54f81	-0.10415555
117	0xbe31f583	-0.17378812
118	0xbe645b64	-0.22300488
119	0xbdbf9f36	-0.09356539
120	0x3dd0bda8	0.10192424
121	0xbe354a75	-0.17704184
122	0xbdb4f6b9	-0.08836121
123	0xbcead5c7	-0.02866639
124	0xbcf3f795	-0.029781142
125	0xbeb5aed4	-0.35484946
126	0xbcd9ee78	-0.026602969
127	0xbea77779	-0.32708338

graph_matcher.mlp.4.weight f4 [64, 128]
0	0xbcef543d	-0.029214973
1	0xbdbc2875	-0.09187404
2	0xbb46a9c7	-0.0030313598
3	0xbd628997	-0.055306997
4	0xbd3fdc0e	-0.04684072
5	0xbea9d5f0	-0.33171034
6	0xbe8269d9	-0.2547138
7	0xbd818a01	-0.0632515
8	0xbe084ffd	-0.13311763
9	0xbeac548c	-0.33658254
10	0xbd9c7c38	-0.0764088
11	0x3ce1cec0	0.027564406
12	0x3f28aace	0.6588563
13	0xbd09ded3	-0.033659767
14	0xbf1bebed	-0.6090687
15	0xbe07653b	-0.1322221
16	0xbda8dede	-0.082456335
17	0x3dbefb62	0.09325291
18	0x3c56a615	0.0131011205
19	0xbe068a9c	-0.13138813
20	0xbcffb39f	-0.03121358
21	0xbc5201d3	-0.012817818
22	0x3f85a754	1.044169
23	0x3cace97f	0.021107433
24	0x3c3ed6a7	0.011647857
25	0x3e40c054	0.18823367
26	0xbdafda29	-0.085865326
27	0x3c8c2f0e	0.017112281
28	0x3dfd8d66	0.12380485
29	0x3c931e17	0.017958684
30	0xbdc08ae7	-0.094014935
31	0xbea4c5fc	-0.321823
32	0xbcace4d9	-0.021105217
33	0x3e33723c	0.17524046
34	0x3cfd8f86	0.030952226
35	0x3f386b70	0.72038937
36	0x3dde4e4e	0.10854779
37	0x3d31f279	0.04344413
38	0x3da46157	0.080263786
39	0xbe0e24c4	-0.13881212
40	0xbe4cd9bc	-0.20004934
41	0x3c9f6473	0.019457078
42	0xbd58fc02	-0.05297471
43	0xbd180f3e	-0.03712391
44	0xbeb63b83	-0.3559228
45	0xbddc33e6	-0.10752086
46	0xbc935302	-0.017983917
47	0xbd8dda78	-0.06926435
48	0x3d3203c7	0.043460634
49	0x3e2aa08c	0.16662806
50	0xbdc53ad1	-0.09630359
51	0x3e63ccdb	0.22246115
52	0x3c0016d3	0.007817942
53	0x3df01d35	0.11724321
54	0xbe149f5a	-0.14513913
55	0x3dd99211	0.10623563
56	0x3cafceb2	0.021460865
57	0xbd33dc45	-0.043911237
58	0xbeda12ac	-0.4259237
59	0xbe268e7e	-0.16265294
60	0xbdd2fb64	-0.10301855
61	0xbb2cada3	-0.0026348613
62	0x3ec3f2e6	0.38271254
63	0xbea87ef0	-0.32909346
64	0xbd66729f	-0.056261655
65	0xbd3cde81	-0.046110634
66	0xbd825901	-0.063646324
67	0xbd8bf2a1	-0.06833387
68	0x3e582c30	0.21110606
69	0x3ccf29d3	0.025288498
70	0x3eab2860	0.3342924
71	0x3ca340eb	0.019928416
72	0xbd57245b	-0.052524906
73	0xbdfafc3c	-0.12255141
74	0xbf201860	-0.62537193
75	0xbda3a84a	-0.07991083
76	0x3d2e2d8d	0.04252391
77	0x3e9058eb	0.2819284
78	0xbc912b2e	-0.017720785
79	0x3e8cf409	0.27529934
80	0xbd941197	-0.072299175
81	0x3e35229b	0.17688982
82	0x3f0c9ded	0.54928476
83	0xbd42bb9f	-0.04754221
84	0xbca07c04	-0.019590385
85	0xbe497b21	-0.19675876
86	0x3ccd515b	0.025063207
87	0xbeb94272	-0.36183506
88	0xbdd43113	-0.10360923
89	0xbe25f2d9	-0.1620592
90	0xbdbcbd3a	-0.092157796
91	0xbd03ece1	-0.032208327
92	0xbe42b94f	-0.19016002
93	0x3bd12ae1	0.0063832854
94	0xbe3dcb03	-0.18534474
95	0xbc238d90	-0.009982482
96	0xbcf3de0c	-0.029768966
97	0xbdc7cd15	-0.09755913
98	0x3ce1fd25	0.027586529
99	0xbd517d39	-0.051144812
100	0xbebed9eb	-0.37275633
101	0x3f59d43f	0.85089487
102	0xbbc00de2	-0.00586103
103	0xbc78592d	-0.01515798
104	0xbdad243f	-0.08454179
105	0xbebd9dd9	-0.3703449
106	0xbd8e7d64	-0.0695751
107	0x3dca43a0	0.0987618
108	0x3d79941d	0.060932267
109	0x3b160f47	0.002289729
110	0xbd2d2aa7	-0.042277005
111	0xbd8a18ad	-0.06742988
112	0xbc54ce09	-0.012988576
113	0xbe16c00e	-0.147217
114	0x3d03042b	0.031986397
115	0xbdb41419	-0.08792896
116	0xbd1132f7	-0.035448994
117	0x3d1d0744	0.038337007
118	0xbd06c0f7	-0.03289887
119	0x3cdab580	0.026697874
120	0xbe299075	-0.16559012
121	0x3e177040	0.14788914
122	0x3d967c40	0.073479176
123	0xbe05ed77	-0.13078867
124	0xbd95156c	-0.072794765
125	0x3d3b2237	0.045686927
126	0xbdb61e3a	-0.08892484
127	0x3b96f1ce	0.004606462
128	0x3dc46924	0.095903665
129	0xbda623d1	-0.081123
130	0x3d9be209	0.07611472
131	0xbd8efa53	-0.06981339
132	0x3d49d92c	0.049279377
133	0xbd45e55d	-0.04831444
134	0xbe7af7a4	-0.2450853
135	0xbc6345ca	-0.0138716195
136	0xbd8311d9	-0.063998885
137	0xbdd8451e	-0.10560058
138	0xbda4671b	-0.08027478
139	0xbe31b2cf	-0.17353366
140	0xbe8a41ea	-0.27003413
141	0xbd45fb1e	-0.048335187
142	0xbe0c2254	-0.1368497
143	0xbd6a1320	-0.057147145
144	0x3d5a4677	0.053289857
145	0x3d4db98c	0.05022578
146	0xbd3d0653	-0.04614861
147	0x3d1341b6	0.03595134
148	0xbd9409c2	-0.07228424
149	0x3aaf1489	0.001335756
150	0xbe1ed9c9	-0.15512766
151	0xbe282b28	-0.16422713
152	0x3d8b2eeb	0.06796058
153	0xbdbdd5c7	-0.092692904
154	0xbda88136	-0.0822777
155	0xbd9ac84a	-0.07557733
156	0xbe02f0c6	-0.1278716
157	0xbe84a273	-0.2590519
158	0x3d65cd2c	0.05610387
159	0xbd4f51f1	-0.050615255
160	0x3e2f53ec	0.17121857
161	0x3cc723e7	0.024309112
162	0xbd84d83e	-0.064865574
163	0xbda94523	-0.0826514
164	0xbe9c11e6	-0.30482405
165	0x3e87fa58	0.26558185
166	0xbba4faec	-0.005034795
167	0xbdde3e1e	-0.10851692
168	0xbc362092	-0.011116164
169	0x3c8c3538	0.01711522
170	0xbc7a43ee	-0.015274985
171	0x3d22c2fd	0.039736737
172	0x3d460ed4	0.048353985
173	0x3bf524fb	0.007481215
174	0xbd7bfe18	-0.06152162
175	0xbaf27f0a	-0.0018500995
176	0x3c45fc43	0.01208407
177	0x3eb3f91c	0.35150993
178	0x3eb79700	0.3585739
179	0xbe954510	-0.29154253
180	0x3d5c2b20	0.053752065
181	0x3cd4871d	0.025943333
182	0x3c9a700c	0.018852256
183	0x3ddc3c42	0.10753681
184	0xbd572a16	-0.05253037
185	0x3daa7680	0.08323383
186	0x3e96da6d	0.2946352
187	0x3e1a10c3	0.15045457
188	0xbdadd67c	-0.08488175
189	0x3d68d64d	0.056845
190	0xbd5cdbd5	-0.053920586
191	0xbd7d6870	-0.061867177
192	0xbd40382d	-0.046928573
193	0xbd83ab9e	-0.06429218
194	0xbdafc451	-0.08582366
195	0x3d66eec8	0.056380063
196	0x3ce00eba	0.027350772
197	0xbd44c876	-0.048042737
198	0xbeb03622	-0.344163
199	0xbcc32fc5	-0.02382649
200	0xbdd62d2b	-0.10457834
201	0x3de2eaad	0.11079917
202	0x3d5cfa6b	0.053949755
203	0xbd0ce6a5	-0.034399647
204	0xbdaaf6f5	-0.083478846
205	0x3ea7ef7c	0.327999
206	0xbe077db7	-0.1323155
207	0x3c3ac8cf	0.011400416
208	0xbbdbe768	-0.0067109354
209	0xbda575fa	-0.08079143
210	0xbe993e8b	-0.2993053
211	0xbcf6df18	-0.030135676
212	0xbd42ad34	-0.04752846
213	0x3e7c6f3e	0.2465181
214	0x3d363b72	0.044490285
215	0xbe0c8ff1	-0.13726784
216	0xbca0e69a	-0.01964121
217	0xbc28d5aa	-0.010304848
218	0xb99a3c42	-0.00029418065
219	0x3ceb3ab4	0.028714515
220	0xbe65b4a8	-0.22432196
221	0x3d8957f6	0.0670623
222	0x3caf9212	0.021431956
223	0xbe0d26c0	-0.13784313
224	0xbe07b2da	-0.1325182
225	0x3da522a5	0.080632485
226	0xbde956c2	-0.11393501
227	0x3d906df1	0.0705222
228	0x3cef6e3c	0.029227369
229	0xbd9a96f9	-0.07548327
230	0x3b01a00e	0.0019779238
231	0xbd94dafa	-0.07268329
232	0x3ddc2ba0	0.10750508
233	0xbe1212cd	-0.14264984
234	0xbe053dc3	-0.13011841
235	0x3d3a867c	0.04553841
236	0xbc67e31f	-0.014153271
237	0xbdf1a86d	-0.11799703
238	0x3d4a99c4	0.04946305
239	0x3d3c4bc2	0.045970686
240	0x3dfef0e3	0.12448289
241	0xbd1698f7	-0.036766972
242	0xbb04c467	-0.0020258666
243	0x3d84990a	0.064745024
244	0x3d5ed7df	0.05440509
245	0x3cd3443e	0.025789376
246	0x3ec29adb	0.3800877
247	0xbe08b1d1	-0.13349082
248	0xbe62f574	-0.22163945
249	0xbe86ae26	-0.2630474
250	0x3d610a4a	0.054941453
251	0xbda441b6	-0.08020346
252	0x3d4743c2	0.048648603
253	0x3cee3e75	0.029082516
254	0x3c5545ca	0.013017127
255	0x3e5a6a6a	0.21329656

graph_matcher.mlp.4.bias f4 [64]
0	0xbdcbc042	-0.0994878
1	0x3d9f502b	0.07778963
2	0x3e03cd4e	0.12871286
3	0xbdf92a1c	-0.12166235
4	0xbd3beaf6	-0.045878373
5	0xbd0717d1	-0.032981697
6	0xbdd2aa41	-0.102863796
7	0xbe14d542	-0.14534476
8	0xbe5a8459	-0.21339549
9	0xbec63551	-0.38712552
10	0xbd3f9a7d	-0.04677819
11	0x3c887019	0.016655015
12	0xbdf1cbc1	-0.11806441
13	0x3bf8be00	0.007591009
14	0x3e923ce7	0.2856209
15	0xbe5b6e51	-0.21428801
16	0xbe87c906	-0.26520556
17	0xbe4ce5b1	-0.20009495
18	0xbd5001a2	-0.050782807
19	0x3c1fd7c2	0.0097560305
20	0xbe67737c	-0.22602648
21	0x3e884e75	0.26622358
22	0xbe6106a0	-0.21975183
23	0xbdc49feb	-0.096008144
24	0xbe6ad584	-0.22933012
25	0xbe5f7db6	-0.21825299
26	0xbe5544d7	-0.20827042
27	0xbdaede94	-0.08538547
28	0x3dc1a490	0.09455216
29	0x3e3ace23	0.18242697
30	0x3d6c9709	0.057761226
31	0xbe9738db	-0.29535565
32	0xbd7dd5b4	-0.06197138
33	0x3db5484a	0.08851679
34	0x3e5bd74d	0.2146885
35	0x3d5884c1	0.05286098
36	0xbe4825f6	-0.19545731
37	0xbe3b22bf	-0.18274973
38	0xbe3da78c	-0.18520945
39	0xbc6a0e11	-0.01428558
40	0x3d98c578	0.07459539
41	0x3e0d6c08	0.13810742
42	0x3d03fa31	0.032221023
43	0x3cecf9b1	0.028927656
44	0xbbc309ce	-0.0059520965
45	0xbdd7ad0f	-0.10531055
46	0x3c58f0bc	0.013240989
47	0xbcb133a6	-0.021631073
48	0xbda20ce4	-0.07912615
49	0xbdaf79e0	-0.08568168
50	0x3e5f1792	0.21786335
51	0x3db57ffb	0.08862301
52	0x3d9140f5	0.07092468
53	0x3e231129	0.15924515
54	0x3e7148a1	0.23562862
55	0xbd86d71e	-0.06583999
56	0x3e3ffc99	0.18748702
57	0xbe54d04f	-0.20782588
58	0xbe2e0def	-0.16997503
59	0xbe9d2d7c	-0.30698764
60	0xbe4a36eb	-0.19747512
61	0x3afa18d2	0.0019080883
62	0xbde84eb9	-0.1134314
63	0xbd5a5b88	-0.053309947
