Result/GCN/5000_sample/model_epoch_1_f1_0.4423.pth (torch, 841454 bytes, 42 tensors)

graph_matcher.gnn.conv1.bias f4 [64]
-0.035890758 0.0 0.0 -0.0032141898 0.020985322 -0.004804739 -0.0959222 -0.026757792
0.08287093 -0.052754294 0.05018095 -0.00040896487 -0.00023098849 0.058274344 0.013421903 0.0825658
0.0 0.036008287 -0.018437259 0.038159855 0.008698645 0.07202892 0.0 -0.018274475
0.0 0.009342587 0.049798325 0.0 -0.059638083 0.05448787 0.1041264 -0.060172416
-0.023809366 -0.05187465 -0.13488202 0.07524423 -0.009639006 0.016113607 -0.0820102 -0.073351346
-0.0922324 -0.020818217 -0.08890409 -0.024163933 -0.0058862953 0.037534136 0.005074459 -0.038776923
-0.10080627 -0.0076597626 -0.053430717 0.0 -0.07406788 -0.014933918 -0.008132439 -0.053033646
-0.043582764 0.061507095 -0.040761072 0.0040285857 0.0 -0.062967524 -0.117366895 -0.060203176
00000000: 3002 13bd 0000 0000 0000 0000 28a5 52bb
00000010: 69e9 ab3c 1271 9dbb dc72 c4bd 2833 dbbc
00000020: 3cb8 a93d e314 58bd 8a8a 4d3d 566a d6b9
00000030: 8035 72b9 14b1 6e3d 8be7 5b3c 4218 a93d
00000040: 0000 0000 6d7d 133d bc09 97bc 824d 1c3d
00000050: c384 0e3c e683 933d 0000 0000 5ab4 95bc
00000060: 0000 0000 a611 193c 54f9 4b3d 0000 0000
00000070: 1047 74bd ac2e 5f3d 3940 d53d 5a77 76bd
00000080: dc0b c3bc 837a 54bd 831e 0abe a619 9a3d
00000090: ecec 1dbc af00 843c f7f4 a7bd 3b39 96bd
000000a0: 57e4 bcbd f78a aabc 5913 b6bd 71f3 c5bc
000000b0: d3e1 c0bb 65bd 193d a647 a63b 8dd4 1ebd
000000c0: 8573 cebd bffe fabb 2bda 5abd 0000 0000
000000d0: e7b0 97bd 64ad 74bc ec3d 05bc cf39 59bd
000000e0: d783 32bd ddee 7b3d 15f5 26bd 3a02 843b
000000f0: 0000 0000 1ef5 80bd 0e5e f0bd 9b97 76bd

graph_matcher.gnn.conv1.lin.weight f4 [64, 4]
0.009519626 -0.020779163 0.29596254 -0.29360262 -0.1951851 -0.26792508 -0.29533294 -0.065546945
-0.26576346 -0.1648319 -0.2926779 -0.18378747 0.47421274 0.019132713 -0.059660286 -0.057169624
0.3957423 -0.06480974 -0.083183475 -0.15660247 0.36066744 0.14628579 -0.3868922 -0.037568416
-0.28561732 -0.22003065 -0.16938283 0.21730554 0.18000445 0.09894513 -0.24617916 -0.3449412
0.115427084 -0.14661334 0.35606894 -0.120922126 -0.29169005 0.3069718 -0.13035084 0.0948517
0.05654561 0.024104625 0.30301788 -0.11619102 -0.25305882 0.1064033 -0.14189555 0.17194621
0.44246927 -0.06368691 -0.19407871 -0.032061514 -0.25453505 0.15393075 0.3800601 -0.16377623
-0.36610508 -0.2723577 -0.2924178 0.21748108 0.27352205 -0.09457193 -0.3108825 -0.15884274
-0.04492408 -0.2700991 -0.077717975 -0.020411164 -0.17399794 0.16675943 -0.28716385 0.09034793
-0.30412105 0.07618922 0.21098207 -0.31007862 0.369557 -0.033216484 0.25247067 -0.044650625
0.21524766 0.24148986 -0.08990011 -0.3690597 0.00861329 -0.0525196 0.5625286 -0.112671755
-0.15157172 -0.28335178 -0.23665062 -0.036172777 -0.34695774 0.16700159 -0.2460529 0.22139949
-0.055095345 -0.18508239 -0.08889231 -0.0829974 -0.26025677 -0.19109836 -0.17296763 0.06254396
0.44410673 0.2513092 0.115357816 -0.12927444 -0.14110875 -0.28527066 -0.28128412 -0.027018458
-0.19034874 -0.052792158 -0.28569373 -0.1413581 0.08472755 -0.11854984 0.5070398 -0.08629545
-0.22685969 -0.04356253 0.27990413 -0.16737223 -0.19524486 -0.27259344 -0.05320078 -0.044677325
0.42112678 0.03596849 -0.19904661 -0.04632519 0.41214284 0.1460883 -0.29033944 -0.035639673
-0.08550267 0.19160466 0.26133358 -0.362148 0.10726974 -0.2038541 0.5272721 -0.07805335
-0.2326063 0.03764472 -0.24448864 0.21378373 0.0043675755 0.048103336 0.061073653 -0.18525387
-0.2377813 -0.18228954 -0.23921978 -0.019918237 0.42143792 0.110797845 -0.39299032 -0.03662537
-0.21824482 -0.07260206 0.0035137485 0.041041918 -0.23489653 0.036914207 0.16188894 -0.15275262
-0.086118326 -0.08248927 -0.053883635 0.0244815 0.02551468 -0.04813155 0.43352094 -0.007997997
-0.2077123 -0.24748766 -0.27830124 0.15484364 -0.34422073 0.22581574 0.035926588 -0.012850795
-0.31391317 0.2615545 -0.22624785 0.12784278 -0.21509555 0.23988062 -0.08521915 0.13369411
-0.0007207747 -0.040044356 -0.22337322 -0.19095786 0.4821471 0.024515187 0.19456534 0.0040731262
-0.14607808 -0.10652709 -0.050001096 -0.108023 -0.242852 -0.15893044 -0.08620915 -0.04837215
0.41150013 0.054941826 -0.17005873 0.04169847 -0.14562616 0.15140425 -0.17513113 0.12499541
-0.31537357 0.35512084 -0.23820649 -0.00849791 0.03259815 -0.1917614 -0.17296588 -0.27014768
0.07372303 -0.29298845 -0.24875231 -0.22576392 0.23981807 -0.0044295145 0.45949852 -0.11640724
-0.20322789 -0.28046247 -0.21490198 0.25420925 -0.24809372 0.05461672 0.08411686 -0.29886195
-0.024028271 -0.19959712 -0.1895746 -0.10218695 -0.30434775 -0.21366411 -0.14121376 0.22457966
-0.027688999 -0.21048817 0.025489584 -0.29668096 0.33791643 -0.060395155 0.3393593 0.05008263
00000000: 35f8 1b3c 1039 aabc 6788 973e 1553 96be
00000010: 9ade 47be 7a2d 89be e135 97be 7a3d 86bd
00000020: 2612 88be b2c9 28be e1d9 95be c832 3cbe
00000030: 03cc f23e 35bc 9c3c 585e 74bd b22a 6abd
00000040: bc9e ca3e f8ba 84bd 195c aabd 665c 20be
00000050: 67a9 b83e f1cb 153e bc16 c6be 57e1 19bd
00000060: 6f3c 92be b74f 61be b172 2dbe 5885 5e3e
00000070: 1653 383e bfa3 ca3d 6416 7cbe 229c b0be
00000080: 0965 ec3d cf21 16be ab4e b63e 05a6 f7bd
00000090: 6658 95be 682b 9d3e b17a 05be 9c41 c23d
000000a0: 5f9c 673d 1077 c53c 2925 9b3e 8ff5 edbd
000000b0: ed90 81be f9e9 d93d 114d 11be ab12 303e
000000c0: 558b e23e 486e 82bd 92bc 46be ef52 03bd
000000d0: 6b52 82be 06a0 1d3e 3d97 c23e f5b4 27be
000000e0: 2072 bbbe 7872 8bbe c9b7 95be 5cb3 5e3e
000000f0: 150b 8c3e eeae c1bd fe2b 9fbe aca7 22be
00000100: 5002 38bd 6e4a 8abe 9a2a 9fbd 5035 a7bc
00000110: 842c 32be fcc2 2a3e 2407 93be 5608 b93d
00000120: c1b5 9bbe 1809 9c3d af0b 583e a0c2 9ebe
00000130: 9336 bd3e 020e 08bd d643 813e 93e3 36bd
00000140: e269 5c3e 1e49 773e 8d1d b8bd 65f5 bcbe
00000150: c21e 0d3c cb1e 57bd e001 103f 73c0 e6bd
00000160: 9e35 1bbe 7c13 91be 8a54 72be e829 14bd
00000170: 72a4 b1be 7702 2b3e 4bf5 7bbe 8cb6 623e
00000180: a8ab 61bd 3d86 3dbe 2c0d b6bd 8afa a9bd
00000190: 6040 85be 4aaf 43be 6d1e 31be 0c17 803d
000001a0: f561 e33e 99ab 803e b840 ec3d 8560 04be
000001b0: d07e 10be ff0e 92be 7904 90be d055 ddbc
000001c0: c8ea 42be 973c 58bd 7346 92be 2ec0 10be
000001d0: a385 ad3d 42ca f2bd 5ccd 013f abbb b0bd
000001e0: e84d 68be a06e 32bd 984f 8f3e a063 2bbe
000001f0: 45ee 47be 5e91 8bbe 10e9 59bd 92ff 36bd
00000200: ee9d d73e b253 133d e0d2 4bbe 7cbf 3dbd
00000210: 6304 d33e 2c98 153e 5fa7 94be e8fa 11bd
00000220: 061c afbd 0334 443e 84cd 853e 766b b9be
00000230: 3db0 db3d 21bf 50be 4efb 063f 6fda 9fbd
00000240: 5930 6ebe 5a31 1a3d 3b5b 7abe 1fea 5a3e
00000250: e11d 8f3b 0108 453d 5e28 7a3d 31b3 3dbe
00000260: f17c 73be 1caa 3abe 08f6 74be 922b a3bc
00000270: b6c6 d73e fbe9 e23d 0736 c9be 7c04 16bd
00000280: 927b 5fbe 64b0 94bd eb46 663b 921b 283d
00000290: b788 70be 5a33 173d 37c6 253e 2f6b 1cbe
000002a0: ce5e b0bd 22f0 a8bd 16b5 5cbd 6d8d c83c
000002b0: 2a04 d13c 9725 45bd 75f6 dd3e 080a 03bc
000002c0: 88b2 54be 686d 7dbe 807d 8ebe 558f 1e3e
000002d0: b33d b0be 3e3c 673e c227 133d 248c 52bc
000002e0: 3ab9 a0be 79ea 853e 84ad 67be 38e9 023e
000002f0: 0242 5cbe 44a3 753e 6187 aebd 1ce7 083e
00000300: 5ff2 3cba 8d05 24bd f3bb 64be 758a 43be
00000310: fcdb f63e 13d4 c83c 233c 473e dc77 853b
00000320: 7e95 15be e02a dabd f3cd 4cbd 2a3b ddbd
00000330: 32ae 78be a9be 22be 6c8e b0bd e021 46bd
00000340: 25b0 d23e ae0a 613d e023 2ebe 04cc 2a3d
00000350: 061f 15be b709 1b3e 9355 33be 98fd ff3d
00000360: a578 a1be 66d2 b53e 67ec 73be d13a 0bbc
00000370: a385 053d 1a5d 44be f81d 31be cc50 8abe
00000380: 1afc 963d 9502 96be edb8 7ebe a82e 67be
00000390: de92 753e 7625 91bb 6443 eb3e eb66 eebd
000003a0: f91a 50be c798 8fbe 440f 5cbe b727 823e
000003b0: 480c 7ebe c8b5 5f3d 7645 ac3d 6f04 99be
000003c0: f0d6 c4bc 3063 4cbe d81f 42be 6447 d1bd
000003d0: 78d3 9bbe c4ca 5abe 579a 10be 36f8 653e
000003e0: 0ad4 e2bc 368a 57be 88cf d03c 91e6 97be
000003f0: 6203 ad3e e960 77bd 81c0 ad3e 7223 4d3d

graph_matcher.gnn.conv2.bias f4 [128]
0.040166155 -0.09001782 -0.01393679 -0.076693974 0.016835295 0.0053991443 -0.059270382 0.03403548
-0.024502814 0.0019522551 -0.12253757 -0.11937201 -0.07811967 -0.046627812 0.013926827 -0.08320932
-0.11275418 -0.09939489 0.028727682 0.01276169 -0.081539854 -0.102794304 -0.047074597 -0.06267839
-0.015660137 -0.035097484 -0.06889331 -0.11087759 -0.06341547 -0.08896023 -0.07595149 -0.06365627
-0.059190847 -0.0027833385 -0.09979506 -0.0826137 0.046332333 0.031872444 0.036745574 -0.08351588
0.019994276 0.02241626 0.023387466 0.0025013757 -0.07889323 0.020181106 0.07542938 -0.07898945
-0.015084915 -0.060110204 0.01463049 0.026024433 0.03327073 -0.05250033 -0.033425033 -0.09334844
-0.14164256 0.050799113 0.023744782 0.025050268 -0.093571946 -0.08197107 0.009768563 0.041888684
-0.08489152 0.04986158 -0.008222387 -0.1254365 0.0222914 0.016474122 -0.056946844 -0.05635505
-0.0020784503 -0.04123692 -0.050703898 -0.08308616 -0.07157514 -0.0775743 0.009287816 -0.049431827
0.003978314 -0.066010326 -0.009004063 0.033585675 0.06586902 -0.09869999 -0.080362655 0.019563008
0.024475615 -0.030551983 -0.06787008 -0.014493237 -0.03909308 0.0573011 -0.050458036 -0.08267936
-0.08063041 0.055429567 0.021494556 -0.13471958 -0.089756526 0.022534983 -0.051342834 0.019963415
-0.021839797 0.054102503 -0.07643053 -0.023685588 0.01249249 -0.12477238 -0.058413133 -0.045808084
-0.08250796 0.024676722 -0.09307857 0.024428245 0.040878627 -0.034068637 0.06083555 -0.014967525
-0.074493885 -0.088536404 0.050099302 -0.064668335 -0.053455662 0.01890262 -0.05841985 -0.008319631
00000000: 4485 243d 435b b8bd 2257 64bc bb11 9dbd
00000010: 2cea 893c 4eeb b03b 80c5 72bd ca68 0b3d
00000020: 20ba c8bc d0e2 ff3a faf4 fabd 5079 f4bd
00000030: 35fd 9fbd cefc 3ebd 592d 643c a669 aabd
00000040: aaeb e6bd 8c8f cbbd 5156 eb3c 6816 513c
00000050: 5efe a6bd d285 d2bd 4bd1 40bd 875d 80bd
00000060: b049 80bc 61c2 0fbd f017 8dbd ca13 e3bd
00000070: f8df 81bd c830 b6bd 748c 9bbd 385e 82bd
00000080: 1a72 72bd ac68 36bb 5a61 ccbd 5f31 a9bd
00000090: f9c6 3d3d ae8c 023d 8782 163d 600a abbd
000000a0: 09cb a33c 4ea2 b73c 1297 bf3c 1fee 233b
000000b0: c692 a1bd d952 a53c b87a 9a3d 39c5 a1bd
000000c0: b826 77bc 1e36 76bd b9b4 6f3c 3131 d53c
000000d0: e446 083d 960a 57bd b0e8 08bd 782d bfbd
000000e0: bf0a 11be bb12 503d 6b84 c23c 3836 cd3c
000000f0: a6a2 bfbd 73e0 a7bd 530c 203c 7893 2b3d
00000100: 9bdb adbd a83b 4c3d 31b7 06bc 6d72 00be
00000110: 749c b63c bdf4 863c 1841 69bd 8ed4 66bd
00000120: 9c36 08bb 0be8 28bd e4ae 4fbd 1429 aabd
00000130: fd95 92bd 46df 9ebd ec2b 183c 0779 4abd
00000140: 845c 823b 6c30 87bd c785 13bc 2291 093d
00000150: 56e6 863d 3823 cabd 2d95 a4bd 9a42 a03c
00000160: 1681 c83c 2748 fabc 78ff 8abd 0b75 6dbc
00000170: 1120 20bd 8fb4 6a3d 16ad 4ebd cc53 a9bd
00000180: 8e21 a5bd 1d0a 633d 5a15 b03c eef3 09be
00000190: 45d2 b7bd 499b b83c dd4c 52bd 518a a33c
000001a0: 60e9 b2bc 969a 5d3d 9c87 9cbd 4708 c2bc
000001b0: 4dad 4c3c a988 ffbd 9c42 6fbd 42a1 3bbd
000001c0: eff9 a8bd d626 ca3c fa9f bebd be1d c83c
000001d0: 5970 273d 8e8b 0bbd b32e 793d 5a3a 75bc
000001e0: 4090 98bd 9352 b5bd ed34 4d3d d570 84bd
000001f0: 53f4 5abd abd9 9a3c a749 6fbd 104f 08bc

graph_matcher.gnn.conv2.lin.weight f4 [128, 64]
-0.06846021 -0.019916743 0.080489025 -0.24677593 -0.12323709 -0.19122165 -0.12567256 -0.2058634
0.30187318 -0.12521659 0.12197544 -0.0849917 0.09107968 0.06580678 -0.05675409 -0.16596827
0.025615782 -0.12832177 -0.23382665 -0.027531838 -0.077646986 0.24491265 0.06740898 -0.033137407
-0.107139416 -0.12172439 -0.25474912 -0.10458403 -0.06613626 0.21326424 0.2124465 -0.16356452
-0.14391994 -0.1272858 -0.091305226 0.20385824 -0.16094416 0.11862528 0.033082113 -0.14790653
0.060158778 0.0064981505 -0.117394 0.19760548 -0.0742944 0.06507869 0.07363598 -0.06446367
0.10182472 0.18742852 0.10292062 -0.09034708 -0.023796719 -0.08679697 -0.08195754 -0.05944466
-0.083347134 0.22897673 1.3078796e-05 -0.01079932 -0.049233243 -0.08646043 0.08148227 0.24734412
-0.106834725 -0.11731537 -0.037114263 -0.13415898 -0.11265825 -0.15681925 -0.12091156 0.0031816016
-0.22243525 0.09038279 -0.077448174 0.05999494 -0.1651656 -0.115463145 -0.19296496 -0.1915919
0.070537284 -0.11733743 0.1361737 -0.21119018 -0.1394299 0.07015188 -0.1397072 -0.09413697
0.0740165 -0.23132326 0.08877904 -0.018903896 -0.041584928 -0.1237787 -0.0438529 0.011591736
-0.20902257 -0.1474202 0.14525636 -0.32309178 -0.18485104 0.17232819 -0.24937569 -0.017570382
0.049137402 -0.023241928 -0.006892143 -0.05612164 -0.122478835 -0.08557201 -0.04356585 -0.0017723199
0.06485904 -0.22674514 0.02426097 0.14615066 -0.24413551 0.032058626 -0.026965532 -0.15082936
0.06501999 -0.07005483 -0.2127072 0.0705845 -0.034054056 -0.08632467 0.114667326 -0.26228228
-0.002785081 -0.14084692 -0.018926203 -0.094530284 0.01992008 -0.066272624 -0.035471905 -0.242261
-0.20771946 0.059754457 0.04656264 -0.15205175 -0.26183206 -0.21166803 -0.16035779 -0.060706314
-0.066362195 -0.025837176 -0.21770182 -0.07023965 -0.2419237 -0.21820778 0.08337711 -0.043435104
0.097041085 -0.26215377 0.15593883 -0.065911576 0.014881825 -0.20350175 0.13534717 -0.049858555
-0.2658943 0.16294894 -0.168499 -0.3346482 0.10795097 0.0227416 -0.12016979 -0.16627833
-0.1749404 0.024433352 -0.24909388 -0.00683826 -0.2164667 0.19197959 0.14692782 0.048947446
-0.15636857 -0.21199691 -0.058680274 0.0011852384 -0.1981882 0.080133304 0.087024964 -0.1885063
-0.020014022 -0.06348675 -0.10749399 0.04787264 0.04561688 -0.17035753 -0.046192918 -0.19421977
-0.21796125 -0.16677156 -0.03147988 0.08545453 -0.23354712 0.028931491 0.11854938 -0.1791402
-0.10598224 -0.06098669 -0.10850864 -0.09993072 -0.20876205 -0.21800853 -0.176589 -0.17690194
0.08234133 -0.013052889 0.25048396 -0.14392583 -0.060327616 0.07229151 0.066755295 -0.1405278
0.12305437 -0.10869728 0.06725545 0.091741785 0.02927679 0.039218877 0.008723881 -0.08652938
0.021622729 -0.06587446 -0.16254053 -0.11094733 -0.10560873 -0.031600047 0.12870055 -0.07140116
0.021931754 0.17201944 -0.14340527 -0.106585965 0.009373141 0.043014597 0.10514902 -0.21838483
-0.10319543 -0.03127861 -0.01390114 0.014402717 -0.084726505 -0.110934146 -0.08359559 -0.11111093
0.05731021 0.0061730137 0.121813744 -0.09513925 0.14210354 -0.18751602 0.029295236 -0.0027620322
00000000: de34 8cbd 7028 a3bc 6ed7 a43d d4b2 7cbe
00000010: ba63 fcbd 9ccf 43be 4fb0 00be dbcd 52be
00000020: 1f8f 9a3e c738 00be 42ce f93d 2110 aebd
00000030: fc87 ba3d b4c5 863d fa76 68bd 96f3 29be
00000040: 30d8 d13c c866 03be 4170 6fbe 738a e1bc
00000050: 6205 9fbd 62ca 7a3e b80d 8a3d 17bb 07bd
00000060: e96b dbbd a34a f9bd 7a6e 82be 2730 d6bd
00000070: 7372 87bd f161 5a3e 938b 593e 757d 27be
00000080: c05f 13be 3557 02be 3cfe babd 37c0 503e
00000090: 8cce 24be d0f1 f23d 1c81 073d cf74 17be
000000a0: 0d69 763d 70ee d43b 446c f0bd 1759 4a3e
000000b0: aa27 98bd fa47 853d 76ce 963d 8705 84bd
000000c0: 7b89 d03d 43ed 3f3e 0cc8 d23d e407 b9bd
000000d0: 56f1 c2bc 9cc2 b1bd 5bd9 a7bd 3e7c 73bd
000000e0: e7b1 aabd e078 6a3e 006d 5b37 a2ef 30bc
000000f0: cca8 49bd 2a12 b1bd 2de0 a63d c747 7d3e
00000100: 2acc dabd 0a43 f0bd 2005 18bd f960 09be
00000110: 5eb9 e6bd 3a95 20be 7ba0 f7bd 6b82 503b
00000120: 11c6 63be 9d1a b93d 269d 9ebd 41bd 753d
00000130: 2c21 29be f177 ecbd 9b98 45be ab30 44be
00000140: da75 903d 9b4e f0bd 1e71 0b3e 3d42 58be
00000150: b6c6 0ebe caab 8f3d 670f 0fbe e2ca c0bd
00000160: f695 973d 01e0 6cbe c9d1 b53d 58dc 9abc
00000170: f554 2abd b07f fdbd 199f 33bd 44eb 3d3c
00000180: 030a 56be 52f5 16be 15be 143e 496c a5be
00000190: 9749 3dbe cd76 303e 575c 7fbe c3ef 8fbc
000001a0: 4d44 493d db65 bebc 7cd7 e1bb cedf 65bd
000001b0: 2fd6 fabd 6140 afbd 1b72 32bd 304d e8ba
000001c0: d1d4 843d e12f 68be f1be c63c 85a8 153e
000001d0: a9fe 79be e84f 033d d2e6 dcbc 0373 1abe
000001e0: 3329 853d e878 8fbd ebcf 59be 9b8e 903d
000001f0: 447c 0bbd fdca b0bd b4d6 ea3d dd49 86be
00000200: e885 36bb 2d3a 10be 200b 9bbc 1899 c1bd
00000210: 702f a33c f1b9 87bd fd4a 11bd 4513 78be
00000220: 69b4 54be 17c1 743d 78b8 3e3d 74b3 1bbe
00000230: da0e 86be 81bf 58be d534 24be 2fa7 78bd
00000240: e7e8 87bd 7ca8 d3bc 3aed 5ebe ced9 8fbd
00000250: d9ba 77be dc71 5fbe 9ec1 aa3d 02e9 31bd
00000260: 7abd c63d 0539 86be 6eae 1f3e a6fc 86bd
00000270: e6d2 733c c362 50be 7398 0a3e 7c38 4cbd
00000280: 4c23 88be 16dc 263e 008b 2cbe 0257 abbe
00000290: 6615 dd3d 984c ba3c 941b f6bd de44 2abe
000002a0: 9423 33be 7428 c83c 7712 7fbe 7c13 e0bb
000002b0: 72a9 5dbe 4c96 443e 3f74 163e 1e7d 483d
000002c0: 151f 20be b815 59be ba5a 70bd 005a 9b3a
000002d0: d9f1 4abe ee1c a43d 253a b23d cc07 41be
000002e0: 72f4 a3bc 5705 82bd cf25 dcbd 1a16 443d
000002f0: c4d8 3a3d 3472 2ebe c934 3dbd 8ce1 46be
00000300: 3c31 5fbe 2ac6 2abe 0cf1 00bd c902 af3d
00000310: fa26 6fbe bc01 ed3c 04ca f23d 8770 37be
00000320: 370d d9bd 2ecd 79bd c739 debd 7aa8 ccbd
00000330: b8c5 55be a13d 5fbe bfd3 34be c825 35be
00000340: 92a2 a83d c9db 55bc 6f3f 803e 4b61 13be
00000350: 171a 77bd 920d 943d 00b7 883d 85e6 0fbe
00000360: ee03 fc3d ae9c debd 3abd 893d 1ee3 bb3d
00000370: e1d5 ef3c f9a3 203d 9cee 0e3c 5136 b1bd
00000380: 2622 b13c 30e9 86bd 0671 26be 5b38 e3bd
00000390: 6449 d8bd 0d6f 01bd 14ca 033e c53a 92bd
000003a0: 39aa b33c dd25 303e d5d8 12be be49 dabd
000003b0: ce91 193c 1330 303d 5f58 d73d 46a0 5fbe
000003c0: 2058 d3bd 001e 00bd 9bc1 63bc 60f9 6b3c
000003d0: 1785 adbd 7131 e3bd 2a34 abbd 218e e3bd
000003e0: 1cbe 6a3d fe46 ca3b 7c79 f93d 5ed8 c2bd
000003f0: 9783 113e 3304 40be 90fc ef3c 3603 35bb

graph_matcher.mlp.0.weight f4 [128, 256]
-0.06715858 0.061012547 -0.029727412 0.055397972 -0.05501523 -0.0036409637 -0.03210727 -0.049408082
0.02969783 -0.032868475 -0.05600791 0.054353118 -0.018935233 -0.061437853 0.009423174 -0.12078758
0.04371325 -0.037826322 -0.068035394 0.035355203 -0.0026750043 -0.00041979636 -0.033440083 -0.02358599
-0.08033888 -0.021407332 -0.011922472 -0.11933726 -0.09539036 -0.010058675 -0.07626466 -0.051305152
-0.061367325 -0.0686745 -0.044178754 0.055204995 0.01654448 0.025930896 0.0032932733 0.04999648
-0.051189393 -0.09155636 -0.029146668 -0.076306954 0.042944558 -0.1532118 -0.051660195 0.016156517
-0.004122004 -0.017804984 -0.07537473 -0.01367909 -0.028992295 -0.080706805 -0.035686694 -0.065031044
0.078646936 -0.06523157 -0.065372966 -0.03787718 -0.017352156 0.059367627 0.024420999 0.017507976
-0.08645657 -0.043698095 -0.059702896 0.051678114 -0.15717977 -0.06102732 -0.11903684 0.03857716
-0.03385509 -0.060416915 -0.070752025 -0.046253957 -0.047496617 0.061930507 0.0077897785 -0.045183375
-0.06932303 0.017222047 -0.07325888 -0.06404113 0.014928139 -0.045278944 -0.042110354 -0.026324391
-0.09218866 -0.10117345 -0.03829778 -0.14261714 -0.06893965 -0.011460159 -0.009196654 -0.059703737
-0.022523925 0.0149361985 -0.14245744 -0.007461289 0.007896263 -0.07778147 0.03733255 -0.04910839
-0.07044583 -0.08829018 -0.022393271 -0.11426296 -0.050635103 -0.01358103 -0.026560782 0.03606823
0.007423274 -0.03522596 0.043660015 0.037828244 -0.10950573 -0.029231945 0.0093445955 -0.102574565
0.061115548 -0.013808638 0.00027865183 0.023733139 -0.0029223105 -0.027019594 -0.07297288 -0.06686996
-0.09068839 0.019779513 0.011251749 0.011932834 0.00772071 0.016718574 -0.04583939 -0.09017611
0.03190073 -0.04422669 -0.102498546 -0.043811727 -0.005393386 0.0318841 -0.0030591008 -0.016072126
0.0044526234 -0.035070628 -0.0062487856 0.05311519 -0.060416825 0.0036576986 -0.044889193 -0.019129066
-0.14431034 -0.11056787 0.042974576 -0.09767327 -0.097077064 -0.025017463 0.024508465 -0.060606837
0.008625761 -0.07254993 -0.029352285 0.056421824 -0.15985145 -0.01787629 -0.06936029 -0.002312079
-0.094589606 -0.021746708 -0.088514335 -0.06753203 0.0004536584 -0.10353015 -0.008093544 -0.03870564
-0.004614695 -0.04548406 -0.14119366 0.010772887 -0.099612065 0.047913484 -0.051639266 -0.07933229
0.13732907 -0.13535307 -0.042332977 0.00036348763 -0.01653263 -0.04635843 -0.10405322 0.00519134
0.017900521 -0.027168501 -0.13447239 -0.025489643 -0.05050743 -0.10844707 -0.031451456 0.060005628
-0.106591605 -0.02434629 -0.024732597 -0.04149227 -0.036365077 -0.015650216 -0.0261217 -0.06854948
-0.10237795 0.0062599257 -0.124932356 -0.096935876 -0.09361217 0.013373926 -0.022551259 -0.11467187
-0.05643147 -0.043696098 -0.020507857 -0.05941028 0.01150975 -0.10264793 0.022472471 0.047689926
0.047851115 -0.07476746 -0.09089526 0.015662951 -0.046540704 -0.07231745 0.036676362 -0.03600497
0.001621305 -0.067209445 -0.045143746 -0.09069129 -0.06402749 -0.057479568 -0.05496108 -0.023276497
0.03807418 -0.0810187 0.020190619 0.045047168 -0.031920485 -0.086165875 -0.0940882 -0.027318303
-0.042145185 0.055846334 -0.08154803 0.0068268776 -0.046949368 -0.043818425 -0.06686992 -0.019496249
00000000: 708a 89bd 4be8 793d e786 f3bc fce8 623d
00000010: a657 61bd 3c9d 6ebb ea82 03bd 2160 4abd
00000020: dd48 f33c 18a1 06bd 8d68 65bd 60a1 5e3d
00000030: 101e 9bbc 42a6 7bbd a863 1a3c 7b5f f7bd
00000040: aa0c 333d c6ef 1abd 2456 8bbd 9ed0 103d
00000050: 204f 2fbb 1d18 dcb9 78f8 08bd 6837 c1bc
00000060: b688 a4bd 6e5e afbc 7956 43bc 1867 f4bd
00000070: 055c c3bd 24cd 24bc a530 9cbd 5a25 52bd
00000080: 4e5c 7bbd 37a5 8cbd c8f4 34bd a21e 623d
00000090: 4a88 873c 086d d43c f5d3 573b 1cc9 4c3d
000000a0: f8ab 51bd e781 bbbd fec4 eebc d246 9cbd
000000b0: a2e6 2f3d 8ee3 1cbe a499 53bd ac5a 843c
000000c0: e011 87bb c2db 91bc 115e 9abd 431e 60bc
000000d0: 4081 edbc 9c49 a5bd 362c 12bd ff2e 85bd
000000e0: a511 a13d 2198 85bd 43e2 85bd 1a25 1bbd
000000f0: 1c26 8ebc 782b 733d 8c0e c83c e36c 8f3c
00000100: 2410 b1bd c6fc 32bd 068b 74bd 6eac 533d
00000110: bcf3 20be c8f7 79bd 96c9 f3bd 1603 1e3d
00000120: a3ab 0abd ba77 77bd 70e6 90bd ca74 3dbd
00000130: d08b 42bd d8aa 7d3d 6641 ff3b 3412 39bd
00000140: 3cf9 8dbd 4015 8d3c c008 96bd ff27 83bd
00000150: 2795 743c 6a76 39bd e87b 2cbd 40a6 d7bc
00000160: 68cd bcbd 0734 cfbd 22de 1cbd 3a0a 12be
00000170: 3b30 8dbd 64c3 3bbc 90ad 16bc e88b 74bd
00000180: 1884 b8bc f5b6 743c 5de0 11be d47d f4bb
00000190: 545f 013c e44b 9fbd 04ea 183d e125 49bd
000001a0: e745 90bd 7bd1 b4bd 1872 b7bc b302 eabd
000001b0: c166 4fbd f882 5ebc ff95 d9bc 48bc 133d
000001c0: f03e f33b 1949 10bd d8d4 323d caf1 1a3d
000001d0: 8a44 e0bd d577 efbc 131a 193c 9d12 d2bd
000001e0: 4c54 7a3d a03d 62bc 0418 9239 006c c23c
000001f0: 3c84 3fbb 3258 ddbc ce72 95bd 1ef3 88bd
00000200: d6ba b9bd a508 a23c 4159 383c ef81 433c
00000210: 02fe fc3b 64f5 883c 16c2 3bbd 41ae b8bd
00000220: 57aa 023d 0c27 35bd c2ea d1bd ed73 33bd
00000230: 00bb b0bb e798 023d 327b 48bb b1a9 83bc
00000240: 50e7 913b 38a6 0fbd 9dc2 ccbb 508f 593d
00000250: a277 77bd 00b6 6f3b bbdd 37bd 8fb4 9cbc
00000260: 17c6 13be 6871 e2bd 1c06 303d ec08 c8bd
00000270: 57d0 c6bd 6cf1 ccbc fac5 c83c e03e 78bd
00000280: 1053 0d3c 0f95 94bd 3474 f0bc 921a 673d
00000290: 19b0 23be 4c71 92bc c50c 8ebd 4086 17bb
000002a0: 32b8 c1bd 2726 b2bc 0147 b5bd 3c4e 8abd
000002b0: 00d9 ed39 9e07 d4bd c99a 04bc ce89 1ebd
000002c0: de36 97bb 7e4d 3abd 1295 10be c380 303c
000002d0: 6901 ccbd ee40 443d b283 53bd f878 a2bd
000002e0: fe9f 0c3e ff99 0abe 5865 2dbd 7c92 be39
000002f0: 706f 87bc 56e2 3dbd db19 d5bd 1e1c aa3b
00000300: 1da4 923c 7a90 debc 21b3 09be a8cf d0bc
00000310: e1e0 4ebd 7f19 debd 3ed3 00bd 76c8 753d
00000320: b34c dabd df71 c7bc 049c cabc ccf3 29bd
00000330: 8cf3 14bd e234 80bc 2dfd d5bc ab63 8cbd
00000340: 88ab d1bd 1020 cd3b 89dc ffbd 5186 c6bd
00000350: bdb7 bfbd 501e 5b3c 6bbd b8bc 16d9 eabd
00000360: af24 67bd aefa 32bd 1800 a8bc 3258 73bd
00000370: 6493 3c3c 1439 d2bd 3018 b83c 8356 433d
00000380: 88ff 433d af1f 99bd 4b27 babd 974f 803c
00000390: 77a1 3ebd 2c1b 94bd f439 163d f379 13bd
000003a0: f881 d43a 1ba5 89bd a6e8 38bd 5bbc b9bd
000003b0: d820 83bd b26f 6bbd df1e 61bd 5aae bebc
000003c0: acf3 1b3d 22ed a5bd cc66 a53c 6183 383d
000003d0: 0ebf 02bd bc77 b0bd 50b1 c0bd a2ca dfbc
000003e0: 6ea0 2cbd 20bf 643d a702 a7bd 00b4 df3b
000003f0: fb4d 40bd f37a 33bd 19f3 88bd 99b6 9fbc

graph_matcher.mlp.0.bias f4 [128]
-0.12767334 0.05212459 -0.024641642 -0.12004576 -0.06232454 0.08653891 -0.04878886 -0.06511345
-0.08954903 -0.012876469 -0.013064635 -0.09435553 -0.011114151 0.062150165 0.09635105 -0.06328175
-0.023461247 0.035910025 -0.0659909 -0.06624544 -0.030081239 -0.08286208 -0.08138394 -0.003582821
-0.029384702 -0.016283983 -0.039507233 -0.06918059 -0.0016110489 -0.035596605 -0.003186603 0.0335034
-0.021459054 0.024267405 -0.07020425 -0.05098196 -0.02066303 -0.00613218 0.042784058 0.027072798
-0.075552054 -0.039646577 -0.05707774 0.036150157 -0.08728954 -0.02561591 -0.03650702 -0.05068008
0.081177495 -0.059158318 -0.055945233 -0.06562177 -0.08954556 0.050356045 -0.05326466 -0.17307372
-0.009852147 -0.08817574 0.05551649 -0.016887624 -0.028626526 -0.021279369 0.008955067 0.0431458
-0.0075780656 -0.11262756 -0.12536429 -0.046739988 -0.028045952 0.08757068 -0.01217777 -0.047470253
-0.04935723 -0.027082138 0.040368043 -0.059321947 -0.112397455 -0.023483336 -0.05938755 -0.013845515
-0.08762338 -0.052636217 -0.117251806 -0.055591412 -0.022106595 -0.1000898 -0.04210789 -0.081601545
-0.09086321 0.07319462 -0.09041557 0.023589164 -0.10592168 -0.106552616 -0.11051269 -0.07834502
-0.094750635 -0.08004511 -0.024289709 -0.009069629 -0.0399236 -0.064441815 -0.055659804 -0.06469287
-0.12862185 -0.03210286 -0.05841296 -0.08692601 -0.11398529 -0.06300658 0.018521931 -0.008122897
-0.05043087 -0.0141460225 -0.04744665 -0.038978346 -0.09207156 -0.08399694 -0.032707367 -0.104853176
0.0970383 -0.115972005 -0.115027495 0.022242837 -0.09859961 0.05470152 -0.034609772 -0.020542849
00000000: cdbc 02be 9880 553d 45dd c9bc 8dda f5bd
00000010: 0448 7fbd 503b b13d d4d6 47bd 335a 85bd
00000020: 7b65 b7bd d3f7 52bc 0d0d 56bc 793d c1bd
00000030: 2118 36bc 2c91 7e3d b353 c53d dd99 81bd
00000040: cd31 c0bc 6416 133d 3d26 87bd b0ab 87bd
00000050: ee6c f6bc 98b3 a9bd a0ac a6bd c3cd 6abb
00000060: 30b8 f0bc fd65 85bc 56d2 21bd 8eae 8dbd
00000070: d529 d3ba bfcd 11bd 54d6 50bb dc3a 093d
00000080: e6ca afbc 70cc c63c 3fc7 8fbd 76d2 50bd
00000090: 8445 a9bc 74f0 c8bb 563e 2f3d c6c7 dd3c
000000a0: 09bb 9abd 7364 22bd 59ca 69bd 3012 143d
000000b0: dcc4 b2bd 75d8 d1bc 6388 15bd ea95 4fbd
000000c0: 6340 a63d fe4f 72bd d426 65bd b564 86bd
000000d0: aa63 b7bd 2442 4e3d 0b2c 5abd 3d3a 31be
000000e0: e66a 21bc 7b95 b4bd 4265 633d ea57 8abc
000000f0: 2d82 eabc 1252 aebc 46b8 123c a6b9 303d
00000100: 6c51 f8bb 47a9 e6bd 7f5f 00be 6e72 3fbd
00000110: a0c0 e5bc 4258 b33d 4585 47bc 2b70 42bd
00000120: cf2a 4abd 5cdb ddbc f658 253d 92fb 72bd
00000130: a330 e6bd 2060 c0bc 5c40 73bd 4dd8 62bc
00000140: e373 b3bd 1399 57bd b721 f0bd d2b3 63bd
00000150: e418 b5bc e2fb ccbd 5379 2cbd b61e a7bd
00000160: 7e16 babd 10e7 953d cc2b b9bd 103e c13c
00000170: 77ed d8bd 4238 dabd 7a54 e2bd 5b73 a0bd
00000180: 9f0c c2bd b1ee a3bd 36fb c6bc c898 14bc
00000190: ee86 23bd 12fa 83bd 89fb 63bd b27d 84bd
000001a0: 72b5 03be 4a7e 03bd 6e42 6fbd 4406 b2bd
000001b0: 1f71 e9bd 9809 81bd 4ebb 973c e615 05bc
000001c0: 9a90 4ebd b8c4 67bc 6b57 42bd c2a7 1fbd
000001d0: 0490 bcbd 9606 acbd 29f8 05bd 43bd d6bd
000001e0: 04bc c63d bb82 edbd 8993 ebbd 9c36 b63c
000001f0: 98ee c9bd b30e 603d fac2 0dbd 7a49 a8bc

graph_matcher.mlp.2.weight f4 [128, 128]
0.030117556 0.071858205 -0.06178821 -0.07010502 0.03828392 -0.019431552 0.0086165145 -0.06404344
0.013300724 -0.056170296 -0.07541497 -0.04648717 0.040824972 -0.068270184 0.026220925 0.015014224
0.011271246 -0.063407406 -0.10510037 -0.024795443 0.017799295 -0.04121574 0.042032607 -0.018815868
0.03171394 0.08452747 -0.08706306 -0.008777827 -0.016528301 0.044602536 -0.06780349 -0.03537588
-0.009360967 -0.027629282 0.057911955 -0.03141174 -0.016918704 -0.080943055 -0.027126867 -0.040712144
0.03877089 -0.0518836 -0.037432555 -0.051096104 -0.06144107 0.046871178 0.0012926415 -0.013697915
-0.080811195 0.056362905 -0.041802127 0.013727069 -0.05416242 -0.08184387 -0.08395084 -0.06865968
0.008917062 -0.028108828 -0.03103247 0.06738267 0.0016440749 -0.04145663 -0.041114938 -0.047554225
-0.062336683 0.031640776 0.06838801 0.048358135 0.020751432 -0.13211854 -0.017566293 -0.034321643
-0.019221038 0.046032064 -0.14232346 -0.045788545 0.08446386 -0.03844061 -0.004899189 -0.033661224
-0.08044537 0.049433358 0.0038029328 -0.037575305 -0.05139475 0.0069122165 0.057508163 -0.016679682
-0.061027475 -0.13215545 -0.040460195 -0.05317938 -0.030050661 -0.039888155 -0.050212342 0.009911947
-0.024305202 0.088355266 -0.08551214 -0.111322924 -0.017628878 0.059991963 0.020674303 -0.08505346
0.08278475 -0.003814049 0.04101088 0.057615705 -0.0769687 -0.06365627 -0.009605415 -0.040076364
0.067127205 -0.058302484 0.0690264 -0.05975222 -0.019353688 0.08451686 -0.03139681 0.07427441
-0.0045326725 0.056629248 -0.07381577 0.02270756 0.061578922 0.028030207 0.05925078 0.069252945
0.07260258 0.083967924 0.05324411 0.048570387 0.040976517 0.07574907 -0.047556628 0.053854667
0.0119608715 -0.03721892 0.06799238 -0.032845546 0.00042040646 -0.058037736 0.04843446 -0.050035674
0.0853911 -0.024444036 0.0056740195 0.01662746 -0.032567564 0.033880554 -0.0112664625 -0.01495707
-0.07779756 0.082734995 -0.039511595 0.0736598 -0.056450654 -0.06784804 -0.022739708 -0.043175854
-0.05131874 -0.018647889 -0.04298006 0.003001541 -0.043036345 -0.05165542 -0.012211688 -0.055206385
-0.00827121 0.06797334 0.011980727 -0.07402661 -0.03127079 0.062465437 0.048240907 0.06675512
0.014692372 -0.0056076273 -0.03763217 0.015268594 -0.04925483 -0.033831358 0.06335487 0.011270046
-0.07718256 0.07290771 -0.08273651 -0.0810828 -0.08477314 0.077633165 -0.030063737 0.08572129
0.027271718 -0.011890471 0.023844972 0.04879593 -0.045239024 -0.0076837055 -0.027767334 -0.015233569
-0.06704337 0.087444134 -0.072114795 -0.0604309 -0.030867476 -0.031961862 -0.061064564 -0.080001555
-0.02785347 0.08436293 -0.014134765 -0.023788348 0.039850704 -0.049283277 -0.06899616 -0.08074083
0.044312738 0.0539779 0.03805714 0.087311365 -0.07597759 -0.071580805 0.026808865 -0.06795982
0.016288541 0.091116026 -0.067126304 -0.08742075 -0.046914954 -0.028044026 0.08053256 -0.069088444
-0.08375797 -0.07629077 0.08402059 0.073152 -0.025231592 0.08203054 -0.0482214 0.016354844
0.0489972 0.0089925155 -0.019241922 -0.053954583 0.021549694 -0.054864775 -0.08481089 -0.002122283
-0.0069779055 0.033093013 0.069138 0.0047552213 0.06644634 0.085621856 0.024573877 0.021220967
00000000: 18b9 f63c 652a 933d a215 7dbd 3993 8fbd
00000010: 9acf 1c3d eb2e 9fbc 482c 0d3c 3529 83bd
00000020: 48eb 593c d312 66bd 2a73 9abd 5569 3ebd
00000030: 1638 273d 3dd1 8bbd 44cd d63c 38fe 753c
00000040: 08ab 383c bedb 81bd dd3e d7bd d01f cbbc
00000050: d4cf 913c d6d1 28bd 622a 2c3d bc23 9abc
00000060: 7ae6 013d bd1c ad3d 1e4e b2bd e0d0 0fbc
00000070: 5c66 87bc 26b1 363d 8edc 8abd 4ce6 10bd
00000080: be5e 19bc ce56 e2bc 1635 6d3d 99a9 00bd
00000090: 1899 8abc 79c5 a5bd 2a39 debc c7c1 26bd
000000a0: 3ace 1e3d e683 54bd e152 19bd 264a 51bd
000000b0: a2a9 7bbd fefb 3f3d da6d a93a 386d 60bc
000000c0: 5780 a5bd cadc 663d b538 2bbd 80e7 603c
000000d0: 6ad9 5dbd c29d a7bd 6bee abbd 729d 8cbd
000000e0: de18 123c 7c44 e6bc ce37 febc edff 893d
000000f0: 007e d73a 6dce 29bd 2368 28bd 38c8 42bd
00000100: c054 7fbd c299 013d 030f 8c3d 2e13 463d
00000110: e8fe a93c 154a 07be 30e7 8fbc da94 0cbd
00000120: 7075 9dbc 1e8c 3c3d 3ebd 11be c58c 3bbd
00000130: 63fb ac3d e773 1dbd 6089 a0bb 5ae0 09bd
00000140: 8bc0 a4bd a27a 4a3d a03a 793b 90e8 19bd
00000150: 4d83 52bd e07f e23b ae8d 6b3d d4a3 88bc
00000160: f2f7 79bd c253 07be 97b9 25bd 9fd2 59bd
00000170: ce2c f6bc c361 23bd 75ab 4dbd b865 223c
00000180: b41b c7bc 9bf3 b43d fd20 afbd 46fd e3bd
00000190: 706a 90bc 22ba 753d 285d a93c 8230 aebd
000001a0: 0d8b a93d 20f5 79bb 06fb 273d 72fe 6b3d
000001b0: c4a1 9dbd 385e 82bd 0860 1dbc 1d27 24bd
000001c0: fd79 893d 96ce 6ebd b75d 8d3d bebe 74bd
000001d0: a08b 9ebc 2d17 ad3d f199 00bd 2f1d 983d
000001e0: d086 94bb 12f4 673d b92c 97bd 3405 ba3c
000001f0: 2e3a 7c3d 9b9f e53c f2b0 723d 7dd4 8d3d
00000200: a9b0 943d 60f7 ab3d 7f16 5a3d bef1 463d
00000210: fed6 273d 5422 9b3d bdca 42bd b696 5c3d
00000220: 88f7 433c de72 18bd 973f 8b3d 0d89 06bd
00000230: 006a dc39 fab8 6dbd 3663 463d 35f2 4cbd
00000240: 87e1 ae3d dc3e c8bc 20ed b93b 5036 883c
00000250: 9165 05bd 56c6 0a3d f896 38bc 800e 75bc
00000260: 5454 9fbd f770 a93d e9d6 21bd f3da 963d
00000270: cd38 67bd eaf3 8abd a048 babc 2ad9 30bd
00000280: 9933 52bd 75c3 98bc dc0b 30bd 80b5 443b
00000290: e146 30bd a294 53bd 8813 48bc 1720 62bd
000002a0: f883 07bc 9b35 8b3d d04a 443c 439b 97bd
000002b0: cd15 00bd c2db 7f3d 4298 453d e9b6 883d
000002c0: 46b8 703c 30c0 b7bb 3124 1abd 2029 7a3c
000002d0: 6fbf 49bd c092 0abd 33c0 813d 00a6 383c
000002e0: e411 9ebd a350 953d c271 a9bd bd0e a6bd
000002f0: 8a9d adbd 23fe 9e3d 3a48 f6bc a58e af3d
00000300: f068 df3c 40d0 42bc 8856 c33c 3ede 473d
00000310: 8e4c 39bd 98c7 fbbb 5278 e3bc 3896 79bc
00000320: 094e 89bd e915 b33d ecb0 93bd 6486 77bd
00000330: cadd fcbc 71ea 02bd d61e 7abd dbd7 a3bd
00000340: f62c e4bc 79c6 ac3d 8095 67bc c8df c2bc
00000350: 7e3a 233d 43dd 49bd dc4d 8dbd 735b a5bd
00000360: 4681 353d ee17 5d3d cee1 1b3d 4dd0 b23d
00000370: 249a 9bbd f598 92bd 449e db3c 852e 8bbd
00000380: 8c6f 853c 0a9b ba3d 8479 89bd a609 b3bd
00000390: e529 40bd 96bc e5bc 41ee a43d 3e7e 8dbd
000003a0: 4c89 abbd 563e 9cbd fd12 ac3d b7d0 953d
000003b0: 7cb2 cebc a1ff a73d cd83 45bd 98fa 853c
000003c0: 4ab1 483d 5855 133c 3ca1 9dbc 7bff 5cbd
000003d0: fc88 b03c e3b9 60bd 55b1 adbd 0016 0bbb
000003e0: eaa6 e4bb 8a8c 073d 3998 8d3d b0d1 9b3b
000003f0: 0515 883d 835a af3d 284f c93c 98d7 ad3c

graph_matcher.mlp.2.bias f4 [128]
-0.09796549 -0.022987828 -0.0015762849 -0.06370303 -0.052922357 0.038761314 -0.07842678 -0.13345902
-0.072392575 -0.055707507 -0.03266409 0.12585661 -0.03784364 -0.08406726 0.07133798 -0.036074694
-0.060663637 -0.08055827 0.07053588 -0.037462167 -0.05890729 0.077584736 -0.100075245 -0.08671822
-0.022237102 0.005851063 0.12930952 -0.049948886 0.0685772 -0.11219228 -0.16124085 0.01162899
-0.09122534 -0.029943384 -0.052707426 -0.037115626 0.1087317 -0.019397583 0.014389297 -0.031511653
-0.025634438 -0.025938854 -0.045223277 -0.035717107 -0.036548637 -0.08757569 -0.006533686 0.054036226
0.05183489 0.014193694 -0.068581305 -0.058094565 0.060314603 -0.12778923 -0.022404762 0.08576669
0.008206838 0.15583602 -0.028374609 0.050286278 0.08807807 -0.03391444 -0.06951278 0.029358994
0.019083226 0.039115302 0.05791025 0.007259075 0.024067055 0.013779667 -0.03770598 -0.036688533
-0.043419074 -0.15284704 0.08727905 0.0120049585 -0.025729341 -0.013320842 0.116562285 0.125907
-0.004162173 0.07383153 0.015934585 -0.041647386 0.07443572 -0.021933578 -0.09940026 -0.047609564
-0.050011728 0.042624295 -0.11038552 -0.009959632 -0.057710167 0.058360845 -0.08717649 0.0119169615
-0.07399521 0.11319665 -0.118179545 0.10886477 -0.040663954 0.046349514 0.044705585 0.099840134
-0.066559225 0.07163608 -0.01568843 0.08350483 -0.10274788 0.0007364594 -0.08143239 -0.08864454
-0.015105715 -0.08053759 -0.0617271 0.09255291 0.06204626 -0.054815337 0.052695677 -0.15489687
-0.061729968 0.061265595 0.04630337 -0.0649464 0.09876939 0.023715517 0.100013606 0.051469453
00000000: 21a2 c8bd f850 bcbc 589b ceba bc76 82bd
00000010: 1dc5 58bd 2fc4 1e3d 389e a0bd 7ba9 08be
00000020: 8f42 94bd 8e2d 64bd c8ca 05bd 8ee0 003e
00000030: ef01 1bbd 752b acbd a619 923d 0fc3 13bd
00000040: 6f7a 78bd bcfb a4bd 1e75 903d ee71 19bd
00000050: c548 71bd bfe4 9e3d 40f4 ccbd 5299 b1bd
00000060: 952a b6bc 46ba bf3b b769 043e 3497 4cbd
00000070: 3472 8c3d 11c5 e5bd 521c 25be 8587 3e3c
00000080: 5ad4 babd d44b f5bc bee3 57bd 8e06 18bd
00000090: baae de3d aee7 9ebc 16c1 6b3c 5d12 01bd
000000a0: 50ff d1bc b87d d4bc 0b3c 39bd 1a4c 12bd
000000b0: 06b4 15bd e25a b3bd 8818 d6bb 1755 5d3d
000000c0: d250 543d ab8c 683c 5b74 8cbd 91f4 6dbd
000000d0: 720c 773d 2edb 02be 318a b7bc 72a6 af3d
000000e0: f975 063c 7a93 1f3e de71 e8bc fcf8 4d3d
000000f0: 4662 b43d dee9 0abd b75c 8ebd 4682 f03c
00000100: 6d54 9c3c 5e37 203d 4c33 6d3d 89dd ed3b
00000110: 4628 c53c 1dc4 613c 9671 1abd b746 16bd
00000120: 33d8 31bd ef83 1cbe 5cbf b23d 72b0 443c
00000130: 57c6 d2bc a93f 5abc 35b8 ee3d c4ed 003e
00000140: d662 88bb fc34 973d 3f89 823c 7396 2abd
00000150: c171 983d 0cae b3bc 5d92 cbbd 3f02 43bd
00000160: 19d9 4cbd d096 2e3d ce11 e2bd b92d 23bc
00000170: 7f61 6cbd c80b 6f3d 9689 b2bd 5c3f 433c
00000180: cd8a 97bd a5d3 e73d 1e08 f2bd 7ef4 de3d
00000190: 3f8f 26bd fdd8 3d3d 341d 373d fc78 cc3d
000001a0: 3450 88bd f0b5 923d 0685 80bc 9504 ab3d
000001b0: 7b6d d2bd f40e 413a 06c6 a6bd 458b b5bd
000001c0: f67d 77bc e4f0 a4bd 8ed5 7cbd 618c bd3d
000001d0: 3824 7e3d 0c86 60bd 6cd7 573d 499d 1ebe
000001e0: 90d8 7cbd a2f1 7a3d 9aa8 3d3d 9e02 85bd
000001f0: 9b47 ca3d 0b47 c23c efd3 cc3d a2d1 523d

graph_matcher.mlp.4.weight f4 [64, 128]
0.12685998 0.07446199 0.06352325 -0.050200403 0.11230205 -0.08522798 0.025546132 -0.01802422
0.044520225 0.109600365 -0.0026008917 0.04793978 0.010814725 -0.100373745 0.036401793 -0.02105699
0.019510187 -0.024854776 0.16154288 0.028670875 0.031794388 0.094053864 -0.04218765 -0.023924954
0.050340757 0.07594184 0.077794485 0.010574449 0.02879984 -0.0297812 -0.1481962 -0.010756148
-0.019472998 0.025168821 0.061852477 0.075584725 0.071300544 0.09858004 0.0042491313 -0.040579956
0.0414171 -0.026967881 0.142966 0.020442046 0.022099033 0.10856948 -0.0035125953 -0.070168845
0.028618842 0.021446226 0.029651765 0.08310283 -0.013417847 -0.006780692 0.031114338 0.0388389
0.09522814 -0.03154895 0.032997124 0.03139729 0.0366278 -0.038396567 -0.064150505 -0.045591485
0.0882292 0.01008653 0.043273713 -0.025045259 -0.081971 -0.036234878 -0.06253619 -0.085471734
0.010814224 -0.06377258 0.039467044 0.014908577 0.12692566 -0.049978662 -0.08355922 -0.028573427
0.041841738 0.16439244 -0.019784655 0.006031239 -0.026910271 -0.05005067 -0.02052126 -0.08718304
0.08922797 0.15332457 -0.014903499 -0.042689893 0.025444187 -0.11594842 -0.022690818 -0.048552573
0.06775076 0.23054557 -0.06583973 0.10705766 0.053845577 -0.09525175 0.05100948 0.20349254
0.005617846 0.051701773 -0.003722697 0.06914264 0.12983601 -0.03404685 -0.03744822 -0.09822267
-0.07184649 0.0048957244 0.049188074 0.08385545 0.0077926097 0.013054649 -0.07834542 -0.0155286975
-0.10389541 -0.0113806715 0.07941405 -0.050612833 0.056168612 -0.0155159645 0.0039738705 -0.0062594707
-0.03040984 -0.026269898 0.018990124 -0.04741079 -0.005451385 0.06831925 0.017382482 0.13383192
-0.013354146 0.14468466 0.09640734 0.06599556 0.14705756 0.022439858 0.05663287 0.03815606
-0.025660612 -0.12883559 0.09706439 0.07218973 0.09533018 0.12584601 0.043491848 0.058527835
0.1495168 0.070634164 0.17113023 0.03722729 -0.008321918 0.09168711 -0.10151278 0.06826999
0.015372146 -0.065983996 0.0047075823 0.10641265 0.05586016 0.0010337428 0.06527774 0.038186498
-0.021609299 0.06867142 0.051282942 -0.08826429 0.036418337 0.10866115 -0.01794181 0.0703883
0.07186799 0.07983376 0.04447428 0.15310405 0.05869064 0.08053241 0.1369017 0.15324473
-0.08174167 0.02492845 0.07047523 0.1876845 -0.043209344 -0.04163374 -0.053536054 0.060855012
-0.025393046 0.13951448 0.18186693 0.016947016 0.046971306 0.14738482 -0.0032351464 0.06665759
-0.022239344 0.13569024 0.076701 0.042736854 0.015129164 0.10775625 -0.04449883 0.09624399
0.15728329 0.11822202 0.04263612 -0.09381383 0.19803828 0.063926674 -0.07876462 0.08073569
0.08957681 0.12047381 0.031230325 0.13583143 -0.026227484 -0.17093204 -0.06942568 -0.034363784
-0.08202236 0.21645628 0.018595206 0.102163464 0.007958669 0.05512106 0.06694876 0.124356344
0.039223466 0.10186844 0.06543259 0.11358215 -0.094971806 0.19052318 0.011349498 -0.11395254
0.09301704 0.04108735 0.010157225 0.08958464 0.15204352 -0.070694305 -0.03436604 -0.003973784
-0.09121669 0.12452811 0.14883243 -0.03244826 -0.0593603 0.116623744 0.13467793 0.0042825127
00000000: 95e7 013e 877f 983d 7a18 823d f09e 4dbd
00000010: 9efe e53d 028c aebd 1f46 d13c 87a7 93bc
00000020: d75a 363d 2876 e03d b973 2abb 815c 443d
00000030: 3f30 313c c090 cdbd 0c1a 153d b57f acbc
00000040: d4d3 9f3c 3e9c cbbc 7f6b 253e 2fdf ea3c
00000050: d53a 023d 509f c03d f5cc 2cbd 44fe c3bc
00000060: 1c32 4e3d 6587 9b3d b752 9f3d 7440 2d3c
00000070: a4ed eb3c b4f7 f3bc bfc0 17be 8e3a 30bc
00000080: d685 9fbc d82e ce3c 0659 7d3d 2acc 9a3d
00000090: 0506 923d 55e4 c93d 4c3c 8b3b 2b37 26bd
000000a0: faa4 293d bfeb dcbc ae65 123e 1476 a73c
000000b0: 0809 b53c ad59 de3d 9233 66bb afb4 8fbd
000000c0: 1072 ea3c ffaf af3c 42e8 f23c d131 aa3d
000000d0: 88d6 5bbc 9130 debb 7fe3 fe3c 8a15 1f3d
000000e0: f906 c33d 7939 01bd fe27 073d 729a 003d
000000f0: 0807 163d b845 1dbd 5761 83bd 23be 3abd
00000100: 83b1 b43d f941 253c c73f 313d b72b cdbc
00000110: 69e0 a7bd 066b 14bd f912 80bd ce0b afbd
00000120: 252e 313c 339b 82bd 32a8 213d 1b43 743c
00000130: cdf8 013e 6db6 4cbd 1921 abbd d212 eabc
00000140: 3e62 2b3d 7e56 283e 6e13 a2bc b3a1 c53b
00000150: ee72 dcbc ee01 4dbd 341c a8bc 068d b2bd
00000160: 27bd b63d 1e01 1d3e ce2d 74bc 99db 2ebd
00000170: 5470 d03c 5d76 edbd 18e2 b9bc 10df 46bd
00000180: e9c0 8a3d 2314 6c3e fbd6 86bd 0c41 db3d
00000190: 2e8d 5c3d 5913 c3bd 51ef 503d 5960 503e
000001a0: e815 b83b 3dc5 533d 7ef8 73bb a89a 8d3d
000001b0: bbf3 043e b674 0bbd 4e63 19bd f828 c9bd
000001c0: 4124 93bd 506c a03b 6f79 493d 68bc ab3d
000001d0: 2659 ff3b 2be3 553c 9073 a0bd 146c 7ebc
000001e0: 1ec7 d4bd ff75 3abc d5a3 a23d 674f 4fbd
000001f0: 0f11 663d ac36 7ebc 3e37 823b 3f1c cdbb
00000200: 0f1e f9bc f833 d7bc 2d91 9b3c d131 42bd
00000210: 88a1 b2bb f7ea 8b3d b565 8e3c 3c0b 093e
00000220: 59cb 5abc 3728 143e 3671 c53d ae28 873d
00000230: 4296 163e cbd3 b73c def7 673d 8749 1c3d
00000240: 3436 d2bc 7aed 03be b2c9 c63d 36d8 933d
00000250: 783c c33d c7dd 003e 8224 323d e2ba 6f3d
00000260: ef1a 193e a5a8 903d c33c 2f3e a57b 183d
00000270: a758 08bc 74c6 bb3d efe5 cfbd 23d1 8b3d
00000280: 74db 7b3c 9e22 87bd 1042 9a3b e0ee d93d
00000290: a0cd 643d a77e 873a 56b0 853d 7269 1c3d
000002a0: fc05 b1bc 9aa3 8c3d 100e 523d e8c3 b4bd
000002b0: 652b 153d bd89 de3d b4fa 92bc be27 903d
000002c0: 862f 933d e27f a33d aa2a 363d 4fc7 1c3e
000002d0: 9965 703d 2dee a43d f62f 0c3e 30ec 1c3e
000002e0: 2d68 a7bd c036 cc3c 5155 903d 5e30 403e
000002f0: 48fc 30bd 2488 2abd 9f48 5bbd 1b43 793d
00000300: 1405 d0bc e2dc 0e3e 533b 3a3e 78d4 8a3c
00000310: fc64 403d 0cec 163e c004 54bb c683 883d
00000320: 492f b6bc 62f2 0a3e 6a15 9d3d d70c 2f3d
00000330: 50e0 773c 4faf dc3d 6844 36bd 921b c53d
00000340: df0e 213e 631e f23d 36a3 2e3d 7721 c0bd
00000350: 8cca 4a3e fdeb 823d 584f a1bd c158 a53d
00000360: 0c74 b73d f9ba f63d bdd6 ff3c 6517 0b3e
00000370: 05db d6bc cf08 2fbe 0d2f 8ebd 0ac1 0cbd
00000380: 57fb a7bd b7a6 5d3e f954 983c 143b d13d
00000390: 1465 023c 9fc6 613d 6e1c 893d 8aae fe3d
000003a0: c9a8 203d 67a0 d03d 8601 863d c29d e83d
000003b0: 9480 c2bd 8218 433e 3ff3 393c f35f e9bd
000003c0: b87f be3d 364b 283d 7d6a 263c 2778 b73d
000003d0: 4cb1 1b3e 2dc8 90bd 68c3 0cbd 8436 82bb
000003e0: d1cf babd 9808 ff3d 8767 183e 77e8 04bd
000003f0: c923 73bd 6ed8 ee3d 03e9 093e 5254 8c3b

graph_matcher.mlp.4.bias f4 [64]
0.14505069 -0.033322774 0.006611502 0.10120538 0.1314268 -0.15421866 0.13083524 0.0042936234
-0.021431949 -0.0056517283 0.114662305 0.024923015 -0.022011194 -0.16494909 -0.0018838888 0.10333911
0.11960833 0.0412515 0.029769637 0.016938346 -0.17546308 -0.17360978 0.17077217 0.1730676
-0.07122206 0.22417109 0.07858905 0.20630403 -0.06964597 0.06381375 -0.1618809 -0.057588875
0.014492729 -0.03606941 0.06481229 -0.081268825 0.026113797 -0.04954763 0.07678392 0.07731554
0.09736915 0.19825932 0.10349457 0.0580269 0.14751592 -0.047467485 -0.20190005 -0.034358464
0.25106782 0.13102034 -0.13401352 0.09197203 0.08297996 0.09010613 0.04809078 0.116067134
-0.10894257 0.046248432 0.13769114 0.046627354 -0.0032193216 0.11909145 0.12503855 -0.017475666
00000000: 2b88 143e 767d 08bd 4ca5 d83b c444 cf3d
00000010: bf94 063e 7feb 1dbe acf9 053e 86b1 8c3b
00000020: 0e92 afbc 2232 b9bb 12d4 ea3d 5a2b cc3c
00000030: d250 b4bc 6ae8 28be d2ec f6ba 75a3 d33d
00000040: 36f5 f43d 55f7 283d 74df f33c 49c2 8a3c
00000050: 98ac 33be c3c6 31be e6de 2e3e a238 313e
00000060: dfdc 91bd 1b8d 653e 4cf3 a03d 5d41 533e
00000070: 8ca2 8ebd c9b0 823d 1bc4 25be 50e2 6bbd
00000080: e972 6d3c 85bd 13bd 4ebc 843d 4570 a6bd
00000090: 9aec d53c 75f2 4abd e340 9d3d 9c57 9e3d
000000a0: 7a69 c73d 7e04 4b3e f6f4 d33d 9dad 6d3d
000000b0: 6a0e 173e 446d 42bd e3be 4ebe 76bb 0cbd
000000c0: f68b 803e 322a 063e d73a 09be d55b bc3d
000000d0: 66f1 a93d 9089 b83d d6fa 443d 9bb4 ed3d
000000e0: 481d dfbd ff6e 3d3d e8fe 0c3e 53fc 3e3d
000000f0: 41fb 52bb 38e6 f33d 1b0a 003e 2129 8fbc
