Result/GCN/5000_sample/model_epoch_81_f1_0.7895.pth (torch, 841514 bytes, 42 tensors)

graph_matcher.gnn.conv1.bias f4 [64]
0.1476491 0.0 0.0 -0.1367374 -0.07939498 -0.07305592 -0.05906533 0.07470003
0.02819558 0.099668495 0.034602694 0.009684338 -0.09812827 0.1376175 -0.18531081 -0.1414992
0.0 0.25031513 0.116165236 -0.06920681 -0.0051625897 0.06500005 0.0 0.091469124
0.0 0.25003296 -0.09841516 0.0 -0.059761688 0.10696967 0.1381817 -0.060464986
-0.28052017 -0.26447502 0.07076271 0.018398974 -0.06044531 0.10089162 -0.08228773 -0.1694356
-0.09263841 0.15746982 -0.089153364 -0.060547017 0.14618695 0.043522496 -0.02097216 -0.007021803
-0.10156299 -0.16324158 -0.053519912 0.0 -0.24204561 -0.07106312 0.042940527 -0.053617615
0.10198631 0.08320228 -0.04936534 0.017707316 0.0 -0.0338329 -0.117725074 -0.098001525
00000000: 5331 173e 0000 0000 0000 0000 e404 0cbe
00000010: d699 a2bd 589e 95bd 7dee 71bd 54fc 983d
00000020: 6bfa e63c ff1e cc3d 8ebb 0d3d 0fab 1e3c
00000030: 79f7 c8bd 9aeb 0c3e 1ec2 3dbe 2be5 10be
00000040: 0000 0000 4e29 803e 0ae8 ed3d 4dbc 8dbd
00000050: f12a a9bb bf1e 853d 0000 0000 2a54 bb3d
00000060: 0000 0000 5204 803e e38d c9bd 0000 0000
00000070: acc8 74bd ea12 db3d 817f 0d3e 22aa 77bd
00000080: 57a0 8fbe 4569 87be 0aec 903d 72b9 963c
00000090: 8095 77bd 44a0 ce3d 7886 a8bd 8780 2dbe
000000a0: 35b9 bdbd c53f 213e 0a96 b6bd 2600 78bd
000000b0: 08b2 153e a544 323d cfcd abbc 2717 e6bb
000000c0: 4200 d0bd cd28 27be b237 5bbd 0000 0000
000000d0: ceda 77be 8b89 91bd 68e2 2f3d 259e 5bbd
000000e0: 33de d03d f565 aa3d 5033 4abd ef0e 913c
000000f0: 0000 0000 5e94 0abd d819 f1bd 06b5 c8bd

graph_matcher.gnn.conv1.lin.weight f4 [64, 4]
0.28547037 0.12433213 0.9186765 -0.6140588 -0.1951851 -0.26792508 -0.29533294 -0.065546945
-0.26576346 -0.1648319 -0.2926779 -0.18378747 0.632745 0.27182996 0.36324212 -0.6823596
0.37918308 0.32696143 0.75644565 -0.6503293 0.51016015 -0.681191 -0.73714745 0.24691801
-1.170017 -0.8251958 -0.5447969 0.6549107 0.1554101 0.5667992 0.3949093 -1.0254102
-0.072084546 0.5793976 0.7137274 -0.28584275 -0.924529 0.7350618 0.18427165 0.16388725
0.11785431 0.19269675 0.83183193 -0.4867439 -1.2208121 0.42614087 -0.48727137 0.29418412
0.59864354 0.29138324 0.6650257 -0.5234434 -0.12341524 0.5193647 0.9387176 -0.43702066
-0.94390696 -0.9972097 -0.63277113 0.14430259 0.66256756 -0.9495614 -1.0007924 -0.59484977
-0.04492408 -0.2700991 -0.077717975 -0.020411164 -0.8414202 0.7973026 0.1993887 0.11711228
-1.273893 0.71809083 0.9214556 -1.1784365 0.3291879 0.34953547 0.612555 -0.32721707
-0.015825523 0.5932794 0.62888956 -0.81561303 0.036358386 0.5159714 0.8575589 -0.29179144
-0.15157172 -0.28335178 -0.23665062 -0.036172777 -0.5515789 0.9604541 0.07243029 0.1269331
-0.055095345 -0.18508239 -0.08889231 -0.0829974 -1.3759099 -1.0990133 -0.35257277 0.45458648
0.40566093 0.562125 0.54791015 -0.5537805 -0.14110875 -0.28527066 -0.28128412 -0.027018458
-0.19034874 -0.052915763 -0.28569373 -0.1413581 0.20155454 0.33112448 0.95713806 -0.42397386
-0.05987632 0.31434932 0.8725858 -0.6559065 -0.19524486 -0.27259344 -0.053354327 -0.044967942
0.55259293 -0.56883025 0.6693206 -0.42109767 0.7941416 -0.40872297 -0.8462412 -0.54549354
-1.3971642 0.9492889 1.139362 -1.3507171 0.14255607 0.23554102 0.9813781 -0.3027407
-0.9073903 -0.88465536 -0.4413873 0.5589645 -0.15519343 0.43554312 0.75505805 -0.7200885
-0.2377813 -0.18228954 -0.23921978 -0.020196477 0.8391719 -0.7743009 -0.7531014 -0.19437347
-0.21824482 -0.07288154 0.003091611 0.040616572 -1.5154898 0.7802652 0.9255575 -1.327756
-0.08622998 -0.082834564 -0.053973783 0.024235278 0.16722135 -0.5457249 1.0875015 -0.32312015
-1.1401271 -0.96747184 -0.466246 0.53608805 -1.3851672 0.5399943 1.0346055 -0.19920045
-1.1747481 0.9720772 -0.6031087 -0.038274072 -1.4452156 1.0223229 0.46840724 -0.14965917
-0.0015615223 -0.040275827 -0.22337322 -0.19103678 0.5803585 0.06589521 0.43454972 -0.33386186
-0.14607808 -0.10652709 -0.05009029 -0.108023 -0.242852 -0.15893044 -0.08620915 -0.04837215
0.78172195 -0.8631153 -0.6401762 -0.39235404 -1.1715595 0.934824 -0.08147827 -0.08554327
-1.3024932 0.90842557 -0.53482187 -0.19763213 0.03201532 -0.1917614 -0.173329 -0.27014768
0.6437035 -1.1859483 -1.0145226 -0.32697096 -0.02318061 0.5772665 0.9443128 -0.35298726
-1.2427515 -1.2370356 -0.62027246 0.5931775 -1.2188548 0.54292834 0.9217347 -1.1555811
-0.024028271 -0.19959712 -0.1895746 -0.10218695 -1.0063382 -0.82299334 -0.741476 0.564958
-0.028006792 -0.21048817 0.025114032 -0.29668096 0.5326796 0.6160794 0.7919925 -0.5402851
00000000: 2c29 923e d8a1 fe3d 622e 6b3f f532 1dbf
00000010: 9ade 47be 7a2d 89be e135 97be 7a3d 86bd
00000020: 2612 88be b2c9 28be e1d9 95be c832 3cbe
00000030: 94fb 213f 4c2d 8b3e dffa b93e 1eaf 2ebf
00000040: 4924 c23e 7d67 a73e 6ca6 413f fb7b 26bf
00000050: db99 023f 8962 2ebf b2b5 3cbf 13d8 7c3e
00000060: 1ec3 95bf 0840 53bf cf77 0bbf 3aa8 273f
00000070: d323 1f3e c119 113f 8d31 ca3e a440 83bf
00000080: 10a1 93bd 6753 143f d7b6 363f fb59 92be
00000090: efad 6cbf 032d 3c3f b5b1 3c3e 0fd2 273e
000000a0: 9a5d f13d 4c52 453e f0f2 543f 7f36 f9be
000000b0: 9243 9cbf 232f da3e a27b f9be 4d9f 963e
000000c0: b440 193f 2f30 953e 203f 2a3f 6300 06bf
000000d0: 21c1 fcbd 16f5 043f cc4f 703f 2cc1 dfbe
000000e0: e3a3 71bf 2349 7fbf 4afd 21bf 0fc4 133e
000000f0: 079e 293f 7516 73bf f719 80bf 1348 18bf
00000100: 5002 38bd 6e4a 8abe 9a2a 9fbd 5035 a7bc
00000110: 5067 57bf 061c 4c3f 8d2c 4c3e 90d8 ef3d
00000120: ed0e a3bf cdd4 373f 84e4 6b3f 02d7 96bf
00000130: 518b a83e 50f6 b23e 68d0 1c3f ff88 a7be
00000140: 87a4 81bc 29e1 173f e8fe 203f 04cc 50bf
00000150: 88ec 143d b416 043f fb88 5b3f b065 95be
00000160: 9e35 1bbe 7c13 91be 8a54 72be e829 14bd
00000170: 4634 0dbf 52e0 753f 5556 943d c0fa 013e
00000180: a8ab 61bd 3d86 3dbe 2c0d b6bd 8afa a9bd
00000190: d11d b0bf 78ac 8cbf 6b84 b4be 8fbf e83e
000001a0: cab2 cf3e 6de7 0f3f d743 0c3f 8fc4 0dbf
000001b0: d07e 10be ff0e 92be 7904 90be d055 ddbc
000001c0: c8ea 42be 33be 58bd 7346 92be 2ec0 10be
000001d0: 5064 4e3e 2689 a93e 0007 753f 1a13 d9be
000001e0: df40 75bd 65f2 a03e c861 5f3f 7de9 27bf
000001f0: 45ee 47be 5e91 8bbe 118a 5abd 4e30 38bd
00000200: bb76 0d3f dc9e 11bf 9858 2b3f 1d9a d7be
00000210: dd4c 4b3f 2344 d1be 43a3 58bf 77a5 0bbf
00000220: 47d6 b2bf 9904 733f 9dd6 913f 4ce4 acbf
00000230: 38fa 113e aa31 713e 983b 7b3f d400 9bbe
00000240: bb4a 68bf c678 62bf 84fd e1be 4c18 0f3f
00000250: 07eb 1ebe 82ff de3e 7c4b 413f b857 38bf
00000260: f17c 73be 1caa 3abe 08f6 74be 1573 a5bc
00000270: f8d3 563f 9538 46bf 41cb 40bf d709 47be
00000280: 927b 5fbe eb42 95bd a09c 4a3b 905d 263d
00000290: 92fb c1bf 76bf 473f 56f1 6c3f e9f3 a9bf
000002a0: 5899 b0bd 2ba5 a9bd 9d13 5dbd 1089 c63c
000002b0: 133c 2b3e a1b4 0bbf 4033 8b3f 0170 a5be
000002c0: afef 91bf 3cac 77bf ccb7 eebe 113d 093f
000002d0: 294d b1bf 113d 0a3f f46d 843f 34fb 4bbe
000002e0: 255e 96bf 0dda 783f 5565 1abf 46c5 1cbd
000002f0: d3fc b8bf 7adb 823f 13d3 ef3e 4140 19be
00000300: feab ccba 44f8 24bd f3bb 64be 259f 43be
00000310: 6092 143f 11f4 863d 4d7d de3e f1ef aabe
00000320: 7e95 15be e02a dabd 7a2b 4dbd 2a3b ddbd
00000330: 32ae 78be a9be 22be 6c8e b0bd e021 46bd
00000340: ee1e 483f 20f5 5cbf 96e2 23bf a1e2 c8be
00000350: a9f5 95bf a050 6f3f 14de a6bd 4f31 afbd
00000360: 19b8 a6bf 948e 683f 16ea 08bf 1460 4abe
00000370: 7f22 033d 1a5d 44be 287d 31be cc50 8abe
00000380: c1c9 243f 27cd 97bf e0db 81bf bd68 a7be
00000390: 43e5 bdbc bdc7 133f 7cbe 713f bfba b4be
000003a0: 7b12 9fbf 2f57 9ebf 2dca 1ebf 7bda 173f
000003b0: 6f03 9cbf 5afd 0a3f cef6 6b3f 15ea 93bf
000003c0: f0d6 c4bc 3063 4cbe d81f 42be 6447 d1bd
000003d0: b1cf 80bf b1af 52bf 5fd1 3dbf 16a1 103f
000003e0: 806e e5bc 368a 57be f1bb cd3c 91e6 97be
000003f0: b15d 083f 61b7 1d3f 05c0 4a3f 2050 0abf

graph_matcher.gnn.conv2.bias f4 [128]
0.3495764 -0.09746333 -0.098269455 -0.15217595 0.32425037 0.16328487 -0.0806958 0.04598533
0.25545913 0.022248719 -0.19833745 -0.12707886 -0.11562055 -0.06795371 0.56715816 -0.111669764
-0.113142274 -0.112713024 0.024772752 0.20418406 -0.11393675 -0.13995484 -0.09296587 -0.21330865
-0.05653637 -0.07109426 -0.19128478 -0.79733205 -0.28353915 -0.114123434 -0.10410436 -0.12692732
-0.33969676 0.78874844 -0.4169879 -0.08930323 0.38494045 0.29001698 0.3469976 -0.17501977
0.0720199 0.22006673 0.45207384 -0.0632772 -0.07906557 -0.046809535 0.32654968 -0.22237058
-0.10225304 0.32386014 0.1971272 0.2252847 0.6333262 -0.12493454 -0.07122921 -0.21887839
-0.38229945 0.019067697 0.075970724 0.71331847 -0.093902655 -0.32740754 0.4957928 0.3656057
-0.107434064 0.144067 -0.048271447 -0.77203727 -0.04088851 0.17636003 -0.086247824 -0.21405897
-0.044018332 -0.1194185 -0.0770948 -0.08327032 -0.14244452 -0.15268081 0.7311615 -0.07072659
0.4031429 -0.25173616 -0.1393218 -0.019143535 0.3818662 -0.10868836 -0.22054248 0.19557609
-0.09336227 -0.09789094 -0.18381701 -0.12387599 0.31277466 0.060307562 -0.2522586 -0.3262013
0.4508842 0.40618718 -0.060075402 -0.13566141 -0.5238505 0.54344016 -0.1086494 -0.041892678
0.5653155 0.3589727 -0.12391769 0.092249475 0.15055065 -0.12924705 -0.086569056 -0.09480211
-0.08541912 0.44341704 -0.0933022 0.21435885 0.24449897 -0.124424316 0.2574553 0.47734895
-0.37787753 -0.090011425 0.114966445 -0.10195357 1.1952161 0.3068294 -0.12735216 0.46831256
00000000: aefb b23e db9a c7bd 7f41 c9bd 03d4 1bbe
00000010: 2504 a63e 2634 273e d743 a5bd 1d5b 3c3d
00000020: 8acb 823e f242 b63c f918 4bbe f620 02be
00000030: 78ca ecbd 512b 8bbd 4731 113f 1eb3 e4bd
00000040: 23b7 e7bd 16d6 e6bd 3af0 ca3c a015 513e
00000050: ac57 e9bd 5250 0fbe e464 bebd 956d 5abe
00000060: ae92 67bd de99 91bd 28e0 43be f41d 4cbf
00000070: 0b2c 91be 8cb9 e9bd ab34 d5bd 3cf9 01be
00000080: bcec adbe 6beb 493f 707f d5be 9de4 b6bd
00000090: ea16 c53e 1b7d 943e aba9 b13e 6238 33be
000000a0: 2b7f 933d 2c59 613e 3976 e73e 7a97 81bd
000000b0: 21ed a1bd 5bbb 3fbd 8531 a73e 1db5 63be
000000c0: 0b6a d1bd ffd0 a53e b6db 493e 08b1 663e
000000d0: aa21 223f aedd ffbd 9fe0 91bd a821 60be
000000e0: c1bc c3be dc33 9c3c 8a96 9b3d 0a9c 363f
000000f0: 0950 c0bd f6a1 a7be 8ed8 fd3e ac30 bb3e
00000100: 6406 dcbd 4d86 133e 48b8 45bd 3ca4 45bf
00000110: b67a 27bd b997 343e b3a2 b0bd 4632 5bbe
00000120: 914c 34bd b091 f4bd e1e3 9dbd a189 aabd
00000130: fadc 11be 5c58 1cbe 662d 3b3f 1ad9 90bd
00000140: bf68 ce3e 90e3 80be 60aa 0ebe e7d2 9cbc
00000150: f783 c33e 0198 debd e3d5 61be 1945 483e
00000160: b834 bfbd 0c7b c8bd 873a 3cbe b2b2 fdbd
00000170: 0024 a03e 1005 773d 0a28 81be db03 a7be
00000180: 4bda e63e c4f7 cf3e a011 76bd d3ea 0abe
00000190: 111b 06bf e51e 0b3f 9483 debd a897 2bbd
000001a0: 84b8 103f 45cb b73e 8fc8 fdbd 4bed bc3d
000001b0: f329 1a3e 5759 04be 1e4b b1bd 9c27 c2bd
000001c0: 38f0 aebd 8f07 e33e 3915 bfbd e380 5b3e
000001d0: f05d 7a3e 2dd2 febd 2ed1 833e 1567 f43e
000001e0: 2a79 c1be e957 b8bd 8773 eb3d 09cd d0bd
000001f0: d7fc 983f be18 9d3e 9b68 02be aac6 ef3e

graph_matcher.gnn.conv2.lin.weight f4 [128, 64]
0.72534573 -0.019916743 0.080489025 0.36963043 0.6009504 -1.0450239 -0.47197583 0.67790157
0.3560141 -0.24729161 0.5013058 -0.1413311 0.5914693 0.36118364 -0.33575463 -1.1626704
0.025615782 -0.17474481 -2.1514757 0.42826158 0.9335479 0.27226645 0.06740898 0.0466398
-0.107139416 -0.5215889 0.60743403 -0.10458403 -0.06613472 0.5821961 0.6643643 -0.16357154
-0.5880444 -0.7787562 -2.9886398 0.52668387 -0.53462315 0.92721134 0.033082113 -1.1739153
0.060093902 -2.7135143 -0.117466845 -0.104744494 -0.5845202 -0.30368838 0.031810798 -0.37583092
0.10180789 0.3114937 0.102922164 -0.09034708 -1.346884 0.037052594 -0.2602375 -0.059443705
-1.0616794 0.58397484 -0.419292 -1.8832284 -0.049233243 -0.7792321 0.08137757 0.80628335
-0.2500369 -0.11731537 -0.037114263 -0.1355186 -0.11439333 -0.15978746 -0.12168471 -0.09774064
-0.22542217 0.061232332 -0.094858885 -0.009124217 -0.16585767 -0.12346484 -0.1935009 -0.19345686
0.070537284 -0.13474762 0.08423776 -0.21344231 -0.14722182 0.06846332 -0.1397072 -0.08534144
0.0740165 -0.2316011 0.08557808 -0.018903896 -0.041561007 -0.14896844 -0.16523178 0.01144168
-0.23853122 -0.15043758 0.12893611 -0.32464838 -0.19811828 0.128372 -0.24953894 -0.019037984
0.049208794 -0.04550865 -0.0070628757 -0.056943133 -0.12202721 -0.098595604 -0.07850035 -0.02260752
0.06465471 -0.22813518 0.024260376 0.14615066 -0.2451843 1.32071e-05 -0.018048886 -0.15104352
0.0648146 -0.08211146 -0.21248946 0.05984943 -0.034054056 -0.086741135 0.114564545 -0.28252319
-0.025125045 -0.14084692 -0.018926203 -0.13257548 -0.099688694 -0.07705548 -0.14814584 -0.3520529
-0.25179195 -0.065814234 0.15853249 -0.24172777 -0.34199554 -0.33902806 -0.29702625 -0.039750498
-0.066362195 -0.15352513 -0.4321383 -0.11836712 -0.26985577 -0.23476262 0.08337711 -0.21703349
0.097041085 -0.3937081 0.13687441 -0.065911576 0.014880541 -0.1855107 0.05222558 -0.050008427
-0.1665048 0.14476871 -0.28446105 -0.42735273 -0.071433865 0.057808787 -0.12033609 -0.17396729
-0.17530061 -0.12385898 -0.2493259 -0.036091253 -0.35037374 0.16490717 0.117058806 -0.032592896
-0.15676032 -0.2881987 -0.058680274 0.0011852384 -0.19419971 0.051550988 0.025068877 -0.18847777
-0.11383096 -0.02802457 -0.32399425 0.00042631399 0.04561688 -0.44350266 -0.0464325 -0.22368541
-0.7659006 -0.16677156 -0.03147988 -0.03568107 -0.3334963 0.18199109 0.06135585 -0.50849545
-0.46216053 -0.23896077 -0.32050747 -0.32154545 -0.09020201 -0.3076382 -0.33263984 -0.14876889
0.08234133 -0.15258962 0.25073525 -0.11951689 -0.37883073 -0.19570623 0.066755295 -0.22724265
0.12305437 -0.18255988 0.09361843 0.091741785 0.029294597 -0.25778058 -0.3733341 -0.08680909
-0.10422501 0.009266527 -0.16241938 -0.4314506 -0.42050368 -0.46911478 0.12842724 0.0075158905
0.021669773 0.18175624 -0.14367557 -0.34238043 -0.0059676985 -0.40119082 -0.1649265 -0.46866602
-0.10338018 0.1654228 -0.013908058 0.014402717 0.038162496 -0.3966753 -0.34532014 -0.11131613
-0.013789245 -0.10313882 0.022727054 -0.09508626 0.14210354 -0.24878074 0.029065333 -0.018650196
00000000: 42b0 393f 7028 a3bc 6ed7 a43d 3340 bd3e
00000010: e3d7 193f 58c3 85bf d1a6 f1be f58a 2d3f
00000020: 7b47 b63e 033a 7dbe 9455 003f 1ab9 10be
00000030: 886a 173f 10ed b83e 08e8 abbe 62d2 94bf
00000040: 30d8 d13c 4ef0 32be c7b1 09c0 1a45 db3e
00000050: fffc 6e3f 8266 8b3e b80d 8a3d 6009 3f3d
00000060: e96b dbbd da86 05bf cc80 1b3f 2730 d6bd
00000070: a471 87bd ce0a 153f c713 2a3f 4c7f 27be
00000080: 148a 16bf 915c 47bf e045 3fc0 c1d4 063f
00000090: 10dd 08bf b95d 6d3f 1c81 073d db42 96bf
000000a0: 0625 763d 38aa 2dc0 7592 f0bd 4884 d6bd
000000b0: 1ea3 15bf 0b7d 9bbe 0a4c 023d e96c c0be
000000c0: a880 d03d 1a7c 9f3e dbc8 d23d e407 b9bd
000000d0: b266 acbf 76c4 173d d93d 85be 3e7b 73bd
000000e0: 1ce5 87bf 607f 153f 71ad d6be a10d f1bf
000000f0: cca8 49bd c17b 47bf 49a9 a63d 9668 4e3f
00000100: d604 80be 0a43 f0bd 2005 18bd 63c5 0abe
00000110: 0d47 eabd 539f 23be d535 f9bd 3f2c c8bd
00000120: 12d5 66be c1ce 7a3d 6045 c2bd bd7d 15bc
00000130: 98d6 29be 22db fcbd 1a25 46be 8e19 46be
00000140: da75 903d 48fb 09be d984 ac3d 9f90 5abe
00000150: 51c1 16be 7f36 8c3d 670f 0fbe 7ec7 aebd
00000160: f695 973d d728 6dbe 8f43 af3d 58dc 9abc
00000170: e03b 2abd 2f8b 18be 8532 29be e275 3b3c
00000180: 8741 74be 4f0c 1abe d407 043e 5038 a6be
00000190: 85df 4abe f373 033e 2387 7fbe 8cf5 9bbc
000001a0: 298f 493d 4767 3abd b26f e7bb 343d 69bd
000001b0: 67e9 f9bd 7eec c9bd cbc4 a0bd 6833 b9bc
000001c0: b069 843d 459c 69be b2bd c63c 85a8 153e
000001d0: 9811 7bbe 1094 5d37 42db 93bc 27ab 1abe
000001e0: 84bd 843d 0e2a a8bd d696 59be ad24 753d
000001f0: 447c 0bbd 56a5 b1bd d1a0 ea3d e1a6 90be
00000200: 0ad3 cdbc 2d3a 10be 200b 9bbc dec1 07be
00000210: 9629 ccbd 43cf 9dbd 8bb3 17be 4740 b4be
00000220: e0ea 80be 9dc9 86bd 5756 223e 7c87 77be
00000230: 0a1a afbe 1695 adbe d313 98be 6bd1 22bd
00000240: e7e8 87bd b135 1dbe 3b41 ddbe 766a f2bd
00000250: 892a 8abe 9d65 70be 9ec1 aa3d 073e 5ebe
00000260: 7abd c63d 1c94 c9be ce28 0c3e a6fc 86bd
00000270: 83cd 733c 84f6 3dbe 7dea 553d a3d5 4cbd
00000280: 3c80 2abe 403e 143e e1a4 91be facd dabe
00000290: eb4b 92bd e8c8 6c3d c572 f6bd 7b24 32be
000002a0: 0182 33be c7a9 fdbd 4a4f 7fbe 6cd4 13bd
000002b0: 3064 b3be 6ddd 283e 87bc ef3d 2180 05bd
000002c0: c785 20be c88e 93be ba5a 70bd 005a 9b3a
000002d0: 4adc 46be 2127 533d 3f5d cd3c 5100 41be
000002e0: 3520 e9bd c893 e5bc 93e2 a5be e582 df39
000002f0: c4d8 3a3d c812 e3be 0130 3ebd ca0d 65be
00000300: 1012 44bf 2ac6 2abe 0cf1 00bd 5026 12bd
00000310: 07c0 aabe df5b 3a3e 4650 7b3d c22c 02bf
00000320: 4ea0 ecbe 22b2 74be 8e19 a4be 9ba1 a4be
00000330: d5bb b8bd c182 9dbe c54f aabe df56 18be
00000340: 92a2 a83d 7440 1cbe 5f60 803e 45c5 f4bd
00000350: 1af6 c1be 3767 48be 00b7 883d 4cb2 68be
00000360: ee03 fc3d faf0 3abe 05bb bf3d 1ee3 bb3d
00000370: 39fb ef3c d1fb 83be a625 bfbe f7c8 b1bd
00000380: ec73 d5bd a2d2 173c 4451 26be 18e7 dcbe
00000390: 424c d7be d02f f0be 6e82 033e dc47 f63b
000003a0: cf84 b13c 4f1e 3a3e b01f 13be 7d4c afbe
000003b0: af8c c3bb e268 cdbe 7ee2 28be fef4 efbe
000003c0: fdb8 d3bd 9864 293e a0de 63bc 60f9 6b3c
000003d0: 4750 1c3d 0619 cbbe cdcd b0be b6f9 e3bd
000003e0: 49ec 61bc 723a d3bd 162e ba3c 96bc c2bd
000003f0: 9783 113e 61c0 7ebe 6c1a ee3c 4cc8 98bc

graph_matcher.mlp.0.weight f4 [128, 256]
-0.06945686 0.06158445 -0.03262162 0.055397972 -0.057012826 -0.00534673 -0.03210727 -0.052093454
0.029016713 -0.03569021 -0.057328403 0.054353118 -0.018935233 -0.062453233 0.0075400127 -0.12332892
0.04371325 -0.037826322 -0.06991133 0.035355203 -0.0026750043 -0.0012179574 -0.033806566 -0.02329429
-0.08333001 -0.023472182 -0.01282903 -0.12166384 -0.097607024 -0.00948791 -0.07754765 -0.051305152
-0.061367325 -0.07039389 -0.044178754 0.055204995 0.015519676 0.025930896 0.001747215 0.04999648
-0.05352996 -0.09320756 -0.031134019 -0.079317905 0.042944558 -0.15627126 -0.053642493 0.016156517
-0.004122004 -0.018997516 -0.07821633 -0.015725251 -0.031753026 -0.08198119 -0.038489137 -0.06635219
0.079898395 -0.06785404 -0.06752869 -0.039181832 -0.017352156 0.059367627 0.022638163 0.015833301
-0.088614814 -0.043698095 -0.06281224 0.051678114 -0.16021083 -0.06291182 -0.12190513 0.03857716
-0.03681528 -0.06309828 -0.07196755 -0.046253957 -0.048261043 0.061930507 0.0060568503 -0.047980975
-0.07140031 0.017222047 -0.076339416 -0.06709042 0.013394498 -0.045278944 -0.042110354 -0.028624138
-0.09522414 -0.104121044 -0.03829778 -0.14560322 -0.0698666 -0.013862531 -0.009196654 -0.060421783
-0.023647372 0.0130708525 -0.14551231 -0.0064745825 0.009041337 -0.08043784 0.03733255 -0.05215978
-0.07243644 -0.09007526 -0.024370605 -0.116831854 -0.05330077 -0.01358103 -0.0276021 0.03606823
0.007423274 -0.036939874 0.043660015 0.037828244 -0.11164953 -0.032112334 0.007311571 -0.104535446
0.061115548 -0.013808638 -0.0014014858 0.023733139 -0.0047818883 -0.029235503 -0.07418396 -0.06850919
-0.092833854 0.020198686 0.00922098 0.012019513 0.005493457 0.014657448 -0.04583939 -0.09201977
0.030691411 -0.0469028 -0.10491242 -0.044493392 -0.005393386 0.03202905 -0.0052275336 -0.017908502
0.0044526234 -0.035070628 -0.008423067 0.053372048 -0.060416825 0.0036576986 -0.04489497 -0.018179242
-0.14703849 -0.11247952 0.04278059 -0.099185504 -0.09981312 -0.024638336 0.022768997 -0.060606837
0.008625761 -0.07456293 -0.029352285 0.056421824 -0.16289715 -0.01787629 -0.07130199 -0.002312079
-0.097210556 -0.023803039 -0.09088275 -0.07033204 0.0004536584 -0.10641371 -0.010281963 -0.03870564
-0.0043325205 -0.046043426 -0.14377226 0.008564438 -0.102485254 0.04876282 -0.054333646 -0.081187874
0.13982765 -0.13817039 -0.044598956 -0.0014437911 -0.01653263 -0.04635843 -0.106041804 0.003162717
0.017166343 -0.02776316 -0.13714425 -0.025489643 -0.05336466 -0.11065672 -0.033080637 0.060005628
-0.10949023 -0.025905162 -0.024539795 -0.04149227 -0.036365077 -0.015536101 -0.028316224 -0.07084569
-0.10459968 0.0062599257 -0.1278342 -0.09978797 -0.0956846 0.013373926 -0.022769645 -0.11718791
-0.059316583 -0.046422195 -0.020507857 -0.06219959 0.011499579 -0.10543305 0.022472471 0.047740865
0.048082594 -0.07706898 -0.0937701 0.017532693 -0.047365967 -0.074596986 0.036676362 -0.03888154
-0.000397049 -0.0693344 -0.046205036 -0.093707725 -0.066848226 -0.057479568 -0.05610136 -0.023425272
0.03807418 -0.08313791 0.020190619 0.045436453 -0.0341724 -0.08812831 -0.09649741 -0.029795125
-0.042145185 0.055846334 -0.08426266 0.0068268776 -0.049190905 -0.046543375 -0.06837802 -0.0214767
00000000: 663f 8ebd fa3f 7c3d 3f9e 05bd fce8 623d
00000010: 4886 69bd 9f33 afbb ea82 03bd f25f 55bd
00000020: 75b4 ed3c e62f 12bd 30d1 6abd 60a1 5e3d
00000030: 101e 9bbc f6ce 7fbd 3612 f73b df93 fcbd
00000040: aa0c 333d c6ef 1abd ac2d 8fbd 9ed0 103d
00000050: 204f 2fbb dea3 9fba c178 0abd abd3 bebc
00000060: eda8 aabd bc48 c0bc da30 52bc e42a f9bd
00000070: 31e6 c7bd 2e73 1bbc 4dd1 9ebd 5a25 52bd
00000080: 4e5c 7bbd ac2a 90bd c8f4 34bd a21e 623d
00000090: 3d46 7e3c 086d d43c cf02 e53a 1cc9 4c3d
000000a0: 3b42 5bbd 9be3 bebd c50c ffbc 6d71 a2bd
000000b0: a2e6 2f3d 9305 20be 3bb8 5bbd ac5a 843c
000000c0: e011 87bb aea0 9bbc e22f a0bd 3ed2 80bc
000000d0: 760f 02bd c1e5 a7bd c9a6 1dbd a8e3 87bd
000000e0: c5a1 a33d 0ff7 8abd 7b4c 8abd 217d 20bd
000000f0: 1c26 8ebc 782b 733d ab73 b93c d7b4 813c
00000100: af7b b5bd c6fc 32bd b4a3 80bd 6eac 533d
00000110: 4f0e 24be ead7 80bd 66a9 f9bd 1603 1e3d
00000120: 9ecb 16bd ac39 81bd b963 93bd ca74 3dbd
00000130: 5fad 45bd d8aa 7d3d 8b78 c63b b387 44bd
00000140: 533a 92bd 4015 8d3c d757 9cbd b466 89bd
00000150: 9974 5b3c 6a76 39bd e87b 2cbd 2b7d eabc
00000160: e004 c3bd 6a3d d5bd 22de 1cbd 0319 15be
00000170: 3816 8fbd ab1f 63bc 90ad 16bc d57c 77bd
00000180: 22b8 c1bc 2127 563c 2e01 15be bc28 d4bb
00000190: 1e22 143c 98bc a4bd 04ea 183d 7ea5 55bd
000001a0: 8e59 94bd 6179 b8bd dda4 c7bc 8a45 efbd
000001b0: e951 5abd f882 5ebc cd1d e2bc 48bc 133d
000001c0: f03e f33b 444e 17bd d8d4 323d caf1 1a3d
000001d0: 82a8 e4bd 3988 03bd e795 ef3b ae16 d6bd
000001e0: 4c54 7a3d a03d 62bc 0fb2 b7ba 006c c23c
000001f0: 63b1 9cbb 4b7f efbc c3ed 97bd 8c4e 8cbd
00000200: ad1f bebd b777 a53c 9813 173c 7eed 443c
00000210: 7502 b43b cb25 703c 16c2 3bbd dc74 bcbd
00000220: 8e6c fb3c 271d 40bd 53dc d6bd b43e 36bd
00000230: 00bb b0bb e530 033d bb4b abbb dab4 92bc
00000240: 50e7 913b 38a6 0fbd e700 0abc a69c 5a3d
00000250: a277 77bd 00b6 6f3b cae3 37bd a2ec 94bc
00000260: 4291 16be aa5b e6bd b33a 2f3d c521 cbbd
00000270: d26a ccbd 56d6 c9bc 0c86 ba3c e03e 78bd
00000280: 1053 0d3c 73b4 98bd 3474 f0bc 921a 673d
00000290: 83ce 26be 4c71 92bc c706 92bd 4086 17bb
000002a0: 5416 c7bd 97fe c2bc bc20 babd 3f0a 90bd
000002b0: 00d9 ed39 6eef d9bd ae75 28bc ce89 1ebd
000002c0: d1f7 8dbb 0898 3cbd 0939 13be db51 0c3c
000002d0: cae3 d1bd 86bb 473d f58c 5ebd d445 a6bd
000002e0: fb2e 0f3e 8a7c 0dbe 65ad 36bd 973d bdba
000002f0: 706f 87bc 56e2 3dbd 722c d9bd 9645 4f3b
00000300: 6ea0 8c3c 916f e3bc 8b6f 0cbe a8cf d0bc
00000310: e794 5abd fe9f e2bd 907f 07bd 76c8 753d
00000320: 6a3c e0bd 1037 d4bc ae07 c9bc ccf3 29bd
00000330: 8cf3 14bd 218b 7ebc 6df7 e7bc 8c17 91bd
00000340: 5b38 d6bd 1020 cd3b f8e6 02be a35d ccbd
00000350: 4af6 c3bd 501e 5b3c 6887 babc 3700 f0bd
00000360: f2f5 72bd 3325 3ebd 1800 a8bc ffc4 7ebd
00000370: bb68 3c3c 48ed d7bd 3018 b83c ed8b 433d
00000380: 41f2 443d 57d6 9dbd 8a0a c0bd b9a0 8f3c
00000390: d102 42bd 4ec6 98bd f439 163d 4042 1fbd
000003a0: 042b d0b9 32ff 8dbd 7e41 3dbd d6e9 bfbd
000003b0: b9e7 88bd b26f 6bbd 8aca 65bd 5be6 bfbc
000003c0: acf3 1b3d 3544 aabd cc66 a53c 931b 3a3d
000003d0: 5cf8 0bbd 9e7c b4bd 6fa0 c5bd e814 f4bc
000003e0: 6ea0 2cbd 20bf 643d e791 acbd 00b4 df3b
000003f0: 677c 49bd 44a4 3ebd c609 8cbd e8ef afbc

graph_matcher.mlp.0.bias f4 [128]
-0.13084802 0.16001393 -0.004993346 -0.1229627 -0.06245011 0.16865249 -0.5185799 -0.0652849
-0.092175655 -0.05520596 -0.013190202 -0.49549484 -0.47380313 0.47609466 0.36459547 -0.13747948
-0.02358683 0.3430565 -0.06736048 -0.066370964 -0.030206807 -0.08298763 -0.08150949 -0.12545025
-0.20393884 -0.23724142 -0.0661824 -0.2972182 -0.03929722 -0.040425677 -0.0033121882 -0.0012407384
-0.011775235 -0.3077877 -0.07046581 -0.051107522 -0.020788608 -0.17670824 0.09606403 0.6784157
-0.27586824 -0.039772145 -0.05720331 0.1069385 -0.09073494 -0.025741475 -0.55197877 -0.14008793
0.1974122 -0.059158318 -0.39467907 -0.06586412 -0.13095807 -0.0083486 -0.05349014 -0.3494355
-0.04368104 -0.089103706 0.48593393 -0.019792214 -0.21786544 -0.26361185 -0.006827574 0.17148018
-0.03842437 -0.34923887 -0.12622856 -0.04686556 -0.20880198 -0.058887582 -0.012303337 -0.04759574
-0.049482793 -0.027207712 -0.072124794 -0.05991975 -0.11263302 -0.20577368 -0.05938755 -0.121023566
-0.08774888 -0.052811265 -0.12122911 -0.2736925 -0.020219669 -0.10030184 -0.042233463 -0.05109821
-0.09188544 0.23990206 -0.090541035 0.049391083 -0.10718208 -0.10667815 -0.11206746 -0.08194346
-0.095885016 -0.7347684 -0.024454374 -0.076320045 -0.16616039 -0.06535777 -0.055785347 -0.06731271
-0.13178788 -0.12509716 -0.05915886 -0.087051526 -0.11491441 -0.06506478 -0.17852028 -0.27684987
-0.3626004 -0.57803226 -0.24335088 -0.03911778 -0.09469774 -0.13675103 -0.08690747 -0.106492855
-0.24919671 -0.11833155 -0.115153044 -0.08530412 -0.15209201 0.023484664 -0.034735344 -0.26841983
00000000: 06fd 05be b1da 233e 399f a3bb ded3 fbbd
00000010: b0cb 7fbd 3db3 2c3e a7c1 04bf 17b4 85bd
00000020: 97c6 bcbd a51f 62bd b81b 58bc 80b1 fdbe
00000030: 5396 f2be aec2 f33e 42ac ba3e 6cc7 0cbe
00000040: 2b39 c1bc 1aa5 af3e 4bf4 89bd 80ed 87bd
00000050: 4474 f7bc 6bf5 a9bd 73ee a6bd 0876 00be
00000060: 58d5 50be 6aef 72be a38a 87bd fc2c 98be
00000070: 1ff6 20bd 6595 25bd 4c11 59bb 46a0 a2ba
00000080: eaec 40bc 5996 9dbe 6150 90bd 1f56 51bd
00000090: df4c aabc 01f3 34be 38bd c43d a7ac 2d3f
000000a0: 9a3e 8dbe 1ee8 22bd 054e 6abd 9302 db3d
000000b0: 3dd3 b9bd c9df d2bc 7b4e 0dbf 3673 0fbe
000000c0: 6c26 4a3e fe4f 72bd 6013 cabe c5e3 86bd
000000d0: df19 06be 91c8 08bc 7a18 5bbd 36e9 b2be
000000e0: e4ea 32bd 017c b6bd 55cc f83e 4823 a2bc
000000f0: 1e18 5fbe 22f8 86be d8b9 dfbb 8098 2f3e
00000100: df62 1dbd 70cf b2be 0f42 01be 1af6 3fbd
00000110: 30d0 55be 1b34 71bd f093 49bc c0f3 42bd
00000120: 78ae 4abd b5e2 debc 2ab6 93bd 696e 75bd
00000130: 24ac e6bd 56b6 52be 5c40 73bd 34db f7bd
00000140: afb5 b3bd a050 58bd f846 f8bd 6c21 8cbe
00000150: b8a3 a5bc 0d6b cdbd fffc 2cbd 5b4c 51bd
00000160: 6f2e bcbd e3a8 753e 946d b9bd 4e4e 4a3d
00000170: 4782 dbbd 137a dabd a083 e5bd f9d1 a7bd
00000180: 5d5f c4bd c819 3cbf 8a54 c8bc af4d 9cbd
00000190: f325 2abe 4bda 85bd 2d7f 64bd 3fdb 89bd
000001a0: 67f3 06be 7819 00be 9050 72bd 1248 b2bd
000001b0: 3f58 ebbd af40 85bd 05ce 36be 44bf 8dbe
000001c0: c2a6 b9be ecf9 13bf f930 79be f739 20bd
000001d0: e4f0 c1bd 7608 0cbe 8bfc b1bd ed18 dabd
000001e0: 6c2d 7fbe d057 f2bd 5cd5 ebbd edb3 aebd
000001f0: 02be 1bbe e962 c03c a646 0ebd 536e 89be

graph_matcher.mlp.2.weight f4 [128, 128]
0.030117556 -0.1958221 -0.06178821 -0.07010502 0.03828392 -0.3933912 0.0086165145 -0.06404344
0.013300724 -0.056170296 -0.07541497 -0.04648717 0.040824972 -0.06966923 0.024822695 0.015014224
0.011271246 -0.2932702 -0.10647359 -0.024795443 0.017799295 -0.04121574 0.042032607 -0.018815868
0.03171394 0.08452747 -0.08706306 -0.008777827 -0.016528301 0.044602536 -0.06780349 -0.036773406
-0.18715486 -0.027629282 0.057911955 -0.03141174 -0.016918704 -0.080943055 -0.028492723 -0.4328783
0.03877089 -0.0518836 -0.037432555 -0.052494887 -0.06144107 0.046871178 -0.000102089696 -0.013697915
-0.42385074 0.056362905 -0.041802127 0.013727069 -0.05416242 -0.08324141 -0.08395084 -0.06865968
0.07646235 -0.028108828 -0.03242911 0.06738267 -0.05731472 -0.04145663 -0.04251302 -0.048952963
-0.062336683 0.031640776 0.06838801 0.048358135 0.020751432 -0.13351585 -0.017566293 -0.034321643
-0.019221038 0.046032064 -0.14371732 -0.045788545 0.08446386 -0.03844061 -0.004899189 -0.033661224
-0.08044537 0.049433358 0.0038029328 -0.037575305 -0.22989301 0.0069122165 0.057508163 -0.016679682
-0.061027475 -0.13355103 -0.040460195 -0.05457745 -0.030050661 -0.039888155 -0.050212342 0.009911947
-0.024305202 -0.07729009 -0.08551214 -0.1127154 -0.017628878 0.059991963 0.020674303 -0.08505346
0.08278475 -0.003814049 0.04101088 0.057615705 -0.0769687 -0.063370876 -0.009605415 -0.16462421
0.067127205 -0.18284959 0.0690264 -0.05975222 -0.019353688 0.084909536 -0.03139681 0.07427441
-0.4275956 0.056629248 -0.07381577 -0.098495245 0.061578922 0.026633313 0.05925078 0.069252945
0.07260258 -0.13996457 0.14925218 0.048570387 0.040976517 -0.069619134 0.08829587 0.053854667
0.0119608715 -0.03721892 0.06799238 0.058278553 0.00042040646 0.024871945 0.04843446 0.05725962
0.0853911 -0.17197014 0.0056740195 0.01662746 -0.032567564 0.033880554 -0.0112664625 -0.01495707
-0.20081416 0.082734995 -0.039511595 0.0736598 -0.21521038 -0.06784804 -0.022739708 -0.043175854
-0.37648305 -0.29493937 -0.04298006 0.003001541 -0.043036345 -0.05165542 -0.012211688 -0.56528986
-0.00827121 0.06797334 0.011980727 -0.07402661 -0.03127079 0.062465437 0.048240907 0.06675512
0.046525575 -0.0056076273 0.06537169 0.015268594 -0.04925483 -0.033831358 0.06335487 0.011270046
-0.25956228 0.07290771 -0.08273651 -0.0810828 -0.08477314 0.077633165 -0.030063737 0.08572129
0.027271718 -0.09396298 0.023844972 0.04879593 -0.045239024 -0.11489767 -0.027767334 -0.015233569
-0.06704337 0.087444134 -0.072114795 -0.0604309 -0.030867476 -0.031961862 -0.061064564 -0.080001555
-0.02785347 0.08436293 -0.014134765 -0.023788348 0.039850704 -0.049283277 -0.06899616 0.07383648
0.044312738 0.0539779 0.03805714 0.087311365 -0.07597759 -0.071580805 0.026808865 -0.06795982
0.016288541 -0.2994511 -0.067126304 -0.08742075 -0.25532874 -0.028044026 0.08053256 -0.069088444
-0.08375797 0.0243466 0.21564493 0.073152 -0.025231592 0.08203054 -0.118751615 -0.07975256
0.0489972 -0.17323653 -0.019241922 -0.053954583 0.021549694 -0.054864775 -0.08481089 -0.002122283
-0.24534556 0.033093013 0.069138 -0.14138351 0.06644634 0.085621856 0.024573877 0.18146227
00000000: 18b9 f63c 9785 48be a215 7dbd 3993 8fbd
00000010: 9acf 1c3d 926a c9be 482c 0d3c 3529 83bd
00000020: 48eb 593c d312 66bd 2a73 9abd 5569 3ebd
00000030: 1638 273d beae 8ebd f758 cb3c 38fe 753c
00000040: 08ab 383c 8327 96be d30e dabd d01f cbbc
00000050: d4cf 913c d6d1 28bd 622a 2c3d bc23 9abc
00000060: 7ae6 013d bd1c ad3d 1e4e b2bd e0d0 0fbc
00000070: 5c66 87bc 26b1 363d 8edc 8abd b69f 16bd
00000080: 86a5 3fbe ce56 e2bc 1635 6d3d 99a9 00bd
00000090: 1899 8abc 79c5 a5bd 9269 e9bc 39a2 ddbe
000000a0: 3ace 1e3d e683 54bd e152 19bd e104 57bd
000000b0: a2a9 7bbd fefb 3f3d fd18 d6b8 386d 60bc
000000c0: f702 d9be cadc 663d b538 2bbd 80e7 603c
000000d0: 6ad9 5dbd 797a aabd 6bee abbd 729d 8cbd
000000e0: 4b98 9c3d 7c44 e6bc 63d4 04bd edff 893d
000000f0: d7c2 6abd 6dce 29bd 2222 2ebd e782 48bd
00000100: c054 7fbd c299 013d 030f 8c3d 2e13 463d
00000110: e8fe a93c 61b8 08be 30e7 8fbc da94 0cbd
00000120: 7075 9dbc 1e8c 3c3d a22a 13be c58c 3bbd
00000130: 63fb ac3d e773 1dbd 6089 a0bb 5ae0 09bd
00000140: 8bc0 a4bd a27a 4a3d a03a 793b 90e8 19bd
00000150: 1369 6bbe e07f e23b ae8d 6b3d d4a3 88bc
00000160: f2f7 79bd 9ac1 08be 97b9 25bd 9b8c 5fbd
00000170: ce2c f6bc c361 23bd 75ab 4dbd b865 223c
00000180: b41b c7bc 444a 9ebd fd20 afbd 55d7 e6bd
00000190: 706a 90bc 22ba 753d 285d a93c 8230 aebd
000001a0: 0d8b a93d 20f5 79bb 06fb 273d 72fe 6b3d
000001b0: c4a1 9dbd 97c8 81bd 0860 1dbc 4093 28be
000001c0: fd79 893d ec3c 3bbe b75d 8d3d bebe 74bd
000001d0: a08b 9ebc 0de5 ad3d f199 00bd 2f1d 983d
000001e0: cfed dabe 12f4 673d b92c 97bd e0b7 c9bd
000001f0: 2e3a 7c3d 1b2e da3c f2b0 723d 7dd4 8d3d
00000200: a9b0 943d df52 0fbe 90d5 183e bef1 463d
00000210: fed6 273d 7a94 8ebd 77d4 b43d b696 5c3d
00000220: 88f7 433c de72 18bd 973f 8b3d 7eb5 6e3d
00000230: 006a dc39 40c0 cb3c 3663 463d 1089 6a3d
00000240: 87e1 ae3d f118 30be 20ed b93b 5036 883c
00000250: 9165 05bd 56c6 0a3d f896 38bc 800e 75bc
00000260: 3aa2 4dbe f770 a93d e9d6 21bd f3da 963d
00000270: 1c60 5cbe eaf3 8abd a048 babc 2ad9 30bd
00000280: 63c2 c0be 4b02 97be dc0b 30bd 80b5 443b
00000290: e146 30bd a294 53bd 8813 48bc d6b6 10bf
000002a0: f883 07bc 9b35 8b3d d04a 443c 439b 97bd
000002b0: cd15 00bd c2db 7f3d 4298 453d e9b6 883d
000002c0: 9a91 3e3d 30c0 b7bb 98e1 853d 2029 7a3c
000002d0: 6fbf 49bd c092 0abd 33c0 813d 00a6 383c
000002e0: 59e5 84be a350 953d c271 a9bd bd0e a6bd
000002f0: 8a9d adbd 23fe 9e3d 3a48 f6bc a58e af3d
00000300: f068 df3c aa6f c0bd 8856 c33c 3ede 473d
00000310: 8e4c 39bd 784f ebbd 5278 e3bc 3896 79bc
00000320: 094e 89bd e915 b33d ecb0 93bd 6486 77bd
00000330: cadd fcbc 71ea 02bd d61e 7abd dbd7 a3bd
00000340: f62c e4bc 79c6 ac3d 8095 67bc c8df c2bc
00000350: 7e3a 233d 43dd 49bd dc4d 8dbd 9537 973d
00000360: 4681 353d ee17 5d3d cee1 1b3d 4dd0 b23d
00000370: 249a 9bbd f598 92bd 449e db3c 852e 8bbd
00000380: 8c6f 853c a851 99be 8479 89bd a609 b3bd
00000390: 73ba 82be 96bc e5bc 41ee a43d 3e7e 8dbd
000003a0: 4c89 abbd 8572 c73c 06d2 5c3e b7d0 953d
000003b0: 7cb2 cebc a1ff a73d 0c34 f3bd 4f55 a3bd
000003c0: 4ab1 483d eb64 31be 3ca1 9dbc 7bff 5cbd
000003d0: fc88 b03c e3b9 60bd 55b1 adbd 0016 0bbb
000003e0: de3b 7bbe 8a8c 073d 3998 8d3d d7c6 10be
000003f0: 0515 883d 835a af3d 284f c93c 3fd1 393e

graph_matcher.mlp.2.bias f4 [128]
-0.5490804 -0.6563867 -0.07522718 -0.1719902 -0.1825269 0.159504 -0.09920104 0.20990472
-0.40262058 -0.25456256 -0.047406644 0.27209094 -0.76182425 -0.10144807 -0.050658237 -0.058831133
-0.22100383 -0.21620151 0.26512697 -0.1835254 -0.27078223 -0.015062881 -0.12443299 -0.44739905
-0.058343235 0.3451913 0.056020185 -0.05721841 -0.014996671 -0.13757263 -0.12231193 -0.0050994516
-0.25803173 -0.38988075 -0.5901806 -0.1164637 -0.0026214388 -0.058294673 -0.14083195 -0.29986954
-0.3232314 -0.06370892 -0.059041806 -0.6107763 -0.15830839 -0.46890095 -0.09517571 -0.034105167
-0.035362113 -0.5588906 -0.081877545 -0.3025526 -0.022791136 -0.29954675 -0.050363563 -0.0037453806
-0.07454242 -0.05010134 -0.30681744 0.13367979 -0.2543054 -0.2903299 -0.74934274 -0.013204837
-0.9022624 -0.04794749 -0.014478798 -0.28076765 -0.27959248 -0.07670479 -0.1941652 -0.061229512
-1.1158509 0.10216855 -0.16769458 -0.17389336 -0.0700959 -0.09764599 -0.066757835 0.083783984
-0.033277046 0.28494802 -0.073966034 -0.04914503 0.34766394 -1.1472911 -0.07574264 -0.24723825
-0.23001632 0.012870408 -0.24116772 -0.056337975 -0.1275972 -0.32850185 -0.2372897 -0.36862543
-0.5662645 0.19274662 0.31893605 -0.05690181 -0.18728706 -0.014524865 0.18143423 0.1661666
-0.07567018 0.0651799 -0.02674565 -0.056093518 -0.14338605 -0.14783621 -0.5101179 -0.18868718
-0.057738565 -0.36569986 -0.19406447 -0.46383148 -0.28247204 -0.5757532 -0.19817027 -0.46857497
-0.22299974 0.059927408 -0.0953991 -0.090934575 -0.29726902 -0.088911995 -0.02022073 -0.33234
00000000: 8890 0cbf f508 28bf b510 9abd 331e 30be
00000010: 55e8 3abe 0455 233e ea29 cbbd 43f1 563e
00000020: 4924 cebe 0656 82be 782d 42bd 814f 8b3e
00000030: ea06 43bf 01c4 cfbd 037f 4fbd eaf8 70bd
00000040: d44e 62be ee63 5dbe b9be 873e 15ee 3bbe
00000050: f8a3 8abe 4dca 76bc b9d6 febd 7d11 e5be
00000060: 51f9 6ebd eabc b03e 6c75 653d da5d 6abd
00000070: 99b4 75bc d7df 0cbe ad7e fabd 4d19 a7bb
00000080: bc1c 84be 739e c7be 1316 17bf 8584 eebd
00000090: 72cc 2bbb 65c6 6ebd 4036 10be 8088 99be
000000a0: 967e a5be d279 82bd d2d5 71bd d65b 1cbf
000000b0: 981b 22be c913 f0be 7ceb c2bd dcb1 0bbd
000000c0: ddd7 10bd 7413 0fbf 6aaf a7bd 2de8 9abe
000000d0: 7ab4 babc 315e 99be 064a 4ebd 0f75 75bb
000000e0: b2a9 98bd 1037 4dbd 2d17 9dbe 5be3 083e
000000f0: 5134 82be 1fa6 94be edd4 3fbf 1a59 58bc
00000100: abfa 66bf 9664 44bd 7b38 6dbc c7c0 8fbe
00000110: bf26 8fbe 6717 9dbd 3ed3 46be cccb 7abd
00000120: 34d4 8ebf bf3d d13d 21b8 2bbe 1a11 32be
00000130: 708e 8fbd 9ffa c7bd 55b8 88bd f096 ab3d
00000140: 834d 08bd b5e4 913e 817b 97bd 4d4c 49bd
00000150: 0201 b23e 6fda 92bf f51e 9bbd 062c 7dbe
00000160: 6689 6bbe 67de 523c acf4 76be a6c2 66bd
00000170: d7a8 02be 6531 a8be 12fc 72be 79bc bcbe
00000180: b6f6 10bf 5f5f 453e 964b a33e df11 69bd
00000190: 2ec8 3fbe b3f9 6dbc e5c9 393e 9427 2a3e
000001a0: f8f8 9abd 0a7d 853d b219 dbbc 51c2 65bd
000001b0: cbd3 12be 6062 17be 1697 02bf 3637 41be
000001c0: 467f 6cbd 033d bbbe d6b8 46be 527b edbe
000001d0: 2da0 90be 9064 13bf 26ed 4abe 0fe9 efbe
000001e0: 0b5a 64be 7176 753d 9a60 c3bd e83b babd
000001f0: a533 98be 7e17 b6bd f2a5 a5bc 7828 aabe

graph_matcher.mlp.4.weight f4 [64, 128]
0.07637769 0.25773084 0.08421087 0.068404846 0.11413006 0.07523198 0.11947994 0.042041168
-0.16464281 0.13728337 -0.001985099 0.024109222 0.34402317 -0.073251344 0.024655957 -0.024267081
0.19711556 -0.07938429 0.20493276 0.1327516 0.24719721 0.00021775835 -0.1447627 0.046148557
-0.060536187 0.36538061 0.015895547 0.012317193 0.016740808 -0.04801997 -0.47524998 -0.011204441
-0.024869291 -0.047657065 0.13239563 0.07635364 -0.11370471 0.094411224 -0.0035171423 -0.12445903
-0.02449921 -0.027754938 0.14179885 0.08620107 -0.034655422 0.7581107 -0.0012108941 -0.084443025
-0.08479633 0.051836763 0.019695539 0.37284842 -0.0163621 -0.16257569 0.029226152 0.095568515
0.10981906 -0.016033787 0.22667457 0.31307805 0.2777315 0.1080861 0.12067279 -0.04205112
0.5135249 -0.024628377 -0.08436431 -0.12261744 -0.12512301 -0.0032661725 0.06014325 -0.064295895
0.0137053635 -0.035505205 0.34909073 0.009199656 0.14956701 -0.13381805 0.015290611 0.22789936
0.048505247 0.22241233 -0.020402305 0.012635434 -0.18512323 -0.5056367 0.0844074 -0.17479038
0.03991893 0.08321453 0.13865441 0.008368021 -0.029861534 -0.034444083 0.118179604 -0.033825614
-0.09971937 0.14442846 -0.003037335 0.028179659 -0.099051036 0.17929143 -0.16027375 0.041563693
0.02469779 -0.20705646 -0.0033630934 0.0496814 0.23487692 -0.07287547 -0.28245342 -0.105936594
-0.13270672 0.21776281 0.15981118 0.17993559 0.06760186 -0.19302681 -0.2183191 -0.06481608
-0.26106414 -0.13668905 -0.007372137 0.1938577 -0.24114648 -0.016825473 -0.17871246 -0.3919688
-0.42115977 -0.04111878 0.031111144 -0.16604194 -0.05071851 0.35260648 -0.04645712 0.04993909
-0.27646887 0.09805365 0.09512422 -0.13324904 0.12983046 -0.11036497 0.025527358 0.033694565
0.15136597 -0.2776954 -0.20634574 0.2189553 0.20090464 -0.14142369 -0.057889886 0.011321456
0.15094928 0.0005657006 0.046885114 0.037209015 -0.035284437 0.059236858 -0.25146964 0.06861547
-0.1379038 -0.019101918 -0.005129899 0.10642081 -0.105411716 0.00016354783 0.056767445 -0.12035984
-0.10487052 0.06804584 0.04917339 0.013344341 -0.0065816566 0.5467998 -0.0062485044 0.013988458
-0.053676464 0.08829096 0.041289896 0.25698718 0.035865784 -0.04450895 0.07840875 0.010168631
0.03675047 0.0430102 -0.14791667 0.050867826 -0.102822095 0.26960447 0.032215122 0.0595664
-0.12869301 0.08952603 -0.07405872 -0.07393103 0.034144163 0.04496559 -0.12344778 0.030859146
0.09688856 0.026427733 0.0101658 -0.084016114 0.015475574 -0.0728255 0.10481031 0.065848716
0.17251489 -0.038125418 0.042493712 0.017062942 0.3802511 -0.03614902 0.014654526 -0.18002638
-0.03260521 0.026590334 0.18955666 0.18684068 0.11245813 -0.14256155 0.041857794 -0.1892086
-0.1343518 0.24814336 0.3243913 0.02999589 -0.14085528 0.1773652 0.519108 0.089968786
0.03932715 -0.26414722 0.06528106 0.06765717 -0.18994808 0.11711446 -0.03647636 -0.21443914
-0.07804849 0.19141173 -0.02274436 0.30424237 0.14201955 -0.18212536 0.15662472 -0.03583856
-0.18191516 -0.0355849 0.08538817 -0.01985467 0.2630004 0.11423999 -0.10144116 0.3059483
00000000: e86b 9c3d 4cf5 833e c076 ac3d d717 8c3d
00000010: 05bd e93d 3913 9a3d e6b1 f43d 5c33 2c3d
00000020: 2098 28be 0394 0c3e 6f18 02bb b480 c53c
00000030: ce23 b03e cd04 96bd 4afb c93c c2cb c6bc
00000040: a9d8 493e 3b94 a2bd e5d9 513e 09f0 073e
00000050: 4421 7d3e 1056 6439 ac3c 14be 4506 3d3d
00000060: cbf4 77bd 2b13 bb3e 6137 823c 0dce 493c
00000070: 0524 893c 97b0 44bd f753 f3be d592 37bc
00000080: afba cbbc 0e34 43bd b892 073e 4c5f 9c3d
00000090: 04de e8bd ac5a c13d db7f 66bb 60e4 febd
000000a0: 91b2 c8bc 535e e3bc b833 113e 308a b03d
000000b0: d8f2 0dbd 8b13 423f ddb6 9eba 77f0 acbd
000000c0: b3a9 adbd c952 543d 8a58 a13c fde5 be3e
000000d0: d009 86bc 3e7a 26be af6b ef3c 6db9 c33d
000000e0: d1e8 e03d 4a59 83bc 611d 683e c44b a03e
000000f0: d332 8e3e 3f5c dd3d 4c23 f73d cc3d 2cbd
00000100: 5e76 033f 73c1 c9bc 32c7 acbd da1e fbbd
00000110: 3f20 00be 480d 56bb c558 763d 91ad 83bd
00000120: 768c 603c e86d 11bd 05bc b23e 27ba 163c
00000130: 1828 193e 9907 09be 7985 7a3c 735e 693e
00000140: 70ad 463d 0fc0 633e bc22 a7bc da04 4f3c
00000150: f290 3dbe 6871 01bf c9dd ac3d 40fc 32be
00000160: 0882 233d 616c aa3d 6cfb 0d3e 061a 093c
00000170: 2da0 f4bc 3d15 0dbd 2608 f23d ba8c 0abd
00000180: ab39 ccbd 0ee5 133e 060e 47bb 07d9 e63c
00000190: 45db cabd 2c98 373e cd1e 24be b13e 2a3d
000001a0: 0553 ca3c 9c06 54be 5867 5cbb b97e 4b3d
000001b0: 9383 703e bc3f 95bd bc9d 90be 49f5 d8bd
000001c0: 45e4 07be 37fd 5e3e 8ba5 233e 0941 383e
000001d0: d872 8a3d d2a8 45be 0b8f 5fbe 4bbe 84bd
000001e0: 33aa 85be 37f8 0bbe f891 f1bb a282 463e
000001f0: 1aef 76be 93d5 89bc 6600 37be 22b0 c8be
00000200: 41a2 d7be 2a6c 28bd ccdc fe3c e606 2abe
00000210: 36be 4fbd d688 b43e d249 3ebd ee8c 4c3d
00000220: 548d 8dbe 5ad0 c83d 7dd0 c23d 7072 08be
00000230: 47f2 043e 0807 e2bd c01e d13c 5003 0a3d
00000240: aeff 1a3e 172e 8ebe 4c4c 53be d135 603e
00000250: f2b9 4d3e 5fd1 10be f21d 6dbd a17d 393c
00000260: 7392 1a3e 864b 143a 9b0a 403d 7b68 183d
00000270: 6a86 10bd 59a2 723d a1c0 80be 4486 8c3d
00000280: a736 0dbe a07b 9cbc b618 a8bb 27f3 d93d
00000290: 19e2 d7bd 097e 2b39 fb84 683d 387f f6bd
000002a0: 5bc6 d6bd 9e5b 8b3d 096a 493d 39a2 5a3c
000002b0: f0aa d7bb 12fb 0b3f 41c0 ccbb d82f 653c
000002c0: dadb 5bbd e4d1 b43d 981f 293d d393 833e
000002d0: 00e8 123d 044f 36bd c494 a03d 549a 263c
000002e0: a987 163d 772b 303d 7877 17be c85a 503d
000002f0: 6494 d2bd 9909 8a3e 01f4 033d e6fb 733d
00000300: 1ac8 03be 6c59 b73d 19ac 97bd 2769 97bd
00000310: c0da 0b3d d72d 383d 31d2 fcbd 52cc fc3c
00000320: 826d c63d f97e d83c 758e 263c a410 acbd
00000330: 438d 7d3c 8925 95bd caa6 d63d b1db 863d
00000340: bea7 303e 6629 1cbd e30d 2e3d 95c7 8b3c
00000350: 46b0 c23e ff10 14bd 8919 703c d658 38be
00000360: 0a8d 05bd f9d3 d93c 241b 423e 2a53 3f3e
00000370: 7350 e63d a8fb 11be 1473 2b3d e6bf 41be
00000380: 8593 09be 4b19 7e3e 9e16 a63e f1b9 f53c
00000390: 5e3c 10be 399f 353e 43e4 043f 8e41 b83d
000003a0: 8115 213d 4e3e 87be 14b2 853d d88f 8a3d
000003b0: c081 42be b5d9 ef3d 3c68 15bd ef95 5bbe
000003c0: e3d7 9fbd 7001 443e 6152 babc a8c5 9b3e
000003d0: 936d 113e 127f 3abe 3b62 203e 74cb 12bd
000003e0: f847 3abe 79c1 11bd fedf ae3d 43a6 a2bc
000003f0: fda7 863e a8f6 e93d 62c0 cfbd 41a5 9c3e

graph_matcher.mlp.4.bias f4 [64]
0.008768908 -0.19701053 0.10347735 0.09745114 0.17446356 -0.2925498 0.20420738 0.14950392
-0.036752146 0.010735776 0.10962838 -0.017888587 0.009023795 -0.3469056 0.0857936 -0.057088953
0.049131695 0.07513356 0.13169149 0.005597112 -0.23128328 -0.18593457 0.28799316 0.15713267
-0.18045397 0.11416328 0.015439336 0.2966837 -0.09696635 0.17754425 -0.28387418 0.009949281
0.1095894 -0.013278146 0.21537715 -0.26486722 0.10652297 0.081014715 0.13488655 0.15090948
0.10143281 0.29334438 -0.038574383 0.13610533 0.31314486 -0.074958146 -0.42769966 -0.024431704
0.3886252 0.13049994 -0.13786286 0.08055753 0.17132796 0.21367279 0.15885542 0.30138022
-0.0075991144 0.17714718 0.025774363 0.021312336 0.06780896 0.14457782 0.1588017 -0.029822534
00000000: 77ab 0f3c 21bd 49be efeb d33d 7794 c73d
00000010: 93a6 323e 16c9 95be bd1b 513e 8e17 193e
00000020: 6b89 16bd 1ce5 2f3c d884 e03d 168b 92bc
00000030: 8ad8 133c 9c9d b1be 8eb4 af3d 1bd6 69bd
00000040: 513e 493d a0df 993d 22da 063e fa67 b73b
00000050: 86d5 6cbe a265 3ebe d773 933e 63e7 203e
00000060: edc8 38be 70ce e93d 45f5 7c3c ede6 973e
00000070: 4b96 c6bd 29ce 353e f557 91be 4f02 233c
00000080: 6870 e03d 958c 59bc d48b 5c3e ad9c 87be
00000090: b728 da3d 0beb a53d b31f 0a3e 0488 1a3e
000000a0: 01bc cf3d 3c31 963e 2c00 1ebd 325f 0b3e
000000b0: 8654 a03e a883 99bd 73fb dabe ff24 c8bc
000000c0: e2f9 c63e c7a1 053e ec2b 0dbe 59fb a43d
000000d0: 9970 2f3e 0acd 5a3e ffaa 223e 824e 9a3e
000000e0: fe01 f9bb 1266 353e c224 d33c 3597 ae3c
000000f0: 6ddf 8a3d 350c 143e ea9c 223e 634e f4bc

classifier.0.weight f4 [32, 64]
-0.13993217 -0.07254841 0.017333964 -0.06993528 -0.07925679 -0.13777223 0.027324755 -0.023101922
0.034768883 0.10648664 -0.011660304 0.031462274 0.08587049 0.020780353 -0.05868701 -0.059946045
0.007576185 0.1026723 0.06378169 -0.04667968 -0.07489046 0.13736917 0.18341996 -0.07149736
0.12857518 -0.0054594157 -0.039183147 0.108197056 -0.004704719 0.048887957 -0.09671844 0.047648694
0.10349111 0.033893418 0.055528283 -0.21455927 -0.068308495 0.04544003 0.015884617 0.068491876
0.07341294 -0.045163255 0.078993805 0.10918954 0.06663914 0.13504983 0.014730893 -0.1089207
-0.015211902 -0.061099518 -0.045671407 0.0037855443 -0.029110111 0.02482265 -0.014220774 0.08342238
-0.021613276 0.050934505 0.0387645 -0.07138222 -0.005840459 -0.008090235 -0.032070514 -0.08726123
0.033018887 -0.090994954 -0.1848563 0.058086686 -0.1358793 -0.41609105 0.085700236 0.054620385
-0.05115727 0.11618882 0.15257837 -0.12860715 0.09761234 -0.05323855 -0.30724803 -0.10056541
0.1813297 -0.0053630476 0.10022256 -0.12606084 0.07508862 0.13028128 0.113041885 -0.19998069
-0.07481613 -0.6689019 -0.06843654 0.14993507 0.0052688094 -0.025445191 -0.18562962 -0.018315373
0.22904661 0.08419796 -0.07204473 -0.4058748 0.013860158 -0.2512485 0.23143274 0.32933107
0.1458009 -0.42737374 -0.047082864 -0.1554483 -0.14382878 -0.07408479 -0.096246704 -0.14737198
-0.23053549 0.15303351 -0.27199826 -0.04995004 0.11190759 0.14750597 0.25452575 0.12096469
-0.040921703 0.0677285 0.035509605 -0.0038008252 -0.0018410946 -0.057435952 -0.020077884 -0.02893161
0.021785501 -0.09883277 -0.08741844 -0.015944168 -0.07839009 -0.22229925 0.18847275 -0.06593935
0.09180794 0.007657178 0.04229844 -0.0136830555 -0.06760315 -0.002753382 -0.1115746 -0.111135386
0.06666379 -0.17094477 0.14011148 -0.14447391 0.02605662 0.10049631 0.14538597 -0.0318136
0.09067884 -0.36344784 0.19073673 0.04136969 -0.05898829 -0.15100944 -0.026054766 0.047957923
0.006439499 0.011926291 0.032175656 -0.097594455 -0.124653935 -0.21553743 0.058080576 0.14314428
0.024761043 -0.047939543 0.064345375 0.07957347 0.13094175 -0.14113846 0.19689909 -0.014615577
-0.20074384 -0.0007468213 -0.065774344 -0.04374684 -0.07137231 0.074145734 0.03993158 0.15300089
-0.1409255 0.009389437 0.12094224 0.13617387 0.04164013 0.011017246 0.06600026 0.030984104
0.010075953 -0.15640415 -0.02813935 -0.035333067 0.16797507 -0.59933704 0.56358343 0.026696568
-0.001367547 -0.13564718 0.10415374 0.08605747 0.28286558 -0.051041123 -0.2703908 0.03191843
0.04116895 0.015539248 0.25929093 -0.10376703 -0.123770654 0.029370314 0.693396 0.04648679
-0.010830391 -0.19793363 0.13433121 0.23656933 0.035451047 0.12595946 -0.4540627 0.10565102
0.09447319 0.015991824 -0.04832632 -0.03679064 0.0014658669 -0.095934615 0.10838089 0.42573783
0.2663345 0.22921103 0.008853731 0.057603944 0.1584538 0.08423573 -0.39518985 -0.0046139588
0.22885759 0.038967595 -0.08250352 0.15370235 0.24702114 0.08443596 0.0073422906 0.20821019
-0.046504926 0.058003955 -0.025412114 -0.058763344 -0.19827807 0.028492024 0.09064734 -0.16261952
00000000: 614a 0fbe 4394 94bd f5ff 8d3c 3a3a 8fbd
00000010: 6251 a2bd 2a14 0dbe 2ad8 df3c 3e40 bdbc
00000020: d169 0e3d ab15 da3d dc0a 3fbc 96de 003d
00000030: dedc af3d 8f3b aa3c ca61 70bd fc89 75bd
00000040: a541 f83b db45 d23d fa9f 823d 3133 3fbd
00000050: 2b60 99bd 81aa 0c3e 71d2 3b3e 356d 92bd
00000060: 36a9 033e e6e4 b2bb 827e 20bd 6b96 dd3d
00000070: 0b2a 9abb bd3e 483d 5114 c6bd 472b 433d
00000080: 26f3 d33d d3d3 0a3d a071 633d 6db5 5bbe
00000090: 53e5 8bbd 531f 3a3d 7520 823c 7845 8c3d
000000a0: 8659 963d 1bfd 38bd 81c7 a13d c49e df3d
000000b0: 1a7a 883d 814a 0a3e d859 713c d111 dfbd
000000c0: 573b 79bc 7d43 7abd f111 3bbd e516 783b
000000d0: 5478 eebc df58 cb3c 40fe 68bc 5ad9 aa3d
000000e0: 530e b1bc b3a0 503d 86c7 1e3d d730 92bd
000000f0: 5261 bfbb e88c 04bc 5f5c 03bd 04b6 b2bd
00000100: d03e 073d 905b babd f84a 3dbe 4eec 6d3d
00000110: f123 0bbe e309 d5be 9b83 af3d a0b9 5f3d
00000120: 498a 51bd 67f4 ed3d 813d 1c3e 98b1 03be
00000130: fae8 c73d aa10 5abd 9d4f 9dbe 3df5 cdbd
00000140: 7eae 393e 81bc afbb 7c41 cd3d 1816 01be
00000150: 10c8 993d 7568 053e 8182 e73d bdc7 4cbe
00000160: 3339 99bd 283d 2bbf 7528 8cbd 9488 193e
00000170: faa5 ac3b 6f72 d0bc b115 3ebe 1f0a 96bc
00000180: 328b 6a3e fb6f ac3d 308c 93bd d2ce cfbe
00000190: b715 633c a5a3 80be b4fc 6c3e 159e a83e
000001a0: d54c 153e bbd0 dabe f6d9 40bd d72d 1fbe
000001b0: da47 13be c4b9 97bd fe1c c5bd aee8 16be
000001c0: 7f11 6cbe d1b4 1c3e 5b43 8bbe 6a98 4cbd
000001d0: ce2f e53d ce0b 173e 3351 823e 56bc f73d
000001e0: 849d 27bd 3db5 8a3d 8572 113d 4417 79bb
000001f0: e250 f1ba f641 6bbd 607a a4bc fc01 edbc
00000200: 8277 b23c d668 cabd 7008 b3bd 589d 82bc
00000210: fc8a a0bd 6aa2 63be 00ff 403e 360b 87bd
00000220: cd05 bc3d 11e9 fa3b 2141 2d3d e52e 60bc
00000230: 8573 8abd 1672 34bb 3981 e4bd f39a e3bd
00000240: 0687 883d 250c 2fbe 6279 0f3e f8f0 13be
00000250: b174 d53c 02d1 cd3d 0fe0 143e fa4e 02bd
00000260: d4b5 b93d d615 babe 7d50 433e 4473 293d
00000270: b59d 71bd 38a2 1abe ce70 d5bc 876f 443d
00000280: 6f02 d33b 7d66 433c 9fca 033d 9adf c7bd
00000290: 904a ffbd d8b5 5cbe e6e5 6d3d 6a94 123e
000002a0: acd7 ca3c 415c 44bd 82c7 833d 6af7 a23d
000002b0: 9815 063e 9a86 10be ea9f 493e 2c76 6fbc
000002c0: cb8f 4dbe 54c6 43ba b3b4 86bd e32f 33bd
000002d0: a52b 92bd b8d9 973d 4c8f 233d 44ac 1c3e
000002e0: c64e 10be 27d6 193c 91b0 f73d 2a71 0b3e
000002f0: d78e 2a3d ae81 343c 252b 873d 60d2 fd3c
00000300: 9c15 253c 6928 20be 7e84 e6bc 68b9 10bd
00000310: a801 2c3e 276e 19bf 0147 103f c3b2 da3c
00000320: 433f b3ba 18e7 0abe 8e4e d53d e63e b03d
00000330: c2d3 903e 7f10 51bd aa70 8abe e6bc 023d
00000340: c6a0 283d 5498 7e3c c8c1 843e cf83 d4bd
00000350: 787b fdbd 039a f03c 6682 313f ef68 3e3d
00000360: f471 31bc 1daf 4abe 1f8e 093e 3b3f 723e
00000370: 1e35 113d 84fb 003e e87a e8be 905f d83d
00000380: 297b c13d 4901 833c d2f1 45bd c8b1 16bd
00000390: 5522 c03a 5e79 c4bd cdf6 dd3d 4ffa d93e
000003a0: ff5c 883e 4cb6 6a3e 3d0f 113c 1df2 6b3d
000003b0: b741 223e c883 ac3d 5356 cabe b130 97bb
000003c0: a559 6a3e 7c9c 1f3d 9bf7 a8bd 2664 1d3e
000003d0: 1cf3 7c3e c3ec ac3d 9997 f03b 0d35 553e
000003e0: f37b 3ebd 8e95 6d3d 112d d0bc d5b1 70bd
000003f0: 6809 4bbe 1b68 e93c 50a5 b93d bb85 26be
