Result/GCN/5000_sample/model_epoch_52_f1_0.7666.pth (torch, 841514 bytes, 42 tensors)

graph_matcher.gnn.conv1.bias f4 [64]
00000000: 6777 833d 0000 0000 0000 0000 7517 8abd
00000010: 381c b7bd b10d a6bd 3f5b 08bd 2185 423d
00000020: fca5 933d 1467 8d3d 0f6c 1e3d 7cb9 a73d
00000030: 9c40 2ebe 1b64 293e fdc1 3dbe ccdb 51bd
00000040: 0000 0000 6906 073e 0da7 9d3d f615 8bbd
00000050: 13c9 a93c 2394 c33d 0000 0000 a062 66bc
00000060: 0000 0000 0e0c 293e bfd7 bebd 0000 0000
00000070: acc8 74bd 2a68 b43d b048 ec3d 22aa 77bd
00000080: ba25 32be 2b3d 5ebe 9b43 89bc efd9 9bbd
00000090: c8d4 2cbd 2e2f a03d 7886 a8bd 221d 85be
000000a0: 35b9 bdbd 7085 be3d 0a96 b6bd 5dc5 21bd
000000b0: 5ce9 0f3e d475 8a3d e6c0 abbd b022 d13b
000000c0: 4200 d0bd a88b f1bd b237 5bbd 0000 0000
000000d0: c28a 66be 529c e33c bf48 913d 259e 5bbd
000000e0: e60f 0c3e ef8e b13c e458 0bbd c13a 93bc
000000f0: 0000 0000 3df3 87bb d819 f1bd 23a2 6abe
0.064192586 0.0 0.0 -0.06742755 -0.08940929 -0.0810808 -0.033290144 0.047490243
0.072093934 0.06904426 0.03867727 0.08189675 -0.17016834 0.16542093 -0.18531032 -0.051235005
0.0 0.13186039 0.07697878 -0.06791298 0.020725762 0.09549739 0.0 -0.0140616
0.0 0.16508505 -0.09318494 0.0 -0.059761688 0.0880893 0.115373015 -0.060464986
-0.17397204 -0.21703021 -0.01675587 -0.07609927 -0.04219511 0.07821499 -0.08228773 -0.2599879
-0.09263841 0.09302795 -0.089153364 -0.03949486 0.14053863 0.06760755 -0.08386402 0.006382309
-0.10156299 -0.117942154 -0.053519912 0.0 -0.2251387 0.0277845 0.07093953 -0.053617615
0.1367794 0.021674601 -0.03402032 -0.017972352 0.0 -0.0041488693 -0.117725074 -0.22913413

graph_matcher.gnn.conv1.lin.weight f4 [64, 4]
00000000: cb94 c43d fda2 313e a1e7 4a3f ec01 13bf
00000010: 9ade 47be 7a2d 89be e135 97be 7a3d 86bd
00000020: 2612 88be b2c9 28be e1d9 95be c832 3cbe
00000030: 3842 f43e f25e e13e 4afe e93e 39f6 23bf
00000040: d507 963e f8e7 b33e 6ce7 373f f5e3 14bf
00000050: 05b4 d03e 8f9b 19bf b2b5 3cbf fa17 943e
00000060: 7d40 6abf 91d9 50bf 6d61 98be cc98 063f
00000070: 8f3a 103e 940a 0f3f 33c4 663e 26e3 82bf
00000080: 5e6b c3bd 07bc 033f 4725 333f 3b1a 20be
00000090: 229f 6cbf 22a2 2e3f fdf1 bb3e 3c69 fc3d
000000a0: 924f 563d 4d8c 8b3e 17e6 363f 7be0 f0be
000000b0: 9a0f 1fbf a690 d73e 2dd0 0abf e76b 773e
000000c0: e4b8 b53e 9152 a63e a823 1d3f b52d dbbe
000000d0: adb7 79bd e95a eb3e 7f7d 433f c958 a6be
000000e0: dca3 71bf 2349 7fbf 4afd 21bf 2dc4 133e
000000f0: 9d74 2b3f 0a18 73bf f719 80bf 9cf2 cebe
00000100: 5002 38bd 6e4a 8abe 9a2a 9fbd 5035 a7bc
00000110: c202 86bf 886f 163f 83b4 7e3e 7b1c 723d
00000120: f3ea a2bf 32a7 243f 149a 283f 33cc 6dbf
00000130: 09d5 543e 3ec3 9a3e 2f4e 0e3f afd9 54be
00000140: 52e6 7b3d 9954 eb3e c551 0c3f 9933 25bf
00000150: 2112 bdbd 1252 0d3f 34d8 423f c849 3dbe
00000160: 9e35 1bbe 7c13 91be 8a54 72be e829 14bd
00000170: b068 05bf 5576 453f 431a 5e3e 752d 173d
00000180: a8ab 61bd 3d86 3dbe 2c0d b6bd 8afa a9bd
00000190: ebf9 8cbf dd0c 7abf 20f5 aebe 493f 9d3e
000001a0: 9f16 d73e 7886 cf3e 1870 fa3e 5288 d8be
000001b0: d07e 10be ff0e 92be 7904 90be d055 ddbc
000001c0: c8ea 42be 33be 58bd 7346 92be 2ec0 10be
000001d0: eb03 743e 7205 903e 6536 693f c5d6 e4be
000001e0: 434b 093c c07b 473e 141e 3e3f 8456 15bf
000001f0: 45ee 47be 5e91 8bbe 118a 5abd 4e30 38bd
00000200: b90c 003f 1e17 47be 90ff 343f eeda c8be
00000210: c6bf 2a3f f66d 99be e970 1fbf 5177 96be
00000220: 77d2 85bf 3087 503f ab17 783f 3300 94bf
00000230: d431 ac3d 3833 563d 0e3f 3f3f 9e5a 84be
00000240: 6e9e 25bf 2957 40bf 9644 cfbe 5d31 ea3e
00000250: 4419 f8bd 89b6 8a3e 123d 433f 781f 21bf
00000260: f17c 73be 1caa 3abe 08f6 74be 1573 a5bc
00000270: 9a5e 2e3f 07fd 2cbf 41cb 40bf d784 77be
00000280: 927b 5fbe eb42 95bd a09c 4a3b 905d 263d
00000290: d734 b6bf 490f 4d3f 4ada 213f b935 9fbf
000002a0: 5899 b0bd 2ba5 a9bd 9d13 5dbd 1089 c63c
000002b0: 6028 4c3e acec d2be 6a71 813f 9509 99be
000002c0: 680e 8ebf 82ae 7ebf 1df6 00bf 2705 e33e
000002d0: 294d b1bf bfe7 153f ced6 7b3f ef33 3bbe
000002e0: 4c81 6ebf 118c 523f 6af9 c6be 4413 98bd
000002f0: 0416 8bbf fb60 723f 0d4f f53e 824c d6bd
00000300: feab ccba 44f8 24bd f3bb 64be 259f 43be
00000310: 53c2 c93e 61e5 6b3e 1ddb b13e 6f4a 2dbe
00000320: 7e95 15be e02a dabd 7a2b 4dbd 2a3b ddbd
00000330: 32ae 78be a9be 22be 6c8e b0bd e021 46bd
00000340: 77f3 483f 20f5 5cbf 96e2 23bf 6d9f b6be
00000350: e470 6dbf d41d 703f 41f2 88bd cbcc c53c
00000360: f183 8dbf b856 4b3f cab0 61be 4dcc 03be
00000370: 7f22 033d 1a5d 44be 287d 31be cc50 8abe
00000380: 7e7e 183f b3c9 97bf e0db 81bf 5247 8dbe
00000390: 054d 4c3e 2125 a73d 9fae 3d3f 9f80 79be
000003a0: 99f8 6dbf 50f0 50bf f621 1fbf 6f68 053f
000003b0: 1554 7ebf 88a5 183f a122 123f 6c8b 90bf
000003c0: f0d6 c4bc 3063 4cbe d81f 42be 6447 d1bd
000003d0: 3675 4ebf 6881 49bf 14cd 00bf 213c fd3e
000003e0: 806e e5bc 368a 57be f1bb cd3c 91e6 97be
000003f0: 5664 943e b890 063f 0fdb 243f b40f c5be
0.095986925 0.17347331 0.7925969 -0.5742481 -0.1951851 -0.26792508 -0.29533294 -0.065546945
-0.26576346 -0.1648319 -0.2926779 -0.18378747 0.4770677 0.4401775 0.4570182 -0.6404758
0.2930285 0.35137916 0.71837497 -0.58160335 0.40762344 -0.6000299 -0.73714745 0.28924543
-0.9150465 -0.8158198 -0.2976183 0.525769 0.14084838 0.55875516 0.22535782 -1.022557
-0.09541963 0.5145878 0.69978756 -0.15635006 -0.9243032 0.68216145 0.3670806 0.12324759
0.052321978 0.27255479 0.7144484 -0.47046265 -0.6213318 0.42102545 -0.542239 0.24162255
0.35492623 0.32484868 0.6138253 -0.4280831 -0.060966183 0.45967796 0.76363367 -0.32489613
-0.94390655 -0.9972097 -0.63277113 0.14430304 0.6697481 -0.94958556 -1.0007924 -0.4041947
-0.04492408 -0.2700991 -0.077717975 -0.020411164 -1.0469592 0.58763933 0.24873547 0.059109192
-1.2727951 0.6431762 0.65860105 -0.9288971 0.20784391 0.30227083 0.5558805 -0.20786165
0.061498947 0.4596298 0.5481227 -0.64531857 -0.092319734 0.55203354 0.7611115 -0.18485177
-0.15157172 -0.28335178 -0.23665062 -0.036172777 -0.52112865 0.77133685 0.21689706 0.036908586
-0.055095345 -0.18508239 -0.08889231 -0.0829974 -1.1013769 -0.9767588 -0.3417139 0.30712345
0.42009446 0.4053228 0.48913646 -0.42291504 -0.14110875 -0.28527066 -0.28128412 -0.027018458
-0.19034874 -0.052915763 -0.28569373 -0.1413581 0.2382962 0.28129154 0.91098624 -0.44695106
0.00837976 0.194808 0.74264646 -0.5833514 -0.19524486 -0.27259344 -0.053354327 -0.044967942
0.50019413 -0.19442412 0.7070246 -0.3922953 0.66698873 -0.29966706 -0.6228166 -0.29387906
-1.0454854 0.8145628 0.96911114 -1.1562561 0.084079415 0.05229494 0.7470559 -0.25850385
-0.6469487 -0.75132996 -0.40482014 0.45740786 -0.12114194 0.27092388 0.7626506 -0.6293864
-0.2377813 -0.18228954 -0.23921978 -0.020196477 0.681131 -0.6757359 -0.7531014 -0.24171768
-0.21824482 -0.07288154 0.003091611 0.040616572 -1.4234875 0.8010145 0.6322371 -1.243827
-0.08622998 -0.082834564 -0.053973783 0.024235278 0.19937277 -0.4119619 1.0112736 -0.29890123
-1.1098146 -0.9948503 -0.5037554 0.44339868 -1.3851672 0.5855674 0.9837464 -0.1828153
-0.9316604 0.82244974 -0.38862163 -0.074255496 -1.0866094 0.9467923 0.47911873 -0.104638115
-0.0015615223 -0.040275827 -0.22337322 -0.19103678 0.3940607 0.2303672 0.34737483 -0.16922925
-0.14607808 -0.10652709 -0.05009029 -0.108023 -0.242852 -0.15893044 -0.08620915 -0.04837215
0.784965 -0.8631153 -0.6401762 -0.35668507 -0.9275038 0.93795514 -0.06686831 0.024145504
-1.105589 0.794292 -0.22040096 -0.12870903 0.03201532 -0.1917614 -0.173329 -0.27014768
0.5956801 -1.1858429 -1.0145226 -0.27593476 0.19951256 0.08161379 0.74094576 -0.24365471
-0.92957455 -0.8161669 -0.62161195 0.5211248 -0.9934705 0.5962758 0.5708409 -1.1292548
-0.024028271 -0.19959712 -0.1895746 -0.10218695 -0.806476 -0.78713083 -0.50312924 0.49459937
-0.028006792 -0.21048817 0.025114032 -0.29668096 0.289828 0.52564573 0.64396757 -0.38488543

graph_matcher.gnn.conv2.bias f4 [128]
00000000: affb a03e db9a c7bd de1d c9bd 71e0 1abe
00000010: 4876 963e d901 843e d743 a5bd 75f9 f43d
00000020: 974b 843e 73f6 933d f918 4bbe f620 02be
00000030: 73c7 dabd dd2a 8bbd 6851 123f 7b5d e5bd
00000040: 23b7 e7bd 16d6 e6bd 43cf a93d e8e4 663e
00000050: 70dc e8bd 5250 0fbe e464 bebd 956d 5abe
00000060: 4a85 5ebd 7f76 90bd 28e0 43be 3173 09bf
00000070: 0b2c 91be 8cb9 e9bd e173 a4bd 8c0d 04be
00000080: bcec adbe 6bad 293f 7f7d d5be 9de4 b6bd
00000090: 59a4 b73e ffe3 b33e 6654 c33e 6238 33be
000000a0: f390 483d d19f 923e 14ac 083f 7a97 81bd
000000b0: 21ed a1bd d8ed 22bd 8360 c43e 1db5 63be
000000c0: 086a d1bd d338 aa3e f04f 823e eecc 7f3e
000000d0: 5c3d 2e3f aedd ffbd 80d6 93bd 2ae0 42be
000000e0: c1bc c3be 1ee7 b83d 2d2d 1a3e 9bd8 113f
000000f0: 0950 c0bd f6a1 a7be dc08 d93e 7806 d63e
00000100: 3b4f b1bd 5adb 243e 2bb7 45bd ad60 45bf
00000110: b18f 25bd aef1 8f3e e6ff 87bd 4632 5bbe
00000120: a04d 34bd 3a73 f4bd e1e3 9dbd a189 aabd
00000130: fadc 11be 5c58 1cbe 5fd3 163f dbd0 90bd
00000140: e14f cb3e 90e3 80be 60aa 0ebe d5b7 9cbc
00000150: 8d42 b53e 0198 debd 40bd b5bd a42d 233e
00000160: 8d16 13bd 6e93 bfbd 873a 3cbe 0118 f9bd
00000170: d9d9 6c3e 215a f93d 1cb7 8dbd 325d b7bd
00000180: b6d3 e23e 97a0 c63e 9d88 cabc d3ea 0abe
00000190: 3a8e cfbe 4941 0f3f e467 dabd e927 48bd
000001a0: 5f9d 0b3f 7f59 a53e 8fc8 fdbd b0c2 103e
000001b0: 0dde 5a3e 5759 04be 1e4b b1bd 9c27 c2bd
000001c0: 1e5a a9bd d768 ee3e e40f bfbd d832 3f3e
000001d0: 3fac 803e 2dd2 febd b927 983e de83 e03e
000001e0: 2a79 c1be e957 b8bd 4e87 aa3d df6c c0bd
000001f0: 72b9 823f 3574 d83e 9b68 02be 5697 f73e
0.3144202 -0.09746333 -0.0982015 -0.1512468 0.29387116 0.2578266 -0.0806958 0.11961643
0.2583892 0.07224741 -0.19833745 -0.12707886 -0.10682573 -0.06795285 0.57155466 -0.111994706
-0.113142274 -0.112713024 0.08291485 0.22548258 -0.1137017 -0.13995484 -0.09296587 -0.21330865
-0.054326333 -0.07053851 -0.19128478 -0.53691393 -0.28353915 -0.114123434 -0.08029915 -0.12895793
-0.33969676 0.6628024 -0.41697308 -0.08930323 0.35867575 0.35134885 0.38150328 -0.17501977
0.04896636 0.28637555 0.5338757 -0.0632772 -0.07906557 -0.039777607 0.38354883 -0.22237058
-0.10225302 0.33246478 0.25451612 0.24980518 0.68062377 -0.12493454 -0.07218647 -0.19030824
-0.38229945 0.09028457 0.15056296 0.5697114 -0.093902655 -0.32740754 0.42389572 0.4180181
-0.0865769 0.16099301 -0.048270386 -0.7710064 -0.040420238 0.28114074 -0.06640606 -0.21405897
-0.04401934 -0.1193604 -0.0770948 -0.08327032 -0.14244452 -0.15268081 0.58916277 -0.07071086
0.3970938 -0.25173616 -0.1393218 -0.019130627 0.35402337 -0.10868836 -0.08873987 0.1593538
-0.035910178 -0.09354292 -0.18381701 -0.121627815 0.23129977 0.12175394 -0.06919691 -0.089533225
0.44302148 0.38794395 -0.024723345 -0.13566141 -0.40538198 0.5595899 -0.10664347 -0.048866186
0.54537004 0.32294843 -0.12391769 0.14136767 0.21373768 -0.12924705 -0.086569056 -0.09480211
-0.082691416 0.4656436 -0.09329203 0.18671739 0.25131413 -0.124424316 0.29717806 0.43850607
-0.37787753 -0.090011425 0.083265886 -0.093957655 1.0212843 0.4227616 -0.12735216 0.48357648

graph_matcher.gnn.conv2.lin.weight f4 [128, 64]
00000000: 6df2 223f 7028 a3bc 6ed7 a43d 868b a13e
00000010: 4afd f53e 1031 65bf 74a6 cabe e1a4 0e3f
00000020: 2a1a c63e 7fc1 02be 89aa d73e dcfa 40bd
00000030: f210 c83e 423b 9b3e 08e8 abbe dfc7 81bf
00000040: 30d8 d13c 5415 58be 12d6 d4bf fe41 8b3e
00000050: cc3c 593f cdea a43e b80d 8a3d 243c e53d
00000060: e96b dbbd 5943 01bf 7658 a93e 2730 d6bd
00000070: a471 87bd 4190 e13e bdea 013f 4c7f 27be
00000080: 56b2 cebe 77a9 f3be a80c 22c0 5199 c83e
00000090: 34be 04bf 5cb7 743f 1c81 073d 64d2 89bf
000000a0: 0625 763d 1201 04c0 7592 f0bd c04c 1cbc
000000b0: 66e7 1abf 9a5b 67be 432b f93c a5f2 41be
000000c0: a880 d03d 8454 4c3e dbc8 d23d e407 b9bd
000000d0: 014d a3bf 34f5 843e 6426 b4bd 3e7b 73bd
000000e0: 70fc 99bf bc5e a73e 33b7 c5be 53fe f1bf
000000f0: cca8 49bd 889a 38bf 49a9 a63d 499c 1f3f
00000100: d604 80be 0a43 f0bd 2005 18bd 63c5 0abe
00000110: 0d47 eabd 539f 23be d535 f9bd 3f2c c8bd
00000120: 12d5 66be c1ce 7a3d 6045 c2bd bd7d 15bc
00000130: 98d6 29be 22db fcbd 1a25 46be 8e19 46be
00000140: da75 903d 48fb 09be d984 ac3d 9f90 5abe
00000150: 51c1 16be 7f36 8c3d 670f 0fbe 7ec7 aebd
00000160: f695 973d d728 6dbe 8f43 af3d 58dc 9abc
00000170: e03b 2abd 2f8b 18be 8532 29be e275 3b3c
00000180: 8741 74be 4f0c 1abe d407 043e 5038 a6be
00000190: 85df 4abe f373 033e 2387 7fbe 8cf5 9bbc
000001a0: 298f 493d 4767 3abd b26f e7bb 343d 69bd
000001b0: 67e9 f9bd 7eec c9bd cbc4 a0bd 6833 b9bc
000001c0: b069 843d 459c 69be b2bd c63c 85a8 153e
000001d0: 9811 7bbe 1094 5d37 42db 93bc 27ab 1abe
000001e0: 84bd 843d 0e2a a8bd d696 59be ad24 753d
000001f0: 447c 0bbd 56a5 b1bd d1a0 ea3d e1a6 90be
00000200: be16 cdbc 2d3a 10be 200b 9bbc dec1 07be
00000210: 58c7 c8bd 43cf 9dbd 8bb3 17be 4740 b4be
00000220: e0ea 80be 9dc9 86bd 6c7b 223e 7c87 77be
00000230: 0a1a afbe 4b75 adbe d313 98be 2441 1bbd
00000240: e7e8 87bd b135 1dbe 3b41 ddbe b332 f1bd
00000250: 892a 8abe 9d65 70be 9ec1 aa3d 073e 5ebe
00000260: 7abd c63d 1c94 c9be 0682 0c3e a6fc 86bd
00000270: 83cd 733c 8725 3abe f9d5 573d a3d5 4cbd
00000280: 3c80 2abe 0782 153e e1a4 91be facd dabe
00000290: eb4b 92bd e8c8 6c3d c572 f6bd 7b24 32be
000002a0: 0182 33be c7a9 fdbd 4a4f 7fbe 242d 0bbd
000002b0: 3064 b3be 6ddd 283e 87bc ef3d 2180 05bd
000002c0: c785 20be c88e 93be ba5a 70bd 005a 9b3a
000002d0: 4adc 46be 2127 533d 3f5d cd3c 5100 41be
000002e0: ed60 253e 976c dbbc 93e2 a5be e582 df39
000002f0: c4d8 3a3d c812 e3be 0130 3ebd ca0d 65be
00000300: 1012 44bf 2ac6 2abe 0cf1 00bd 5026 12bd
00000310: 07c0 aabe 6806 783e 2cde 803d c22c 02bf
00000320: 4ea0 ecbe 8fac 74be 8e19 a4be 9ba1 a4be
00000330: d5bb b8bd c182 9dbe c54f aabe df56 18be
00000340: 92a2 a83d 143a 1cbe 5f60 803e 45c5 f4bd
00000350: 1af6 c1be 3767 48be 00b7 883d 22a1 68be
00000360: ee03 fc3d faf0 3abe 05bb bf3d 1ee3 bb3d
00000370: 39fb ef3c d1fb 83be a625 bfbe f7c8 b1bd
00000380: ec73 d5bd a2d2 173c 4451 26be 18e7 dcbe
00000390: 424c d7be d02f f0be 6e82 033e dc47 f63b
000003a0: cf84 b13c 4f1e 3a3e b01f 13be 7d4c afbe
000003b0: 7ba8 84bb e268 cdbe 7ee2 28be fef4 efbe
000003c0: fdb8 d3bd 9864 293e a0de 63bc 60f9 6b3c
000003d0: 4750 1c3d 0619 cbbe cdcd b0be b6f9 e3bd
000003e0: 49ec 61bc 723a d3bd bc5a c03c 96bc c2bd
000003f0: 9783 113e 61c0 7ebe 6c1a ee3c 4cc8 98bc
0.6365116 -0.019916743 0.080489025 0.3155176 0.48044807 -0.8952799 -0.3958012 0.55720335
0.38691837 -0.12769125 0.42122295 -0.04711424 0.39075428 0.30318648 -0.33575463 -1.0139121
0.025615782 -0.21101886 -1.6627829 0.27198786 0.84858394 0.3221039 0.06740898 0.111931115
-0.107139416 -0.5049339 0.33075303 -0.10458403 -0.06613472 0.4405537 0.5074881 -0.16357154
-0.40370435 -0.4759023 -2.5320225 0.3917947 -0.51852727 0.95592284 0.033082113 -1.0767331
0.060093902 -2.0625653 -0.117466845 -0.009539783 -0.60509336 -0.22593537 0.030416137 -0.18940218
0.10180789 0.19954115 0.102922164 -0.09034708 -1.2757875 0.25968325 -0.08796385 -0.059443705
-1.2030163 0.32689464 -0.38616332 -1.8905739 -0.049233243 -0.72110796 0.08137757 0.6234785
-0.2500369 -0.11731537 -0.037114263 -0.1355186 -0.11439333 -0.15978746 -0.12168471 -0.09774064
-0.22542217 0.061232332 -0.094858885 -0.009124217 -0.16585767 -0.12346484 -0.1935009 -0.19345686
0.070537284 -0.13474762 0.08423776 -0.21344231 -0.14722182 0.06846332 -0.1397072 -0.08534144
0.0740165 -0.2316011 0.08557808 -0.018903896 -0.041561007 -0.14896844 -0.16523178 0.01144168
-0.23853122 -0.15043758 0.12893611 -0.32464838 -0.19811828 0.128372 -0.24953894 -0.019037984
0.049208794 -0.04550865 -0.0070628757 -0.056943133 -0.12202721 -0.098595604 -0.07850035 -0.02260752
0.06465471 -0.22813518 0.024260376 0.14615066 -0.2451843 1.32071e-05 -0.018048886 -0.15104352
0.0648146 -0.08211146 -0.21248946 0.05984943 -0.034054056 -0.086741135 0.114564545 -0.28252319
-0.025035258 -0.14084692 -0.018926203 -0.13257548 -0.09803647 -0.07705548 -0.14814584 -0.3520529
-0.25179195 -0.065814234 0.15867394 -0.24172777 -0.34199554 -0.3387855 -0.29702625 -0.03790392
-0.066362195 -0.15352513 -0.4321383 -0.11777248 -0.26985577 -0.23476262 0.08337711 -0.21703349
0.097041085 -0.3937081 0.13721475 -0.065911576 0.014880541 -0.18178378 0.052694295 -0.050008427
-0.1665048 0.14600383 -0.28446105 -0.42735273 -0.071433865 0.057808787 -0.12033609 -0.17396729
-0.17530061 -0.12385898 -0.2493259 -0.033978596 -0.35037374 0.16490717 0.117058806 -0.032592896
-0.15676032 -0.2881987 -0.058680274 0.0011852384 -0.19419971 0.051550988 0.025068877 -0.18847777
0.16150256 -0.026785178 -0.32399425 0.00042631399 0.04561688 -0.44350266 -0.0464325 -0.22368541
-0.7659006 -0.16677156 -0.03147988 -0.03568107 -0.3334963 0.24221194 0.06292376 -0.50849545
-0.46216053 -0.23893951 -0.32050747 -0.32154545 -0.09020201 -0.3076382 -0.33263984 -0.14876889
0.08234133 -0.1525653 0.25073525 -0.11951689 -0.37883073 -0.19570623 0.066755295 -0.22717717
0.12305437 -0.18255988 0.09361843 0.091741785 0.029294597 -0.25778058 -0.3733341 -0.08680909
-0.10422501 0.009266527 -0.16241938 -0.4314506 -0.42050368 -0.46911478 0.12842724 0.0075158905
0.021669773 0.18175624 -0.14367557 -0.34238043 -0.0040484047 -0.40119082 -0.1649265 -0.46866602
-0.10338018 0.1654228 -0.013908058 0.014402717 0.038162496 -0.3966753 -0.34532014 -0.11131613
-0.013789245 -0.10313882 0.023480766 -0.09508626 0.14210354 -0.24878074 0.029065333 -0.018650196

graph_matcher.mlp.0.weight f4 [128, 256]
00000000: 663f 8ebd fa3f 7c3d 3f9e 05bd fce8 623d
00000010: 4886 69bd 9f33 afbb ea82 03bd f25f 55bd
00000020: 75b4 ed3c e62f 12bd 30d1 6abd 60a1 5e3d
00000030: 101e 9bbc f6ce 7fbd 3612 f73b df93 fcbd
00000040: aa0c 333d c6ef 1abd ac2d 8fbd 9ed0 103d
00000050: 204f 2fbb dea3 9fba c178 0abd abd3 bebc
00000060: eda8 aabd bc48 c0bc da30 52bc e42a f9bd
00000070: 31e6 c7bd 2e73 1bbc 4dd1 9ebd 5a25 52bd
00000080: 4e5c 7bbd ac2a 90bd c8f4 34bd a21e 623d
00000090: 3d46 7e3c 086d d43c cf02 e53a 1cc9 4c3d
000000a0: 3b42 5bbd 9be3 bebd c50c ffbc 6d71 a2bd
000000b0: a2e6 2f3d 9305 20be 3bb8 5bbd ac5a 843c
000000c0: e011 87bb aea0 9bbc e22f a0bd 3ed2 80bc
000000d0: 760f 02bd c1e5 a7bd c9a6 1dbd a8e3 87bd
000000e0: c5a1 a33d 0ff7 8abd 7b4c 8abd 217d 20bd
000000f0: 1c26 8ebc 782b 733d ab73 b93c d7b4 813c
00000100: af7b b5bd c6fc 32bd b4a3 80bd 6eac 533d
00000110: 4f0e 24be ead7 80bd 66a9 f9bd 1603 1e3d
00000120: 9ecb 16bd ac39 81bd b963 93bd ca74 3dbd
00000130: 5fad 45bd d8aa 7d3d 8b78 c63b b387 44bd
00000140: 533a 92bd 4015 8d3c d757 9cbd b466 89bd
00000150: 9974 5b3c 6a76 39bd e87b 2cbd 2b7d eabc
00000160: e004 c3bd 6a3d d5bd 22de 1cbd 0319 15be
00000170: 3816 8fbd ab1f 63bc 90ad 16bc d57c 77bd
00000180: 22b8 c1bc 2127 563c 2e01 15be bc28 d4bb
00000190: 1e22 143c 98bc a4bd 04ea 183d 7ea5 55bd
000001a0: 8e59 94bd 6179 b8bd dda4 c7bc 8a45 efbd
000001b0: e951 5abd f882 5ebc cd1d e2bc 48bc 133d
000001c0: f03e f33b 444e 17bd d8d4 323d caf1 1a3d
000001d0: 82a8 e4bd 3988 03bd e795 ef3b ae16 d6bd
000001e0: 4c54 7a3d a03d 62bc 0fb2 b7ba 006c c23c
000001f0: 63b1 9cbb 4b7f efbc c3ed 97bd 8c4e 8cbd
00000200: ad1f bebd b777 a53c 9813 173c 7eed 443c
00000210: 7502 b43b cb25 703c 16c2 3bbd dc74 bcbd
00000220: 8e6c fb3c 271d 40bd 53dc d6bd b43e 36bd
00000230: 00bb b0bb e530 033d bb4b abbb dab4 92bc
00000240: 50e7 913b 38a6 0fbd e700 0abc a69c 5a3d
00000250: a277 77bd 00b6 6f3b cae3 37bd a2ec 94bc
00000260: 4291 16be aa5b e6bd b33a 2f3d c521 cbbd
00000270: d26a ccbd 56d6 c9bc 0c86 ba3c e03e 78bd
00000280: 1053 0d3c 73b4 98bd 3474 f0bc 921a 673d
00000290: 83ce 26be 4c71 92bc c706 92bd 4086 17bb
000002a0: 5416 c7bd 97fe c2bc bc20 babd 3f0a 90bd
000002b0: 00d9 ed39 6eef d9bd ae75 28bc ce89 1ebd
000002c0: d1f7 8dbb 0898 3cbd 0939 13be db51 0c3c
000002d0: cae3 d1bd 86bb 473d f58c 5ebd d445 a6bd
000002e0: fb2e 0f3e 8a7c 0dbe 65ad 36bd 973d bdba
000002f0: 706f 87bc 56e2 3dbd 722c d9bd 9645 4f3b
00000300: 6ea0 8c3c 916f e3bc 8b6f 0cbe a8cf d0bc
00000310: e794 5abd fe9f e2bd 907f 07bd 76c8 753d
00000320: 6a3c e0bd 1037 d4bc ae07 c9bc ccf3 29bd
00000330: 8cf3 14bd 218b 7ebc 6df7 e7bc 8c17 91bd
00000340: 5b38 d6bd 1020 cd3b f8e6 02be a35d ccbd
00000350: 4af6 c3bd 501e 5b3c 6887 babc 3700 f0bd
00000360: f2f5 72bd 3325 3ebd 1800 a8bc ffc4 7ebd
00000370: bb68 3c3c 48ed d7bd 3018 b83c ed8b 433d
00000380: 41f2 443d 57d6 9dbd 8a0a c0bd b9a0 8f3c
00000390: d102 42bd 4ec6 98bd f439 163d 4042 1fbd
000003a0: 042b d0b9 32ff 8dbd 7e41 3dbd d6e9 bfbd
000003b0: b9e7 88bd b26f 6bbd 8aca 65bd 5be6 bfbc
000003c0: acf3 1b3d 3544 aabd cc66 a53c 931b 3a3d
000003d0: 5cf8 0bbd 9e7c b4bd 6fa0 c5bd e814 f4bc
000003e0: 6ea0 2cbd 20bf 643d e791 acbd 00b4 df3b
000003f0: 677c 49bd 44a4 3ebd c609 8cbd e8ef afbc
-0.06945686 0.06158445 -0.03262162 0.055397972 -0.057012826 -0.00534673 -0.03210727 -0.052093454
0.029016713 -0.03569021 -0.057328403 0.054353118 -0.018935233 -0.062453233 0.0075400127 -0.12332892
0.04371325 -0.037826322 -0.06991133 0.035355203 -0.0026750043 -0.0012179574 -0.033806566 -0.02329429
-0.08333001 -0.023472182 -0.01282903 -0.12166384 -0.097607024 -0.00948791 -0.07754765 -0.051305152
-0.061367325 -0.07039389 -0.044178754 0.055204995 0.015519676 0.025930896 0.001747215 0.04999648
-0.05352996 -0.09320756 -0.031134019 -0.079317905 0.042944558 -0.15627126 -0.053642493 0.016156517
-0.004122004 -0.018997516 -0.07821633 -0.015725251 -0.031753026 -0.08198119 -0.038489137 -0.06635219
0.079898395 -0.06785404 -0.06752869 -0.039181832 -0.017352156 0.059367627 0.022638163 0.015833301
-0.088614814 -0.043698095 -0.06281224 0.051678114 -0.16021083 -0.06291182 -0.12190513 0.03857716
-0.03681528 -0.06309828 -0.07196755 -0.046253957 -0.048261043 0.061930507 0.0060568503 -0.047980975
-0.07140031 0.017222047 -0.076339416 -0.06709042 0.013394498 -0.045278944 -0.042110354 -0.028624138
-0.09522414 -0.104121044 -0.03829778 -0.14560322 -0.0698666 -0.013862531 -0.009196654 -0.060421783
-0.023647372 0.0130708525 -0.14551231 -0.0064745825 0.009041337 -0.08043784 0.03733255 -0.05215978
-0.07243644 -0.09007526 -0.024370605 -0.116831854 -0.05330077 -0.01358103 -0.0276021 0.03606823
0.007423274 -0.036939874 0.043660015 0.037828244 -0.11164953 -0.032112334 0.007311571 -0.104535446
0.061115548 -0.013808638 -0.0014014858 0.023733139 -0.0047818883 -0.029235503 -0.07418396 -0.06850919
-0.092833854 0.020198686 0.00922098 0.012019513 0.005493457 0.014657448 -0.04583939 -0.09201977
0.030691411 -0.0469028 -0.10491242 -0.044493392 -0.005393386 0.03202905 -0.0052275336 -0.017908502
0.0044526234 -0.035070628 -0.008423067 0.053372048 -0.060416825 0.0036576986 -0.04489497 -0.018179242
-0.14703849 -0.11247952 0.04278059 -0.099185504 -0.09981312 -0.024638336 0.022768997 -0.060606837
0.008625761 -0.07456293 -0.029352285 0.056421824 -0.16289715 -0.01787629 -0.07130199 -0.002312079
-0.097210556 -0.023803039 -0.09088275 -0.07033204 0.0004536584 -0.10641371 -0.010281963 -0.03870564
-0.0043325205 -0.046043426 -0.14377226 0.008564438 -0.102485254 0.04876282 -0.054333646 -0.081187874
0.13982765 -0.13817039 -0.044598956 -0.0014437911 -0.01653263 -0.04635843 -0.106041804 0.003162717
0.017166343 -0.02776316 -0.13714425 -0.025489643 -0.05336466 -0.11065672 -0.033080637 0.060005628
-0.10949023 -0.025905162 -0.024539795 -0.04149227 -0.036365077 -0.015536101 -0.028316224 -0.07084569
-0.10459968 0.0062599257 -0.1278342 -0.09978797 -0.0956846 0.013373926 -0.022769645 -0.11718791
-0.059316583 -0.046422195 -0.020507857 -0.06219959 0.011499579 -0.10543305 0.022472471 0.047740865
0.048082594 -0.07706898 -0.0937701 0.017532693 -0.047365967 -0.074596986 0.036676362 -0.03888154
-0.000397049 -0.0693344 -0.046205036 -0.093707725 -0.066848226 -0.057479568 -0.05610136 -0.023425272
0.03807418 -0.08313791 0.020190619 0.045436453 -0.0341724 -0.08812831 -0.09649741 -0.029795125
-0.042145185 0.055846334 -0.08426266 0.0068268776 -0.049190905 -0.046543375 -0.06837802 -0.0214767

graph_matcher.mlp.0.bias f4 [128]
00000000: 06fd 05be 56d2 313e 2292 c8bc ded3 fbbd
00000010: b0cb 7fbd 25fc 293c a7c1 04bf 17b4 85bd
00000020: 97c6 bcbd a51f 62bd b81b 58bc 80b1 fdbe
00000030: 5396 f2be 26ec a43e d47b 8e3e 6cc7 0cbe
00000040: 2b39 c1bc 0c1e b03e 4bf4 89bd 80ed 87bd
00000050: 4474 f7bc 6bf5 a9bd 73ee a6bd 0876 00be
00000060: 58d5 50be 6aef 72be a38a 87bd fc2c 98be
00000070: 6d7e 1fbd 6595 25bd 4c11 59bb 5d7f eebc
00000080: 24b7 463d a005 fabd 6150 90bd 1f56 51bd
00000090: df4c aabc 01f3 34be d14c 163e 20b7 093f
000000a0: 6b4d 87be 1ee8 22bd 054e 6abd c91f 923e
000000b0: 3dd3 b9bd c9df d2bc 5ace 22bd 3673 0fbe
000000c0: 9feb 973d fe4f 72bd 6013 cabe c5e3 86bd
000000d0: df19 06be 71bd 49bc 7a18 5bbd 2bf7 35be
000000e0: f9a6 72bd 017c b6bd 6f27 a43e 4823 a2bc
000000f0: d242 40be 22f8 86be ddb9 dfbb 9efe 503e
00000100: df62 1dbd 70cf b2be 0f42 01be 1af6 3fbd
00000110: 30d0 55be 1b34 71bd f093 49bc c0f3 42bd
00000120: 78ae 4abd b5e2 debc b0c2 4abc 696e 75bd
00000130: 24ac e6bd 56b6 52be 5c40 73bd 34db f7bd
00000140: afb5 b3bd a050 58bd f846 f8bd 6c21 8cbe
00000150: 12b4 7abd 0d6b cdbd fffc 2cbd 5b4c 51bd
00000160: 6f2e bcbd 8ea0 563e 946d b9bd 4305 e13d
00000170: 4782 dbbd 137a dabd a083 e5bd f9d1 a7bd
00000180: 5d5f c4bd da51 00bf 8a54 c8bc af4d 9cbd
00000190: f325 2abe 4bda 85bd 2d7f 64bd 3fdb 89bd
000001a0: 67f3 06be 7819 00be 0793 60bd 1248 b2bd
000001b0: 3f58 ebbd af40 85bd 88aa 15be 7538 47be
000001c0: c2a6 b9be 8bec 0fbf f930 79be f739 20bd
000001d0: e4f0 c1bd 7608 0cbe 8bfc b1bd ed18 dabd
000001e0: 2bdf 1bbe d057 f2bd 5cd5 ebbd 41e9 8fbd
000001f0: 02be 1bbe 1ec6 583d a646 0ebd 536e 89be
-0.13084802 0.17365393 -0.024483744 -0.1229627 -0.06245011 0.010375057 -0.5185799 -0.0652849
-0.092175655 -0.05520596 -0.013190202 -0.49549484 -0.47380313 0.32211417 0.27828848 -0.13747948
-0.02358683 0.34397924 -0.06736048 -0.066370964 -0.030206807 -0.08298763 -0.08150949 -0.12545025
-0.20393884 -0.23724142 -0.0661824 -0.2972182 -0.03893893 -0.040425677 -0.0033121882 -0.029113466
0.0485145 -0.12208104 -0.07046581 -0.051107522 -0.020788608 -0.17670824 0.1467774 0.5379505
-0.26426253 -0.039772145 -0.05720331 0.28539875 -0.09073494 -0.025741475 -0.039747573 -0.14008793
0.07417988 -0.059158318 -0.39467907 -0.06586412 -0.13095807 -0.012313233 -0.05349014 -0.17770068
-0.05924127 -0.089103706 0.32061335 -0.019792214 -0.1877549 -0.26361185 -0.0068275766 0.20409629
-0.03842437 -0.34923887 -0.12622856 -0.04686556 -0.20880198 -0.058887582 -0.012303337 -0.04759574
-0.049482793 -0.027207712 -0.012375519 -0.05991975 -0.11263302 -0.20577368 -0.05938755 -0.121023566
-0.08774888 -0.052811265 -0.12122911 -0.2736925 -0.061206885 -0.10030184 -0.042233463 -0.05109821
-0.09188544 0.20959684 -0.090541035 0.10987332 -0.10718208 -0.10667815 -0.11206746 -0.08194346
-0.095885016 -0.50124896 -0.024454374 -0.076320045 -0.16616039 -0.06535777 -0.055785347 -0.06731271
-0.13178788 -0.12509716 -0.054827716 -0.087051526 -0.11491441 -0.06506478 -0.14615834 -0.1945513
-0.3626004 -0.5622031 -0.24335088 -0.03911778 -0.09469774 -0.13675103 -0.08690747 -0.106492855
-0.1522185 -0.11833155 -0.115153044 -0.070269115 -0.15209201 0.052923314 -0.034735344 -0.26841983

graph_matcher.mlp.2.weight f4 [128, 128]
00000000: 18b9 f63c 9785 48be a215 7dbd 3993 8fbd
00000010: 9acf 1c3d 926a c9be 482c 0d3c 3529 83bd
00000020: 48eb 593c d312 66bd 2a73 9abd 5569 3ebd
00000030: 1638 273d beae 8ebd f758 cb3c 38fe 753c
00000040: 08ab 383c 8327 96be d30e dabd d01f cbbc
00000050: d4cf 913c d6d1 28bd 622a 2c3d bc23 9abc
00000060: 7ae6 013d bd1c ad3d 1e4e b2bd e0d0 0fbc
00000070: 5c66 87bc 26b1 363d 8edc 8abd b69f 16bd
00000080: 86a5 3fbe ce56 e2bc 1635 6d3d 99a9 00bd
00000090: 1899 8abc 79c5 a5bd 9269 e9bc 39a2 ddbe
000000a0: 3ace 1e3d e683 54bd e152 19bd e104 57bd
000000b0: a2a9 7bbd fefb 3f3d fd18 d6b8 386d 60bc
000000c0: f702 d9be cadc 663d b538 2bbd 80e7 603c
000000d0: 6ad9 5dbd 797a aabd 6bee abbd 729d 8cbd
000000e0: 4b98 9c3d 7c44 e6bc 63d4 04bd edff 893d
000000f0: d7c2 6abd 6dce 29bd 2222 2ebd e782 48bd
00000100: c054 7fbd c299 013d 030f 8c3d 2e13 463d
00000110: e8fe a93c 61b8 08be 30e7 8fbc da94 0cbd
00000120: 7075 9dbc 1e8c 3c3d a22a 13be c58c 3bbd
00000130: 63fb ac3d e773 1dbd 6089 a0bb 5ae0 09bd
00000140: 8bc0 a4bd a27a 4a3d a03a 793b 90e8 19bd
00000150: 1369 6bbe e07f e23b ae8d 6b3d d4a3 88bc
00000160: f2f7 79bd 9ac1 08be 97b9 25bd 9b8c 5fbd
00000170: ce2c f6bc c361 23bd 75ab 4dbd b865 223c
00000180: b41b c7bc 444a 9ebd fd20 afbd 55d7 e6bd
00000190: 706a 90bc 22ba 753d 285d a93c 8230 aebd
000001a0: 0d8b a93d 20f5 79bb 06fb 273d 72fe 6b3d
000001b0: c4a1 9dbd 97c8 81bd 0860 1dbc 4093 28be
000001c0: fd79 893d ec3c 3bbe b75d 8d3d bebe 74bd
000001d0: a08b 9ebc 0de5 ad3d f199 00bd 2f1d 983d
000001e0: cfed dabe 12f4 673d b92c 97bd e0b7 c9bd
000001f0: 2e3a 7c3d 1b2e da3c f2b0 723d 7dd4 8d3d
00000200: a9b0 943d df52 0fbe 90d5 183e bef1 463d
00000210: fed6 273d 7a94 8ebd 77d4 b43d b696 5c3d
00000220: 88f7 433c de72 18bd 973f 8b3d 7eb5 6e3d
00000230: 006a dc39 40c0 cb3c 3663 463d 1089 6a3d
00000240: 87e1 ae3d f118 30be 20ed b93b 5036 883c
00000250: 9165 05bd 56c6 0a3d f896 38bc 800e 75bc
00000260: 3aa2 4dbe f770 a93d e9d6 21bd f3da 963d
00000270: 1c60 5cbe eaf3 8abd a048 babc 2ad9 30bd
00000280: 63c2 c0be 4b02 97be dc0b 30bd 80b5 443b
00000290: e146 30bd a294 53bd 8813 48bc d6b6 10bf
000002a0: f883 07bc 9b35 8b3d d04a 443c 439b 97bd
000002b0: cd15 00bd c2db 7f3d 4298 453d e9b6 883d
000002c0: 9a91 3e3d 30c0 b7bb 98e1 853d 2029 7a3c
000002d0: 6fbf 49bd c092 0abd 33c0 813d 00a6 383c
000002e0: 59e5 84be a350 953d c271 a9bd bd0e a6bd
000002f0: 8a9d adbd 23fe 9e3d 3a48 f6bc a58e af3d
00000300: f068 df3c aa6f c0bd 8856 c33c 3ede 473d
00000310: 8e4c 39bd 784f ebbd 5278 e3bc 3896 79bc
00000320: 094e 89bd e915 b33d ecb0 93bd 6486 77bd
00000330: cadd fcbc 71ea 02bd d61e 7abd dbd7 a3bd
00000340: f62c e4bc 79c6 ac3d 8095 67bc c8df c2bc
00000350: 7e3a 233d 43dd 49bd dc4d 8dbd 9537 973d
00000360: 4681 353d ee17 5d3d cee1 1b3d 4dd0 b23d
00000370: 249a 9bbd f598 92bd 449e db3c 852e 8bbd
00000380: 8c6f 853c a851 99be 8479 89bd a609 b3bd
00000390: 73ba 82be 96bc e5bc 41ee a43d 3e7e 8dbd
000003a0: 4c89 abbd 8572 c73c 06d2 5c3e b7d0 953d
000003b0: 7cb2 cebc a1ff a73d 0c34 f3bd 4f55 a3bd
000003c0: 4ab1 483d eb64 31be 3ca1 9dbc 7bff 5cbd
000003d0: fc88 b03c e3b9 60bd 55b1 adbd 0016 0bbb
000003e0: de3b 7bbe 8a8c 073d 3998 8d3d d7c6 10be
000003f0: 0515 883d 835a af3d 284f c93c 3fd1 393e
0.030117556 -0.1958221 -0.06178821 -0.07010502 0.03828392 -0.3933912 0.0086165145 -0.06404344
0.013300724 -0.056170296 -0.07541497 -0.04648717 0.040824972 -0.06966923 0.024822695 0.015014224
0.011271246 -0.2932702 -0.10647359 -0.024795443 0.017799295 -0.04121574 0.042032607 -0.018815868
0.03171394 0.08452747 -0.08706306 -0.008777827 -0.016528301 0.044602536 -0.06780349 -0.036773406
-0.18715486 -0.027629282 0.057911955 -0.03141174 -0.016918704 -0.080943055 -0.028492723 -0.4328783
0.03877089 -0.0518836 -0.037432555 -0.052494887 -0.06144107 0.046871178 -0.000102089696 -0.013697915
-0.42385074 0.056362905 -0.041802127 0.013727069 -0.05416242 -0.08324141 -0.08395084 -0.06865968
0.07646235 -0.028108828 -0.03242911 0.06738267 -0.05731472 -0.04145663 -0.04251302 -0.048952963
-0.062336683 0.031640776 0.06838801 0.048358135 0.020751432 -0.13351585 -0.017566293 -0.034321643
-0.019221038 0.046032064 -0.14371732 -0.045788545 0.08446386 -0.03844061 -0.004899189 -0.033661224
-0.08044537 0.049433358 0.0038029328 -0.037575305 -0.22989301 0.0069122165 0.057508163 -0.016679682
-0.061027475 -0.13355103 -0.040460195 -0.05457745 -0.030050661 -0.039888155 -0.050212342 0.009911947
-0.024305202 -0.07729009 -0.08551214 -0.1127154 -0.017628878 0.059991963 0.020674303 -0.08505346
0.08278475 -0.003814049 0.04101088 0.057615705 -0.0769687 -0.063370876 -0.009605415 -0.16462421
0.067127205 -0.18284959 0.0690264 -0.05975222 -0.019353688 0.084909536 -0.03139681 0.07427441
-0.4275956 0.056629248 -0.07381577 -0.098495245 0.061578922 0.026633313 0.05925078 0.069252945
0.07260258 -0.13996457 0.14925218 0.048570387 0.040976517 -0.069619134 0.08829587 0.053854667
0.0119608715 -0.03721892 0.06799238 0.058278553 0.00042040646 0.024871945 0.04843446 0.05725962
0.0853911 -0.17197014 0.0056740195 0.01662746 -0.032567564 0.033880554 -0.0112664625 -0.01495707
-0.20081416 0.082734995 -0.039511595 0.0736598 -0.21521038 -0.06784804 -0.022739708 -0.043175854
-0.37648305 -0.29493937 -0.04298006 0.003001541 -0.043036345 -0.05165542 -0.012211688 -0.56528986
-0.00827121 0.06797334 0.011980727 -0.07402661 -0.03127079 0.062465437 0.048240907 0.06675512
0.046525575 -0.0056076273 0.06537169 0.015268594 -0.04925483 -0.033831358 0.06335487 0.011270046
-0.25956228 0.07290771 -0.08273651 -0.0810828 -0.08477314 0.077633165 -0.030063737 0.08572129
0.027271718 -0.09396298 0.023844972 0.04879593 -0.045239024 -0.11489767 -0.027767334 -0.015233569
-0.06704337 0.087444134 -0.072114795 -0.0604309 -0.030867476 -0.031961862 -0.061064564 -0.080001555
-0.02785347 0.08436293 -0.014134765 -0.023788348 0.039850704 -0.049283277 -0.06899616 0.07383648
0.044312738 0.0539779 0.03805714 0.087311365 -0.07597759 -0.071580805 0.026808865 -0.06795982
0.016288541 -0.2994511 -0.067126304 -0.08742075 -0.25532874 -0.028044026 0.08053256 -0.069088444
-0.08375797 0.0243466 0.21564493 0.073152 -0.025231592 0.08203054 -0.118751615 -0.07975256
0.0489972 -0.17323653 -0.019241922 -0.053954583 0.021549694 -0.054864775 -0.08481089 -0.002122283
-0.24534556 0.033093013 0.069138 -0.14138351 0.06644634 0.085621856 0.024573877 0.18146227

graph_matcher.mlp.2.bias f4 [128]
00000000: 8890 0cbf f508 28bf b510 9abd 331e 30be
00000010: 55e8 3abe 71b4 403e ea29 cbbd 4859 513e
00000020: 53b9 b7be 0656 82be 782d 42bd 7872 933e
00000030: da05 dabe 7e62 c6bd 037f 4fbd eaf8 70bd
00000040: d44e 62be ee63 5dbe ad39 313e 15ee 3bbe
00000050: f8a3 8abe 8165 6b3d 7993 ccbd 7d11 e5be
00000060: 8169 5c3c 022e 433e 02b9 9f3d da5d 6abd
00000070: 99b4 75bc d7df 0cbe 7ab0 11bd 4d19 a7bb
00000080: bc1c 84be 739e c7be 1316 17bf 8584 eebd
00000090: 8de0 193c 65c6 6ebd 9aaf 8ebd e5d6 01bd
000000a0: 967e a5be d279 82bd d2d5 71bd d65b 1cbf
000000b0: 9965 1dbe 5b01 b8be 7ceb c2bd dcb1 0bbd
000000c0: ae18 06bd 717b 0ebf 6aaf a7bd 2de8 9abe
000000d0: 85d9 81bc 1540 96be 064a 4ebd 7b74 7f3d
000000e0: b2a9 98bd 3468 383b ff7c 73be 7e4a 3ebe
000000f0: 2700 22be 1fa6 94be e303 35bf 1a59 58bc
00000100: f3b4 cabe 3681 23bd 4171 5a3d 4edb 00be
00000110: b98e 85be 6717 9dbd 3ed3 46be 5ffb 5ebd
00000120: 247e 78bf 1ac8 083e 799f 1dbe 1a11 32be
00000130: 708e 8fbd c8ed 8fbe 6e2c ba3c a2d9 0e3d
00000140: 834d 08bd 4667 143e 817b 97bd 4d4c 49bd
00000150: bc29 3f3e 19cc 0fbf f51e 9bbd 062c 7dbe
00000160: 6689 6bbe 1f34 593d acf4 76be a6c2 66bd
00000170: d7a8 02be 9e04 a6be 12fc 72be 587b abbe
00000180: b6f6 10bf 0849 613e 0440 113e 7e0c 183d
00000190: 2ec8 3fbe 3d6a 65bc 8310 373e c12c 333e
000001a0: f8f8 9abd d425 803d b219 dbbc 51c2 65bd
000001b0: cbd3 12be de61 17be 35eb d5be 3637 41be
000001c0: 467f 6cbd 033d bbbe d6b8 46be 1fdd 64be
000001d0: 2da0 90be 9064 13bf ad46 54be a20c efbe
000001e0: dda9 62be 66b1 583d 9a60 c3bd e83b babd
000001f0: c0ff ccbc 7e17 b6bd 9e7a 823c 1eb5 49be
-0.5490804 -0.6563867 -0.07522718 -0.1719902 -0.1825269 0.18818833 -0.09920104 0.20444214
-0.3588358 -0.25456256 -0.047406644 0.2879827 -0.4258259 -0.09686755 -0.050658237 -0.058831133
-0.22100383 -0.21620151 0.17307158 -0.1835254 -0.27078223 0.05746985 -0.09989066 -0.44739905
0.0134528885 0.1906052 0.07798959 -0.05721841 -0.014996671 -0.13757263 -0.03556869 -0.0050994516
-0.25803173 -0.38988075 -0.5901806 -0.1164637 0.009391916 -0.058294673 -0.06967087 -0.03169908
-0.3232314 -0.06370892 -0.059041806 -0.6107763 -0.15370788 -0.35938534 -0.09517571 -0.034105167
-0.03273838 -0.55657107 -0.081877545 -0.3025526 -0.015850792 -0.29345766 -0.050363563 0.062366944
-0.07454242 0.0028138282 -0.23778151 -0.18583104 -0.1582037 -0.2903299 -0.70709056 -0.013204837
-0.39591178 -0.039918147 0.053330664 -0.12583658 -0.2608545 -0.07670479 -0.1941652 -0.054438945
-0.97067475 0.13357583 -0.15392865 -0.17389336 -0.0700959 -0.281111 0.022726264 0.03487552
-0.033277046 0.1449252 -0.073966034 -0.04914503 0.18668264 -0.56170803 -0.07574264 -0.24723825
-0.23001632 0.053028222 -0.24116772 -0.056337975 -0.1275972 -0.32425398 -0.2372897 -0.3349254
-0.5662645 0.22000515 0.14184576 0.03712129 -0.18728706 -0.01400238 0.17877392 0.17497541
-0.07567018 0.06257215 -0.02674565 -0.056093518 -0.14338605 -0.14783427 -0.4178101 -0.18868718
-0.057738565 -0.36569986 -0.19406447 -0.22349976 -0.28247204 -0.5757532 -0.20730086 -0.46689326
-0.2213511 0.052903555 -0.0953991 -0.090934575 -0.025024295 -0.088911995 0.015927609 -0.19697997

graph_matcher.mlp.4.weight f4 [64, 128]
00000000: e86b 9c3d 4cf5 833e c076 ac3d d717 8c3d
00000010: 05bd e93d 0a20 14bc e6b1 f43d 6b5f b1bd
00000020: 4256 c8bb 0394 0c3e 6f18 02bb e4e3 caba
00000030: fb4b 7a3e ede3 9fbd 4afb c93c c2cb c6bc
00000040: a9d8 493e 3b94 a2bd c109 8a3e 09f0 073e
00000050: 4421 7d3e 7d83 d63c 8b6d 2cbe 4506 3d3d
00000060: 19aa 653e 2b65 913e a723 363d 0dce 493c
00000070: 0524 893c 97b0 44bd c183 e0be d592 37bc
00000080: afba cbbc 0e34 43bd b892 073e 4c5f 9c3d
00000090: c746 f5bc ac5a c13d 2531 39bc d600 26bd
000000a0: 91b2 c8bc 535e e3bc b833 113e 308a b03d
000000b0: d6c1 0abd 9d2f 383f ddb6 9eba 77f0 acbd
000000c0: 5745 9cbd d46d 533d 8a58 a13c fde5 be3e
000000d0: ab9e 87bc 914c 52be af6b ef3c 90b4 803d
000000e0: d1e8 e03d c3a6 08bc 091b 923d e060 873e
000000f0: 6f93 9c3e 3f5c dd3d fb3c d93d cc3d 2cbd
00000100: c835 f63e 75f2 cabc 17a9 3bbd a290 44bd
00000110: 6d47 ffbd 480d 56bb c558 763d 0e1e 8cbd
00000120: 488d 8a3c 9773 91bd 3131 b63e 27ba 163c
00000130: 1828 193e 24d3 8dbd 1258 84bd d6ee 113e
00000140: 70ad 463d f120 f43d bc22 a7bc da04 4f3c
00000150: 4573 09be 829a abbe c9dd ac3d 40fc 32be
00000160: 0882 233d 0d88 d83d 6cfb 0d3e 061a 093c
00000170: 2da0 f4bc d7d7 33bd 2608 f23d f698 0fbd
00000180: ab39 ccbd d78b 423e 3983 4fbe 62f0 3c3c
00000190: 45db cabd f455 373e 3c01 edbe 23c3 513d
000001a0: 0553 ca3c 718a 52bd 5867 5cbb b97e 4b3d
000001b0: 9383 703e b93e 95bd f31e 2abe 49f5 d8bd
000001c0: 45e4 07be 37fd 5e3e 8ba5 233e 83a1 a93e
000001d0: d872 8a3d d2a8 45be cd78 a0be 35fa 83bd
000001e0: 86aa 85be b19c aabd f891 f1bb a282 463e
000001f0: fddc ffbe 93d5 89bc d9b2 14be 0cac 3bbe
00000200: 41a2 d7be 2a6c 28bd ccdc fe3c e606 2abe
00000210: 36be 4fbd c3fc a43e d249 3ebd d5c7 f63d
00000220: e2c7 99be 5ad0 c83d 7dd0 c23d 8748 3fbe
00000230: a1b6 dc3d 1a90 ddbd c01e d13c 5003 0a3d
00000240: aeff 1a3e 172e 8ebe 58a9 123d d135 603e
00000250: f2b9 4d3e 9743 23be fb5f bf3d a17d 393c
00000260: 3275 4f3e 50b8 e83d 9ea7 a73d 7b68 183d
00000270: 6a86 10bd 59a2 723d ff2b bdbd 4486 8c3d
00000280: a736 0dbe a07b 9cbc b618 a8bb 27f3 d93d
00000290: 5dfc a9bd 097e 2b39 a770 6e3d adef 1c3d
000002a0: 5bc6 d6bd 9e5b 8b3d 096a 493d 39a2 5a3c
000002b0: 2f21 cdbb a529 183f 41c0 ccbb d82f 653c
000002c0: 3cd9 48bd 8f55 b53d 981f 293d d393 833e
000002d0: 216e 113d b41a 83bd c494 a03d 9fd3 d63d
000002e0: a987 163d a0b5 723e 86a7 9a3a f3b3 673e
000002f0: 507a 863c 9909 8a3e 233e a23c e6fb 733d
00000300: 4200 ccbc 4f46 b63d 4247 11bd 7d5c 97ba
00000310: b7e0 093d d72d 383d 31d2 fcbd ffd8 113d
00000320: d9de 953d 4dd9 2a3e 9aa3 fe3d a410 acbd
00000330: 438d 7d3c 253c a6bd 11ee 323c 530f 903e
00000340: bea7 303e 8dfc 8c3c e30d 2e3d 95c7 8b3c
00000350: 28a8 a33e 2015 03bc 8919 703c d658 38be
00000360: 0a8d 05bd 52da bf3d 241b 423e 2a53 3f3e
00000370: 7350 e63d 0837 17be 1473 2b3d 1c45 49be
00000380: 8593 09be ea97 a43e 7c35 863d 1c79 c7bb
00000390: 5e3c 10be f9e1 353e 8e63 d43e 65bf 2d3e
000003a0: 8115 213d 1116 0abe 14b2 853d d88f 8a3d
000003b0: c081 42be a2d9 ef3d 13d8 35bd ef95 5bbe
000003c0: e3d7 9fbd 7001 443e 6152 babc fdd2 6d3e
000003d0: 936d 113e 127f 3abe 3ad6 e73d cf4e 12bd
000003e0: 6730 38be 4b42 bcbd fedf ae3d 43a6 a2bc
000003f0: d4af 823c a8f6 e93d 5504 c5bd 4a13 3a3e
0.07637769 0.25773084 0.08421087 0.068404846 0.11413006 -0.009040842 0.11947994 -0.08660778
-0.0061137984 0.13728337 -0.001985099 -0.0015479294 0.24443047 -0.07807145 0.024655957 -0.024267081
0.19711556 -0.07938429 0.26960567 0.1327516 0.24719721 0.026185745 -0.16838662 0.046148557
0.22428168 0.28397498 0.044467594 0.012317193 0.016740808 -0.04801997 -0.4385052 -0.011204441
-0.024869291 -0.047657065 0.13239563 0.07635364 -0.029940976 0.094411224 -0.011303221 -0.04052814
-0.02449921 -0.027754938 0.14179885 0.08620107 -0.033876263 0.7194765 -0.0012108941 -0.084443025
-0.07630413 0.051618412 0.019695539 0.37284842 -0.016555151 -0.2053702 0.029226152 0.062844396
0.10981906 -0.00834054 0.07134063 0.26441097 0.30581233 0.1080861 0.10607334 -0.04205112
0.48087907 -0.024773816 -0.045815554 -0.047989495 -0.12464795 -0.0032661725 0.06014325 -0.0684167
0.016913071 -0.07102125 0.35584405 0.009199656 0.14956701 -0.069250375 -0.064621106 0.14251265
0.048505247 0.119203456 -0.020402305 0.012635434 -0.13422878 -0.33516318 0.0844074 -0.17479038
0.03991893 0.105728246 0.13865441 0.008368021 -0.029861534 -0.043907013 0.118179604 -0.035057984
-0.09971937 0.18998657 -0.20264901 0.011531921 -0.099051036 0.17903882 -0.46290004 0.051211488
0.02469779 -0.05140156 -0.0033630934 0.0496814 0.23487692 -0.07287354 -0.16613369 -0.105936594
-0.13270672 0.21776281 0.15981118 0.33131036 0.06760186 -0.19302681 -0.31342164 -0.064442076
-0.26106662 -0.08330668 -0.007372137 0.1938577 -0.49973288 -0.016825473 -0.1452135 -0.1832735
-0.42115977 -0.04111878 0.031111144 -0.16604194 -0.05071851 0.32224092 -0.04645712 0.12049834
-0.3003531 0.09805365 0.09512422 -0.1868001 0.10777021 -0.10818501 0.025527358 0.033694565
0.15136597 -0.2776954 0.03580603 0.2189553 0.20090464 -0.15943752 0.09344479 0.011321456
0.2025955 0.1136328 0.08186267 0.037209015 -0.035284437 0.059236858 -0.09236907 0.06861547
-0.1379038 -0.019101918 -0.005129899 0.10642081 -0.083000876 0.00016354783 0.058212902 0.03831451
-0.10487052 0.06804584 0.04917339 0.013344341 -0.0062600593 0.59438545 -0.0062485044 0.013988458
-0.049035296 0.0885421 0.041289896 0.25698718 0.035505418 -0.064015776 0.07840875 0.10489582
0.03675047 0.23702097 0.0011799193 0.22627239 0.016415745 0.26960447 0.01980502 0.0595664
-0.024902467 0.08900129 -0.035468347 -0.0011547949 0.03366157 0.04496559 -0.12344778 0.035607334
0.073178954 0.16684456 0.12433548 -0.084016114 0.015475574 -0.081169404 0.010921017 0.2813669
0.17251489 0.01721027 0.042493712 0.017062942 0.3196423 -0.008000642 0.014654526 -0.18002638
-0.03260521 0.09367813 0.18955666 0.18684068 0.11245813 -0.14767087 0.041857794 -0.1965527
-0.1343518 0.3214715 0.0655317 -0.0060874354 -0.14085528 0.17761983 0.41482204 0.16967542
0.03932715 -0.1348498 0.06528106 0.06765717 -0.18994808 0.11711432 -0.044395518 -0.21443914
-0.07804849 0.19141173 -0.02274436 0.23225017 0.14201955 -0.18212536 0.11320157 -0.03571969
-0.17987214 -0.09192332 0.08538817 -0.01985467 0.015952982 0.11423999 -0.09619967 0.1817142

graph_matcher.mlp.4.bias f4 [64]
00000000: bc03 d93a ea45 37be 9293 0d3e e083 c63d
00000010: 6812 113e 7ed0 85be 883a 393e e4d7 c33c
00000020: 2921 5fbd 08d5 d0bb 5a1f ff3d bc93 953d
00000030: d127 39bc da3e 95be dc69 a73d b850 8bbb
00000040: af41 c43d c0f4 c83d cbac 123e 8ffa 51bd
00000050: 3649 6abe 0de4 62bd 961f 923e 2e95 e43c
00000060: b741 19be a0b0 4d3e dd53 5c3d 343d 883e
00000070: a22a dd3a 179e b43d fc55 7dbe 62e7 9d3d
00000080: dc1d 5b3b cba4 3ebd a228 333e 83b5 f4bd
00000090: ff15 7f3d 57c0 983d 35fa 063e f48b 273e
000000a0: 8ccc 9e3d 8591 973e f568 3ebd a9b1 133e
000000b0: a8e1 d83d 58d1 8e3b 88eb bfbe 176e 84bd
000000c0: 4a60 be3e 4f15 283e 3380 a8bd 0ead a13b
000000d0: a27d 323e ef02 1a3e 5201 123e 3078 5c3e
000000e0: d445 48bb 440f 2f3e ac94 8cbc 1214 523d
000000f0: e25c dc3c 56c5 0c3e f892 a43d 2342 85bc
0.0016556899 -0.17897764 0.13825825 0.09693122 0.14167178 -0.2613563 0.18088734 0.023906656
-0.054474983 -0.0063730516 0.12457152 0.07303569 -0.011300997 -0.29149514 0.08174488 -0.004251566
0.09582841 0.09812307 0.14323728 -0.051264342 -0.2287949 -0.055393267 0.28539723 0.027903166
-0.14966474 0.20086908 0.053790916 0.26609194 0.0016873667 0.08819216 -0.24739832 0.077101484
0.0033434546 -0.046543878 0.17495969 -0.11948683 0.062276836 0.07458561 0.13181384 0.16361982
0.07753858 0.2960321 -0.046486814 0.1442324 0.105899155 0.004358452 -0.37484384 -0.064663105
0.37182838 0.16414379 -0.08227577 0.00493396 0.17430738 0.15040182 0.14258316 0.21530223
-0.00305592 0.17095667 -0.017160736 0.05128867 0.026899759 0.13747153 0.080358446 -0.016266888

classifier.0.weight f4 [32, 64]
00000000: 1f87 fabd 299c 45bd 4f53 79bd 86fd 54bd
00000010: 97d0 7bbd dcf9 afbd 30bd a13c 3549 07bd
00000020: c6e7 2b3d 3725 bf3d 18b2 9cbb b8ea 043d
00000030: b602 d73d 4794 af3c 8e1b f5bd ea3a d3bc
00000040: 8407 353d 5ecd c03d a637 913d 365e 81bd
00000050: 4228 9fbd d692 173e f0eb 343e c01c adbd
00000060: 831b 0a3e 3050 ee3b 89ad f1bc 89ac f63d
00000070: 3722 f03b e25a bc3c aa44 f4bd 63fd f53c
00000080: 9655 a23d 37d6 4c3d 2712 473d 6e17 10be
00000090: 43f9 a2bd ff9b 9e3c 5da4 53bc 08b0 6a3d
000000a0: 7648 963d b0f4 95bc 3e8e ab3d f678 bf3d
000000b0: b2cd 273d 527e 113e aaac 62ba 9b74 cfbd
000000c0: ca47 90bb ac74 38bd 8fdb bbbc d78d 0abb
000000d0: a704 3cbc 0097 4e3b e309 dcbc 29c9 8a3d
000000e0: 11a9 f2bc 542f 173d 3765 043d 66cf 8abd
000000f0: e628 adbc bb70 31bc ff1d 31bd 9a8e d4bd
00000100: 9f5b 83bb c18f bfbd 9cc9 84be 3e91 ad3d
00000110: ed53 c9bd 759e 8cbe 2b5b 4f3b 74ce 3ebd
00000120: 1b53 26be 9d46 573e 4ca8 98bc 1d91 6abd
00000130: a56e 553c 200b 48bd feaf c9be 9233 60bd
00000140: ec75 553b 29ce d63d 2374 ed3c b940 2dbe
00000150: 812c 1d3d 4839 223e 49a7 e33b 93b0 73be
00000160: bee3 f7bd d4cc 07bf e631 af3c 2d09 b63d
00000170: 788e a9bd d14c 4abe 24ee a4bd 61f9 d13d
00000180: f629 943e 1dbe 89bb 0487 9a3b a172 c2be
00000190: 5309 033d d05a bfbe 812d 893e 99ed c43e
000001a0: 72c7 b83b bb30 debe 1ab0 023e 685f 6ebd
000001b0: 4871 32be 6a0d 9cbd d98a 47bd 8c24 32be
000001c0: d16d 58be 7d7e 4b3e 1e0c a2be 0aeb 02be
000001d0: df0a aa3d cd0b cd3d 5fac 9a3e addf 973d
000001e0: 321e 843d 0030 093e 462c a03d 9bf4 1b3c
000001f0: 6dee 373d 7acf 74bd ac12 95bd dd78 c63d
00000200: c8f3 083d 647d b4bd acf9 b3bd feb9 3c3c
00000210: a908 19bd d67b 5cbe 81cd 433e e3e3 8bbd
00000220: cdff a03d 816f 813b 0d53 673d fc0c 21bc
00000230: 9b8e 6bbd 1080 47bd ab26 bfbd edff bcbd
00000240: 8469 e63d e6e6 2bbe a576 2b3e 7f49 2fbe
00000250: d61a 683b 4b11 ec3d f71e 3e3e a44b 13bd
00000260: edda c23d b77e afbe 44a2 523e ca09 a63d
00000270: 7779 2dbd 84b7 19be d665 b9bd ed40 4e3d
00000280: 08cb 8ebc c219 ec3c 7501 453d 164d e4bc
00000290: 8060 16be 5600 57be dd77 733d bbc7 073e
000002a0: 3ca1 e73c 0889 763c a4f5 963d 2657 903d
000002b0: 13c4 023e edf0 ffbd 6c27 f13d eefa 28bc
000002c0: f448 15be 58e6 f23c 6d7c 0cbd baec 3fbd
000002d0: f859 e7bc 8768 bb3d 1db2 5f3d 4d62 4d3e
000002e0: f17a 17be 2347 3c3c 7f99 cc3d 7717 153e
000002f0: cca5 8d3d a094 b13c adb9 813d 9a4d e63c
00000300: 5f5b 273d b98c 3abe cec8 96bc 8030 94bc
00000310: 8a47 333e 88a6 eebe bb3e fd3e 8a49 c6bc
00000320: bd31 c63d e6ee 4bbe d74c 283e 1294 b93d
00000330: 1dfa 9c3e a112 143d 54ee 62be cbc6 473d
00000340: c56f e53d 5848 1fbd f713 7c3e 5fc4 8cbd
00000350: 99d3 0fbe c50f 173d 1ab8 173f b206 a43d
00000360: e6ab a5bc 478c 4fbe e485 593e 854a 763e
00000370: b8bb 043d efc7 513e 7936 cfbe 1892 6e3d
00000380: 39ba eb3d 7115 da3d 11b0 dfbd 3ee0 afbd
00000390: 79bc 823d 9aab a5bd 0e78 d3b9 f85d b63e
000003a0: 398e 9f3e 165d 6f3e 8a5d e23c 0730 c9bb
000003b0: d9e1 3b3e ed77 033e 4e31 a9be 8ef4 973d
000003c0: abc8 623e 0a28 6b3c 5933 ebbd 7506 403e
000003d0: 11ed 813e 66bc bebc 8277 8ebd be89 f43d
000003e0: 275e 0dbe c6cb 19ba b219 d8bc c53f 96bd
000003f0: 046b 69be 1ebd 883d c2c6 413e cba4 62be
-0.122328036 -0.04824463 -0.060870465 -0.05199959 -0.061478224 -0.08592579 0.019743532 -0.0330288
0.041969083 0.0933327 -0.0047819726 0.032450408 0.10498564 0.021433009 -0.11968146 -0.025784928
0.04419662 0.09414171 0.07090692 -0.063167974 -0.077713504 0.14802107 0.17668128 -0.08452749
0.13487057 0.0072727427 -0.029501693 0.12044627 0.0073282975 0.022992555 -0.11927159 0.03002805
0.079264805 0.05000898 0.048601296 -0.14071438 -0.07957699 0.019361494 -0.012917605 0.057296783
0.073380396 -0.018305153 0.0837674 0.09349243 0.04096765 0.14208344 -0.0008646945 -0.101296626
-0.004403089 -0.045033142 -0.022931842 -0.0021141672 -0.011475719 0.0031523108 -0.026860183 0.067766495
-0.029621633 0.03691037 0.03232309 -0.06777839 -0.021137666 -0.0108301 -0.043241497 -0.103787616
-0.004008725 -0.09353591 -0.25935066 0.084749684 -0.09830461 -0.27464643 0.0031640034 -0.046583608
-0.1624264 0.2102303 -0.018634938 -0.057267297 0.013026868 -0.048838735 -0.39392084 -0.05473668
0.0032571508 0.10488541 0.028986042 -0.16919221 0.03837252 0.15842164 0.006947432 -0.23797826
-0.12103985 -0.5304692 0.021386098 0.08888469 -0.08279127 -0.19755866 -0.08053234 0.102526434
0.28938264 -0.0042035715 0.004715802 -0.3797808 0.031991314 -0.37373972 0.2679253 0.38462523
0.00563901 -0.43396553 0.1276249 -0.058196455 -0.17426026 -0.07619746 -0.0487164 -0.17396754
-0.21135642 0.1987247 -0.3164987 -0.12784973 0.08302855 0.100120164 0.30209634 0.0741571
0.06451072 0.13397217 0.078209445 0.009518768 0.044905115 -0.059768178 -0.07278952 0.096910216
0.033435613 -0.08812979 -0.087878555 0.011518953 -0.037361775 -0.21531615 0.19121362 -0.06830575
0.0786129 0.00395006 0.056475688 -0.009829756 -0.057509046 -0.048706114 -0.09333547 -0.092285015
0.11250594 -0.167873 0.16744478 -0.1711788 0.0035416386 0.11526736 0.185665 -0.03596081
0.09514413 -0.34276363 0.20569712 0.08107336 -0.042352166 -0.15011412 -0.09052627 0.050354887
-0.017430797 0.028820876 0.048097093 -0.027868789 -0.1468525 -0.20996222 0.059440482 0.13259785
0.028275125 0.015047319 0.07371071 0.07047872 0.12770109 -0.12497125 0.11775097 -0.010313733
-0.1457861 0.029650852 -0.03429835 -0.04685662 -0.028241143 0.091507964 0.05461322 0.2005703
-0.14792992 0.01149157 0.099902146 0.14559732 0.06916389 0.021677315 0.06334243 0.028113175
0.040858623 -0.18217744 -0.018406298 -0.018089533 0.17507759 -0.46611428 0.49461922 -0.024204988
0.096774556 -0.19915351 0.16435562 0.09061445 0.3065957 0.03615058 -0.22161227 0.048773568
0.11202959 -0.03888735 0.24616991 -0.06873392 -0.14045562 0.036880273 0.5926529 0.080090895
-0.02022357 -0.20268355 0.21242481 0.24051864 0.032405585 0.20486425 -0.40471247 0.058244795
0.115101285 0.10648621 -0.10922254 -0.08587693 0.063836046 -0.08089371 -0.00040334504 0.35618567
0.31163195 0.23375353 0.027632494 -0.0061397585 0.18347873 0.12838717 -0.3304543 0.07419692
0.22146861 0.014352808 -0.11484403 0.18752463 0.2537618 -0.023283195 -0.06956388 0.11940335
-0.13805448 -0.00058668514 -0.02637944 -0.07336382 -0.2279473 0.06676696 0.18923476 -0.22133176
