Result/GCN/5000_sample/model_epoch_15_f1_0.7152.pth (torch, 841514 bytes, 42 tensors)

graph_matcher.gnn.conv1.bias f4 [64]
000000 87 90 bc 3d 00 00 00 00 00 00 00 00 8b 8f c2 bb
       0.09207254 0.0 0.0 -0.005937522
000010 80 40 eb bc 5a 25 47 bd b4 ad 51 bd e5 5e ca 3d
       -0.02871728 -0.048619606 -0.051191047 0.09881381
000020 e9 4a 26 3d c7 77 d0 3d 86 f2 01 3d 99 7e fc 3c
       0.040598784 0.10179096 0.03172543 0.030822085
000030 cc b3 7f bd f0 84 44 3e a5 77 15 3d 5c 28 9e 3d
       -0.062427327 0.19191337 0.036491055 0.07722542
000040 00 00 00 00 d8 31 d9 3d bf 97 30 3d 89 c0 82 3c
       0.0 0.1060521 0.043113466 0.015960949
000050 f6 35 1d 3e ad 1f e4 3d 00 00 00 00 16 2c ef 3b
       0.15352616 0.11138854 0.0 0.0072989566
000060 00 00 00 00 a8 dc 2c 3e 88 85 45 bc 00 00 00 00
       0.0 0.16881049 -0.012055762 0.0
000070 ac c8 74 bd c0 ce 04 3d 3e bc c1 3d 22 aa 77 bd
       -0.059761688 0.032423735 0.094597325 -0.060464986
000080 8e 9f 11 be c0 58 b3 bd d0 ac 1a 3d 64 e2 69 3d
       -0.14221022 -0.08757162 0.037762463 0.05710067
000090 95 a2 10 bc 14 d8 e8 3d 78 86 a8 bd f6 d6 f6 bd
       -0.008827825 0.11369339 -0.08228773 -0.12052719
0000a0 35 b9 bd bd ef 4e e6 3c 0a 96 b6 bd 71 5a c0 bd
       -0.09263841 0.02811381 -0.089153364 -0.0939225
0000b0 65 e5 5e 3c 21 d5 97 3d 2c 22 d4 3c ee ce 93 3d
       0.013604497 0.07413698 0.0258952 0.07217203
0000c0 42 00 d0 bd be 6a 52 bd b2 37 5b bd 00 00 00 00
       -0.10156299 -0.05137133 -0.053519912 0.0
0000d0 50 f1 ee bd cb 37 8d 3d 82 a4 0e 3d 25 9e 5b bd
       -0.116671205 0.06895407 0.034824856 -0.053617615
0000e0 c2 41 ab 3d 88 f4 5c 3d 3a 6c cc bc d4 19 47 3d
       0.08362152 0.05394414 -0.02495395 0.048608616
0000f0 00 00 00 00 91 48 c3 3c d8 19 f1 bd ac 3c ea bd
       0.0 0.023838313 -0.117725074 -0.114373535

graph_matcher.gnn.conv1.lin.weight f4 [64, 4]
000000 80 c0 96 3e 33 87 8b bd f1 b6 d5 3e d5 40 dc be
       0.2944374 -0.068128966 0.41741136 -0.43018213
000010 9a de 47 be 7a 2d 89 be e1 35 97 be 7a 3d 86 bd
       -0.1951851 -0.26792508 -0.29533294 -0.065546945
000020 26 12 88 be b2 c9 28 be e1 d9 95 be c8 32 3c be
       -0.26576346 -0.1648319 -0.2926779 -0.18378747
000030 11 69 15 3f 49 45 14 3e fd cd 8e 3d 7e 8c 7b be
       0.58363444 0.14479555 0.06972883 -0.24565312
000040 4c 14 aa 3e 91 70 0a 3e 59 12 d2 3e 62 af 88 be
       0.3321861 0.13519503 0.41029623 -0.26696306
000050 4c 4b 0d 3f 9b f5 17 be 96 ca f4 be 5a 7b 4e bd
       0.5519302 -0.14839785 -0.4781081 -0.050410606
000060 1c d7 d5 be 84 36 00 bf 67 77 b0 be 92 11 ac 3e
       -0.41765678 -0.50083184 -0.34466097 0.33607155
000070 86 85 67 3e b6 24 d1 3e f2 4e e4 bd c0 4f 1c bf
       0.22609529 0.4084832 -0.1114787 -0.6105919
000080 d2 3e 52 3e d9 66 8d 3d e7 90 08 3f 9b 3e 5c be
       0.20531777 0.06904382 0.53346103 -0.21508257
000090 62 0d 45 bf f2 66 1b 3f b5 00 9d 3d 39 2c 52 3e
       -0.76973546 0.6070396 0.076661505 0.20524682
0000a0 29 7a 08 3d 79 b0 07 3e d5 d3 10 3f e0 f2 95 be
       0.033319626 0.13250913 0.5657323 -0.2928686
0000b0 c1 d9 d0 be e1 5a 83 3e 9a 9d b1 be 5a 01 47 3e
       -0.40791133 0.25655273 -0.34690553 0.1943411
0000c0 cf 1c 05 3f 39 9b dd 3b a5 2b f7 3e d1 28 85 be
       0.51997083 0.0067628887 0.48275486 -0.26007703
0000d0 4c 8f 2b 3e 90 92 65 3e eb af 1d 3f 69 aa 6d be
       0.16753882 0.2241919 0.61596555 -0.23209538
0000e0 0c 69 e0 be 94 33 ee be 9c 47 4c be ed 04 83 3e
       -0.43830144 -0.46523726 -0.19949192 0.25589696
0000f0 ce ae fe 3e a5 b7 e7 be 35 a6 c0 be 97 02 56 be
       0.4974274 -0.45257297 -0.37626806 -0.20899425
000100 50 02 38 bd 6e 4a 8a be 9a 2a 9f bd 50 35 a7 bc
       -0.04492408 -0.2700991 -0.077717975 -0.020411164
000110 1f 0b 04 bf 75 8f 9e 3e c4 62 14 3d df de 01 3e
       -0.5157947 0.30968824 0.036227003 0.12682675
000120 c2 0b 86 bf ec 57 5a 3e 88 8b 05 3f 11 e1 1a bf
       -1.0472338 0.21322602 0.5216603 -0.60499674
000130 03 51 cc 3e 32 5a 29 3d 75 79 cc 3e 46 3f c3 bd
       0.39905557 0.041345783 0.39936414 -0.09533553
000140 0a ea 09 3e ed 8c 1e 3f 6b 39 ea 3e f2 3e f8 be
       0.13468185 0.61933786 0.4574693 -0.48485523
000150 8a f9 de 3d aa 65 90 3e b2 45 36 3f bc df 0b be
       0.108874395 0.28202564 0.71200097 -0.13659567
000160 9e 35 1b be 7c 13 91 be 8a 54 72 be e8 29 14 bd
       -0.15157172 -0.28335178 -0.23665062 -0.036172777
000170 b1 67 00 bf 07 25 d3 3e 34 ee a7 be a6 d3 68 3e
       -0.5015822 0.41239187 -0.32798922 0.22736987
000180 a8 ab 61 bd 3d 86 3d be 2c 0d b6 bd 8a fa a9 bd
       -0.055095345 -0.18508239 -0.08889231 -0.0829974
000190 a4 6a 43 bf c1 8b 1b bf d3 84 a5 be 20 33 77 3e
       -0.76334596 -0.6076012 -0.323279 0.24140596
0001a0 cf cd f0 3e 37 fc 4e 3e 90 53 db 3e 4e 6e 74 be
       0.4703202 0.202134 0.4283719 -0.23870203
0001b0 d0 7e 10 be ff 0e 92 be 79 04 90 be d0 55 dd bc
       -0.14110875 -0.28527066 -0.28128412 -0.027018458
0001c0 c8 ea 42 be 33 be 58 bd 73 46 92 be 2e c0 10 be
       -0.19034874 -0.052915763 -0.28569373 -0.1413581
0001d0 24 4e 16 3e 11 a9 6c 3e 33 5b 3e 3f 96 ad aa be
       0.14678246 0.23111369 0.7435791 -0.3333556
0001e0 bc 90 e1 3d c5 01 87 bd 63 1b 07 3f ef 4c be be
       0.11013934 -0.065921344 0.52776164 -0.3716807
0001f0 45 ee 47 be 5e 91 8b be 11 8a 5a bd 4e 30 38 bd
       -0.19524486 -0.27259344 -0.053354327 -0.044967942
000200 14 48 e4 3e d0 f4 69 bd f6 6f e3 3e 5c 5a 7d be
       0.4458624 -0.057118237 0.44421357 -0.247415
000210 1a 4c 0a 3f 06 e9 de ba dc 6a de be 70 d0 75 bd
       0.5402237 -0.0017006702 -0.43440902 -0.060013235
000220 d1 7b 89 bf bd c7 47 3f b8 e0 4c 3f 18 69 7f bf
       -1.0740911 0.7803915 0.80030394 -0.99769735
000230 6e ce f8 3d cc a2 27 3e 8d 3b 2f 3f 7c 58 15 be
       0.12148748 0.16370696 0.6845024 -0.14584535
000240 ad f2 d9 be 8a fd 96 be ab 31 b7 be 47 6d 9c 3e
       -0.4256796 -0.2949031 -0.3578008 0.30552122
000250 aa b6 99 3d 0c eb 24 3e 1f 3a 1f 3f cd 70 04 bf
       0.075055435 0.16105288 0.6219806 -0.5173462
000260 f1 7c 73 be 1c aa 3a be 08 f6 74 be 15 73 a5 bc
       -0.2377813 -0.18228954 -0.23921978 -0.020196477
000270 1d 5b 31 3f cd f5 04 bf 41 cb 40 bf ee b7 8b bd
       0.6927965 -0.5193756 -0.7531014 -0.06822191
000280 92 7b 5f be eb 42 95 bd a0 9c 4a 3b 90 5d 26 3d
       -0.21824482 -0.07288154 0.003091611 0.040616572
000290 2e 45 86 bf 42 88 cc 3e c5 04 01 3f 34 55 66 bf
       -1.0489862 0.39947706 0.503979 -0.8997376
0002a0 58 99 b0 bd 2b a5 a9 bd 9d 13 5d bd 10 89 c6 3c
       -0.08622998 -0.082834564 -0.053973783 0.024235278
0002b0 4b f7 ee 3d 13 dd 96 be bc 81 3f 3f 7f b2 29 be
       0.11668261 -0.2946554 0.74807334 -0.16571997
0002c0 3f 72 9e be 89 8c 1f bf ab 79 05 bf ff 08 6e 3e
       -0.30946538 -0.62323815 -0.52138776 0.23245619
0002d0 04 93 56 bf f4 4a 18 3f f8 e3 fd 3e ca 6e ad bd
       -0.8381808 0.5948937 0.4958799 -0.08468397
0002e0 10 3b 50 bf 2b fb 2d 3f 36 16 89 be 9e 1d d0 3d
       -0.8134012 0.67961377 -0.26774758 0.10161899
0002f0 bb b3 55 bf 38 f9 3c 3f 35 76 0b 3e 2c ab 04 3e
       -0.8347737 0.7381778 0.13619311 0.12955922
000300 fe ab cc ba 44 f8 24 bd f3 bb 64 be 25 9f 43 be
       -0.0015615223 -0.040275827 -0.22337322 -0.19103678
000310 56 05 e6 3e ce 4e cb 3d 2a 78 96 3e 7f 08 91 bd
       0.44925946 0.0992714 0.29388553 -0.070816986
000320 7e 95 15 be e0 2a da bd 7a 2b 4d bd 2a 3b dd bd
       -0.14607808 -0.10652709 -0.05009029 -0.108023
000330 32 ae 78 be a9 be 22 be 6c 8e b0 bd e0 21 46 bd
       -0.242852 -0.15893044 -0.08620915 -0.04837215
000340 b9 9f 2c 3f 8f 62 fc be b4 d1 2a bf 7f b4 6f bd
       0.6743122 -0.49293944 -0.6672623 -0.058521744
000350 15 b7 38 bf 24 f1 10 3f 54 54 54 3d 47 e9 32 3e
       -0.7215436 0.5661795 0.051838234 0.174718
000360 46 a0 65 bf 45 2b 2b 3f 2d 5a b6 bd b2 d0 f8 bd
       -0.8969768 0.668629 -0.089039184 -0.121491805
000370 7f 22 03 3d 1a 5d 44 be 28 7d 31 be cc 50 8a be
       0.03201532 -0.1917614 -0.173329 -0.27014768
000380 54 f5 e8 3e 0d bb 70 bf e0 db 81 bf 32 23 9f be
       0.4549967 -0.94035417 -1.0145226 -0.3108154
000390 40 31 92 3e 33 17 77 3c 9f 7c 2c 3f 8a a3 5b be
       0.285532 0.015081215 0.67377657 -0.21449104
0003a0 b3 ad dc be 3b 3c 0c bf 75 a0 a6 be e3 59 aa 3e
       -0.43101272 -0.54779404 -0.32544294 0.33271703
0003b0 56 9d 22 bf 08 b6 cc 3e ea b3 92 3e 1a d7 38 bf
       -0.63521326 0.3998263 0.2865289 -0.7220322
0003c0 f0 d6 c4 bc 30 63 4c be d8 1f 42 be 64 47 d1 bd
       -0.024028271 -0.19959712 -0.1895746 -0.10218695
0003d0 38 15 05 bf 05 86 f1 be 89 a2 da be 22 9a b2 3e
       -0.519855 -0.4717256 -0.4270213 0.3488322
0003e0 80 6e e5 bc 36 8a 57 be f1 bb cd 3c 91 e6 97 be
       -0.028006792 -0.21048817 0.025114032 -0.29668096
0003f0 9a b9 af 3e e6 b9 97 3e 98 65 1a 3f 65 e9 f4 bd
       0.3432129 0.29634017 0.6031127 -0.11958579

graph_matcher.gnn.conv2.bias f4 [128]
000000 3b be 2d 3e db 9a c7 bd de 1d c9 bd b4 87 a3 bd
       0.16967098 -0.09746333 -0.0982015 -0.07984868
000010 69 8d 4a 3d ef a3 05 3d d7 43 a5 bd de bc ee 3c
       0.049451265 0.032627042 -0.0806958 0.029142793
000020 49 37 0f 3e b0 56 3f 3d f9 18 4b be 9e 07 f7 bd
       0.13985933 0.04671353 -0.19833745 -0.12062
000030 73 c7 da bd 9c d9 82 bd a0 c2 d9 3d a6 1a e5 bd
       -0.10682573 -0.06389162 0.10632825 -0.111867234
000040 23 b7 e7 bd 07 b9 cc bd 1f f6 37 bc 35 13 8f 3d
       -0.113142274 -0.09996229 -0.011228113 0.06986085
000050 3a 0d ab bd 52 50 0f be e8 8d ae bd ee 7c 59 be
       -0.08352132 -0.13995484 -0.0852316 -0.21239063
000060 be c2 34 bd 19 0a 90 bd 28 e0 43 be 2c 33 68 be
       -0.044131033 -0.07033176 -0.19128478 -0.2267577
000070 bc 51 9c bd 62 30 bb bd a4 c3 a4 bd 4b 4d 03 be
       -0.07632777 -0.09140088 -0.08045128 -0.12822454
000080 9c f0 72 bd ce 2f aa 3d 3b 22 cf bd 1d 8d a9 bd
       -0.059311494 0.08309899 -0.10113951 -0.08278868
000090 e0 45 07 3e 77 d7 c1 3d 71 9f cf 3d ea 6b ab bd
       0.13210249 0.09464925 0.10137833 -0.08370192
0000a0 b9 cf 21 3c 99 18 21 3d 5a e5 74 3e 36 0e e5 bc
       0.009876185 0.0393301 0.23915616 -0.027960878
0000b0 21 ed a1 bd fa 47 30 bd ee 4b 46 3e 1d b5 63 be
       -0.07906557 -0.043037392 0.19364902 -0.22237058
0000c0 08 6a d1 bd bf 19 df 3d c2 cf 50 3d 31 0d 9b 3d
       -0.10225302 0.108935826 0.050979383 0.075708754
0000d0 4e 9b df 3d f7 45 5d bd 76 cc 74 bd 2a e0 42 be
       0.10918294 -0.0540218 -0.0597653 -0.19030824
0000e0 03 c9 12 be 43 45 4d 3d 5f e5 83 3c b7 5b fc 3d
       -0.14334492 0.05011488 0.016100584 0.12322181
0000f0 09 50 c0 bd ba 3f a8 bd 27 c1 87 3d 2d 9a 16 3d
       -0.093902655 -0.0821528 0.06628638 0.036768127
000100 fa 9e b0 bd 82 d1 db 3c b1 de 25 bd af e4 00 be
       -0.086240724 0.0268333 -0.04049558 -0.12587236
000110 04 c4 b7 bc 94 88 d1 3d 65 bd 86 bd 98 17 5b be
       -0.022432335 0.10231128 -0.06579093 -0.21395719
000120 27 1b 08 bd 1c 80 ec bd 78 ca 99 bd a1 89 aa bd
       -0.03322902 -0.115478724 -0.07509321 -0.08327032
000130 bf 93 93 bd 54 62 c0 bd 0c 38 ef 3d fd 13 89 bd
       -0.07205915 -0.093937546 0.11680612 -0.066932656
000140 2b c6 b3 3d d3 7b 87 bd 60 aa 0e be 53 5a 0f bc
       0.08778032 -0.066154145 -0.1393218 -0.008749562
000150 46 6f f1 3d 01 98 de bd d0 ca af bd 33 e5 82 3d
       0.11788802 -0.10868836 -0.08583605 0.063913725
000160 ab 86 eb bc 7d 09 bd bd 87 3a 3c be 55 26 3c bd
       -0.028750738 -0.09230325 -0.18381701 -0.045934994
000170 0d 24 c7 3b 9b b0 66 3d 1c b7 8d bd c9 90 ae bd
       0.0060772956 0.056320768 -0.06919691 -0.08523709
000180 3a 25 14 bd 79 2f e1 3d 55 c0 04 bc d3 ea 0a be
       -0.036168315 0.10995383 -0.008102496 -0.13566141
000190 d4 77 a5 be f5 f3 04 3e 1f 24 b6 bd 04 b0 19 bd
       -0.32317984 0.12983687 -0.08893608 -0.037521377
0001a0 87 00 8a 3d e9 0c 70 3d 07 10 f7 bd b1 5e 85 3d
       0.06738382 0.058606062 -0.12063604 0.065122016
0001b0 63 9a 50 3d d5 d1 00 be 72 1e 74 bd fd df 2a bd
       0.050928485 -0.12580045 -0.059599347 -0.041717518
0001c0 1e 5a a9 bd ac d4 82 3d e4 0f bf bd 08 d5 df bc
       -0.082691416 0.0638822 -0.09329203 -0.02732326
0001d0 36 35 b8 3d f7 cf fe bd 4c b6 aa 3d c0 e7 c1 3c
       0.08994524 -0.1244201 0.083355516 0.023670077
0001e0 4d 5c 15 be e9 57 b8 bd 9e 31 1d 3c 54 af c0 bd
       -0.14585991 -0.090011425 0.009594349 -0.09408441
0001f0 cf d4 57 3e 30 98 08 3e 7d 75 e4 bd c4 cf 85 3d
       0.21077274 0.13339305 -0.111552216 0.06533769

graph_matcher.gnn.conv2.lin.weight f4 [128, 64]
000000 f1 3e 1b 3e 70 28 a3 bc 6e d7 a4 3d a8 61 fd bc
       0.15160729 -0.019916743 0.080489025 -0.030930355
000010 1e b4 78 bb 81 94 cc be d4 4f 91 be 74 1e 03 3f
       -0.0037949155 -0.3995705 -0.28381217 0.5121834
000020 a8 1a df 3e 94 ef a2 bd 4a b6 c1 3e 3d ff 45 3d
       0.43575025 -0.07955852 0.37834388 0.048339117
000030 b8 04 9f 3e 77 26 a4 3e fa bf cf bd 15 7e 0c bf
       0.31058288 0.32060596 -0.101440385 -0.54879886
000040 30 d8 d1 3c 56 7b fc bd fb f0 6e bf 0f 20 35 3e
       0.025615782 -0.12328212 -0.93336457 0.1768801
000050 8c 4d 66 3f 91 91 e4 3e b8 0d 8a 3d a8 b5 4a bd
       0.8996208 0.44642308 0.06740898 -0.049489647
000060 e9 6b db bd ca 49 c6 be 08 e1 dc 3c 27 30 d6 bd
       -0.107139416 -0.38728172 0.026962772 -0.10458403
000070 a4 71 87 bd 3d a4 ba 3e c3 bb e7 3e 4c 7f 27 be
       -0.06613472 0.3645343 0.45260438 -0.16357154
000080 2c 63 62 be 0e 0a bb be ab 65 05 c0 bc 35 03 3f
       -0.22108144 -0.3653111 -2.0843303 0.5125387
000090 96 62 81 be 16 2a 87 3f 1c 81 07 3d 52 4c 53 bf
       -0.25270528 1.0559719 0.033082113 -0.8253833
0000a0 06 25 76 3d be e2 c1 bf 75 92 f0 bd 4b e6 7b 3e
       0.060093902 -1.5147321 -0.117466845 0.24599569
0000b0 93 01 a1 be d7 9b 29 3d 80 c8 24 3e 12 fc 6f 3d
       -0.31446514 0.041408386 0.1609211 0.058590002
0000c0 a8 80 d0 3d 3d 55 e9 3d db c8 d2 3d e4 07 b9 bd
       0.10180789 0.11393211 0.102922164 -0.09034708
0000d0 eb 6f 63 bf 21 f0 55 3e 46 fb d0 3d 3e 7b 73 bd
       -0.8884265 0.20892383 0.102041766 -0.059443705
0000e0 da a1 6c bf ce f7 b8 3e 35 45 0b be fd c0 d7 bf
       -0.92434466 0.3612656 -0.13600619 -1.685577
0000f0 cc a8 49 bd 5a 5b 0e bf 49 a9 a6 3d 7c d4 fb 3e
       -0.049233243 -0.5560814 0.08137757 0.4918555
000100 d6 04 80 be 0a 43 f0 bd 20 05 18 bd 63 c5 0a be
       -0.2500369 -0.11731537 -0.037114263 -0.1355186
000110 0d 47 ea bd 53 9f 23 be d5 35 f9 bd 3f 2c c8 bd
       -0.11439333 -0.15978746 -0.12168471 -0.09774064
000120 12 d5 66 be c1 ce 7a 3d 60 45 c2 bd bd 7d 15 bc
       -0.22542217 0.061232332 -0.094858885 -0.009124217
000130 98 d6 29 be 22 db fc bd 1a 25 46 be 8e 19 46 be
       -0.16585767 -0.12346484 -0.1935009 -0.19345686
000140 da 75 90 3d 48 fb 09 be d9 84 ac 3d 9f 90 5a be
       0.070537284 -0.13474762 0.08423776 -0.21344231
000150 51 c1 16 be 7f 36 8c 3d 67 0f 0f be 7e c7 ae bd
       -0.14722182 0.06846332 -0.1397072 -0.08534144
000160 f6 95 97 3d d7 28 6d be 8f 43 af 3d 58 dc 9a bc
       0.0740165 -0.2316011 0.08557808 -0.018903896
000170 e0 3b 2a bd 2f 8b 18 be 85 32 29 be e2 75 3b 3c
       -0.041561007 -0.14896844 -0.16523178 0.01144168
000180 87 41 74 be 4f 0c 1a be d4 07 04 3e 50 38 a6 be
       -0.23853122 -0.15043758 0.12893611 -0.32464838
000190 85 df 4a be f3 73 03 3e 23 87 7f be 8c f5 9b bc
       -0.19811828 0.128372 -0.24953894 -0.019037984
0001a0 29 8f 49 3d 47 67 3a bd b2 6f e7 bb 34 3d 69 bd
       0.049208794 -0.04550865 -0.0070628757 -0.056943133
0001b0 67 e9 f9 bd 7e ec c9 bd cb c4 a0 bd 68 33 b9 bc
       -0.12202721 -0.098595604 -0.07850035 -0.02260752
0001c0 b0 69 84 3d 45 9c 69 be b2 bd c6 3c 85 a8 15 3e
       0.06465471 -0.22813518 0.024260376 0.14615066
0001d0 98 11 7b be 10 94 5d 37 42 db 93 bc 27 ab 1a be
       -0.2451843 1.32071e-05 -0.018048886 -0.15104352
0001e0 84 bd 84 3d 0e 2a a8 bd d6 96 59 be ad 24 75 3d
       0.0648146 -0.08211146 -0.21248946 0.05984943
0001f0 44 7c 0b bd 56 a5 b1 bd d1 a0 ea 3d e1 a6 90 be
       -0.034054056 -0.086741135 0.114564545 -0.28252319
000200 be 16 cd bc 2d 3a 10 be 20 0b 9b bc de c1 07 be
       -0.025035258 -0.14084692 -0.018926203 -0.13257548
000210 58 c7 c8 bd 43 cf 9d bd 8b b3 17 be 47 40 b4 be
       -0.09803647 -0.07705548 -0.14814584 -0.3520529
000220 e0 ea 80 be 9d c9 86 bd 6c 7b 22 3e 7c 87 77 be
       -0.25179195 -0.065814234 0.15867394 -0.24172777
000230 0a 1a af be 4b 75 ad be d3 13 98 be 24 41 1b bd
       -0.34199554 -0.3387855 -0.29702625 -0.03790392
000240 e7 e8 87 bd b1 35 1d be 3b 41 dd be b3 32 f1 bd
       -0.066362195 -0.15352513 -0.4321383 -0.11777248
000250 89 2a 8a be 9d 65 70 be 9e c1 aa 3d 07 3e 5e be
       -0.26985577 -0.23476262 0.08337711 -0.21703349
000260 7a bd c6 3d 1c 94 c9 be 06 82 0c 3e a6 fc 86 bd
       0.097041085 -0.3937081 0.13721475 -0.065911576
000270 83 cd 73 3c 87 25 3a be f9 d5 57 3d a3 d5 4c bd
       0.014880541 -0.18178378 0.052694295 -0.050008427
000280 3c 80 2a be 07 82 15 3e e1 a4 91 be fa cd da be
       -0.1665048 0.14600383 -0.28446105 -0.42735273
000290 eb 4b 92 bd e8 c8 6c 3d c5 72 f6 bd 7b 24 32 be
       -0.071433865 0.057808787 -0.12033609 -0.17396729
0002a0 01 82 33 be c7 a9 fd bd 4a 4f 7f be 24 2d 0b bd
       -0.17530061 -0.12385898 -0.2493259 -0.033978596
0002b0 30 64 b3 be 6d dd 28 3e 87 bc ef 3d 21 80 05 bd
       -0.35037374 0.16490717 0.117058806 -0.032592896
0002c0 c7 85 20 be c8 8e 93 be ba 5a 70 bd 00 5a 9b 3a
       -0.15676032 -0.2881987 -0.058680274 0.0011852384
0002d0 4a dc 46 be 21 27 53 3d 3f 5d cd 3c 51 00 41 be
       -0.19419971 0.051550988 0.025068877 -0.18847777
0002e0 ed 60 25 3e 97 6c db bc 93 e2 a5 be e5 82 df 39
       0.16150256 -0.026785178 -0.32399425 0.00042631399
0002f0 c4 d8 3a 3d c8 12 e3 be 01 30 3e bd ca 0d 65 be
       0.04561688 -0.44350266 -0.0464325 -0.22368541
000300 11 7e 5f be 2a c6 2a be 0c f1 00 bd 70 79 ae 3d
       -0.21825434 -0.16677156 -0.03147988 0.08519256
000310 f9 52 6f be e6 e3 ea 3c b8 d9 e8 3d 5f c1 37 be
       -0.23371495 0.028673124 0.113696516 -0.17944859
000320 d6 a9 d9 bd 7f 0d 95 bd 05 41 de bd 4a 4f cd bd
       -0.10628097 -0.07277965 -0.10852245 -0.10024889
000330 9d f9 55 be bd 75 5f be d4 20 35 be ab 4b 35 be
       -0.20896001 -0.21822257 -0.17688304 -0.17704646
000340 92 a2 a8 3d 3d 5f d9 bc 5f 60 80 3e 21 b9 13 be
       0.08234133 -0.026534671 0.25073525 -0.1442609
000350 f2 0f 78 bd 69 5a 93 3d 00 b7 88 3d fe 31 10 be
       -0.06056208 0.07194979 0.066755295 -0.1408157
000360 ee 03 fc 3d c7 f5 de bd 69 48 89 3d 1e e3 bb 3d
       0.12305437 -0.10886722 0.06703264 0.091741785
000370 39 fb ef 3c a2 3c 1f 3d 6f 48 0e 3c f7 c8 b1 bd
       0.029294597 0.038876183 0.008684262 -0.08680909
000380 98 58 af 3c 82 33 87 bd 44 51 26 be 9c c9 e3 bd
       0.02140455 -0.06601621 -0.16241938 -0.11122438
000390 fb d1 d8 bd 14 14 01 bd 6e 82 03 3e 5c ca 92 bd
       -0.105869256 -0.03151329 0.12842724 -0.07167503
0003a0 cf 84 b1 3c 4d 59 30 3e b0 1f 13 be 33 f1 da bd
       0.021669773 0.17221566 -0.14367557 -0.10690536
0003b0 ea 70 a7 3b 80 6b 31 3d da 7f ca 3d 25 f2 5f be
       0.005109896 0.04331541 0.09887667 -0.21869715
0003c0 fd b8 d3 bd 01 d9 00 bd a0 de 63 bc 60 f9 6b 3c
       -0.10338018 -0.03145695 -0.013908058 0.014402717
0003d0 82 15 ae bd 66 a5 e4 bd 04 cb ab bd b6 f9 e3 bd
       -0.08500196 -0.1116436 -0.083883315 -0.11131613
0003e0 81 ba 69 3d 25 fb bd 3b 8d f4 ef 3d 96 bc c2 bd
       0.05706263 0.005797761 0.11716566 -0.09508626
0003f0 97 83 11 3e 64 4e 40 be 6c 1a ee 3c e3 f1 49 bb
       0.14210354 -0.18779904 0.029065333 -0.0030814342

graph_matcher.mlp.0.weight f4 [128, 256]
000000 66 3f 8e bd fa 3f 7c 3d 3f 9e 05 bd fc e8 62 3d
       -0.06945686 0.06158445 -0.03262162 0.055397972
000010 48 86 69 bd 9f 33 af bb ea 82 03 bd f2 5f 55 bd
       -0.057012826 -0.00534673 -0.03210727 -0.052093454
000020 75 b4 ed 3c e6 2f 12 bd 30 d1 6a bd 60 a1 5e 3d
       0.029016713 -0.03569021 -0.057328403 0.054353118
000030 10 1e 9b bc f6 ce 7f bd 36 12 f7 3b df 93 fc bd
       -0.018935233 -0.062453233 0.0075400127 -0.12332892
000040 aa 0c 33 3d c6 ef 1a bd ac 2d 8f bd 9e d0 10 3d
       0.04371325 -0.037826322 -0.06991133 0.035355203
000050 20 4f 2f bb de a3 9f ba c1 78 0a bd ab d3 be bc
       -0.0026750043 -0.0012179574 -0.033806566 -0.02329429
000060 ed a8 aa bd bc 48 c0 bc da 30 52 bc e4 2a f9 bd
       -0.08333001 -0.023472182 -0.01282903 -0.12166384
000070 31 e6 c7 bd 2e 73 1b bc 4d d1 9e bd 5a 25 52 bd
       -0.097607024 -0.00948791 -0.07754765 -0.051305152
000080 4e 5c 7b bd ac 2a 90 bd c8 f4 34 bd a2 1e 62 3d
       -0.061367325 -0.07039389 -0.044178754 0.055204995
000090 3d 46 7e 3c 08 6d d4 3c cf 02 e5 3a 1c c9 4c 3d
       0.015519676 0.025930896 0.001747215 0.04999648
0000a0 3b 42 5b bd 9b e3 be bd c5 0c ff bc 6d 71 a2 bd
       -0.05352996 -0.09320756 -0.031134019 -0.079317905
0000b0 a2 e6 2f 3d 93 05 20 be 3b b8 5b bd ac 5a 84 3c
       0.042944558 -0.15627126 -0.053642493 0.016156517
0000c0 e0 11 87 bb ae a0 9b bc e2 2f a0 bd 3e d2 80 bc
       -0.004122004 -0.018997516 -0.07821633 -0.015725251
0000d0 76 0f 02 bd c1 e5 a7 bd c9 a6 1d bd a8 e3 87 bd
       -0.031753026 -0.08198119 -0.038489137 -0.06635219
0000e0 c5 a1 a3 3d 0f f7 8a bd 7b 4c 8a bd 21 7d 20 bd
       0.079898395 -0.06785404 -0.06752869 -0.039181832
0000f0 1c 26 8e bc 78 2b 73 3d ab 73 b9 3c d7 b4 81 3c
       -0.017352156 0.059367627 0.022638163 0.015833301
000100 af 7b b5 bd c6 fc 32 bd b4 a3 80 bd 6e ac 53 3d
       -0.088614814 -0.043698095 -0.06281224 0.051678114
000110 4f 0e 24 be ea d7 80 bd 66 a9 f9 bd 16 03 1e 3d
       -0.16021083 -0.06291182 -0.12190513 0.03857716
000120 9e cb 16 bd ac 39 81 bd b9 63 93 bd ca 74 3d bd
       -0.03681528 -0.06309828 -0.07196755 -0.046253957
000130 5f ad 45 bd d8 aa 7d 3d 8b 78 c6 3b b3 87 44 bd
       -0.048261043 0.061930507 0.0060568503 -0.047980975
000140 53 3a 92 bd 40 15 8d 3c d7 57 9c bd b4 66 89 bd
       -0.07140031 0.017222047 -0.076339416 -0.06709042
000150 99 74 5b 3c 6a 76 39 bd e8 7b 2c bd 2b 7d ea bc
       0.013394498 -0.045278944 -0.042110354 -0.028624138
000160 e0 04 c3 bd 6a 3d d5 bd 22 de 1c bd 03 19 15 be
       -0.09522414 -0.104121044 -0.03829778 -0.14560322
000170 38 16 8f bd ab 1f 63 bc 90 ad 16 bc d5 7c 77 bd
       -0.0698666 -0.013862531 -0.009196654 -0.060421783
000180 22 b8 c1 bc 21 27 56 3c 2e 01 15 be bc 28 d4 bb
       -0.023647372 0.0130708525 -0.14551231 -0.0064745825
000190 1e 22 14 3c 98 bc a4 bd 04 ea 18 3d 7e a5 55 bd
       0.009041337 -0.08043784 0.03733255 -0.05215978
0001a0 8e 59 94 bd 61 79 b8 bd dd a4 c7 bc 8a 45 ef bd
       -0.07243644 -0.09007526 -0.024370605 -0.116831854
0001b0 e9 51 5a bd f8 82 5e bc cd 1d e2 bc 48 bc 13 3d
       -0.05330077 -0.01358103 -0.0276021 0.03606823
0001c0 f0 3e f3 3b 44 4e 17 bd d8 d4 32 3d ca f1 1a 3d
       0.007423274 -0.036939874 0.043660015 0.037828244
0001d0 82 a8 e4 bd 39 88 03 bd e7 95 ef 3b ae 16 d6 bd
       -0.11164953 -0.032112334 0.007311571 -0.104535446
0001e0 4c 54 7a 3d a0 3d 62 bc 0f b2 b7 ba 00 6c c2 3c
       0.061115548 -0.013808638 -0.0014014858 0.023733139
0001f0 63 b1 9c bb 4b 7f ef bc c3 ed 97 bd 8c 4e 8c bd
       -0.0047818883 -0.029235503 -0.07418396 -0.06850919
000200 ad 1f be bd b7 77 a5 3c 98 13 17 3c 7e ed 44 3c
       -0.092833854 0.020198686 0.00922098 0.012019513
000210 75 02 b4 3b cb 25 70 3c 16 c2 3b bd dc 74 bc bd
       0.005493457 0.014657448 -0.04583939 -0.09201977
000220 8e 6c fb 3c 27 1d 40 bd 53 dc d6 bd b4 3e 36 bd
       0.030691411 -0.0469028 -0.10491242 -0.044493392
000230 00 bb b0 bb e5 30 03 3d bb 4b ab bb da b4 92 bc
       -0.005393386 0.03202905 -0.0052275336 -0.017908502
000240 50 e7 91 3b 38 a6 0f bd e7 00 0a bc a6 9c 5a 3d
       0.0044526234 -0.035070628 -0.008423067 0.053372048
000250 a2 77 77 bd 00 b6 6f 3b ca e3 37 bd a2 ec 94 bc
       -0.060416825 0.0036576986 -0.04489497 -0.018179242
000260 42 91 16 be aa 5b e6 bd b3 3a 2f 3d c5 21 cb bd
       -0.14703849 -0.11247952 0.04278059 -0.099185504
000270 d2 6a cc bd 56 d6 c9 bc 0c 86 ba 3c e0 3e 78 bd
       -0.09981312 -0.024638336 0.022768997 -0.060606837
000280 10 53 0d 3c 73 b4 98 bd 34 74 f0 bc 92 1a 67 3d
       0.008625761 -0.07456293 -0.029352285 0.056421824
000290 83 ce 26 be 4c 71 92 bc c7 06 92 bd 40 86 17 bb
       -0.16289715 -0.01787629 -0.07130199 -0.002312079
0002a0 54 16 c7 bd 97 fe c2 bc bc 20 ba bd 3f 0a 90 bd
       -0.097210556 -0.023803039 -0.09088275 -0.07033204
0002b0 00 d9 ed 39 6e ef d9 bd ae 75 28 bc ce 89 1e bd
       0.0004536584 -0.10641371 -0.010281963 -0.03870564
0002c0 d1 f7 8d bb 08 98 3c bd 09 39 13 be db 51 0c 3c
       -0.0043325205 -0.046043426 -0.14377226 0.008564438
0002d0 ca e3 d1 bd 86 bb 47 3d f5 8c 5e bd d4 45 a6 bd
       -0.102485254 0.04876282 -0.054333646 -0.081187874
0002e0 fb 2e 0f 3e 8a 7c 0d be 65 ad 36 bd 97 3d bd ba
       0.13982765 -0.13817039 -0.044598956 -0.0014437911
0002f0 70 6f 87 bc 56 e2 3d bd 72 2c d9 bd 96 45 4f 3b
       -0.01653263 -0.04635843 -0.106041804 0.003162717
000300 6e a0 8c 3c 91 6f e3 bc 8b 6f 0c be a8 cf d0 bc
       0.017166343 -0.02776316 -0.13714425 -0.025489643
000310 e7 94 5a bd fe 9f e2 bd 90 7f 07 bd 76 c8 75 3d
       -0.05336466 -0.11065672 -0.033080637 0.060005628
000320 6a 3c e0 bd 10 37 d4 bc ae 07 c9 bc cc f3 29 bd
       -0.10949023 -0.025905162 -0.024539795 -0.04149227
000330 8c f3 14 bd 21 8b 7e bc 6d f7 e7 bc 8c 17 91 bd
       -0.036365077 -0.015536101 -0.028316224 -0.07084569
000340 5b 38 d6 bd 10 20 cd 3b f8 e6 02 be a3 5d cc bd
       -0.10459968 0.0062599257 -0.1278342 -0.09978797
000350 4a f6 c3 bd 50 1e 5b 3c 68 87 ba bc 37 00 f0 bd
       -0.0956846 0.013373926 -0.022769645 -0.11718791
000360 f2 f5 72 bd 33 25 3e bd 18 00 a8 bc ff c4 7e bd
       -0.059316583 -0.046422195 -0.020507857 -0.06219959
000370 bb 68 3c 3c 48 ed d7 bd 30 18 b8 3c ed 8b 43 3d
       0.011499579 -0.10543305 0.022472471 0.047740865
000380 41 f2 44 3d 57 d6 9d bd 8a 0a c0 bd b9 a0 8f 3c
       0.048082594 -0.07706898 -0.0937701 0.017532693
000390 d1 02 42 bd 4e c6 98 bd f4 39 16 3d 40 42 1f bd
       -0.047365967 -0.074596986 0.036676362 -0.03888154
0003a0 04 2b d0 b9 32 ff 8d bd 7e 41 3d bd d6 e9 bf bd
       -0.000397049 -0.0693344 -0.046205036 -0.093707725
0003b0 b9 e7 88 bd b2 6f 6b bd 8a ca 65 bd 5b e6 bf bc
       -0.066848226 -0.057479568 -0.05610136 -0.023425272
0003c0 ac f3 1b 3d 35 44 aa bd cc 66 a5 3c 93 1b 3a 3d
       0.03807418 -0.08313791 0.020190619 0.045436453
0003d0 5c f8 0b bd 9e 7c b4 bd 6f a0 c5 bd e8 14 f4 bc
       -0.0341724 -0.08812831 -0.09649741 -0.029795125
0003e0 6e a0 2c bd 20 bf 64 3d e7 91 ac bd 00 b4 df 3b
       -0.042145185 0.055846334 -0.08426266 0.0068268776
0003f0 67 7c 49 bd 44 a4 3e bd c6 09 8c bd e8 ef af bc
       -0.049190905 -0.046543375 -0.06837802 -0.0214767

graph_matcher.mlp.0.bias f4 [128]
000000 06 fd 05 be 40 18 d9 3d 18 ac c6 bb de d3 fb bd
       -0.13084802 0.106003284 -0.0060629956 -0.1229627
000010 b0 cb 7f bd bf c7 9e 3d d4 d6 47 bd 17 b4 85 bd
       -0.06245011 0.07752942 -0.04878886 -0.0652849
000020 97 c6 bc bd c5 17 62 bd b8 1b 58 bc 4b e6 d2 bd
       -0.092175655 -0.05519845 -0.013190202 -0.10297831
000030 9c 26 38 bc 86 5a 32 3e 03 66 23 3e 6c c7 0c be
       -0.011239674 0.17417344 0.15956883 -0.13747948
000040 2b 39 c1 bc da 3d 43 3e 4b f4 89 bd 80 ed 87 bd
       -0.02358683 0.19066563 -0.06736048 -0.066370964
000050 44 74 f7 bc 6b f5 a9 bd 73 ee a6 bd de 2c ec bb
       -0.030206807 -0.08298763 -0.08150949 -0.007207497
000060 11 d5 50 be 67 13 87 bc a3 8a 87 bd 59 28 8e bd
       -0.20393778 -0.016488744 -0.0661824 -0.069412895
000070 6d 7e 1f bd 6b 51 12 bd 4c 11 59 bb 7d 05 8a 3d
       -0.03893893 -0.035722177 -0.0033121882 0.06739328
000080 1f 25 e0 bc e3 21 35 bd 61 50 90 bd 1f 56 51 bd
       -0.02736145 -0.04422177 -0.07046581 -0.051107522
000090 df 4c aa bc 01 f3 34 be dc 66 58 3d 0d c7 3f 3e
       -0.020788608 -0.17670824 0.05283247 0.18728276
0000a0 28 46 87 be 1e e8 22 bd 05 4e 6a bd 59 15 18 3e
       -0.26420712 -0.039772145 -0.05720331 0.14851893
0000b0 7f 86 b4 bd c9 df d2 bc 5a ce 22 bd 36 73 0f be
       -0.088147156 -0.025741475 -0.039747573 -0.14008793
0000c0 b5 87 a6 3d fe 4f 72 bd d4 26 65 bd c5 e3 86 bd
       0.08131353 -0.059158318 -0.055945233 -0.06586412
0000d0 df 19 06 be c1 8f 07 3d 7a 18 5b bd 2b f7 35 be
       -0.13095807 0.03309608 -0.05349014 -0.17770068
0000e0 ee 66 4b 3d 01 7c b6 bd b4 6f 20 3e 48 23 a2 bc
       0.04965871 -0.089103706 0.15667611 -0.019792214
0000f0 11 4b a9 bd 9c d2 af bc fd 4c af 3d 9a 87 0d 3e
       -0.08266271 -0.021462731 0.08559606 0.13821259
000100 cc 6e fc bb 80 90 e8 bd 0f 42 01 be 1a f6 3f bd
       -0.0077036377 -0.11355686 -0.12622856 -0.04686556
000110 c8 cf 55 be 76 f4 8a bc f0 93 49 bc c0 f3 42 bd
       -0.20880044 -0.016962271 -0.012303337 -0.04759574
000120 78 ae 4a bd b5 e2 de bc 05 5a d5 3d 69 6e 75 bd
       -0.049482793 -0.027207712 0.104175605 -0.05991975
000130 24 ac e6 bd 6e b3 52 be 5c 40 73 bd 9f 5e dc bd
       -0.11263302 -0.2057626 -0.05938755 -0.10760235
000140 af b5 b3 bd a0 50 58 bd f8 46 f8 bd d2 b3 63 bd
       -0.08774888 -0.052811265 -0.12122911 -0.055591412
000150 56 2f 12 be 0d 6b cd bd ff fc 2c bd 78 e1 39 bd
       -0.1427587 -0.10030184 -0.042233463 -0.04538104
000160 6f 2e bc bd db c0 16 3e 94 6d b9 bd 9d 78 df 3d
       -0.09188544 0.14722006 -0.090541035 0.10911677
000170 47 82 db bd 13 7a da bd a0 83 e5 bd f9 d1 a7 bd
       -0.10718208 -0.10667815 -0.11206746 -0.08194346
000180 5d 5f c4 bd 11 6f de bd 8a 54 c8 bc 9b 23 45 bc
       -0.095885016 -0.10861028 -0.024454374 -0.012032415
000190 3d b7 27 bd 4b da 85 bd 2d 7f 64 bd 3f db 89 bd
       -0.040946234 -0.06535777 -0.055785347 -0.06731271
0001a0 67 f3 06 be 78 19 00 be 8f ce 05 3c 12 48 b2 bd
       -0.13178788 -0.12509716 0.008166923 -0.087051526
0001b0 3f 58 eb bd af 40 85 bd ba 89 81 bc e2 4b 4c be
       -0.11491441 -0.06506478 -0.015812743 -0.19950822
0001c0 72 45 06 be b0 75 92 be d4 fc 46 bd f7 39 20 bd
       -0.13112429 -0.28605413 -0.04858096 -0.03911778
0001d0 e4 f0 c1 bd 76 08 0c be 94 6a b1 bd ed 18 da bd
       -0.09469774 -0.13675103 -0.08662906 -0.106492855
0001e0 51 c3 0e 3e d0 57 f2 bd 5c d5 eb bd f4 6f df 3b
       0.13941695 -0.11833155 -0.115153044 0.006818766
0001f0 b1 6b d2 bd ca f4 cd 3d a6 46 0e bd 1b c6 af bc
       -0.10274447 0.100564554 -0.034735344 -0.021456769

graph_matcher.mlp.2.weight f4 [128, 128]
000000 18 b9 f6 3c 3f 9e 17 be a2 15 7d bd 39 93 8f bd
       0.030117556 -0.1480646 -0.06178821 -0.07010502
000010 9a cf 1c 3d 75 db 67 be 48 2c 0d 3c 35 29 83 bd
       0.03828392 -0.2264231 0.0086165145 -0.06404344
000020 48 eb 59 3c d3 12 66 bd 2a 73 9a bd 55 69 3e bd
       0.013300724 -0.056170296 -0.07541497 -0.04648717
000030 16 38 27 3d be ae 8e bd f7 58 cb 3c 38 fe 75 3c
       0.040824972 -0.06966923 0.024822695 0.015014224
000040 08 ab 38 3c 73 e6 3d be d3 0e da bd d0 1f cb bc
       0.011271246 -0.1854494 -0.10647359 -0.024795443
000050 d4 cf 91 3c d6 d1 28 bd 62 2a 2c 3d bc 23 9a bc
       0.017799295 -0.04121574 0.042032607 -0.018815868
000060 7a e6 01 3d bd 1c ad 3d 1e 4e b2 bd e0 d0 0f bc
       0.03171394 0.08452747 -0.08706306 -0.008777827
000070 5c 66 87 bc 26 b1 36 3d 8e dc 8a bd b6 9f 16 bd
       -0.016528301 0.044602536 -0.06780349 -0.036773406
000080 7c 2a 52 3d ce 56 e2 bc 16 35 6d 3d 99 a9 00 bd
       0.051310048 -0.027629282 0.057911955 -0.03141174
000090 18 99 8a bc 79 c5 a5 bd 92 69 e9 bc a1 31 66 be
       -0.016918704 -0.080943055 -0.028492723 -0.2247987
0000a0 3a ce 1e 3d e6 83 54 bd e1 52 19 bd e1 04 57 bd
       0.03877089 -0.0518836 -0.037432555 -0.052494887
0000b0 a2 a9 7b bd fe fb 3f 3d fd 18 d6 b8 38 6d 60 bc
       -0.06144107 0.046871178 -0.000102089696 -0.013697915
0000c0 5a e4 85 be ca dc 66 3d b5 38 2b bd 80 e7 60 3c
       -0.2615078 0.056362905 -0.041802127 0.013727069
0000d0 6a d9 5d bd 79 7a aa bd 6b ee ab bd 72 9d 8c bd
       -0.05416242 -0.08324141 -0.08395084 -0.06865968
0000e0 8c a7 f6 3b 7c 44 e6 bc 63 d4 04 bd ed ff 89 3d
       0.0075272974 -0.028108828 -0.03242911 0.06738267
0000f0 00 7e d7 3a 6d ce 29 bd 22 22 2e bd e7 82 48 bd
       0.0016440749 -0.04145663 -0.04251302 -0.048952963
000100 c0 54 7f bd c2 99 01 3d 03 0f 8c 3d 2e 13 46 3d
       -0.062336683 0.031640776 0.06838801 0.048358135
000110 e8 fe a9 3c 61 b8 08 be 30 e7 8f bc da 94 0c bd
       0.020751432 -0.13351585 -0.017566293 -0.034321643
000120 70 75 9d bc 1e 8c 3c 3d a2 2a 13 be c5 8c 3b bd
       -0.019221038 0.046032064 -0.14371732 -0.045788545
000130 63 fb ac 3d e7 73 1d bd 60 89 a0 bb 5a e0 09 bd
       0.08446386 -0.03844061 -0.004899189 -0.033661224
000140 8b c0 a4 bd a2 7a 4a 3d a0 3a 79 3b 90 e8 19 bd
       -0.08044537 0.049433358 0.0038029328 -0.037575305
000150 4d 83 52 bd e0 7f e2 3b ae 8d 6b 3d d4 a3 88 bc
       -0.05139475 0.0069122165 0.057508163 -0.016679682
000160 f2 f7 79 bd 9a c1 08 be 97 b9 25 bd 9b 8c 5f bd
       -0.061027475 -0.13355103 -0.040460195 -0.05457745
000170 ce 2c f6 bc c3 61 23 bd 75 ab 4d bd b8 65 22 3c
       -0.030050661 -0.039888155 -0.050212342 0.009911947
000180 b4 1b c7 bc fd ec 9a bd fd 20 af bd 55 d7 e6 bd
       -0.024305202 -0.07564733 -0.08551214 -0.1127154
000190 70 6a 90 bc 22 ba 75 3d 28 5d a9 3c 82 30 ae bd
       -0.017628878 0.059991963 0.020674303 -0.08505346
0001a0 0d 8b a9 3d 20 f5 79 bb 06 fb 27 3d 72 fe 6b 3d
       0.08278475 -0.003814049 0.04101088 0.057615705
0001b0 c4 a1 9d bd 97 c8 81 bd 08 60 1d bc 40 93 28 be
       -0.0769687 -0.063370876 -0.009605415 -0.16462421
0001c0 fd 79 89 3d ec 3c 3b be b7 5d 8d 3d be be 74 bd
       0.067127205 -0.18284959 0.0690264 -0.05975222
0001d0 a0 8b 9e bc 0d e5 ad 3d f1 99 00 bd 2f 1d 98 3d
       -0.019353688 0.084909536 -0.03139681 0.07427441
0001e0 30 91 30 be 12 f4 67 3d b9 2c 97 bd 32 fa 9c 3d
       -0.17242885 0.056629248 -0.07381577 0.076649085
0001f0 2e 3a 7c 3d 1b 2e da 3c f2 b0 72 3d 7d d4 8d 3d
       0.061578922 0.026633313 0.05925078 0.069252945
000200 a9 b0 94 3d 82 0c 2d bd 7c 3c a3 3e be f1 46 3d
       0.07260258 -0.042248257 0.31882083 0.048570387
000210 fe d6 27 3d 7b b4 a8 bd bd ca 42 bd b6 96 5c 3d
       0.040976517 -0.08237549 -0.047556628 0.053854667
000220 88 f7 43 3c de 72 18 bd 97 3f 8b 3d 0d 89 06 bd
       0.0119608715 -0.03721892 0.06799238 -0.032845546
000230 00 6a dc 39 40 c0 cb 3c 36 63 46 3d 09 89 6a 3d
       0.00042040646 0.024871945 0.04843446 0.057259593
000240 87 e1 ae 3d b5 cf 23 be 20 ed b9 3b 50 36 88 3c
       0.0853911 -0.15997203 0.0056740195 0.01662746
000250 91 65 05 bd 56 c6 0a 3d f8 96 38 bc 80 0e 75 bc
       -0.032567564 0.033880554 -0.0112664625 -0.01495707
000260 0c a2 4d be f7 70 a9 3d e9 d6 21 bd f3 da 96 3d
       -0.20081347 0.082734995 -0.039511595 0.0736598
000270 1c 60 5c be ea f3 8a bd a0 48 ba bc 2a d9 30 bd
       -0.21521038 -0.06784804 -0.022739708 -0.043175854
000280 87 77 30 be 14 9e 51 be dc 0b 30 bd 80 b5 44 3b
       -0.17233096 -0.20470458 -0.04298006 0.003001541
000290 e1 46 30 bd a2 94 53 bd 88 13 48 bc 89 13 3a be
       -0.043036345 -0.05165542 -0.012211688 -0.18171515
0002a0 f8 83 07 bc 9b 35 8b 3d d0 4a 44 3c 43 9b 97 bd
       -0.00827121 0.06797334 0.011980727 -0.07402661
0002b0 cd 15 00 bd c2 db 7f 3d 42 98 45 3d e9 b6 88 3d
       -0.03127079 0.062465437 0.048240907 0.06675512
0002c0 fb 84 13 be 30 c0 b7 bb 31 24 1a bd 20 29 7a 3c
       -0.14406197 -0.0056076273 -0.03763217 0.015268594
0002d0 6f bf 49 bd c0 92 0a bd 33 c0 81 3d 00 a6 38 3c
       -0.04925483 -0.033831358 0.06335487 0.011270046
0002e0 c2 85 39 bd a3 50 95 3d c2 71 a9 bd bd 0e a6 bd
       -0.045293577 0.07290771 -0.08273651 -0.0810828
0002f0 8a 9d ad bd 23 fe 9e 3d 3a 48 f6 bc a5 8e af 3d
       -0.08477314 0.077633165 -0.030063737 0.08572129
000300 f0 68 df 3c 40 d0 42 bc 88 56 c3 3c 3e de 47 3d
       0.027271718 -0.011890471 0.023844972 0.04879593
000310 8e 4c 39 bd 78 4f eb bd 52 78 e3 bc 38 96 79 bc
       -0.045239024 -0.11489767 -0.027767334 -0.015233569
000320 09 4e 89 bd e9 15 b3 3d ec b0 93 bd 64 86 77 bd
       -0.06704337 0.087444134 -0.072114795 -0.0604309
000330 ca dd fc bc 71 ea 02 bd d6 1e 7a bd db d7 a3 bd
       -0.030867476 -0.031961862 -0.061064564 -0.080001555
000340 f6 2c e4 bc 79 c6 ac 3d 80 95 67 bc c8 df c2 bc
       -0.02785347 0.08436293 -0.014134765 -0.023788348
000350 7e 3a 23 3d 43 dd 49 bd dc 4d 8d bd 95 37 97 3d
       0.039850704 -0.049283277 -0.06899616 0.07383648
000360 46 81 35 3d ee 17 5d 3d ce e1 1b 3d 4d d0 b2 3d
       0.044312738 0.0539779 0.03805714 0.087311365
000370 24 9a 9b bd f5 98 92 bd 44 9e db 3c 85 2e 8b bd
       -0.07597759 -0.071580805 0.026808865 -0.06795982
000380 8c 6f 85 3c 98 6e 84 bd 84 79 89 bd a6 09 b3 bd
       0.016288541 -0.064664066 -0.067126304 -0.08742075
000390 e5 29 40 bd 96 bc e5 bc 41 ee a4 3d 3e 7e 8d bd
       -0.046914954 -0.028044026 0.08053256 -0.069088444
0003a0 4c 89 ab bd 85 72 c7 3c 64 1c 5c 3e b7 d0 95 3d
       -0.08375797 0.0243466 0.21495205 0.073152
0003b0 7c b2 ce bc a1 ff a7 3d e2 73 f2 bd 4f 55 a3 bd
       -0.025231592 0.08203054 -0.11838509 -0.07975256
0003c0 4a b1 48 3d 83 47 2d 3d 3c a1 9d bc 7b ff 5c bd
       0.0489972 0.042304527 -0.019241922 -0.053954583
0003d0 fc 88 b0 3c e3 b9 60 bd 55 b1 ad bd 00 16 0b bb
       0.021549694 -0.054864775 -0.08481089 -0.002122283
0003e0 f8 82 14 be 8a 8c 07 3d 39 98 8d 3d 1e 46 ce bd
       -0.14503086 0.033093013 0.069138 -0.100719675
0003f0 05 15 88 3d 83 5a af 3d 28 4f c9 3c 98 d7 ad 3c
       0.06644634 0.085621856 0.024573877 0.021220967

graph_matcher.mlp.2.bias f4 [128]
000000 31 81 a4 be c8 b3 83 be 3e 0e 9a bd 33 1e 30 be
       -0.32129815 -0.257231 -0.07522248 -0.1719902
000010 0d 91 95 bd 0a 67 25 bd b4 29 cb bd cd b7 14 3e
       -0.07303057 -0.04038147 -0.099200636 0.1452324
000020 53 b9 b7 be 04 23 76 be 63 2d 42 bd 81 52 a3 3e
       -0.3588358 -0.24036795 -0.047406565 0.31898883
000030 4a 1f 04 be aa e9 a8 bd 3e 7a 4f bd ea f8 70 bd
       -0.12902561 -0.08247693 -0.05065369 -0.058831133
000040 bc 4e 62 be ee 63 5d be 56 b7 d7 3d 0f 72 0c bd
       -0.22100347 -0.21620151 0.105330154 -0.034288462
000050 b1 8c 83 be cf c6 b0 3d 21 d8 e0 3d 7d 11 e5 be
       -0.25693277 0.0863167 0.10978723 -0.44739905
000060 0d bf 04 be e8 8f a0 3d 73 b4 01 3e da 5d 6a bd
       -0.12963505 0.07839948 0.12666492 -0.05721841
000070 f4 66 67 bc d0 df 0c be 6f bc e3 bc 4d 19 a7 bb
       -0.014123667 -0.13757253 -0.027799813 -0.0050994516
000080 bc 1c 84 be e0 6b 2d be c2 5c c0 be a7 52 19 bd
       -0.25803173 -0.16935682 -0.3757077 -0.03743234
000090 00 e0 a4 3d 65 c6 6e bd 9a af 8e bd e5 d6 01 bd
       0.08050537 -0.058294673 -0.06967087 -0.03169908
0000a0 a4 01 82 be d2 79 82 bd d2 d5 71 bd 80 a4 8e be
       -0.25391877 -0.06370892 -0.059041806 -0.2785988
0000b0 02 7a 07 be 8b 1e 92 bd 7c eb c2 bd f0 41 b2 37
       -0.13230136 -0.07134732 -0.09517571 2.1249958e-05
0000c0 9f d7 98 3d 3a e6 63 bc 6a af a7 bd 69 e4 9a be
       0.074630015 -0.013909871 -0.081877545 -0.30252388
0000d0 77 d9 81 bc eb cd 8d bc 60 a5 22 bd 60 77 d8 3d
       -0.015850766 -0.017310103 -0.039708495 0.10569644
0000e0 b2 a9 98 bd a6 11 d0 3d ff 8f b8 bd c5 d5 8d 3d
       -0.07454242 0.10159616 -0.0901184 0.06925539
0000f0 5b 40 3d bd c2 99 67 be d6 f3 f2 bd 00 28 5f bc
       -0.046203952 -0.22617248 -0.11862914 -0.013620377
000100 a4 fd b8 bd f8 43 87 bc ec 6a 11 3d 0c 9d 60 3d
       -0.09032753 -0.016511902 0.03550236 0.05483727
000110 18 83 fe bc 06 14 9d bd 24 cc 46 be 6f a0 79 bd
       -0.03106837 -0.07669835 -0.19413811 -0.060944017
000120 10 71 b8 be 9f b7 f8 3d 99 c7 35 bd 20 bf 28 be
       -0.3602376 0.12144398 -0.044379804 -0.16479158
000130 70 8e 8f bd e3 c0 82 bd 88 fb 0c 3e df df fa 3d
       -0.0700959 -0.063844465 0.13767827 0.12249731
000140 50 f4 fe bc 81 8f d8 3d 81 7b 97 bd 4d 4c 49 bd
       -0.031122357 0.10574246 -0.073966034 -0.04914503
000150 66 97 2e 3e 72 d9 da be f5 1e 9b bd 61 6e 79 be
       0.17049941 -0.42744023 -0.07574264 -0.24358512
000160 66 89 6b be 74 8b ce 3d ac f4 76 be a6 c2 66 bd
       -0.23001632 0.10085192 -0.24116772 -0.056337975
000170 d7 a8 02 be f7 dc df bc 12 fc 72 be ec 8a f9 bc
       -0.1275972 -0.027327044 -0.2372897 -0.03046175
000180 0c 6a 28 be 75 e3 5f 3e dd b5 da 3d 8f 92 01 3d
       -0.16446704 0.21864112 0.10679219 0.03163391
000190 2e c8 3f be 80 c5 38 bb 0d 81 df 3c 57 54 e6 3d
       -0.18728706 -0.002819389 0.027283216 0.11246555
0001a0 f8 f8 9a bd a8 2e 2a 3d b2 19 db bc ac bc 65 bd
       -0.07567018 0.0415484 -0.02674565 -0.056088135
0001b0 8c d3 12 be 1c fb cd bd 37 57 18 be 36 37 41 be
       -0.14338511 -0.10057661 -0.1487702 -0.18868718
0001c0 46 7f 6c bd 70 12 1e be d6 b8 46 be 4d 91 19 bd
       -0.057738565 -0.15436721 -0.19406447 -0.037492085
0001d0 d1 83 5a be 48 7f 75 be 4e 3d 2b bb 67 29 15 be
       -0.21339346 -0.23974335 -0.002612907 -0.14566575
0001e0 bd fa ac bd a8 e8 07 3e 0e 39 17 3c e8 3b ba bd
       -0.08446262 0.13272345 0.0092299115 -0.090934575
0001f0 df c7 54 3c f7 16 b6 bd 6c d4 9c 3d 2f 22 fd 3c
       0.012987106 -0.08891099 0.07657704 0.03090009

graph_matcher.mlp.4.weight f4 [64, 128]
000000 96 e3 c2 bd 48 a6 ff 3d 06 76 ac 3d d7 17 8c 3d
       -0.09516065 0.124828875 0.08420949 0.068404846
000010 41 77 24 3e 9b 4f fb 3d d6 b0 f4 3d 39 a8 7d 3c
       0.16061117 0.12271043 0.11947791 0.015482002
000020 40 56 c8 bb e2 37 25 3e 80 18 02 bb 67 d9 02 3e
       -0.0061137974 0.16134599 -0.001985103 0.12778245
000030 b4 44 11 3e 5b 2a 9f bd 1a fb c9 3c c2 cb c6 bc
       0.14186364 -0.077717505 0.024655867 -0.024267081
000040 8e d8 49 3e 3b 94 a2 bd 39 88 8d 3e 2e fa 8c 3c
       0.19711515 -0.07938429 0.27642992 0.017209139
000050 d0 db 99 3e 14 d3 a5 3c 83 fc 2e be 4a 06 3d 3d
       0.30050516 0.020242251 -0.17088513 0.046148576
000060 34 8f a3 3d 1b 63 67 3e 58 d3 32 3d 0d ce 49 3c
       0.07986298 0.225964 0.043658584 0.012317193
000070 84 33 8a 3c 83 b0 44 bd a5 50 8b be d5 92 37 bc
       0.016870268 -0.048019897 -0.27209964 -0.011204441
000080 af ba cb bc 03 e7 e1 bd f7 7e 8d bd ec ed 9a 3d
       -0.024869291 -0.1103039 -0.06908982 0.07564911
000090 cf f0 80 bd ac 5a c1 3d 25 31 39 bc d6 00 26 bd
       -0.062959306 0.094411224 -0.011303221 -0.04052814
0000a0 74 2a 04 bd 53 5e e3 bc b8 33 11 3e 60 9b 03 bc
       -0.03226705 -0.027754938 0.14179885 -0.00803265
0000b0 11 64 31 bd 9b c3 80 3e dd b6 9e ba 2e f5 be bd
       -0.04330832 0.25149235 -0.0012108941 -0.09324108
0000c0 ac f8 59 bd e2 3c 6e 3c 8a 58 a1 3c 4d e4 be 3e
       -0.053215668 0.014540883 0.019695539 0.37283555
0000d0 ab 9e 87 bc fa d4 12 be b8 2e 03 3d ef 0d 98 3d
       -0.016555151 -0.14339057 0.032026976 0.074245326
0000e0 d1 e8 e0 3d 45 10 b1 bd 2e 9f 68 3c 16 ba 31 bd
       0.10981906 -0.08645681 0.014198108 -0.043390356
0000f0 08 27 eb 3d 4d 13 03 3e af b8 4f be 7c 68 36 bd
       0.11482054 0.12800331 -0.20285295 -0.044533238
000100 54 ad 5f 3e 71 1e 55 ba 58 38 11 bd 11 d7 7b bc
       0.21843463 -0.00081298413 -0.035454124 -0.0153711
000110 8e 0c ce bd 46 25 56 bb 41 5f 76 3d 95 2b 8a bd
       -0.10060988 -0.0032676025 0.060149435 -0.06746594
000120 eb 43 5c 3d d5 d2 b5 bd 3f 6d 02 3e 3d fb 86 3b
       0.05377571 -0.08878104 0.12736987 0.0041193054
000130 18 28 19 3e b9 16 4e bd c8 b2 cf bd 1a c5 89 bc
       0.14956701 -0.05031464 -0.10141522 -0.016817618
000140 84 a4 46 3d 63 b8 ca 3d bc 22 a7 bc da 04 4f 3c
       0.048496738 0.0989845 -0.020402305 0.012635434
000150 08 71 90 bd 86 be 0f be c9 dd ac 3d 7d 2e 34 be
       -0.07052809 -0.14037523 0.0844074 -0.17595859
000160 08 82 23 3d 3d 90 4c 3e 6c fb 0d 3e 06 1a 09 3c
       0.03991893 0.19976898 0.13865441 0.008368021
000170 2d a0 f4 bc d3 5d 63 bd 26 08 f2 3d 7b db a1 bd
       -0.029861534 -0.0555094 0.118179604 -0.07903191
000180 50 0f ad bc f1 05 a4 3e d6 38 22 be 79 30 a6 bc
       -0.021125466 0.32035783 -0.15841994 -0.020286785
000190 45 db ca bd 9a 89 c3 bd d6 22 33 be 7d d9 88 3e
       -0.099051036 -0.0954773 -0.17493758 0.2672843
0001a0 f1 52 ca 3c 80 5f 82 bc 58 67 5c bb 9d 7d 4b 3d
       0.024697753 -0.015914679 -0.0033630934 0.04968034
0001b0 ef 82 70 3e 6f 35 d2 bc d3 5a fe bd 49 f5 d8 bd
       0.23487447 -0.025660245 -0.12419667 -0.105936594
0001c0 45 e4 07 be 78 b5 b9 3d 8b a5 23 3e 6b 3e 1b 3e
       -0.13270672 0.090678155 0.15981118 0.1516053
0001d0 7a 4c 41 3d 56 43 a2 3d 83 36 94 bd 2c 51 01 be
       0.047192074 0.079229996 -0.0723696 -0.12628621
0001e0 36 7f 6d be 63 f3 90 bd 03 54 4b 3c a2 82 46 3e
       -0.23193058 -0.07077672 0.012410167 0.1938577
0001f0 7a 40 12 3e af d5 89 bc d2 a5 14 bd 02 a3 b2 bd
       0.14282408 -0.016825525 -0.03629095 -0.087224975
000200 38 73 93 be 64 8b da 3d c2 df fe 3c e6 06 2a be
       -0.28798842 0.10671118 0.031112555 -0.16604194
000210 90 eb 6f bb fc dc b1 3b 53 48 3e bd 1e 13 49 3e
       -0.0036608912 0.0054279547 -0.046455692 0.19636199
000220 e2 c7 99 be 1c 17 db 3d 7d d0 c2 3d a7 02 dc bd
       -0.3003531 0.10697767 0.09512422 -0.107426934
000230 8f d3 32 3e 8e a8 a5 bd 5a 20 d1 3c 50 03 0a 3d
       0.17463516 -0.0808879 0.025528122 0.033694565
000240 93 ff 1a 3e 17 2e 8e be c1 e1 17 3e 31 80 b1 3d
       0.15136556 -0.2776954 0.14832212 0.08667029
000250 66 32 26 3e 20 82 f4 3d e5 c9 a2 3d b3 7d 39 3c
       0.16230163 0.11938882 0.079486646 0.011321473
000260 56 43 92 3d d6 d5 52 3e b6 de 47 3e 7b 68 18 3d
       0.071417496 0.20589384 0.19518551 0.037209015
000270 06 4d 0f bd 4f a2 72 3d 23 9b 97 bd 44 86 8c 3d
       -0.034985565 0.05923682 -0.07402637 0.06861547
000280 a7 36 0d be c5 cb 91 3d 3e 37 13 3e f3 30 da 3d
       -0.1379038 0.07118944 0.14376542 0.106538676
000290 c8 7f 39 bc 09 7e 2b 39 a7 70 6e 3d ad ef 1c 3d
       -0.011321969 0.00016354783 0.058212902 0.03831451
0002a0 f9 49 e0 bd 9e 5b 8b 3d 09 6a 49 3d 8d 77 da 3c
       -0.10951609 0.06804584 0.04917339 0.026668334
0002b0 c6 36 5a b9 cf 5f 3d 3e 41 c0 cc bb 42 b0 9f 3c
       -0.00020810505 0.1849358 -0.0062485044 0.019493226
0002c0 4b db 16 bc d7 9c a3 3c 98 1f 29 3d b0 94 83 3e
       -0.009207557 0.019972248 0.041289896 0.25699377
0002d0 21 6e 11 3d 36 f2 6e bd ca 55 0d 3e 19 19 31 3e
       0.035505418 -0.05833646 0.13802257 0.1729473
0002e0 a9 87 16 3d 34 53 bb 3c b9 b8 0c bd af 43 84 3d
       0.03675047 0.022866823 -0.034355853 0.06458222
0002f0 74 58 2f 3d ff 10 df 3d 55 b8 04 be 6c e6 7a 3d
       0.042808965 0.108919136 -0.12960942 0.061254904
000300 3f ea 8b 3d 15 84 e1 3d bf bb f9 3d 2e a4 d6 3c
       0.06831788 0.11011521 0.12194013 0.026201334
000310 f3 dd d2 bc c0 35 38 3d af c8 fc bd 2b a6 a7 3d
       -0.0257406 0.044973135 -0.12342965 0.08185991
000320 50 90 a2 bd 78 42 51 3e 3f e6 40 3e d6 ea c0 bd
       -0.07937682 0.20435512 0.18837832 -0.094197914
000330 43 8d 7d 3c 3a 09 d8 3d b0 af a6 bd e8 9d e9 3d
       0.015475574 0.10548635 -0.081389785 0.11407071
000340 e6 ca 30 3e 8a 47 e7 3d e3 0d 2e 3d 95 c7 8b 3c
       0.172649 0.11292942 0.042493712 0.017062942
000350 a7 2f 5c 3e c9 99 c5 3d 89 19 70 3c 81 43 33 be
       0.21502553 0.09648473 0.014654526 -0.1750622
000360 0a 8d 05 bd 9e 36 0e 3e 24 1b 42 3e 2a 53 3f 3e
       -0.03260521 0.13888022 0.18955666 0.18684068
000370 73 50 e6 3d a4 67 b6 bd 14 73 2b 3d 2e ae a3 bd
       0.11245813 -0.08906487 0.041857794 -0.079922065
000380 6e eb 2e be 0e d8 8a 3e dd e0 4d 3d 9d 34 03 3d
       -0.17081997 0.27117962 0.050263274 0.032032598
000390 5e 3c 10 be a0 79 46 3d 01 0f 3d 3d c3 1d 1c 3e
       -0.14085528 0.048455834 0.046156887 0.15245728
0003a0 81 15 21 3d 61 06 d9 3d 14 b2 85 3d 83 90 8a 3d
       0.03932715 0.1059692 0.06528106 0.06765845
0003b0 2e 81 42 be 0b 79 35 3e 3d 8b 12 bc ef 95 5b be
       -0.1899459 0.17721955 -0.00894433 -0.21443914
0003c0 e3 d7 9f bd 31 74 e4 3d 61 52 ba bc e9 20 31 3e
       -0.07804849 0.11154974 -0.02274436 0.1729771
0003d0 91 1a 1f 3e 68 69 ca 3d 7b f1 5e bd b7 c1 f2 bd
       0.15537478 0.09883386 -0.054429512 -0.118533544
0003e0 14 d0 1f be 0e 65 a2 3d ee a7 4c 3d 43 a6 a2 bc
       -0.1560672 0.07929431 0.049964838 -0.01985467
0003f0 64 55 78 3b 29 f6 e9 3d ed df 10 3e 15 b7 91 3c
       0.0037892694 0.114239044 0.14147921 0.017787496

graph_matcher.mlp.4.bias f4 [64]
000000 97 a9 65 3e 8c 12 fe bd e8 25 0d bd 8d 3d 0a 3e
       0.22427975 -0.12405881 -0.03445998 0.13500042
000010 31 fb 37 3e 1d 68 40 be cf 9b 2e 3e 73 a7 1a be
       0.17966916 -0.18789716 0.17051624 -0.1510294
000020 2d 33 39 3d 17 54 df bd c5 c5 5f 3e 86 56 80 3c
       0.04521482 -0.10904711 0.21852787 0.015666258
000030 8e 29 bb 3d 00 8e 49 be 15 0a 82 bd 08 a5 34 3e
       0.09138785 -0.19683075 -0.06349579 0.1764108
000040 91 ab 55 3e 98 99 3a bc 74 f6 be 3d af ae 1d bd
       0.20866229 -0.011389159 0.09324351 -0.03849667
000050 35 c5 5e be e5 3a 55 be f3 85 84 3e da a5 2a 3e
       -0.21754916 -0.20823248 0.25883445 0.1666483
000060 5b af ad bd bd 7e 9c 3e fc 62 e8 3d 8f 35 a0 3e
       -0.08480712 0.30565444 0.11347005 0.31290862
000070 53 7b a6 bd e1 86 62 3d 68 c8 81 be f8 9f c9 bd
       -0.08128991 0.05530441 -0.2534821 -0.09844965
000080 18 4d 8e 3c 6c 36 13 3d 20 e5 3e 3d 75 cd 83 bd
       0.017370746 0.035940573 0.04660523 -0.06435672
000090 f8 d1 84 3d 3f 36 b6 bd 0b d1 d1 3c 20 b7 0b 3e
       0.06485361 -0.08897065 0.025612375 0.13644075
0000a0 46 d6 47 3e 1a 0b 9b 3e 49 64 01 3e d3 04 58 3d
       0.19515333 0.30281907 0.12635912 0.052738976
0000b0 ca e6 0a 3e f5 a7 ff bc 24 d6 9b be bb 2b 0f bd
       0.13564602 -0.031208018 -0.30436814 -0.034953814
0000c0 30 30 ad 3e 4d 8f 81 3e 36 7a 56 be 35 79 f2 bb
       0.33825827 0.25304642 -0.20945057 -0.007399703
0000d0 1c 19 5e 3e fe e5 40 3d 89 f1 c0 3c f4 ad d9 3d
       0.21689266 0.047094338 0.023552673 0.10628882
0000e0 38 40 d8 bd 53 1f 64 3d 18 15 49 3e d9 0a 9d 3c
       -0.10559124 0.055693936 0.19636953 0.019170212
0000f0 ad 88 8e bd 7e da e9 3d b7 47 2a 3e 6e 69 e3 bd
       -0.069596626 0.11418627 0.1662892 -0.111040935
