Result/GCN/5000_sample/model_epoch_0_f1_0.4349.pth (torch, 841454 bytes, 42 tensors)

graph_matcher.gnn.conv1.bias f4 [64]
0	0xbc759758	-0.014989696
1	0x00000000	0.0
2	0x00000000	0.0
3	0x3c98f434	0.018671133
4	0x3d83d558	0.064371765
5	0x3c670d1a	0.014102245
6	0xbd7b639f	-0.061374303
7	0x3cbee952	0.023304615
8	0x3dd11878	0.10209745
9	0xbd59bb24	-0.053156987
10	0x3d874641	0.06605197
11	0xbd24d49c	-0.040241823
12	0xba1299e0	-0.0005592387
13	0x3c95bd70	0.018278807
14	0xba18339c	-0.000580603
15	0x3da73cf0	0.0816592
16	0x00000000	0.0
17	0x3c38e754	0.011285622
18	0x3ca587f6	0.020206433
19	0x3d53233d	0.051547278
20	0x3d0097b1	0.031394664
21	0x3dc962ec	0.09833321
22	0x00000000	0.0
23	0xbcb58de2	-0.022162382
24	0x00000000	0.0
25	0x3c5ab48d	0.013348711
26	0x3dab0db6	0.083522245
27	0x00000000	0.0
28	0xbd6aad7c	-0.057294354
29	0x3d837d59	0.064203925
30	0x3dd1b3b4	0.10239354
31	0xbd5fd6a9	-0.054648075
32	0x3c0b8cb2	0.008517431
33	0xbce652e1	-0.028115692
34	0xbd35f210	-0.044420302
35	0x3d783b27	0.060603287
36	0xbcc3800e	-0.023864772
37	0x3d347e39	0.044065688
38	0xbd9d394b	-0.076769434
39	0xbd0caabf	-0.034342524
40	0xbdad30f9	-0.084566064
41	0x3d4d99c3	0.050195467
42	0xbdac6fff	-0.08419799
43	0xbc88b516	-0.016687911
44	0xbc8ff120	-0.017571032
45	0x3d845b18	0.06462687
46	0xbc7be6d5	-0.015374859
47	0xbce6f544	-0.028193124
48	0xbdb1305a	-0.086518005
49	0xbb08e82f	-0.0020890345
50	0xbd5362bc	-0.051607832
51	0x00000000	0.0
52	0xbd9e4d57	-0.07729595
53	0xbd11887a	-0.035530545
54	0xbc704d78	-0.0146669075
55	0xbd2c424b	-0.04205541
56	0x3b71eaee	0.003691371
57	0x3d75715b	0.059922557
58	0xbd8a38cf	-0.06749117
59	0x3d800f68	0.062529385
60	0x00000000	0.0
61	0xbd799074	-0.060928777
62	0xbde283f9	-0.11060328
63	0xbd3dc04e	-0.046325974

graph_matcher.gnn.conv1.lin.weight f4 [64, 4]
0	0x3d7130fa	0.0588846
1	0xbd2e3be2	-0.042537577
2	0x3e7cce5c	0.24688095
3	0xbe93fa18	-0.28901744
4	0xbe47de9a	-0.1951851
5	0xbe892d7a	-0.26792508
6	0xbe9735e1	-0.29533294
7	0xbd863d7a	-0.065546945
8	0xbe881226	-0.26576346
9	0xbe28c9b2	-0.1648319
10	0xbe95d9e1	-0.2926779
11	0xbe3c32c8	-0.18378747
12	0x3ee34e24	0.44395554
13	0x3d56875a	0.052375175
14	0xbd93128c	-0.07181272
15	0xbd117556	-0.03551229
16	0x3ea4ee18	0.322129
17	0xbac17568	-0.0014759721
18	0xbde91595	-0.113810696
19	0xbded2e9d	-0.115811564
20	0x3e9c5ca5	0.30539432
21	0x3e4b6200	0.19861603
22	0xbe9efc87	-0.31052038
23	0xbceca046	-0.028885018
24	0xbe8c0dac	-0.2735418
25	0xbe2402b1	-0.16016652
26	0xbe04549e	-0.12922904
27	0x3e8097b3	0.25115737
28	0x3e749ba2	0.23887494
29	0x3e0122f6	0.12610993
30	0xbe4a8db1	-0.19780613
31	0xbe91d2f9	-0.28481272
32	0x3d80b2a8	0.06284076
33	0xbe7254a5	-0.23665102
34	0x3e82d93e	0.25556368
35	0xbdc0b0c5	-0.09408716
36	0xbe82d473	-0.2555271
37	0x3e8b9beb	0.27267393
38	0xbdb40d6e	-0.08791624
39	0x3dcf407e	0.10119723
40	0xbc92f316	-0.017938178
41	0x3d8b69c2	0.06807281
42	0x3e6f422e	0.2336509
43	0xbdb4adb8	-0.08822197
44	0xbe8154ca	-0.2526
45	0x3d593276	0.05302664
46	0xbdb5fae0	-0.08885741
47	0x3e078c27	0.13237058
48	0x3eca4843	0.39508256
49	0xbe5373e1	-0.20649673
50	0xbe518a6d	-0.20462961
51	0xb9c9bd6c	-0.00038478838
52	0xbe8f3ba0	-0.27975178
53	0x3e4c0291	0.19922854
54	0x3e8e163e	0.27751344
55	0xbe844a6f	-0.25838038
56	0xbe9b7e99	-0.30370024
57	0xbe81650a	-0.252724
58	0xbe81d3d2	-0.2535692
59	0x3e51d418	0.20491064
60	0x3e67adc6	0.22624883
61	0xbcf549a8	-0.029942349
62	0xbe921333	-0.28530273
63	0xbe39e907	-0.18155299
64	0xbd380250	-0.04492408
65	0xbe8a4a6e	-0.2700991
66	0xbd9f2a9a	-0.077717975
67	0xbca73550	-0.020411164
68	0xbe09db20	-0.13462496
69	0x3e0099ae	0.12558624
70	0xbe930724	-0.28716385
71	0x3d8df0e1	0.0693071
72	0xbe88dba9	-0.26730087
73	0x3de9cfce	0.11416589
74	0x3e4b48a7	0.19851933
75	0xbe8a2437	-0.26980755
76	0x3ea31d5a	0.3185833
77	0x3c92f922	0.017941061
78	0x3e3dc787	0.18533145
79	0xbd00395c	-0.031304702
80	0x3e7ceb12	0.24699047
81	0x3e863f43	0.2622014
82	0xbe154c34	-0.1457985
83	0xbeb22f40	-0.34801674
84	0xbc162c06	-0.009165769
85	0xbe3be9dc	-0.18350929
86	0x3eecf822	0.4628306
87	0xbdaa2394	-0.08307567
88	0xbe1b359e	-0.15157172
89	0xbe91137c	-0.28335178
90	0xbe72548a	-0.23665062
91	0xbd1429e8	-0.036172777
92	0xbe95518c	-0.29163778
93	0x3e015682	0.12630656
94	0xbe5c4b80	-0.21513176
95	0x3e63d714	0.22250015
96	0xbd61aba8	-0.055095345
97	0xbe3d863d	-0.18508239
98	0xbdb60d2c	-0.08889231
99	0xbda9fa8a	-0.0829974
100	0xbe854060	-0.26025677
101	0xbe0544f0	-0.13014579
102	0xbe311e6d	-0.17296763
103	0x3d8acb68	0.06777078
104	0x3eca1895	0.3947188
105	0x3e950378	0.2910421
106	0xbc5e3d1f	-0.013564377
107	0xbdb46c24	-0.08809689
108	0xbe107ed0	-0.14110875
109	0xbe920eff	-0.28527066
110	0xbe900479	-0.28128412
111	0xbcdd55d0	-0.027018458
112	0xbe42eac8	-0.19034874
113	0xbd4ea303	-0.05044843
114	0xbe924673	-0.28569373
115	0xbe10c02e	-0.1413581
116	0x3d14b4c2	0.036305197
117	0xbd870c6e	-0.06594168
118	0x3ece27f3	0.40264854
119	0xbd96e4ac	-0.073678344
120	0xbe5f892b	-0.21829669
121	0xbba86179	-0.005138573
122	0x3e4e0753	0.20119981
123	0xbe318554	-0.17336017
124	0xbe47ee45	-0.19524486
125	0xbe8b915e	-0.27259344
126	0xbd4e0794	-0.050300196
127	0xbd2085cb	-0.039190095
128	0x3eb98ef9	0.36241892
129	0xbdd358fb	-0.10319706
130	0xbe507759	-0.20358028
131	0xbbce691b	-0.0062991506
132	0x3eb43e89	0.3520396
133	0x3e456fec	0.19280976
134	0xbe903a5e	-0.2816953
135	0xbc5f4652	-0.0136276055
136	0xbdbc14f6	-0.091836855
137	0x3e922609	0.28544644
138	0x3e7240a5	0.23657472
139	0xbea16b76	-0.315273
140	0x3c1f8934	0.009737302
141	0xbea37694	-0.31926405
142	0x3ed85e6f	0.42259547
143	0xbd850363	-0.064947866
144	0xbe535928	-0.20639479
145	0x3bb656e2	0.0055645565
146	0xbe733b5f	-0.23753117
147	0x3e4f4da8	0.20244467
148	0xbd5b6d9d	-0.053571332
149	0x3dbc5235	0.09195367
150	0xbc951f69	-0.018203454
151	0xbe409590	-0.18807054
152	0xbe737cf1	-0.2377813
153	0xbe3aaa1c	-0.18228954
154	0xbe74f608	-0.23921978
155	0xbc7044d5	-0.014664848
156	0x3ebb8525	0.3662502
157	0x3e1f31ec	0.15546387
158	0xbec41a75	-0.38301435
159	0x3c3f35e8	0.011670567
160	0xbe5f7b92	-0.21824482
161	0xbd89e15b	-0.06732436
162	0x3c3c2c70	0.011485204
163	0x3d4900fe	0.04907321
164	0xbe6ab23f	-0.22919558
165	0x3de6ab5a	0.112631515
166	0x3dd476b9	0.10374207
167	0xbe6535f4	-0.22383863
168	0xbdac0ca0	-0.084008455
169	0xbd9b91d9	-0.075961776
170	0xbd55bb2f	-0.052180465
171	0x3ceea2e2	0.029130403
172	0xbccc6b1c	-0.024953417
173	0x3c1e8ec0	0.009677589
174	0x3e882bec	0.2659601
175	0x3bac95c8	0.0052668788
176	0xbe34f847	-0.17672835
177	0xbe795f7d	-0.24352832
178	0xbe8e7d80	-0.27830124
179	0x3e10c23d	0.14136596
180	0xbeba3294	-0.36366713
181	0x3ea1ab18	0.31575847
182	0xbc9dc9d8	-0.019261286
183	0x3c37b9c9	0.011213728
184	0xbe729c27	-0.2369238
185	0x3e677a08	0.22605145
186	0xbe4a3c57	-0.1974958
187	0x3de38e98	0.11111182
188	0xbe2bb8f5	-0.16769774
189	0x3e403cdf	0.1877322
190	0xbbfa739f	-0.0076431776
191	0x3e14e006	0.14538583
192	0x3c784803	0.015153888
193	0xbd121db4	-0.03567286
194	0xbe64bbf3	-0.22337322
195	0xbe41d969	-0.18930592
196	0x3edae19d	0.42750254
197	0xbcc2bb5e	-0.023770984
198	0x3de93b1c	0.11388227
199	0x3c9b8ffe	0.01898956
200	0xbe15957e	-0.14607808
201	0xbdda2ae0	-0.10652709
202	0xbd455684	-0.04817821
203	0xbddd3b2a	-0.108023
204	0xbe78ae32	-0.242852
205	0xbe22bea9	-0.15893044
206	0xbdb08e6c	-0.08620915
207	0xbd4621e0	-0.04837215
208	0x3eb1e070	0.34741545
209	0x3d94ff04	0.07275203
210	0xbe8f6196	-0.2800414
211	0x3d78f139	0.060776923
212	0xbddda046	-0.10821585
213	0x3dcfaa7e	0.10139941
214	0xbe36e638	-0.17861259
215	0x3dde8e2f	0.10866963
216	0xbe4372ba	-0.19086733
217	0x3ea2e060	0.3181181
218	0xbe2af91d	-0.16696592
219	0x3b6cb45d	0.0036118247
220	0x3d325c0c	0.043544814
221	0xbe445d1a	-0.1917614
222	0xbe2a16f9	-0.16610326
223	0xbe8a50cc	-0.27014768
224	0x3df53f91	0.11975015
225	0xbe960295	-0.29298845
226	0xbe3f747b	-0.18696778
227	0xbe46dfea	-0.19421354
228	0x3e3295d9	0.17439975
229	0xbe3047dc	-0.17214912
230	0x3ebc7b07	0.36812612
231	0xbdca8217	-0.09888094
232	0xbe24a0b9	-0.16076936
233	0xbe8e5960	-0.27802563
234	0xbe4828d5	-0.19546826
235	0x3e68a43b	0.22718899
236	0xbe84aadf	-0.25911614
237	0x3dea7f5b	0.114500724
238	0x3e0547d1	0.13015677
239	0xbe73cccb	-0.23808591
240	0xbcc4d6f0	-0.024028271
241	0xbe4c6330	-0.19959712
242	0xbe421fd8	-0.1895746
243	0xbdd14764	-0.10218695
244	0xbe97de5f	-0.29661843
245	0xbe3e1668	-0.18563235
246	0xbdd70e30	-0.10500753
247	0x3e66c6ed	0.22536822
248	0xbcb1aabd	-0.02168786
249	0xbe578a36	-0.21048817
250	0x3d057544	0.032582536
251	0xbe97e691	-0.29668096
252	0x3e8c6487	0.27420446
253	0xbd2c3140	-0.042039156
254	0x3e81e5f3	0.2537075
255	0x3d98d1c8	0.074618876

graph_matcher.gnn.conv2.bias f4 [128]
0	0xbcd6b2ca	-0.0262083
1	0xbd7ff26a	-0.062487043
2	0xbbc4d62c	-0.0060069766
3	0xbd913631	-0.07090414
4	0x3d02b4e9	0.03191081
5	0x3b4ea764	0.0031532878
6	0xbd695c41	-0.056972746
7	0xbc523fbe	-0.01283258
8	0xbd8d07ed	-0.06886277
9	0x3c104ea0	0.008807808
10	0xbdb69518	-0.08915156
11	0xbddb8bef	-0.107200496
12	0xbd99922d	-0.07498584
13	0xbd04d761	-0.032431964
14	0x3cb7c7f7	0.022434218
15	0xbd3bbf70	-0.045836866
16	0xbdd7e9b8	-0.10542625
17	0xbdc1bb2b	-0.094595276
18	0x3d384a79	0.044992898
19	0xbd883a58	-0.06651753
20	0xbd9a61f8	-0.07538217
21	0xbdc78eba	-0.0974402
22	0xbd3c0e8c	-0.04591231
23	0xbd4399f4	-0.047754243
24	0x3abc1315	0.0014348949
25	0xbc7c3620	-0.015393764
26	0xbd5f839f	-0.054568883
27	0xbdc4e561	-0.09614063
28	0xbc9b45a4	-0.018954106
29	0xbd8ab5bc	-0.06772944
30	0xbd0b5b7d	-0.034022797
31	0xbd6ea206	-0.058259986
32	0xbd69043a	-0.056888796
33	0x3b9c663c	0.0047729295
34	0xbd98639d	-0.07440875
35	0xbda26cef	-0.07930934
36	0xbc908dde	-0.017645773
37	0xbd815f2f	-0.06316983
38	0x3d581ce2	0.05276192
39	0xbda3d81f	-0.08000206
40	0x3ca83d59	0.020537065
41	0x3d0484a0	0.032353044
42	0x3ce2072e	0.027591314
43	0x3c45d54a	0.012074778
44	0xbd9ae88c	-0.07563886
45	0x3c9a60fd	0.018845076
46	0x3d585d8d	0.052823592
47	0xbd95e94a	-0.07319887
48	0xbd7a9a36	-0.061182223
49	0xbd2b4302	-0.04181195
50	0x3ca6447e	0.020296331
51	0x3d15d104	0.036576286
52	0x3d366556	0.044530235
53	0xbcf383f6	-0.02972601
54	0xbcacbc36	-0.02108584
55	0xbd518542	-0.051152475
56	0xbdeb4953	-0.11488595
57	0x3dab736b	0.083716236
58	0x3d211950	0.03933078
59	0x3d1cd749	0.03829125
60	0xbdb2d8c4	-0.08732751
61	0xbda0d95f	-0.0785396
62	0x3d013f15	0.0315543
63	0x3d249732	0.040183254
64	0xbd734935	-0.059395988
65	0xbd840c5b	-0.06447669
66	0x3d028680	0.03186655
67	0xbdf00962	-0.1172054
68	0x3cb536de	0.02212089
69	0x3cde049e	0.027101811
70	0xbcc52e52	-0.024069939
71	0xbd5de353	-0.05417187
72	0x3b985482	0.004648746
73	0xbccec18a	-0.025238771
74	0xbd11d7f1	-0.03560633
75	0xbda30981	-0.07960797
76	0xbd7fbca2	-0.062435754
77	0xbd491f8a	-0.049102344
78	0x3c507494	0.012723107
79	0xbc444f9e	-0.011981873
80	0x3c84a9d2	0.016194258
81	0xbd819f56	-0.06329219
82	0x3b6f711e	0.003653593
83	0x3d01f197	0.03172454
84	0x3d843136	0.06454699
85	0xbd90289f	-0.07038998
86	0xbd9d1442	-0.076698795
87	0x3d1bbb6a	0.03802053
88	0x3cb763b0	0.022386402
89	0xbbac70c0	-0.0052624643
90	0xbd76d288	-0.060259372
91	0xb9d2bbc0	-0.00040194206
92	0xbcf1457f	-0.029452084
93	0x3da6de0f	0.08147823
94	0xbd47166f	-0.04860538
95	0xbd2cb9c2	-0.04216934
96	0xbd58ee02	-0.052961357
97	0x3d49d5a5	0.049276013
98	0x3cc79416	0.024362605
99	0xbdef7b71	-0.116934665
100	0xbda4719f	-0.08029484
101	0xbd0c7ba4	-0.0342976
102	0xbd4a47f4	-0.049385026
103	0x3cc58c1b	0.024114659
104	0x3b6159fa	0.0034385906
105	0x3d492b0d	0.049113322
106	0xbd3cef49	-0.046126638
107	0x3b97634a	0.0046199905
108	0x39bfc476	0.00036576734
109	0xbdf2b56e	-0.11851011
110	0xbd23c3f5	-0.0399818
111	0xbd1f9d1f	-0.0389682
112	0xbda1e1bf	-0.07904386
113	0x3d0c5f44	0.03427054
114	0xbdb65e9f	-0.08904766
115	0xbda6f87d	-0.08152864
116	0x3d3d23f2	0.04617686
117	0xbc91bfee	-0.017791715
118	0x3d8f36e8	0.069928944
119	0x3c8aff1b	0.016967347
120	0xbd92624b	-0.07147654
121	0xbda667a4	-0.08125237
122	0xbd450a08	-0.04810527
123	0xbd6a59ce	-0.05721455
124	0xbcfe4936	-0.03104077
125	0xbcda78ae	-0.026668873
126	0xbd1312af	-0.03590649
127	0x3ae56520	0.0017501451

graph_matcher.gnn.conv2.lin.weight f4 [128, 64]
0	0xbe0f3d0e	-0.13988134
1	0xbca32870	-0.019916743
2	0x3da4d76e	0.080489025
3	0xbe83a086	-0.25708407
4	0xbde45dd6	-0.1115071
5	0xbdb600b5	-0.088868536
6	0xbe39146e	-0.180742
7	0xbe43cd08	-0.19121182
8	0x3e00f678	0.1259402
9	0xbcf690da	-0.030098367
10	0xbcf85eda	-0.030318666
11	0xbde05b67	-0.109549336
12	0x3e0ec859	0.13943614
13	0xbd9eb82c	-0.07749972
14	0xbdf55f21	-0.11981035
15	0xbdc1135b	-0.0942752
16	0x3cd1d830	0.025615782
17	0xbdb69c70	-0.08916557
18	0xbe3266d5	-0.1742204
19	0xbe4253d3	-0.18977289
20	0xbe1f11d5	-0.15534146
21	0x3d9ab19a	0.07553406
22	0x3d8a0db8	0.06740898
23	0xbcd3b1ec	-0.025841676
24	0xbddb6be9	-0.107139416
25	0xbe28b909	-0.16476835
26	0xbe6418c5	-0.22275074
27	0xbdd63027	-0.10458403
28	0xbd878779	-0.06617636
29	0x3d5ff00c	0.054672286
30	0x3c8bc114	0.01705984
31	0xbe274efd	-0.16338725
32	0xbdda5811	-0.106613286
33	0xbcae8748	-0.021304742
34	0xbdaba8f5	-0.08381835
35	0x3cf95707	0.030437006
36	0xbe1064f2	-0.14101008
37	0x3cf677e0	0.030086458
38	0x3d07811c	0.033082113
39	0xbdbba58a	-0.091624334
40	0x3d7c1edd	0.06155287
41	0x3d929a6f	0.07158362
42	0xbded4408	-0.115852416
43	0x3cb57976	0.022152644
44	0xbe17c90b	-0.14822786
45	0x3dc671d4	0.0968968
46	0x3df3976b	0.11894115
47	0xbd7e947c	-0.062153324
48	0x3dd161fa	0.10223766
49	0x3d456de9	0.04820052
50	0x3dd2b2fe	0.10288046
51	0xbdb907e4	-0.09034708
52	0x3cd5a9f7	0.026082022
53	0xbc47389a	-0.012159491
54	0x3d197b8b	0.037471335
55	0xbd73964f	-0.059469517
56	0xbc83a480	-0.01606965
57	0x3d991571	0.07474793
58	0xbda57b42	-0.0808015
59	0x3cbafc80	0.02282548
60	0xbd49a8cc	-0.049233243
61	0xbe2c7399	-0.16840972
62	0x3dab18f9	0.083543725
63	0x3da6a4c4	0.08136895
64	0xbdac5730	-0.08415067
65	0xbdf0430a	-0.11731537
66	0xbd180520	-0.037114263
67	0xbddf9e37	-0.10918849
68	0xbda31a47	-0.079639964
69	0xbe03d1ba	-0.12872973
70	0xbdd9a83d	-0.10627792
71	0x3d29281f	0.041298028
72	0xbe494bba	-0.19657794
73	0x3df09d57	0.1174876
74	0xbd51532f	-0.05110472
75	0x3dab6362	0.08368565
76	0xbe1a2078	-0.15051448
77	0xbdc2018e	-0.09472953
78	0xbe3b33ef	-0.1828153
79	0xbe20125e	-0.15632007
80	0x3d9075da	0.070537284
81	0xbdab21be	-0.08356045
82	0x3e21898d	0.15775128
83	0xbe2c50ff	-0.16827773
84	0xbde1a10e	-0.11017047
85	0x3dc07478	0.09397215
86	0xbe0f0f67	-0.1397072
87	0xbd928764	-0.0715473
88	0x3d9795f6	0.0740165
89	0xbe677532	-0.226033
90	0x3df0f6e5	0.117658414
91	0xbc9adc58	-0.018903896
92	0xbd2cb005	-0.042160053
93	0xbdd4d63d	-0.10392425
94	0x3bc1d766	0.00591557
95	0x3c6e917d	0.014561054
96	0xbe3f7f2a	-0.18700853
97	0xbdf57901	-0.1198597
98	0x3e2bc5be	0.16774651
99	0xbe965994	-0.29365218
100	0xbe32238a	-0.1739637
101	0x3e47a5d5	0.19496854
102	0xbe7c1e9e	-0.24621055
103	0x3c2bba96	0.010481497
104	0x3d43b2f2	0.047778077
105	0x3b044a20	0.0020185784
106	0xbb6e537e	-0.0036365683
107	0xbd2652fc	-0.040606484
108	0xbe0630d0	-0.13104558
109	0xbd6edfd5	-0.05831893
110	0xbc6e513c	-0.014545735
111	0x3cb2abc0	0.021810412
112	0x3d8cf171	0.06881989
113	0xbe4c5d61	-0.19957496
114	0x3cc6df4d	0.0242764
115	0x3e15a885	0.14615066
116	0xbe65b73b	-0.22433178
117	0x3d68370a	0.056693114
118	0x3b6ed4ab	0.0036442678
119	0xbe161c4f	-0.14659236
120	0x3d8d8759	0.06910581
121	0xbd402d1f	-0.04691803
122	0xbe5e0f98	-0.21685636
123	0x3db936a6	0.090436265
124	0xbd0b7c44	-0.034054056
125	0xbda0aa18	-0.07844943
126	0x3def051d	0.11670897
127	0xbe70e0eb	-0.235233
128	0x3ccf4862	0.02530307
129	0xbe103a2d	-0.14084692
130	0xbc9b0b20	-0.018926203
131	0xbd9aec46	-0.07564597
132	0x3cd5e296	0.026109021
133	0xbdac4d7e	-0.08413218
134	0x3bb8c525	0.005638736
135	0xbdef2a74	-0.11678019
136	0xbe4dcfe4	-0.20098835
137	0x3d794a2e	0.06086176
138	0x3d9badca	0.07601507
139	0xbe23c8d6	-0.15994582
140	0xbe7c051c	-0.24611324
141	0xbdc5b4e1	-0.096536405
142	0xbdf9323c	-0.121677846
143	0xbc04773c	-0.008085068
144	0xbd87e8e7	-0.066362195
145	0xbc3e3d3c	-0.011611279
146	0xbdcea7d2	-0.10090603
147	0xbd9f3294	-0.07773319
148	0xbdddd863	-0.10832288
149	0xbe5645f2	-0.2092512
150	0x3daac19e	0.08337711
151	0xbd096ba3	-0.033549916
152	0x3dc6bd7a	0.097041085
153	0xbe6117bc	-0.2198171
154	0x3e2a425c	0.16626877
155	0xbd86fca6	-0.065911576
156	0x3c745cf8	0.014914744
157	0xbe440a95	-0.19144662
158	0x3e4b3455	0.19844182
159	0xbd40499a	-0.046945192
160	0xbe89607c	-0.26831424
161	0x3e29597f	0.16538046
162	0xbdb48e85	-0.08816246
163	0xbe9ff1f6	-0.3123929
164	0x3e00cf73	0.12579136
165	0x3e0a0da2	0.13481763
166	0xbdef8655	-0.11695544
167	0xbe0fd7c5	-0.14047153
168	0xbe2c2c1e	-0.16813704
169	0x3e04c647	0.12966262
170	0xbe7a605a	-0.24450818
171	0x3c25e1a4	0.010124598
172	0xbe34a350	-0.17640424
173	0x3e42dd3d	0.19029708
174	0x3e211141	0.15729238
175	0x3d549fe4	0.051910296
176	0xbe1872c8	-0.14887536
177	0xbe3ddf63	-0.18542247
178	0xbd705aba	-0.058680274
179	0x3a9b5a00	0.0011852384
180	0xbe3e6290	-0.18592286
181	0x3ddcbe12	0.107784405
182	0x3dcc0f2d	0.09963832
183	0xbe419683	-0.18905072
184	0xbc19292a	-0.009348193
185	0xbd05f1ed	-0.03270142
186	0xbdafe5e6	-0.085887715
187	0x3e2cd282	0.16877177
188	0x3d3ad8c4	0.04561688
189	0xbe11e1a1	-0.14246227
190	0xbd29d35b	-0.04146133
191	0xbe31373b	-0.17306225
192	0xbe597dff	-0.2123947
193	0xbe2ac62a	-0.16677156
194	0xbd00f10c	-0.03147988
195	0x3db9249d	0.090401866
196	0xbe6be70f	-0.2303736
197	0x3d0a7de0	0.03381145
198	0x3dfdd461	0.12394024
199	0xbe3175ee	-0.17330143
200	0xbdcd7a31	-0.10033072
201	0xbd624d36	-0.055249415
202	0xbdddadb5	-0.108241476
203	0xbdc05a9c	-0.09392282
204	0xbe51f0f2	-0.2050207
205	0xbe5b1456	-0.21394476
206	0xbe2f245a	-0.17103711
207	0xbe3255e6	-0.1741558
208	0x3da8a292	0.08234133
209	0xbbf9d0c5	-0.007623764
210	0x3e7b88c6	0.24563894
211	0xbe0ce5b7	-0.13759504
212	0xbd64e69b	-0.055883985
213	0x3da146ec	0.078748554
214	0x3d88b700	0.066755295
215	0xbe0a550a	-0.13509002
216	0x3dfc03ee	0.12305437
217	0xbdd80844	-0.105484515
218	0x3d925d62	0.071467176
219	0x3dbbe31e	0.091741785
220	0x3cec45e3	0.028841918
221	0x3d3b26ee	0.045691423
222	0x3c1d7348	0.009610005
223	0xbda6642b	-0.08124574
224	0x3cd2e732	0.025745008
225	0xbd816c94	-0.06319538
226	0xbe28cb83	-0.16483884
227	0xbdd88021	-0.10571314
228	0xbdce3617	-0.100689106
229	0xbd08bb98	-0.03338203
230	0x3e0913c4	0.13386446
231	0xbd87a36b	-0.066229664
232	0x3cdc326d	0.026879514
233	0x3e2c3ca9	0.16820015
234	0xbe0d9ec1	-0.13830091
235	0xbdcdee93	-0.1005527
236	0x3c723e6b	0.014785389
237	0x3d18e2d6	0.037325703
238	0x3de16bdc	0.11006901
239	0xbe599617	-0.21248661
240	0xbdcc270a	-0.099683836
241	0xbce4a12e	-0.027908888
242	0xbc60e6fc	-0.013726946
243	0x3c6bf960	0.014402717
244	0xbda2de6d	-0.079525806
245	0xbdd8b258	-0.10580891
246	0xbda01362	-0.07816197
247	0xbddb8626	-0.10718946
248	0x3d7e0bf6	0.062023126
249	0x3c596043	0.0132675795
250	0x3e023ef5	0.12719329
251	0xbdc4edee	-0.09615694
252	0x3e118397	0.14210354
253	0xbe3a8aee	-0.1821706
254	0x3d09e4e4	0.033665553
255	0x3b563b58	0.003268918

graph_matcher.mlp.0.weight f4 [128, 256]
0	0xbcc0eff1	-0.023551913
1	0x3d4cc5a3	0.04999317
2	0x3ccc67dc	0.024951868
3	0x3d62e8fc	0.055397972
4	0xbc8db012	-0.01729587
5	0x3cea0a9c	0.028569512
6	0xbd0382ea	-0.03210727
7	0x3ab8469c	0.0014059129
8	0x3d2e9bc0	0.042629004
9	0x3ca74af0	0.020421475
10	0xbcfd8a48	-0.030949727
11	0x3d5ea160	0.054353118
12	0xbc9b1e10	-0.018935233
13	0xbd2d007b	-0.042236786
14	0x3d383f9c	0.044982538
15	0xbd92806a	-0.07153399
16	0x3d330caa	0.04371325
17	0xbd1aefc6	-0.037826322
18	0xbd0595a0	-0.032613397
19	0x3d10d09e	0.035355203
20	0xbb2f4f20	-0.0026750043
21	0x3c8e7061	0.01738757
22	0xbccd25e8	-0.02504249
23	0xbcfaa73f	-0.030597327
24	0xbcc37089	-0.023857372
25	0x3c902a80	0.01759839
26	0x3bb57f7a	0.005538878
27	0xbd99382d	-0.07481418
28	0xbd5b43e2	-0.053531535
29	0xbcad5508	-0.02115871
30	0xbd551b6a	-0.052028097
31	0xbd52255a	-0.051305152
32	0xbd7b5c4e	-0.061367325
33	0xbd144e34	-0.036207393
34	0xbd34f4c8	-0.044178754
35	0x3d621ea2	0.055204995
36	0x3d133105	0.03593542
37	0x3cd46d08	0.025930896
38	0x3d051136	0.032487117
39	0x3d4cc91c	0.04999648
40	0xbbe4ed37	-0.006986286
41	0xbd774dae	-0.060376815
42	0x3c0956ed	0.008382541
43	0xbc9f5bd6	-0.01945297
44	0x3d2fe6a2	0.042944558
45	0xbdc3786e	-0.095444545
46	0xbc692270	-0.014229402
47	0x3c845aac	0.016156517
48	0xbb8711e0	-0.004122004
49	0x3b9c3e4a	0.0047681676
50	0xbcb1b2ac	-0.021691643
51	0x3ccc71fe	0.0249567
52	0x3cbd99b0	0.023144573
53	0xbd675f46	-0.056487344
54	0x3c8d2cee	0.017233338
55	0xbd14c09f	-0.03631651
56	0x3d5406ea	0.051764406
57	0xbc80bd37	-0.015715225
58	0xbcca151e	-0.024668273
59	0xbc58f2ad	-0.013241452
60	0xbc8e261c	-0.017352156
61	0x3d732b78	0.059367627
62	0x3d6dea84	0.05808498
63	0x3d493caf	0.049130138
64	0xbd3a9a7c	-0.045557484
65	0xbd32fcc6	-0.043698095
66	0xba81b50c	-0.0009895875
67	0x3d53ac6e	0.051678114
68	0xbdccb228	-0.09994918
69	0xbcd06779	-0.025439965
70	0xbd84c643	-0.06483128
71	0x3d1e0316	0.03857716
72	0x3cb48efa	0.022040833
73	0xbc1f7d8b	-0.009734522
74	0xbd42fb7a	-0.047603108
75	0xbd3d74ca	-0.046253957
76	0xbcf89b15	-0.030347386
77	0x3d7daad8	0.061930507
78	0x3d25efc3	0.040511858
79	0x3bfaa02b	0.007648488
80	0xbcf6925d	-0.030099088
81	0x3c8d1540	0.017222047
82	0xbc773b78	-0.015089862
83	0xbbd3d32a	-0.0064643817
84	0x3d33c268	0.043886572
85	0xbd39766a	-0.045278944
86	0xbd2c7be8	-0.042110354
87	0x3c8c1284	0.017098673
88	0xbd0ed7b9	-0.034873698
89	0xbd3a6cb8	-0.04551384
90	0xbd1cde22	-0.03829778
91	0xbdb09aa6	-0.08623247
92	0xbd527334	-0.051379398
93	0x3d0adaea	0.03390018
94	0xbc16ad90	-0.009196654
95	0xbd3ce193	-0.04611356
96	0xb9eb7d10	-0.00044915872
97	0x3d4d7224	0.05015768
98	0xbdad9e84	-0.084775
99	0xbcee415c	-0.0290839
100	0xbc8a66c0	-0.016894698
101	0xbce1bd2a	-0.02755602
102	0x3d18ea04	0.03733255
103	0x3c0b6204	0.008507255
104	0xbd0690ee	-0.03285306
105	0xbd5f9317	-0.054583635
106	0x3c769a7c	0.01505148
107	0xbd86a36f	-0.06574141
108	0xb995a610	-0.0002854322
109	0xbc5e82f8	-0.01358103
110	0xbbde4d6d	-0.006784132
111	0x3d13bc48	0.03606823
112	0x3bf33ef0	0.007423274
113	0xbb3ba5f9	-0.0028632863
114	0x3d32d4d8	0.043660015
115	0x3d1af1ca	0.037828244
116	0xbd8d5e30	-0.069027305
117	0x3cce376c	0.025172912
118	0x3d43829b	0.047731977
119	0xbd863c8b	-0.065545164
120	0x3d7a544c	0.061115548
121	0xbc623da0	-0.013808638
122	0x3d0388fd	0.032113064
123	0x3cc26c00	0.023733139
124	0x3d03dfb5	0.032195766
125	0x3c73d665	0.014882659
126	0xbd4d2fe4	-0.0500945
127	0xbd131b68	-0.03591481
128	0xbd4ca622	-0.049963124
129	0x3c4087a4	0.011751089
130	0x3d4b56bf	0.049643274
131	0x3c1fc4cc	0.00975151
132	0x3d4be1c0	0.04977584
133	0x3d63e644	0.05563952
134	0xbd3bc216	-0.04583939
135	0xbd625918	-0.055260748
136	0x3d60ad32	0.054852672
137	0x3bced194	0.0063116048
138	0xbd689785	-0.056785125
139	0xbce67363	-0.028131193
140	0xbbb0bb00	-0.005393386
141	0x3ceebf2d	0.029143894
142	0x3d1b2f36	0.03788682
143	0x3ca0c0a1	0.019623103
144	0x3b91e750	0.0044526234
145	0xbd0fa638	-0.035070628
146	0x3d0e90c6	0.034806035
147	0x3d401396	0.04689368
148	0xbd7777a2	-0.060416825
149	0x3b6fb600	0.0036576986
150	0xbd374216	-0.04474076
151	0xbd224b6b	-0.039622705
152	0xbdbe0b43	-0.09279492
153	0xbd987daf	-0.07445847
154	0x3d3f24b8	0.046665877
155	0xbd8cf34a	-0.06882341
156	0xbd3a002e	-0.045410328
157	0xbd05b718	-0.032645315
158	0x3d6af8db	0.057366233
159	0xbd783ee0	-0.060606837
160	0x3c0d5310	0.008625761
161	0xbd0d79a7	-0.034539845
162	0xbcf07434	-0.029352285
163	0x3d671a92	0.056421824
164	0xbdd157fa	-0.10221858
165	0xbc92714c	-0.01787629
166	0xbd05eb0c	-0.03269486
167	0xbb178640	-0.002312079
168	0xbd38b220	-0.04509175
169	0x3c8befa8	0.01708205
170	0xbd335b31	-0.04378814
171	0xbc703634	-0.0146613605
172	0x39edd900	0.0004536584
173	0xbd490d23	-0.049084794
174	0x3d081b3e	0.033229105
175	0xbd1e89ce	-0.03870564
176	0xbc3ba5fc	-0.011453148
177	0xbd0ee7e8	-0.03488913
178	0xbdbd6387	-0.09247499
179	0x3d56ed8a	0.05247263
180	0xbd39c0a8	-0.045349747
181	0x3d0250ce	0.031815343
182	0xba478160	-0.0007610526
183	0xbd2a8338	-0.041629046
184	0x3db6ea64	0.08931425
185	0xbda841e9	-0.08215696
186	0x39eda460	0.00045326632
187	0x3d0d455a	0.034489967
188	0xbc876f70	-0.01653263
189	0xbd3de256	-0.04635843
190	0xbd883316	-0.06650369
191	0x3d32298a	0.043496646
192	0x3d02966c	0.031881735
193	0xbc6aec1e	-0.014338521
194	0xbdac11c1	-0.08401824
195	0xbcd0cfa8	-0.025489643
196	0x3b6190d0	0.003441859
197	0xbd88a467	-0.06671982
198	0xba27ab68	-0.0006396086
199	0x3d75c876	0.060005628
200	0xbd54697b	-0.051858407
201	0x3ba7c57d	0.005119978
202	0xbce8c1ec	-0.028412782
203	0xbd29f3cc	-0.04149227
204	0xbd14f38c	-0.036365077
205	0xbc97c015	-0.018524209
206	0x3c7af1e4	0.01531646
207	0xbcce536f	-0.025186269
208	0xbd778140	-0.060425997
209	0x3bcd2010	0.0062599257
210	0xbd8fa315	-0.07013527
211	0xbd30772e	-0.04308241
212	0xbd5f25e2	-0.054479487
213	0x3c5b1e50	0.013373926
214	0xbc8d0a17	-0.017216725
215	0xbd898da4	-0.06716469
216	0xbb002e48	-0.0019558836
217	0x3bfeeba3	0.007779555
218	0xbca80018	-0.020507857
219	0xbbdce730	-0.006741427
220	0x3c3fbbda	0.011702502
221	0xbd4d0cd6	-0.05006107
222	0x3cb81830	0.022472471
223	0x3d3f6284	0.04672481
224	0x3d31c550	0.043401062
225	0xbd003f67	-0.031310465
226	0xbd15f5cf	-0.036611374
227	0xbcbbcf3c	-0.022925965
228	0xbcef4ec4	-0.029212363
229	0xbcef2987	-0.029194606
230	0x3d1639f4	0.036676362
231	0x3c95fda8	0.01830943
232	0x3d22c3c0	0.039737463
233	0xbcdde1d0	-0.027085215
234	0xbccd4b77	-0.025060399
235	0xbd0a1975	-0.033715684
236	0xbc3022b2	-0.0107504595
237	0xbd6b6fb2	-0.057479568
238	0xbd089faa	-0.033355393
239	0xbca03f8f	-0.019561557
240	0x3d1bf3ac	0.03807418
241	0xbd27f1de	-0.041002147
242	0x3ca566cc	0.020190619
243	0x3d12a23e	0.035799257
244	0x3c2daaf2	0.010599839
245	0xbd49128b	-0.04908995
246	0xbd470dd4	-0.048597172
247	0x3c9f5b16	0.019452613
248	0xbd2ca06e	-0.042145185
249	0x3d64bf20	0.055846334
250	0xbcf6ebde	-0.030141767
251	0x3bdfb400	0.0068268776
252	0xbb9755d7	-0.004618387
253	0x3bfc22b6	0.0076945676
254	0xbd1d35e2	-0.038381465
255	0x3c92a6a2	0.017901722

graph_matcher.mlp.0.bias f4 [128]
0	0xbd8ab675	-0.06773082
1	0x3d23152d	0.039815117
2	0xbd413a3f	-0.04717469
3	0xbd850b53	-0.064963005
4	0xbd7591b2	-0.0599534
5	0x3dc5dbcb	0.09661063
6	0xbd47d6d4	-0.04878886
7	0xbd7d6e30	-0.06187266
8	0xbd23a1e1	-0.0399493
9	0xbc32c947	-0.010912246
10	0xbc2f34c0	-0.010693729
11	0xbd30e6d2	-0.043188877
12	0xbc0f423a	-0.008743817
13	0x3d6e2909	0.058144603
14	0x3dbcc6a4	0.09217575
15	0xbd79dcc8	-0.06100157
16	0xbcacc525	-0.0210901
17	0x3d26e4dd	0.040745605
18	0xbd2461d7	-0.04013237
19	0xbd82d0aa	-0.06387456
20	0xbce300d9	-0.027710365
21	0xbda4d875	-0.080490984
22	0xbda1d16e	-0.07901274
23	0x3d425006	0.047439598
24	0xbcf0b830	-0.029384702
25	0xbc4b7474	-0.012417901
26	0xbcdeb485	-0.027185688
27	0xbd84b2a4	-0.064793855
28	0x3a472bfe	0.0007597803
29	0xbd081773	-0.033225488
30	0xba55c120	-0.0008154083
31	0x3c4c73bd	0.012478766
32	0xbcbc5e5c	-0.022994213
33	0x3d01db64	0.031703368
34	0xbd85a987	-0.065264754
35	0xbd471c3a	-0.048610903
36	0xbc95d8ef	-0.018291919
37	0xbb655455	-0.0034992893
38	0x3d1bd481	0.038044456
39	0x3d055510	0.032551825
40	0xbc666058	-0.014061056
41	0xbd18ae29	-0.037275467
42	0xbd601404	-0.05470659
43	0x3ce533da	0.027978826
44	0xbd95ab4c	-0.07308063
45	0xbcbe6c85	-0.023245106
46	0x3cbf3262	0.023339454
47	0xbd4f95ea	-0.05068008
48	0x3dcb3d83	0.09923842
49	0xbd724ffe	-0.059158318
50	0xbd6526d4	-0.055945233
51	0xbd7a0b1a	-0.061045744
52	0xbd300df8	-0.04298207
53	0x3cd161c7	0.02555932
54	0xbd48bbe1	-0.0490073
55	0xbdaf8a1f	-0.085712664
56	0x3d1cd66a	0.03829042
57	0xbd90b371	-0.07065476
58	0x3d335828	0.043785244
59	0x3cd1aaa0	0.025594056
60	0xbcd71733	-0.02625618
61	0xbc91f545	-0.017817149
62	0xbb6bf9d8	-0.0036007073
63	0x3d155b74	0.03646417
64	0xbbaaa017	-0.0052070725
65	0xbdc2b9f1	-0.09508122
66	0xbddf5298	-0.109044254
67	0xbd35bc0b	-0.044368785
68	0xbce5c0a0	-0.028045952
69	0x3dd443ac	0.1036447
70	0xbc20aced	-0.009806854
71	0xbd38bad4	-0.04510005
72	0xbd407496	-0.046986185
73	0xbcca6ef5	-0.024711112
74	0x3c1f3905	0.009718184
75	0xbd44bf93	-0.048034262
76	0xbddd1484	-0.10794929
77	0xbb50b046	-0.0031843348
78	0xbd73405c	-0.05938755
79	0xbc328e87	-0.010898239
80	0xbdae9927	-0.08525305
81	0xbd4a0f51	-0.049331013
82	0xbd60ec1a	-0.054912664
83	0xbd63b3d2	-0.055591412
84	0xbcb518e4	-0.022106595
85	0xbdc4c8a7	-0.09608584
86	0xbd22c2f5	-0.039736707
87	0xbda2471a	-0.07923718
88	0xbd928e29	-0.07156021
89	0x3d28787e	0.041130535
90	0xbdb4515f	-0.08804583
91	0x3c5b70e4	0.013393614
92	0xbda82e44	-0.082119495
93	0xbdd55d31	-0.104181655
94	0xbda63344	-0.08115247
95	0xbc8a0eb0	-0.016852707
96	0xbd962b95	-0.07332531
97	0xbd51265e	-0.05106198
98	0xbcad8302	-0.021180633
99	0x3c84e215	0.016221086
100	0xbca8e02c	-0.020614706
101	0xbd411e4c	-0.047148034
102	0xbd5a4586	-0.05328896
103	0xbc78d592	-0.015187638
104	0xbd8cfe27	-0.06884413
105	0xbd037e4a	-0.03210286
106	0xbd6f426e	-0.05841296
107	0xbdad2b59	-0.084555335
108	0xbdc582e1	-0.09644104
109	0xbceaa6e4	-0.028644033
110	0x3d643f0b	0.055724185
111	0x3ce44a6f	0.027867524
112	0xbd44f3d4	-0.048084095
113	0xbc67c4b8	-0.0141460225
114	0xbcd52d7d	-0.026022667
115	0xbd14def0	-0.036345422
116	0xbd2dfd99	-0.042478178
117	0xbd6bc8bf	-0.057564493
118	0xbcf3d6f8	-0.029765591
119	0xbd9755e1	-0.07389427
120	0x3dc82b0a	0.09773834
121	0xbd9233d4	-0.07138792
122	0xbde6b866	-0.1126564
123	0x3d2ff985	0.04296257
124	0xbd0f792a	-0.03502766
125	0x3cd5a0f5	0.026077727
126	0xbd040c9c	-0.032238588
127	0xbb32bd63	-0.0027273528

graph_matcher.mlp.2.weight f4 [128, 128]
0	0x3cf6b918	0.030117556
1	0x3d932a65	0.071858205
2	0xbd7d15a2	-0.06178821
3	0xbd8f9339	-0.07010502
4	0x3d1ccf9a	0.03828392
5	0x3be2ecbf	0.006925195
6	0x3c0d2c48	0.0086165145
7	0xbd832935	-0.06404344
8	0x3c59eb48	0.013300724
9	0xbd6612d3	-0.056170296
10	0xbd9a732a	-0.07541497
11	0xbd3e6955	-0.04648717
12	0x3d273816	0.040824972
13	0xbd2b674a	-0.04184655
14	0x3d57960e	0.052633338
15	0x3c75fe38	0.015014224
16	0x3c38ab08	0.011271246
17	0xbd81dbbe	-0.063407406
18	0xbda1de8a	-0.07903774
19	0xbccb1fd0	-0.024795443
20	0x3c91cfd4	0.017799295
21	0xbd28d1d6	-0.04121574
22	0x3d2c2a62	0.042032607
23	0xbc9a23bc	-0.018815868
24	0x3d01e67a	0.03171394
25	0x3dad1cbd	0.08452747
26	0xbdb24e1e	-0.08706306
27	0xbc0fd0e0	-0.008777827
28	0xbc87665c	-0.016528301
29	0x3d36b126	0.044602536
30	0xbd8adc8e	-0.06780349
31	0xbc130339	-0.008972936
32	0x3c8b4eab	0.017005285
33	0xbce256ce	-0.027629282
34	0x3d6d3516	0.057911955
35	0xbd00a999	-0.03141174
36	0xbc8a9918	-0.016918704
37	0xbda5c579	-0.080943055
38	0xba992c16	-0.0011686112
39	0xbc737948	-0.014860459
40	0x3d1ece3a	0.03877089
41	0xbd5483e6	-0.0518836
42	0xbd1952e1	-0.037432555
43	0xbcca2522	-0.02467591
44	0xbd7ba9a2	-0.06144107
45	0x3d3ffbfe	0.046871178
46	0x3ce28f5c	0.02765625
47	0xbc606d38	-0.013697915
48	0xbd83f7e4	-0.06443766
49	0x3d66dcca	0.056362905
50	0xbd2b38b5	-0.041802127
51	0x3c60e780	0.013727069
52	0xbd5dd96a	-0.05416242
53	0xbd631641	-0.055441145
54	0xbdabee6b	-0.08395084
55	0xbd8c9d72	-0.06865968
56	0x3d1039b4	0.03521128
57	0xbce6447c	-0.028108828
58	0xbb981f02	-0.0046423683
59	0x3d89ffed	0.06738267
60	0x3ad77e00	0.0016440749
61	0xbd29ce6d	-0.04145663
62	0xbc70eab6	-0.014704397
63	0xbcad2296	-0.021134656
64	0xbd7f54c0	-0.062336683
65	0x3d0199c2	0.031640776
66	0x3d8c0f03	0.06838801
67	0x3d46132e	0.048358135
68	0x3ca9fee8	0.020751432
69	0xbdd88257	-0.10571735
70	0xbc8fe730	-0.017566293
71	0xbd0c94da	-0.034321643
72	0xbc9d7570	-0.019221038
73	0x3d3c8c1e	0.046032064
74	0xbded8216	-0.115970775
75	0xbd3b8cc5	-0.045788545
76	0x3dacfb63	0.08446386
77	0xbd1d73e7	-0.03844061
78	0xbba08960	-0.004899189
79	0xbd09e05a	-0.033661224
80	0xbda4c08b	-0.08044537
81	0x3d4a7aa2	0.049433358
82	0x3b793aa0	0.0038029328
83	0xbd19e890	-0.037575305
84	0xbd52834d	-0.05139475
85	0x3be27fe0	0.0069122165
86	0x3d6b8dae	0.057508163
87	0xbc88a3d4	-0.016679682
88	0xbd79f7f2	-0.061027475
89	0xbdd8a278	-0.105778635
90	0xbd25b997	-0.040460195
91	0xbcdb4af6	-0.026769143
92	0xbcf62cce	-0.030050661
93	0xbd2361c3	-0.039888155
94	0xbd4dab75	-0.050212342
95	0x3c2265b8	0.009911947
96	0xbcc71bb4	-0.024305202
97	0x3db4f39b	0.088355266
98	0xbdaf20fd	-0.08551214
99	0xbdae0fad	-0.08499084
100	0xbc906a70	-0.017628878
101	0x3d75ba22	0.059991963
102	0x3ca95d28	0.020674303
103	0xbdae3082	-0.08505346
104	0x3da98b0d	0.08278475
105	0xbb79f520	-0.003814049
106	0x3d27fb06	0.04101088
107	0x3d6bfe72	0.057615705
108	0xbd9da1c4	-0.0769687
109	0xbd9056f2	-0.070478335
110	0xbc1d6008	-0.009605415
111	0xbd24271d	-0.040076364
112	0x3d8979fd	0.067127205
113	0xbd6ece96	-0.058302484
114	0x3d8d5db7	0.0690264
115	0xbd74bebe	-0.05975222
116	0xbc9e8ba0	-0.019353688
117	0x3d9a597f	0.07536601
118	0xbd0099f1	-0.03139681
119	0x3d981d2f	0.07427441
120	0xbb9486d0	-0.0045326725
121	0x3d67f412	0.056629248
122	0xbd972cb9	-0.07381577
123	0x3cba0534	0.02270756
124	0x3d7c3a2e	0.061578922
125	0x3d5eebd4	0.054424122
126	0x3d72b0f2	0.05925078
127	0x3d8dd47d	0.069252945
128	0x3d94b0a9	0.07260258
129	0x3d894155	0.06701914
130	0x3d149842	0.036278017
131	0x3d46f1be	0.048570387
132	0x3d27d6fe	0.040976517
133	0x3d7087a6	0.058723114
134	0xbd42cabd	-0.047556628
135	0x3d5c96b6	0.053854667
136	0x3c43f788	0.0119608715
137	0xbd1872de	-0.03721892
138	0x3d8b3f97	0.06799238
139	0xbd06890d	-0.032845546
140	0x39dc6a00	0.00042040646
141	0xbd6db8fa	-0.058037736
142	0x3d466336	0.04843446
143	0xbd4cf235	-0.050035674
144	0x3daee187	0.0853911
145	0xbd293a36	-0.04131528
146	0x3bb9ed20	0.0056740195
147	0x3c883650	0.01662746
148	0xbd056591	-0.032567564
149	0x3d0ac656	0.033880554
150	0xbc3896f8	-0.0112664625
151	0xbc750e80	-0.01495707
152	0xbd9f5454	-0.07779756
153	0x3da970f7	0.082734995
154	0xbd21d6e9	-0.039511595
155	0x3d96daf3	0.0736598
156	0xbd6738cd	-0.056450654
157	0xbd8af3ea	-0.06784804
158	0xbcba48a0	-0.022739708
159	0xbd30d92a	-0.043175854
160	0xbd523399	-0.05131874
161	0xbd0fa7ac	-0.035072014
162	0xbd300bdc	-0.04298006
163	0x3b44b580	0.003001541
164	0xbd3046e1	-0.043036345
165	0xbd5394a2	-0.05165542
166	0xbc481388	-0.012211688
167	0xbd940230	-0.0722698
168	0xbc0783f8	-0.00827121
169	0x3d8b359b	0.06797334
170	0x3c444ad0	0.011980727
171	0xbd979b43	-0.07402661
172	0xbd0015cd	-0.03127079
173	0x3d7fdbc2	0.062465437
174	0x3d459842	0.048240907
175	0x3d88b6e9	0.06675512
176	0xbb0f9be0	-0.0021912977
177	0xbbb7c030	-0.0056076273
178	0xbd1a2431	-0.03763217
179	0x3c7a2920	0.015268594
180	0xbd49bf6f	-0.04925483
181	0xbd0a92c0	-0.033831358
182	0x3d81c033	0.06335487
183	0x3c38a600	0.011270046
184	0xbd9e11e4	-0.07718256
185	0x3d9550a3	0.07290771
186	0xbda971c2	-0.08273651
187	0xbda60ebd	-0.0810828
188	0xbdad9d8a	-0.08477314
189	0x3d9efe23	0.077633165
190	0xbcf6483a	-0.030063737
191	0x3daf8ea5	0.08572129
192	0x3cdf68f0	0.027271718
193	0xbc42d040	-0.011890471
194	0x3cc35688	0.023844972
195	0x3d47de3e	0.04879593
196	0xbd394c8e	-0.045239024
197	0xbcc6b63c	-0.024256818
198	0xbce37852	-0.027767334
199	0xbc799638	-0.015233569
200	0xbd894e09	-0.06704337
201	0x3db315e9	0.087444134
202	0xbd93b0ec	-0.072114795
203	0xbd778664	-0.0604309
204	0xbcfcddca	-0.030867476
205	0xbd02ea71	-0.031961862
206	0xbd7a1ed6	-0.061064564
207	0xbda3d7db	-0.080001555
208	0xbce42cf6	-0.02785347
209	0x3dacc679	0.08436293
210	0xbc679580	-0.014134765
211	0xbcc2dfc8	-0.023788348
212	0x3d233a7e	0.039850704
213	0xbd49dd43	-0.049283277
214	0xbd8d4ddc	-0.06899616
215	0xbda55b73	-0.08074083
216	0x3d358146	0.044312738
217	0x3d5d17ee	0.0539779
218	0x3d1be1ce	0.03805714
219	0x3db2d04d	0.087311365
220	0xbd9b9a24	-0.07597759
221	0xbd9298f5	-0.071580805
222	0x3cdb9e44	0.026808865
223	0xbd8b2e85	-0.06795982
224	0x3c856f8c	0.016288541
225	0x3d968ac9	0.0735069
226	0xbd897984	-0.067126304
227	0xbdb309a6	-0.08742075
228	0xbd4029e5	-0.046914954
229	0xbce5bc96	-0.028044026
230	0x3da4ee41	0.08053256
231	0xbd8d7e3e	-0.069088444
232	0xbdab894c	-0.08375797
233	0xbd9c3e56	-0.07629077
234	0x3dac12fd	0.08402059
235	0x3d95d0b7	0.073152
236	0xbcceb27c	-0.025231592
237	0x3da7ffa1	0.08203054
238	0xbd84995b	-0.06474563
239	0xb9ea4500	-0.00044683367
240	0x3d48b14a	0.0489972
241	0x3c135558	0.0089925155
242	0xbc9da13c	-0.019241922
243	0xbd5cff7b	-0.053954583
244	0x3cb088fc	0.021549694
245	0xbd60b9e3	-0.054864775
246	0xbdadb155	-0.08481089
247	0xbb0b1600	-0.002122283
248	0xbcc49fcc	-0.024001978
249	0x3d078c8a	0.033093013
250	0x3d8d9839	0.069138
251	0x3b9bd1b0	0.0047552213
252	0x3d881505	0.06644634
253	0x3daf5a83	0.085621856
254	0x3cc94f28	0.024573877
255	0x3cadd798	0.021220967

graph_matcher.mlp.2.bias f4 [128]
0	0xbd927df0	-0.07152927
1	0xbd20f6d6	-0.0392979
2	0xbd149e8a	-0.036284007
3	0xbd8276bc	-0.06370303
4	0x3c105592	0.008809464
5	0x3d482f17	0.048873033
6	0xbd54e87a	-0.05197952
7	0xbd93c245	-0.07214788
8	0xbd8f675c	-0.07002136
9	0xbd157ec6	-0.036497854
10	0xbcf1e9e1	-0.029530467
11	0x3c89de62	0.016829673
12	0xbd0e8cfa	-0.034802414
13	0xbda3f79a	-0.080062106
14	0x3d6a8c4f	0.057262715
15	0x3c76e05c	0.01506814
16	0xbd6ec4b9	-0.058293078
17	0xbd9efe90	-0.07763398
18	0x3d6a2b17	0.05717
19	0xbd0fbb82	-0.03509093
20	0xbd679261	-0.056536082
21	0x3d80e019	0.06292743
22	0xbd036696	-0.032080255
23	0xbdb19952	-0.08671822
24	0x3d458419	0.04822168
25	0xbc555979	-0.01302182
26	0x3de5e062	0.11224438
27	0xbd42e0d2	-0.047577687
28	0x3d8c8002	0.06860353
29	0xbd770207	-0.060304668
30	0xbd5ae5a0	-0.053441644
31	0x3d0d23e2	0.03445805
32	0xbd84ad22	-0.06478335
33	0xbcf54bd4	-0.029943384
34	0xbd57e3be	-0.052707426
35	0xbcff0fad	-0.031135404
36	0x3db7a603	0.08967211
37	0xbc8b7b41	-0.017026545
38	0x3c894d54	0.016760506
39	0xbce526e2	-0.027972642
40	0xbcd1ff50	-0.025634438
41	0xbcbe3389	-0.023217933
42	0x3b953419	0.0045533297
43	0xbd54fa79	-0.05199668
44	0xbd0bf4c0	-0.03416896
45	0xbd932224	-0.07184246
46	0x3c3206d0	0.010865882
47	0x3d75d86c	0.06002085
48	0x3d0171df	0.031602737
49	0x3d16011c	0.03662215
50	0xbd85359b	-0.06504365
51	0xbcd07e3e	-0.025450822
52	0x3d742c98	0.05961284
53	0xbdc2ebd4	-0.09517637
54	0x3cb3a003	0.021926885
55	0x3d851167	0.0649746
56	0x3ca2ea27	0.019887043
57	0x3e097d45	0.13426693
58	0xbcd33923	-0.02578408
59	0x3cda664b	0.026660105
60	0x3d1c216d	0.038117815
61	0xbd0ae9de	-0.03391444
62	0xbd8e5cb7	-0.06951278
63	0x3d8990ea	0.06717093
64	0xbce47a71	-0.027890416
65	0x3d0c0dc6	0.034192823
66	0x3d38f599	0.045156095
67	0x3c0b70ed	0.00851081
68	0x3d2f518c	0.04280238
69	0x3dab0367	0.08350258
70	0xbd1a7196	-0.03770598
71	0x3ceda9af	0.029011576
72	0xbd2821d5	-0.04104789
73	0xbd99cedb	-0.07510158
74	0x3d7dd180	0.061967373
75	0x3ce527ea	0.027973134
76	0xbcbf597e	-0.023358103
77	0xbb9d4751	-0.0047997613
78	0x3e06cc86	0.13163957
79	0x3da075af	0.07834946
80	0x3d9eeb37	0.077597074
81	0x3d7aad2e	0.061200313
82	0x3c9ac78e	0.018893983
83	0xbd2164c5	-0.039402742
84	0x3d675691	0.05647904
85	0xbcb3ae0c	-0.021933578
86	0xbdc43025	-0.09579495
87	0xbd43023f	-0.047609564
88	0xbd428125	-0.047486443
89	0x3ca9c077	0.020721657
90	0xbdc14a86	-0.09438042
91	0x3d8e4ea9	0.06948597
92	0xbd25296e	-0.040322714
93	0xbd470bd4	-0.048595265
94	0xbdb28996	-0.08717649
95	0xbbef5e37	-0.0073049325
96	0xbd978acd	-0.07399521
97	0x3db5e88f	0.08882248
98	0xbd2c937c	-0.04213284
99	0x3db3e2d8	0.087835014
100	0xbd1cd9a6	-0.038293503
101	0x3d85bd6d	0.06530271
102	0x3c8bc6ce	0.01706257
103	0x3dab1207	0.08353048
104	0x3c10e880	0.008844495
105	0x3d802297	0.062565975
106	0x3cfb6b75	0.030690888
107	0x3d8ce2d3	0.06879201
108	0xbdaae7c4	-0.08344987
109	0x3d82776e	0.06370436
110	0xbda16162	-0.078799024
111	0xbdac7033	-0.08419838
112	0xbc65ec60	-0.014033407
113	0xbda4f0e4	-0.08053759
114	0xbd732259	-0.05935893
115	0x3d3f4f1d	0.046706308
116	0x3d6096bd	0.054831255
117	0xbcb57182	-0.022148851
118	0x3d4d539e	0.05012857
119	0xbdf93c6e	-0.12169729
120	0xbd6863aa	-0.056735672
121	0x3d643725	0.055716652
122	0x3d1db2d4	0.038500622
123	0xbd7f3bec	-0.062313005
124	0x3dbdf728	0.09275657
125	0x3d167ed7	0.036742058
126	0x3dbb3ee7	0.09142857
127	0x3cf7e743	0.030261641

graph_matcher.mlp.4.weight f4 [64, 128]
0	0x3dd277b2	0.10276736
1	0x3d72c366	0.059268378
2	0x3cb5772d	0.022151554
3	0xbd4d9ef0	-0.050200403
4	0x3deede1f	0.1166346
5	0xbd68f24c	-0.056871697
6	0xb9a71c00	-0.00031873584
7	0x3c884f1b	0.016639283
8	0x3d2cb4a1	0.04216445
9	0x3dc3c2d9	0.095586486
10	0xba47552d	-0.000760394
11	0xbd27234f	-0.040805157
12	0x3c0c8f98	0.008579157
13	0xbdc64f7d	-0.0968313
14	0x3d77ca60	0.060495734
15	0xbc80059b	-0.015627673
16	0x3cafe143	0.021469718
17	0xbcb44947	-0.022007598
18	0x3e2d9eb8	0.16955078
19	0x3cd779e7	0.026303245
20	0x3cf11b45	0.029431948
21	0x3de5fc60	0.11229777
22	0x3ccbf710	0.024898082
23	0xbcc3fe44	-0.023924954
24	0x3d74a5bd	0.059728373
25	0x3dbc9b4e	0.092093095
26	0x3dad9d80	0.08477306
27	0x3c0677ae	0.008207245
28	0x3d5c8032	0.053833194
29	0x3d40240f	0.04690939
30	0xbd29055e	-0.041264884
31	0x3c1c6d24	0.0095475055
32	0xbd3b47af	-0.04572266
33	0x3cce2ed8	0.025168821
34	0x3d7d5906	0.061852477
35	0x3d984e50	0.07436812
36	0x3dbbe352	0.09174217
37	0x3dc50af0	0.09621227
38	0x3af659a0	0.0018795021
39	0xbd2a39d3	-0.04155905
40	0x3d29a4fa	0.0414171
41	0xbcdec1e1	-0.027192058
42	0x3e16c7ab	0.14724605
43	0xbca7824c	-0.020447873
44	0x3ca1b44c	0.019739293
45	0x3dd9a330	0.10626829
46	0x3c9b6ae0	0.01897186
47	0xbd39d936	-0.045373164
48	0x3d5479af	0.05187386
49	0x3d22284f	0.039589223
50	0x3cf2fc5c	0.02966135
51	0x3cab9a82	0.020947699
52	0x3cc02164	0.023453422
53	0xbd1f1138	-0.03883478
54	0x3d2bec8b	0.04197363
55	0x3d4e381e	0.050346486
56	0x3dd14b80	0.102194786
57	0xbd97d534	-0.07413712
58	0x3ce79a37	0.028271778
59	0x3d67752b	0.056508224
60	0xbc4902bc	-0.012268718
61	0xbd1d45b8	-0.038396567
62	0xbd836157	-0.064150505
63	0xbd248e7a	-0.04017494
64	0x3d2a7f8f	0.041625556
65	0x3d1873a0	0.037219644
66	0x3d8faae9	0.070150204
67	0xbcbb4be8	-0.022863343
68	0xbd820280	-0.06348133
69	0xbcf286da	-0.029605318
70	0xbd8012f9	-0.06253619
71	0xbd91548d	-0.07096205
72	0x3c0a6bfd	0.008448598
73	0x3b83277c	0.0040025096
74	0x3bc77f12	0.006088146
75	0x3d07496e	0.033029012
76	0x3dff180f	0.12455761
77	0xbd506ea3	-0.05088676
78	0xbe14006d	-0.14453287
79	0xbdff1784	-0.12455657
80	0x3d34c2a6	0.044130944
81	0x3e3262fa	0.17420569
82	0xbca5c89b	-0.020237258
83	0x3c0ce3d9	0.008599245
84	0xbc817792	-0.015804086
85	0xbd4d01ee	-0.05005067
86	0xbcc454ed	-0.023966277
87	0xbdb28d06	-0.08718304
88	0x3db1ca3a	0.0868115
89	0x3e26804a	0.16259876
90	0xbbb276e1	-0.0054463004
91	0xbd0b520b	-0.03401379
92	0x3d2f399e	0.042779557
93	0xbd7ca868	-0.061684042
94	0xbcb9e218	-0.022690818
95	0xbb1c9feb	-0.002389903
96	0x3d8ac0e9	0.06775076
97	0x3e75399a	0.23947755
98	0xbd81cc91	-0.06337846
99	0x3e035b38	0.12827766
100	0x3d552352	0.052035637
101	0xbd90b3f4	-0.07065573
102	0xbcce26cd	-0.025164986
103	0x3e582182	0.21106532
104	0x3d376103	0.044770252
105	0x3d8223ad	0.06354461
106	0xbbda0265	-0.0066531175
107	0x3db6a610	0.08918393
108	0x3de6bd5e	0.11266588
109	0xbcb9fa98	-0.0227025
110	0xbd0ea642	-0.034826525
111	0xbdc00eef	-0.09377848
112	0xbd8d5cb0	-0.06902444
113	0x3ba06c50	0.0048957244
114	0x3d455c49	0.048183713
115	0x3cf1fcd1	0.029539498
116	0x3d0fe706	0.03513243
117	0x3d305cd8	0.043057293
118	0xbd493df6	-0.049131356
119	0xbd4839a6	-0.048883103
120	0xbdcb851b	-0.09937497
121	0x399f46cc	0.0003037959
122	0x3dcb4807	0.099258475
123	0xbd448ed4	-0.047987774
124	0x3d5f821e	0.05456745
125	0xbb09b990	-0.0021015145
126	0x3c85c34e	0.01632848
127	0xbd29b904	-0.04143621
128	0xbd5e84fc	-0.054326043
129	0xbd036227	-0.032076027
130	0xbd651a2d	-0.055933166
131	0xbd4231d1	-0.04741079
132	0xbbe8b61f	-0.0071017887
133	0x3d9f5582	0.07779981
134	0xbc0bc5f1	-0.00853108
135	0x3d96a5fe	0.07355879
136	0xbc80c8c4	-0.015720733
137	0x3e01c51c	0.12672848
138	0x3dc02ccd	0.09383545
139	0x3bea8f34	0.0071581844
140	0x3e13760b	0.14400499
141	0x3ca53ab2	0.02016959
142	0x3d6b6233	0.057466697
143	0x3d545ded	0.051847387
144	0xbcc43213	-0.023949658
145	0xbe00f557	-0.1259359
146	0x3de9980a	0.11405952
147	0x3d8efd49	0.06981904
148	0x3dbe635b	0.09296294
149	0x3e034e93	0.12822942
150	0xbb97445b	-0.004616303
151	0x3d6fbae2	0.058527835
152	0x3e028bbc	0.12748617
153	0x3da51a33	0.08061638
154	0x3e367869	0.1781937
155	0x3d0ec605	0.034856815
156	0x3c2c43c3	0.0105142025
157	0x3e078fff	0.13238524
158	0xbdb24381	-0.087042816
159	0x3d9977a8	0.07493526
160	0xbc3291e9	-0.0108990455
161	0xbd87229e	-0.065983996
162	0x3b9a4210	0.0047075823
163	0x3dd50ee1	0.104032286
164	0x3d990f54	0.07473627
165	0xbaaf3bf5	-0.0013369309
166	0x3d80d546	0.06290679
167	0x3d128278	0.035768956
168	0xbcb105fc	-0.021609299
169	0x3d87832d	0.06616817
170	0x3d3b4b36	0.045726024
171	0xbd800be2	-0.062522665
172	0x3d0b7688	0.034048587
173	0x3dd9c3e0	0.10633063
174	0xbc012a9d	-0.007883695
175	0x3dabc674	0.08387461
176	0x3dacaf1f	0.08431839
177	0x3d94b14a	0.07260378
178	0x3d2b94b2	0.041889854
179	0x3db703a9	0.08936245
180	0x3dfd3870	0.1236428
181	0x3d458040	0.04821801
182	0x3e048324	0.12940651
183	0x3e2b3c33	0.16722183
184	0xbdb11df6	-0.08648293
185	0xbc0853d2	-0.008320766
186	0x3d8d56a1	0.06901289
187	0x3e45ee77	0.19329248
188	0xbdb2f523	-0.08738162
189	0xbd2a8824	-0.04163374
190	0xbd5b489f	-0.053536054
191	0x3cafc292	0.021455083
192	0xbdb79f64	-0.08965948
193	0x3e270c7e	0.16313359
194	0x3e49b0ce	0.19696352
195	0x3c6bdd84	0.014396075
196	0x3d437717	0.047720995
197	0x3df6a24e	0.12042676
198	0xbb5404c0	-0.0032351464
199	0x3d26244f	0.04056197
200	0xbcc99834	-0.024608709
201	0x3d91183c	0.070847005
202	0x3d1ecc89	0.03876928
203	0x3d3045d6	0.04303535
204	0x3c510958	0.012758575
205	0x3dd4532c	0.10367426
206	0xbd840012	-0.06445326
207	0x3cf99d76	0.030470591
208	0x3e27f127	0.16400586
209	0x3e07d7bd	0.13265891
210	0x3d2497f3	0.040183973
211	0xbdba7357	-0.091040306
212	0x3e5023a8	0.20326102
213	0x3d82ebfd	0.063926674
214	0xbd9d9978	-0.076952875
215	0x3da558c1	0.08073569
216	0x3db297a8	0.087203324
217	0x3e0b6954	0.13614398
218	0x3c2d4f60	0.0105780065
219	0x3dfa944b	0.12235316
220	0xbd2e4ac7	-0.042551782
221	0xbd84453c	-0.06458518
222	0xbd8e2f0d	-0.06942568
223	0x3cadfabb	0.021237722
224	0xbda7fb57	-0.08202236
225	0x3e5bbdd8	0.21459138
226	0xbd8132df	-0.06308531
227	0x3dfe26be	0.12409733
228	0x3bbaf92e	0.005705974
229	0x3d4fc356	0.050723396
230	0xbbb43bf4	-0.005500311
231	0x3e102ba8	0.14079154
232	0x3d222235	0.039583404
233	0x3df52272	0.119694605
234	0x3d811497	0.06302755
235	0x3e0bc2fa	0.13648596
236	0xbda04925	-0.07826451
237	0x3e316729	0.17324509
238	0x3c0f18ab	0.008733909
239	0xbde0a8af	-0.10969674
240	0x3db744bc	0.08948657
241	0x3d284b36	0.04108735
242	0x3c08d8fd	0.008352515
243	0x3d3ff038	0.04685995
244	0x3e3649f8	0.17801654
245	0xbd156c31	-0.036480132
246	0x3c2e3102	0.010631802
247	0xbd3d7e65	-0.046263117
248	0xbdab895f	-0.08375811
249	0x3e0694af	0.13142656
250	0x3e1f1c45	0.15538128
251	0xbcfb8f8f	-0.030708103
252	0xbc5e1b06	-0.013556248
253	0x3de30ea4	0.11086777
254	0x3e1d805d	0.15380998
255	0xbd32809b	-0.04357968

graph_matcher.mlp.4.bias f4 [64]
0	0x3dc9574b	0.09831103
1	0x3cc00d3a	0.023443807
2	0xbca1036c	-0.019654952
3	0xbc2637c1	-0.010145129
4	0x3cdaceac	0.026709877
5	0xbd8ebc94	-0.06969562
6	0x3da46897	0.080277614
7	0x3d4691fa	0.048479058
8	0x3bdf599a	0.0068161013
9	0xbc0a8e0a	-0.008456716
10	0x3d895888	0.06706339
11	0xbaaf88d6	-0.0013392221
12	0xbb6b8658	-0.003593823
13	0xbd4ed74f	-0.050498303
14	0x3c197566	0.009366369
15	0x3d8208ca	0.06349333
16	0x3d8d1dab	0.06890424
17	0xbd128cfe	-0.035778992
18	0x3c4e491f	0.012590676
19	0x3c2b9e05	0.0104746865
20	0xbd884a73	-0.06654825
21	0xbd64e890	-0.05588585
22	0x3da945b9	0.08265252
23	0x3da3f1eb	0.080051266
24	0x3bb1456d	0.0054098875
25	0x3db51642	0.08842136
26	0x3d7afeae	0.061278038
27	0x3da16555	0.07880656
28	0xbd8821bb	-0.066470586
29	0x3d191360	0.037371993
30	0xbd563d56	-0.05230459
31	0xbd8c8b6a	-0.068625286
32	0x3cc7d5f3	0.024394011
33	0x399e8300	0.0003023371
34	0xbbb78afa	-0.005601284
35	0xbce3cbe6	-0.027807187
36	0xbc8d4064	-0.017242618
37	0xbd410031	-0.047119323
38	0x3d9623c8	0.073310435
39	0xbbb7d3f6	-0.0056099845
40	0x3d85a999	0.06526489
41	0x3da304c4	0.07959893
42	0x3cac196f	0.021008221
43	0x3af8859e	0.001896072
44	0x3ded9f4e	0.116026506
45	0x3d050eac	0.032484695
46	0xbd8b783b	-0.068100415
47	0xbb2c089e	-0.0026250253
48	0x3e0d1ae1	0.13779785
49	0x3d162aba	0.03666184
50	0xbd136bfd	-0.035991658
51	0x3dd7b09e	0.10531734
52	0x3bfcb583	0.0077120676
53	0x3c6c7606	0.014432436
54	0x3ca4ddae	0.020125236
55	0x3c275ca9	0.010214963
56	0xbd9bafc7	-0.07601886
57	0xbc5f19f8	-0.013617031
58	0x3d94e7d9	0.07270784
59	0xbbb9594f	-0.0056563984
60	0xbd028bb9	-0.03187153
61	0x3d3a683a	0.045509554
62	0x3db80ff1	0.089874156
63	0xbc13be68	-0.009017564
