Result/GCN/1000_sample/model_epoch_50_f1_0.8806.pth (torch, 841514 bytes, 42 tensors)

graph_matcher.gnn.conv1.bias f4 [64]
00000000: f58a f7bc 12fb 92bc fb50 2b3d e36c f7bc
00000010: 2819 cc3d e16b 9b3c 349c 4a3d edf6 95bd
00000020: 7b7f 1fbd 2f92 a13c eee8 033b a244 63bd
00000030: fa0d f9bc a293 18bd 39a5 4cbe 9774 c3bb
00000040: 1239 0bbd 0000 0000 118d 39bd 2c44 d43c
00000050: 8ac6 a83c 0000 0000 0000 0000 0000 0000
00000060: 047b b2bd 7404 94bc 5b26 b73d 3f39 243d
00000070: b623 5c3d c7e1 0e3e 06c3 803d b093 c0bd
00000080: b9f8 75bd c18b 5a3c ba58 5fbd a64c 403c
00000090: 031d f13c f12d 8dbd 2666 c8bc 996d a33d
000000a0: 0000 0000 f29b bdbc 9af5 07be 0000 0000
000000b0: d61e 17bd 8cee 68bd 23a8 e3bd c9b3 81ba
000000c0: ce3e d2bc fdfb d5bd 025c 79bd e0a7 67bd
000000d0: b78e 9d39 0ac8 b13d 0000 0000 8d9a bc3d
000000e0: 6907 ed3d 25b3 f13b 157f 943b ae82 b6ba
000000f0: 078a aabd 1a49 d83b 3831 843d f573 f2bc
-0.030217627 -0.017941985 0.041825276 -0.030203288 0.09965736 0.01897234 0.049465373 -0.07322488
-0.038939934 0.019723026 0.002012785 -0.055485375 -0.030402172 -0.03725017 -0.19984902 -0.0059648263
-0.033989973 0.0 -0.045300547 0.025911413 0.020602483 0.0 0.0 0.0
-0.087148696 -0.01806853 0.089428626 0.040093657 0.053744994 0.13953315 0.06287198 -0.09403169
-0.060051654 0.013338984 -0.054527976 0.011737024 0.02943278 -0.06893528 -0.02446277 0.079798885
0.0 -0.02314565 -0.13277283 0.0 -0.03689464 -0.05686812 -0.11116054 -0.0009895499
-0.025664713 -0.104484536 -0.06087876 -0.056556582 0.00030051704 0.086807325 0.0 0.09209166
0.11573679 0.007376092 0.004531751 -0.0013924444 -0.08327108 0.0066005113 0.064547 -0.029596308

graph_matcher.gnn.conv1.lin.weight f4 [64, 4]
00000000: a301 293f 70f2 8a3e e11c 0f3f e1a1 e0bd
00000010: b1e9 83be a049 f03d 3c33 6bbe e18b 3b3e
00000020: 8e09 a83e 06f2 a03e 92a2 02bf 1134 d8be
00000030: de4e 3dbe e037 76be f07b 29be 5704 093e
00000040: b0cf 4f3f aa21 0bbe ddb0 3a3f aa60 14be
00000050: e284 afbe 6335 57be 3ee9 9fbe a648 153e
00000060: 6e4c b1be 4ed6 783d 52ab 8fbe ca3e f83d
00000070: 1461 a0be 1a19 373e f207 f7bd af5c 0b3e
00000080: 1ff5 40be 53d0 743e 55e9 9ebe 6da7 233e
00000090: 05da c7bd a246 8d3e 450e c4be 0f3b 8c3d
000000a0: 7d87 a9be 6178 c3be 5520 8fbe 7fce 593e
000000b0: 06ac 31be b6c5 71be 99c6 63be e70d 393e
000000c0: bb07 82bd effe 93be 6c6c 35be e45e 1f3d
000000d0: d49f 0c3f f2c5 373b 190c 823e 1350 33be
000000e0: 6ddb 073d 9485 90be 7bbd b33c a22c 7b3d
000000f0: 0e58 133f fe7e e03c a9de 593f b84d 9fbc
00000100: 3e67 45be 30dc 12be 65ff 7dbe 4513 033e
00000110: 4cad 8fbe 722d 58be c153 97be 3740 31be
00000120: 4944 d8bd 2448 7c3d b880 4fbe ca62 cf3d
00000130: 6be9 d0be 5a1a 9b3d db86 c3be 6c19 563e
00000140: b99b 41be 9458 6fbe 4b0a 28be 95a8 dc3c
00000150: 06b1 92be 56bc 95bd 423a 84bd ac8b a2bd
00000160: e736 92be 9944 0ebe c404 dfbd d509 5fbe
00000170: fc01 99bd 8951 05be 7268 04be 59eb 59be
00000180: 2258 6abe 97f3 983e c300 15be f6a0 1f3e
00000190: 73ab ee3e c1b8 b43c 1b79 a73e 677b 5abd
000001a0: 5aec 853e 1e20 7a3d 0cf2 643f 8610 b1be
000001b0: fc6c 2d3f 5e9f 8dbc 5313 603f 6b5e a2be
000001c0: b754 e03e 1bf6 de3b c15b 8a3f 253b b7be
000001d0: 6221 f83e 3d65 40be e09d 8b3f 4a95 f2bd
000001e0: fab4 803e b4b7 a93e 35dc 29bf 31c0 debe
000001f0: 53bd 9e3e 34d3 a4be e8dc 16be f3bf b73d
00000200: cd82 8cbe d65b f8bd 2cdf 75be 0d6d 3cbd
00000210: 13dd 2b3f bc55 2fbd 8eb8 8d3f eedf 40bd
00000220: ec80 77bd 0d28 efbd efa0 18be 1bf3 f63b
00000230: 2619 023f 946a cfbe e581 1fbf 1719 94bc
00000240: 65f1 f6be ff74 c53e f87a d33e 3fd5 ffbe
00000250: 261e f7bd e5ec a2bb 0af5 c3bd cd88 2abd
00000260: e6d2 2fbe 4adb 90bd fe7f e9ba e7a7 50be
00000270: ba0a 243f db4c b4bd 9367 793f 0c71 e9bd
00000280: 24fa 7ebd dc9b 1fbe 748a 6abe c0f2 62be
00000290: b994 903e b91e c13e 40ec cfbe f1cf abbe
000002a0: 90e3 bd3e d55c d8bd 39a2 b1bd 2f5b d23d
000002b0: 6e5d 86be 90ac 81be 6254 57be cc0d 4dbe
000002c0: 2b7c 93be 684d 8ebe 70a1 66be d1ad 4c3e
000002d0: e668 2bbe f6f5 1fbe d26e 96be c555 833d
000002e0: ee97 96be f5f8 8a3e cd9f 43be 9673 6dbe
000002f0: 7b1b 443f f1cf 833d c7b3 9d3e 711e 98bd
00000300: 7476 793c 4820 34be fcf1 cbbd 1cff 10be
00000310: ac77 d63e 6b5b d8be 291c 153f c2b5 cd3c
00000320: 697b 333f 2e81 4a3e 2afc 753f 59a8 10bc
00000330: 5994 efbd 6596 7fbe 380e 96be 36ea 073e
00000340: e2db 023e 54d0 c63e 4d83 ccbe 4c48 3ebe
00000350: 6ca1 ed3e 1d45 c03d 2007 823f 1d18 fbbd
00000360: c0d4 7bbd 0cc2 84be 88b2 8bbd 8381 19be
00000370: bd52 b83e f5c5 643d 27e0 4f3f b4ab a4be
00000380: 7086 a43e 23e4 53be d855 8e3f 4271 80bd
00000390: 40e5 e4bd 6a1e 4dbf 5284 963f 55d6 3ebd
000003a0: 9db5 803e a7ff f4be d7e9 673f e4e0 43bd
000003b0: 0139 fb3e db78 0f3e 5d66 b93e d892 afbe
000003c0: 8c55 17be 7695 6d3e 376e 5abe 2957 6e3e
000003d0: 99bf 80be 6f39 aebe 28fb b8be 50a2 3b3e
000003e0: 3926 113f dbae e33d 2ad3 653f 071e bcbe
000003f0: ea52 f23e e32c b2bd c925 493f 37cd cfbc
0.6601812 0.2713809 0.5590344 -0.10968376 -0.2576423 0.11732793 -0.22968763 0.18315078
0.3281979 0.3143465 -0.5102931 -0.42227224 -0.18487117 -0.24044752 -0.16551185 0.13380562
0.8117628 -0.1358706 0.7292612 -0.1449 -0.3428107 -0.21016459 -0.31232637 0.14578494
-0.34628624 0.060751252 -0.28060395 0.12121351 -0.31324065 0.17880669 -0.12062062 0.13609575
-0.18843506 0.23907594 -0.31037393 0.15981837 -0.09758381 0.2759295 -0.38292137 0.06847202
-0.33111182 -0.3817778 -0.27954355 0.21270178 -0.17350778 -0.23610577 -0.22243728 0.1807171
-0.06349131 -0.28905436 -0.17717141 0.038908854 0.5493138 0.0028041569 0.25399855 -0.17511015
0.033168245 -0.28226912 0.021940937 0.061321862 0.57556236 0.027404305 0.8510538 -0.019446239
-0.19277665 -0.14341807 -0.24804457 0.1280032 -0.28061903 -0.21111086 -0.29556087 -0.17309652
-0.10559899 0.061592236 -0.20263946 0.101262644 -0.40803084 0.075733855 -0.38188824 0.20908135
-0.1890706 -0.23373634 -0.16410176 0.026935855 -0.28650683 -0.07311313 -0.06456424 -0.079367965
-0.28557512 -0.13893355 -0.10889581 -0.21781094 -0.074710816 -0.13019384 -0.12930468 -0.21281184
-0.22885182 0.29873344 -0.14551072 0.15588745 0.4661518 0.022060754 0.32709584 -0.053340342
0.26156884 0.061065786 0.89431834 -0.3458292 0.6774442 -0.017287906 0.87529486 -0.3171266
0.43814632 0.0068042404 1.0809251 -0.3578731 0.4846297 -0.1878862 1.0907555 -0.11844881
0.25138074 0.33147967 -0.66351634 -0.43506005 0.31003818 -0.32192385 -0.14732707 0.08972158
-0.27443543 -0.12126891 -0.24010915 -0.046002436 0.6713421 -0.042806372 1.1071947 -0.047088556
-0.060425684 -0.11677561 -0.14905141 0.0075363046 0.50819623 -0.40511 -0.6230758 -0.01807837
-0.48231044 0.38565823 0.41304755 -0.4996738 -0.12066297 -0.0049720877 -0.09568222 -0.04163437
-0.17170295 -0.07073076 -0.0017814634 -0.2037655 0.6407887 -0.088037215 0.97423667 -0.11398515
-0.06225027 -0.155868 -0.22904378 -0.22162914 0.28238466 0.37718752 -0.40609932 -0.33557084
0.3708768 -0.10564581 -0.0867352 0.10271298 -0.26243156 -0.25326967 -0.21028283 -0.20024794
-0.2880567 -0.2779343 -0.22522521 0.1998818 -0.16739234 -0.1562117 -0.29381424 0.064128436
-0.29412788 0.27143064 -0.19103928 -0.23188624 0.7660443 0.06436146 0.30801222 -0.07427681
0.015225995 -0.1759044 -0.09958264 -0.14159817 0.41888177 -0.42257246 0.58246094 0.025111083
0.70110184 0.1977584 0.96087897 -0.0088292 -0.11698217 -0.24959715 -0.29307723 0.13272938
0.12779191 0.38830817 -0.39943925 -0.18582267 0.46412218 0.09388182 1.0158424 -0.122604586
-0.06148219 -0.25929296 -0.068211615 -0.14990811 0.36000624 0.05585285 0.81201404 -0.3216225
0.32133818 -0.20692496 1.1119947 -0.06271602 -0.111765385 -0.80124533 1.1759131 -0.04659112
0.2513856 -0.47851297 0.90591186 -0.047821894 0.49066928 0.14010946 0.3621091 -0.3429172
-0.14778727 0.23201546 -0.21331106 0.23275436 -0.25146177 -0.34028193 -0.36129117 0.18323636
0.5669895 0.111173354 0.89775336 -0.3674166 0.47328883 -0.08699968 0.7857328 -0.025366409

graph_matcher.gnn.conv2.bias f4 [128]
00000000: cd11 173d 27d7 50bd 71e4 11bd 5bce 6cbd
00000010: 51ba 4dbd 0251 63bd b792 41bb f52f 3bbd
00000020: e1dc 78bd a4a8 b7bd ff72 65be 6d1a 2cbe
00000030: af71 7dbd 3927 24bd 203f 8dbd b427 5fbd
00000040: f3ba d2bd 9807 7fbd fe69 a1bd 3e63 0bbd
00000050: c6ce 42bd a94b 1bbd a427 e4bc 8a0b 1e3d
00000060: 960b 6bbd 6c91 98bd cd98 163d 4c05 00be
00000070: f472 7bbc c452 b43c ce73 1a3d 0d4f 67bc
00000080: c9e6 2bbd 9d15 d1bd 05fb 5abd a957 21bc
00000090: c9d3 b0bd 4f77 12bb 75a8 71bd 3309 94bd
000000a0: c806 37bd 61ec 263d d372 76bd 02a7 ba3c
000000b0: d2a8 0fbd 475e 28bd 3407 a8bd 988d d2bc
000000c0: fb2d c4bc 7a12 7cbd aa64 fabd f8dc acbd
000000d0: 632b bf3c 8872 6abd 7254 203d 709d 10bd
000000e0: 194a 81bd f7b2 023d 536b 533d 2e1f b3bd
000000f0: 3b49 79bc bd69 a9bd 45c4 24bd 2d2a 46bd
00000100: fc91 be3c ace9 19bd be3d 94bd b2a3 20bc
00000110: 981f a4bd b152 afbd 313d 513c 6492 8bbd
00000120: 5387 163d c979 b2bc a0ac 3d3d 33c2 fd3a
00000130: 11ea 45bb d37f 62bd d158 71bd 46e1 93bd
00000140: 8681 60bd e5de d73c ecad abbd fdcb 25bd
00000150: 82ad 4bbd 9576 13bd 7538 93bd 2a3f 703c
00000160: 4e77 453b d2c4 c23b 3902 fdbd f2ed c9bd
00000170: efbf 32bd 2d36 f7bd 602b 85bd a29f cfbc
00000180: 8fe6 c4bd 2e37 eabc 2e89 5a3c 97b2 84bd
00000190: 5630 13bd 9b8d 4fbd 9961 563d 7ae2 23bd
000001a0: c99d 8b3d 7962 f4bb b5e1 86bc 3974 79bd
000001b0: 221d 8cbd c6c3 c3bc 2753 06bd 5f81 1dbd
000001c0: 8093 42bd cb62 e93c e403 5ebd 724a 87bc
000001d0: 7bfc 43bd 1570 22bd 43f7 99bd a7c8 6bbd
000001e0: 1f41 25bd 72ec 76bd 58ff f2bd 0101 51bd
000001f0: d3fc 4dbd 08f0 2cbd f1b8 4fbd 94c2 d537
0.03688221 -0.050986435 -0.03561825 -0.057813983 -0.050226513 -0.055497177 -0.0029536912 -0.045700032
-0.06075752 -0.089677125 -0.22407149 -0.16806956 -0.061875995 -0.04007647 -0.06896806 -0.054481223
-0.10289564 -0.0622631 -0.078815445 -0.03403019 -0.047560476 -0.037913952 -0.027850933 0.038585223
-0.057384096 -0.07449612 0.036766816 -0.1250202 -0.015347231 0.022012122 0.037708096 -0.014117968
-0.04196814 -0.102092005 -0.053462047 -0.00984756 -0.08634145 -0.0022348945 -0.058998544 -0.07228317
-0.0446842 0.040752772 -0.0601681 0.022784714 -0.03507311 -0.041105535 -0.08204499 -0.025702283
-0.023947706 -0.061541058 -0.122262314 -0.08440584 0.023336118 -0.05723813 0.039143033 -0.035306394
-0.06312961 0.031908955 0.051616024 -0.087461814 -0.015215213 -0.08272121 -0.04022624 -0.048380066
0.02326297 -0.037576362 -0.07238339 -0.009804653 -0.080138385 -0.08560694 0.012770937 -0.06815031
0.03675015 -0.021786587 0.046307206 0.0019360244 -0.003019933 -0.055297684 -0.058922593 -0.07220702
-0.054811023 0.026351402 -0.08382782 -0.04047774 -0.049726017 -0.03600176 -0.07188503 0.014663497
0.0030130926 0.005943873 -0.123539396 -0.098598376 -0.043640073 -0.1207088 -0.06502414 -0.025344674
-0.09614288 -0.028590765 0.01333837 -0.06479376 -0.03593477 -0.050672155 0.05233917 -0.040010907
0.068172045 -0.007458028 -0.016465047 -0.060901854 -0.06841494 -0.023897063 -0.032794144 -0.038453456
-0.04750395 0.028489491 -0.05420293 -0.01651499 -0.047848206 -0.03965767 -0.075178646 -0.057564404
-0.040345307 -0.060284086 -0.11865109 -0.051026348 -0.05028994 -0.0422211 -0.050713483 2.5482186e-05

graph_matcher.gnn.conv2.lin.weight f4 [128, 64]
00000000: 4a2e 503e 2495 3a3c 7dd7 bd3e 6fc1 4cbe
00000010: ff63 793e 15b3 d5bd 4739 9e3d 0210 81bd
00000020: 2f34 0ebd 1255 abbd 331b 7ebe f326 afbd
00000030: 89c7 d23d 9ad7 463e 6ab6 3abd 1d21 943e
00000040: 0f6f 973c 74e3 7bbd 1af0 15be 4afd 02be
00000050: 6a66 5cbe 2d38 2b3e c833 fb3c af42 223e
00000060: 0b16 30bc 4edc d43e 07ec e93e fe68 143f
00000070: a41e df3e 6d02 c53e dce7 f73e 7e23 a43d
00000080: e06f ec3c 84b8 913e 34a7 1e3d 2ecf 763e
00000090: 4ade 04be 10c4 643d f0a6 263e c405 d53e
000000a0: a02f a13b cf4f 393e 3b7f a23d 00c5 9c3c
000000b0: 63ad c9bd e82a eb3c 9655 703e 300b cb3e
000000c0: 1c1c 46be 11f0 9cbd 270a 1b3d 3b4d 3dbe
000000d0: 8071 803c 0de1 c13e 41a4 323e 549b 483f
000000e0: d279 403f f26f 1e3f 9e97 043f 2a5b 043f
000000f0: 7db5 41be 4ec5 03be e90d b63e e2d9 d63e
00000100: 3ead 84be 82e9 d6bd d26d c83b d7a5 8a3d
00000110: 55d9 20be b1bd 92bd 0520 bd3d 1a94 17be
00000120: f49c d2bd 9e9b 4e3d 627c 01be cd82 74bd
00000130: 2aa6 283c d352 02be 612f 0d3e fc4d 9dbd
00000140: 8b8a 713d 3685 0cbe 829c 563d 38b0 a93d
00000150: 4cdd 74bd e57a 243e d865 e6bc 4584 e2bd
00000160: eb83 ec3b 01df 8ebd 8d17 21bd 05b4 7ebe
00000170: 6f40 4ebe ab51 9abe 196c 57be 3430 0a3e
00000180: 95fe 233d c3e9 d6bc df81 ff3c 52b7 ac3c
00000190: 4c91 ccbd a93d 943b aa02 e0bd 541e 46be
000001a0: 2889 9f3c 36f5 5cbe d9c7 f53c de61 a33d
000001b0: 18b7 753d 888e 1bbc 95e8 81be bb86 8f3c
000001c0: 788e d3bd 2ed2 34be 8a36 09be 705b 193c
000001d0: 001b 98be 0538 f03b 20a6 bcbc f096 a1bc
000001e0: b880 2fbe 3a68 bebd 031b 5f3b ab6c 05be
000001f0: cf2b d5bc 8bb8 a53d 52b7 b2be aeb4 9ebd
00000200: 8c8a e33c 6f6f 9a3c 31e6 09be 6d83 1fbe
00000210: aac4 0dbe 818d ec3d 94bb d13c 46ed e2bd
00000220: 5839 b1bd 789d 46be 38a4 1bbe f1fa afbc
00000230: b61f ecbd c210 c2bd 3ef7 d3bd 9741 48be
00000240: 0e19 ddbd c54f 293e 8092 3abe f507 97bc
00000250: c088 1bbe 977d e9bd ec5b 02be e093 ca3b
00000260: 0ce9 debb 8d64 77be cd41 cebd 1938 01be
00000270: 145b 7fbe 3f9a 97bd 2a22 9a3d 4c07 0c3d
00000280: 5b04 493e a8cc 76be cae8 0ebe c5fa 5d3d
00000290: 9545 253d 77bd 80bd 30b9 803d 2094 a1bd
000002a0: b053 95bc e61a be3d 0f60 2e3b a7ac 2fbe
000002b0: 7bc4 123e 1b12 e5bd 03c9 29bd 4ca2 4e3b
000002c0: 4937 30be f649 b9bd 70f6 1dbd 0bd8 8cbd
000002d0: c447 2fbe 0e16 823b f0db 9abc 1c9b 4dbe
000002e0: e76c 3abd 94df 89be 09d9 0a3e 57cf 973d
000002f0: 89b2 3f3d c74c 05bd e348 08be cafe cf3c
00000300: bdca 6b3d 2058 fe3d 32cb 0bbe b2aa 623c
00000310: c4b5 9abd 57d8 0c3e 846a b2bd 498a 43be
00000320: de02 89bb 2491 6eba 7e35 393d 392a b63d
00000330: b745 2dbe da63 00be 55b0 aebd 2c44 52be
00000340: d11b 57be caa0 b83d 387e 1fbe cdda 2cbe
00000350: 4b1c 27be a8e1 af3c 4617 843d 58e6 30be
00000360: 409f 363d e155 6fbc b111 473c ed4e 5dbe
00000370: 92c0 8cbe a0db c6be 0b18 493e 8a05 0c3d
00000380: 70ec d8bc b34f a0be 0796 c9bd f4bd 03bd
00000390: 76f6 63be 6e21 15be 6b1f 36be 8bec 57be
000003a0: ec28 783d 825d 45be 8e20 d93d f84a f7bc
000003b0: f532 283d 8859 973d 840f 8dbe d539 07be
000003c0: 8bf3 64be f3b7 0ebe d4fc bd3c 5580 633d
000003d0: ffb5 c7be c929 00be 42c7 bb3d 06ca d0bc
000003e0: e56d 47be 9911 bebc 85e8 7ebe 8926 f23a
000003f0: 54c6 473d 4ba7 e4bd 82da ccbd c37e 463c
0.20330158 0.011388097 0.37078467 -0.19995664 0.24354552 -0.10434548 0.077257685 -0.063018814
-0.034717735 -0.08365835 -0.24815063 -0.08552351 0.102919646 0.19418183 -0.04558412 0.28931513
0.018485574 -0.061496213 -0.14642373 -0.12791935 -0.21523443 0.16720648 0.03066434 0.1584575
-0.010747443 0.4157433 0.45687887 0.57972705 0.43578064 0.38478413 0.48419082 0.08014582
0.02886194 0.28461087 0.038733676 0.2410247 -0.12975422 0.055851042 0.16274619 0.4160596
0.0049190074 0.18096851 0.079344235 0.019136906 -0.09847524 0.028706983 0.23470148 0.39656973
-0.1934666 -0.076629765 0.03785148 -0.18486492 0.015679121 0.37867013 0.1744547 0.7836201
0.75185883 0.61889565 0.5179385 0.51701605 -0.18916889 -0.12868235 0.35557488 0.41963106
-0.25913423 -0.10493757 0.006116607 0.06769913 -0.15707906 -0.07165087 0.09234623 -0.1480259
-0.10283843 0.050441377 -0.12645105 -0.059695054 0.010293523 -0.12726907 0.13787605 -0.0768089
0.058970015 -0.13722691 0.05239535 0.08285564 -0.059781358 0.16062506 -0.028124735 -0.11060385
0.0072178743 -0.06976128 -0.0393291 -0.2487336 -0.20141767 -0.30140433 -0.2103733 0.1349495
0.04003771 -0.026234513 0.031189857 0.021083508 -0.09988651 0.004523952 -0.10938008 -0.19347507
0.01947458 -0.21577916 0.030002521 0.07977651 0.059989065 -0.009494431 -0.25372759 0.0175203
-0.10329908 -0.17658302 -0.13399711 0.009360179 -0.297081 0.007330897 -0.023028433 -0.019725293
-0.17138946 -0.092972234 0.00340432 -0.13029735 -0.026021866 0.080918394 -0.34905487 -0.07749306
0.027776025 0.018851964 -0.13466717 -0.15577479 -0.13844553 0.11550427 0.02560214 -0.110804126
-0.086535156 -0.19396007 -0.15199363 -0.021481963 -0.11529486 -0.094758525 -0.10349892 -0.1955627
-0.107957944 0.16534336 -0.18219948 -0.018436411 -0.15188885 -0.114009075 -0.12730378 0.006182179
-0.0068026837 -0.24159451 -0.10071144 -0.12619056 -0.24937087 -0.07402467 0.075260475 0.034186646
0.19630568 -0.24101508 -0.1395599 0.05419423 0.04034956 -0.062861376 0.06285322 -0.07889581
-0.018228382 0.09282474 0.0026607548 -0.17155705 0.14332764 -0.11185094 -0.041451465 0.0031529842
-0.1720859 -0.0904731 -0.0385651 -0.068771444 -0.1711722 0.0039699143 -0.018903702 -0.20078701
-0.045514014 -0.2692839 0.13559355 0.07412594 0.046801124 -0.032543924 -0.13309054 0.025390048
0.057566393 0.12419152 -0.13651732 0.013834642 -0.075542 0.13754402 -0.087117225 -0.1909572
-0.00418125 -0.0009100607 0.04521703 0.08894772 -0.16921125 -0.1253809 -0.085297264 -0.20533818
-0.21006705 0.09015043 -0.15575492 -0.16880341 -0.16319387 0.021469906 0.064497516 -0.17275369
0.044585466 -0.0146078775 0.012150214 -0.21612139 -0.2749067 -0.38839436 0.19638078 0.03418497
-0.02647993 -0.31310806 -0.098430686 -0.032163575 -0.22261986 -0.14563534 -0.17785423 -0.21086328
0.0605859 -0.19273952 0.106019124 -0.030187115 0.04106422 0.073901236 -0.275509 -0.13205655
-0.2235853 -0.13937359 0.023191847 0.05554231 -0.3900604 -0.1251594 0.09168865 -0.025486957
-0.19475515 -0.02320175 -0.24893387 0.0018474619 0.048773125 -0.11164721 -0.100026146 0.012115183

graph_matcher.mlp.0.weight f4 [128, 256]
00000000: 2446 72be cf92 28bc cd7e 903d f21d 253d
00000010: 03bf 5d3e f235 8d3d f4b5 f8bd 147e 9b3d
00000020: 3714 d23d 017e 4cbc e33d 54bb 4afe 12bc
00000030: 3e43 dabc ca0b 2a3d e040 ae3c 876c bdbc
00000040: 8627 b9bc 30bd b13d 1bb2 803d 2e6c b9bc
00000050: a650 a53d 5f00 5ebd 1cc6 12bc 6aef 5cbe
00000060: 73d6 6d3d 1855 243d fdb2 cf3d 1a25 c93d
00000070: d13d 9c3d 7636 26be 838b 3cbd 9540 78bc
00000080: f6e1 61bd 5c85 18bc 7f69 423c a199 71bb
00000090: 22a9 b53d 900c c9bd e95b b93d 9f1e eebc
000000a0: f8d3 25bd 3de4 933d 70a8 a23a b11e 3bbe
000000b0: e288 e4bc 1fa6 733d 7398 e33c adfa 2c3d
000000c0: 7830 de3c 389e 933d abd3 93bc b731 0c3d
000000d0: 5069 0dbc bf16 6fbb c925 b9be 511a 113d
000000e0: 543a ae3d 6a5d 4d3c 613d 91be 6558 8ebd
000000f0: 1eea 533d c146 153d 84a1 023d 6aba 523d
00000100: 548c 2e3b 0190 143d 61ff 933c 0b43 11be
00000110: 513c 533d 1d8d 5cbd 14f2 deba 22f8 ad3d
00000120: 28c0 663c fe9f a93c ce5c 56be 411f 9a3d
00000130: 643c 433d f9b9 563d 9c02 6f3d f30c bf3d
00000140: 130a bf3d 6d7e 753d 450d aa3d 8c29 41bd
00000150: 3023 a93c 4a17 2e3d 5d02 55be 798f cf3d
00000160: 970a 7abe 67bb af3d 14d1 983b b3cf 96bd
00000170: 974f 453d 56c2 42bd 6e26 6cbb b246 7ebc
00000180: b8c9 41bd 27de a1bc d486 4fbc 0731 c13b
00000190: 874b 74bc 7943 cfbc a9c0 92be 7ad8 3f3c
000001a0: 46ff 853e 7f26 dd3c 5859 42bd 17d5 b93d
000001b0: 76bb 3b3d 35a5 a8bc d12d 45bb db88 5abc
000001c0: 5e80 f53c 5fee 26bd cb96 c3bd 3196 e63c
000001d0: 0b2c 83bd 0d3c 953d 9380 c1bc d487 1f3d
000001e0: 5119 14bb 5375 15bd 58ae d6bc 81e4 e03c
000001f0: 61a5 2b3d 8f14 f9bc f657 c53c 8e56 603c
00000200: 200a 70be a352 febc 4d1c 79bd 0169 16bb
00000210: 6b8b 85be 28fd c23b 4d1f cdbe 2b5d bbbc
00000220: b063 823b a42a f33c f72d 27be d9ab d13d
00000230: 22f6 523c 957f 7bbc dcf1 6c3c d099 fabc
00000240: 3bde a03d 7d11 033c 01c5 243d 117e e03c
00000250: e9be 443d a60a ce3c 51df ffbc b52f 71be
00000260: 4e34 003d d013 cf3c d48b c33d d596 bd3d
00000270: b3c2 313d 72f1 3ebe 0fa6 adbe 522d 82bc
00000280: 2834 533d e40e 2cbd 5173 81bc 4280 9abd
00000290: 4be1 88bd ea88 adbe 438b 76bd df1a 35bd
000002a0: 7520 bfbc 534e bfbb 2e84 7a3c 9ef4 60be
000002b0: c0a1 363d e4b5 833d 4da6 623d b326 0abd
000002c0: a951 de3c f8cd 113d 6bb3 a1bc ac53 b43d
000002d0: 768b f53d 885f 853c 2994 dcbe 67e2 1f3c
000002e0: f7b6 053d 996a 6d3d e85b e3be 784d 63bc
000002f0: 56fd eabc 4935 a4bd 9a23 213d 7592 d23c
00000300: f3c6 f13c e060 763c 24d1 34bd d3ec b0be
00000310: e46d 113d 6101 98bd 5cbe 243d 7372 7d3d
00000320: 7501 a53d ed41 433d 05cd 96be cfa7 c13c
00000330: 9e23 dabb e251 cb3c b83a 243d 962a f2bd
00000340: f8f3 d43d 82c8 5d3d fe66 ed3d a6b5 a33c
00000350: dd6e aabd a54e 0e3c 1d36 61be 00ec 693b
00000360: 188b 85be 4348 f53c 4161 a7bd 244b 74bc
00000370: 1034 003d bf5a 36be 4303 16bd 6be3 11bd
00000380: 9115 963d f0c0 3e3d deba 173d 2778 cc3d
00000390: b545 2fbc 3dd8 c4bc e63f babe 4dcf 3f3d
000003a0: 943c fabd 8d12 fe3d f1b6 18bd 7edc 8e3d
000003b0: d819 1b3d e700 a23d 3435 a73c 486f 003d
000003c0: 232b 883d eb4d d43d 1946 c2bd 1d7c 10bd
000003d0: 2e22 b4bd 3580 0e3d f548 12bd 33fd c4bb
000003e0: f6ff 993c 3d91 8f3d 5a2d 6a3d 2180 a23d
000003f0: 2d9b 8c3c 09c5 c43c 6a2b 803d 83fb 943c
-0.23659569 -0.010288908 0.07055435 0.04031176 0.21654896 0.06895055 -0.1214408 0.07592407
0.10257762 -0.012481214 -0.003238552 -0.00897176 -0.026643392 0.04151515 0.02127117 -0.023123039
-0.022601854 0.08678663 0.06283971 -0.022634592 0.08072023 -0.054199573 -0.008958366 -0.21575704
0.058065843 0.040120214 0.10141561 0.0982153 0.07628978 -0.16231713 -0.046031486 -0.015152116
-0.055147134 -0.009309139 0.011865973 -0.0036865252 0.0887015 -0.09816849 0.090507336 -0.029067336
-0.040485352 0.07221267 0.0012409817 -0.18273427 -0.027897302 0.059484597 0.027782654 0.04223125
0.027122721 0.07207912 -0.018045267 0.0342271 -0.0086310655 -0.0036482064 -0.3616164 0.035425488
0.08507219 0.012534479 -0.2836714 -0.06950454 0.051736943 0.03644443 0.031892315 0.05144731
0.0026633935 0.036270145 0.01806611 -0.14185731 0.051571194 -0.053845514 -0.0017009401 0.08494593
0.0140839 0.020706173 -0.2093384 0.075254925 0.047665015 0.05242345 0.058352098 0.09328642
0.093280934 0.059935022 0.08303312 -0.047158763 0.020646662 0.04250268 -0.20801683 0.10134787
-0.24418102 0.08580666 0.004663596 -0.07363834 0.048171606 -0.047548614 -0.0036033648 -0.015519785
-0.047311515 -0.01975925 -0.012666423 0.005895737 -0.014910585 -0.025300728 -0.28662613 0.011709327
0.2617132 0.026995895 -0.047448486 0.09073847 0.045833074 -0.02058659 -0.0030087123 -0.013338293
0.029968437 -0.040754672 -0.09550246 0.028147789 -0.06404885 0.072868444 -0.02362088 0.038947895
-0.0022598098 -0.036488842 -0.02620618 0.02745271 0.041905764 -0.03040531 0.024089795 0.013692511
-0.23441362 -0.031045264 -0.060818005 -0.002295077 -0.2608293 0.0059505887 -0.40062943 -0.022871574
0.003979169 0.029683419 -0.16326128 0.102378555 0.012876065 -0.015350242 0.014461961 -0.030590922
0.07854887 0.007999775 0.04022694 0.027403863 0.04803363 0.025151562 -0.031234415 -0.23553355
0.03129988 0.025278002 0.095481545 0.092572846 0.04339857 -0.18646792 -0.33915755 -0.015890751
0.051563412 -0.04200639 -0.015802057 -0.075439945 -0.06683596 -0.3389352 -0.060191404 -0.04421508
-0.023330906 -0.0058381944 0.015290303 -0.21968314 0.04458785 0.06431177 0.055334378 -0.033728313
0.027138548 0.035596818 -0.019738873 0.08805022 0.11989491 0.016280904 -0.43081787 0.009758568
0.032645192 0.057962988 -0.44406056 -0.01387345 -0.028685253 -0.08017976 0.039340593 0.025704602
0.029513812 0.015037745 -0.044144765 -0.34555683 0.03550519 -0.07422138 0.040220603 0.061876725
0.080569185 0.047670294 -0.29453292 0.023639588 -0.006657078 0.024819318 0.04009506 -0.11824529
0.10398096 0.054146297 0.1159191 0.019984078 -0.08321927 0.0086857425 -0.21993299 0.0035693645
-0.26082683 0.029941684 -0.081728466 -0.014910493 0.03129965 -0.17808054 -0.036624204 -0.035617273
0.07328332 0.04657072 0.037043445 0.09983855 -0.010697772 -0.024028892 -0.36376876 0.046828557
-0.122185856 0.12405882 -0.03728384 0.06975649 0.037866443 0.07910328 0.020411111 0.031356126
0.06648853 0.10366424 -0.09486026 -0.035274614 -0.08795582 0.034790237 -0.03571411 -0.006011629
0.01879881 0.07010124 0.057172157 0.07934595 0.017163837 0.024019735 0.062582806 0.018186336

graph_matcher.mlp.0.bias f4 [128]
00000000: ef4c 803d c0d7 02bd cee0 15be 95c8 03be
00000010: 4b40 48bd e1b1 713d 1249 d73d 32f1 dabd
00000020: 45f3 c23d d015 1bbe de3f aa3b 71e7 303d
00000030: 69d8 dfbd fba1 4dbc 7c0e 8f3d 463b d2bd
00000040: 4e24 e9bd 8391 a03d 49cf cfbd 1263 ebbd
00000050: ebbd e6bc 75ba 263d 477b 06bd 4b91 483d
00000060: 9280 4d3d de31 77bd 3354 4cbd 0452 d6bc
00000070: e06f 09bb a287 52bd e5ae 813d e661 96bd
00000080: b35b f4bc 9cfd ffbb 09cf 07be f96b 383d
00000090: b221 84bd 2f09 e8bd c1aa dcbd 070b f23c
000000a0: 6021 0ebe 2c7b bcbd 0507 bcbd c695 4abd
000000b0: 6046 cb3d 8ac9 0e3a 5fd2 b9bd 68b2 a1bd
000000c0: 1de9 a9bc 9083 a4bd 8b5c d73c 7c3d dcbd
000000d0: 8a9e abbd 811d fb3b 1e6a 72bd 2b57 6bbd
000000e0: 8788 d2bd 1bb3 233c ef25 21bd f63f b6bd
000000f0: f256 41bb 47f8 f33c 4a79 013d 6c6c e7bd
00000100: 56fa 573c 800d bc3d d089 26bd aaca 1d3d
00000110: fc17 923d dadd d5bc 4954 86bd d61e 07be
00000120: 9fa3 17bd 60b0 723d 053b 82bd d0e5 2abd
00000130: 13b5 c03d e598 45bd 28e3 04bd 4239 7ebd
00000140: 3241 a13d 20c8 abbd 064c 7fbd 02ef a1bb
00000150: 7897 5fbc 67c3 7e3d a8ff da3c 17a2 aa3d
00000160: b7b9 81bc 689c 56bd d07d a8bc f540 ce3d
00000170: 11c1 703d b8d5 f8bd 93e4 f0bd c688 9a3d
00000180: 414f 83bc 5a10 563d 0eea d43d f25e ebbd
00000190: 55d6 96bd d6d8 12bd 69de 0fbd 8bdc dd3c
000001a0: 0647 b0bd 8103 b1bd 26b9 f8bd 5a42 21bd
000001b0: 3c48 72bd 675b 8f3d c069 3d3b c5fd 6d3d
000001c0: a163 fa3d 5f92 6dbd eebf c7bd c8f3 84bc
000001d0: 5ed1 55bd 76cc b93c b97e 8a3d dda5 c23d
000001e0: efd6 dcbd 3cca 26bc 7a99 5abd 11a0 d5bd
000001f0: d050 213c 556b 56bc bf28 703d dd54 8c3d
0.06264674 -0.031944036 -0.14636537 -0.12869485 -0.04888944 0.05900753 0.10511984 -0.106905356
0.09519056 -0.1514504 0.005195602 0.04318947 -0.10929949 -0.012550826 0.069851846 -0.10265212
-0.11383878 0.07840254 -0.101469584 -0.114935055 -0.028166732 0.040705163 -0.03283241 0.048966687
0.050171442 -0.06035029 -0.049884986 -0.026162155 -0.0020971224 -0.05139888 0.063321866 -0.073428914
-0.029828882 -0.007812215 -0.13262571 0.045024846 -0.06451739 -0.11329877 -0.10774756 0.029546274
-0.13879919 -0.09203181 -0.09181026 -0.04945924 0.09925532 0.0005446902 -0.09073328 -0.078953564
-0.02074104 -0.08032906 0.026289245 -0.10753915 -0.08379848 0.0076634292 -0.059183232 -0.057456177
-0.10279947 0.009991433 -0.039342817 -0.08898918 -0.0029501286 0.029781474 0.03160981 -0.11299977
0.013182243 0.091822624 -0.040658772 0.038523354 0.07133481 -0.026106764 -0.06559045 -0.13195357
-0.037021276 0.059250236 -0.06358913 -0.041723073 0.09409537 -0.048241515 -0.032443196 -0.062066324
0.07873763 -0.0838778 -0.06232836 -0.004941822 -0.013646953 0.06219807 0.026733235 0.083316974
-0.015835626 -0.052395254 -0.020567805 0.10070983 0.058777872 -0.121501386 -0.11762347 0.07545619
-0.016029002 0.052261688 0.10396205 -0.11492719 -0.07365099 -0.035851322 -0.035124216 0.027082702
-0.08607297 -0.086432464 -0.12144689 -0.03936992 -0.05915092 0.069998555 0.0028902143 0.05810334
0.12226034 -0.05800092 -0.097534046 -0.016229525 -0.05220162 0.022680502 0.06762452 0.09504292
-0.10783183 -0.010180052 -0.053369023 -0.10430921 0.009845927 -0.013087113 0.05863261 0.06852124

graph_matcher.mlp.2.weight f4 [128, 128]
00000000: fe85 1ebd df35 75bc 74ec babc 804b 3cba
00000010: 23d7 993d 4223 823c 3a46 ebbc 2ecf 603d
00000020: 8205 63bd d9d9 adbd bd96 09be 18dd c83d
00000030: b683 f3bd 511c bdbd eac2 de3a 008b 9abb
00000040: 7242 763d 1a4a edbb 60d1 3e3c 065f 6f3d
00000050: d518 12be 9b7f 89bd e484 95bd fe1e 9bbd
00000060: a296 4abc d8a6 59bd 8141 173e 957a b93d
00000070: 2c8d e93c 00d9 ac3c 2333 e3bd 3ea7 0dbe
00000080: 6abf 47bc 6e53 54bd e685 753d 1e4d b1bd
00000090: b894 b2bd 900e 90bd a7d6 14be 2f96 efbd
000000a0: d208 213d c8b9 06bc 773c 51bd d0bb 803c
000000b0: 4b1d fbbb 7adf d0bd 3801 96bd 14a2 7a3b
000000c0: 893c 8f3c 32ae 7d3d dc61 80bd 2733 afbd
000000d0: fc6f ccbd fc7d 0d3c ab6a 2abd d4e0 cbbd
000000e0: a982 95ba 2ebb 07be 542b 873c 8016 903a
000000f0: 410d ebbd a2ca a1bd 92f8 d23c 882c 7fbd
00000100: 496b 44bd 14ed f7bd 544d 81bd cdcb d2bd
00000110: 9680 b53d ab02 02be b597 633d 3ca1 0f3e
00000120: c0ca 81bc fec5 f9bd a084 6c3b f721 9e3d
00000130: 82e4 c4bd 16e6 f73b c8bb f6bd 0847 6d3c
00000140: 507f 9fbd d969 d7bd b8de f8bc 2008 78bd
00000150: a393 15be b86c bbbd 2f1a 9cbd a378 7b3c
00000160: 9eb4 f6bc 6002 a23b 21db 883d 7825 1ebd
00000170: 63ef 0abe f838 2d3c 8641 723d fd4f 9d3c
00000180: a5bc 94bc c890 1dbc 1e5b 14be 9170 b23d
00000190: 56d9 d6bd 9547 053e fb5c 40bd 4abd f2bd
000001a0: 1e0a e23b 17bc 57bd 5451 b53d be77 433d
000001b0: 485d 79bd 9228 a63a 66a8 4e3d c92e 04bc
000001c0: fb8e 23bd 27d5 7d3c 9018 d33b c146 983d
000001d0: 3f37 57be 2865 87bd 56fc 8c3a cc69 f3bd
000001e0: 1c9a 9f3c 8107 e3bd 80d3 aeba d7d9 843d
000001f0: 403c a7bd 2b43 79bd 4168 233d e77c f2bd
00000200: ca79 a2bd e5e6 96bd 7e54 5f3d 89c4 6fbd
00000210: c00c f7bb e409 b3bc a28d 22be c274 12bc
00000220: a169 923d ace7 c53c f0a9 8d3b 0c2e e83c
00000230: eca4 c3bc e235 3e3d 28e3 d43c c47a fabc
00000240: 06a7 5d3d a8fc 8ebd a255 2e3d c3d3 8abd
00000250: c25f 323c 669c 4c3d c0c2 113b aed8 29bd
00000260: f566 64bd 3ae8 283d 910a 41bd b024 71bd
00000270: b4d4 dfbc 700e 47bc f6ff 453d baed 223d
00000280: 5d52 c53d 5da9 3ebe 53f5 6bbd 4f80 a53d
00000290: b4be 5ebd 2cba 90bd 5063 cc3c 70ca c1bc
000002a0: a39c 8d3d 66bd 18be b102 b5bd c76f a53d
000002b0: ce86 393d 1511 8a3d e038 b13c 77fa 9cbd
000002c0: 3d64 943d 4649 003d 6517 27be c03f 043d
000002d0: 8962 60bd 83e5 d8bd a133 923d d078 a6bc
000002e0: 9ca2 98bd 006f 063d 9405 fe3c cfab b5bd
000002f0: 4a58 5fbd 7fed 68bd b8a9 f13c 69b3 993d
00000300: 811a 22bd d0af e33c 69ca a73d 4ed6 9cbd
00000310: 31b5 af3d e415 43bd 546d 43bd a6b9 3d3d
00000320: a040 84bd d030 4cbd bf52 02bd abae 50bd
00000330: 1e6c 84bd 7667 923d e62a 233d fe5b 793d
00000340: 5042 d43b 5558 a83d 4016 bf3a 2b9a b1bd
00000350: f65c 3c3d 89c3 acbd ae04 163d 3e29 523d
00000360: f186 5abd 0bc7 b43d 638e 843d b4be 92bd
00000370: c60d abbd be1b 9ebd 78be 45bd da63 b1bd
00000380: f896 153d afcf 913d 2e0a c1bd 004d 6cbb
00000390: c6e8 a7bd 0a5e 29be 3de8 8fbe 120d 04be
000003a0: e0bf 85bd ea14 223d 8a2f 18bd 5487 66bd
000003b0: 52c5 263d 1858 a23c 7042 463c ff2d a93d
000003c0: d483 0dbe 3b76 a5bd 251c aa3d e610 713d
000003d0: 8688 e7bd 51b6 9fbd 28a0 18bd 7808 10be
000003e0: aee8 4d3d 5332 5bbd 9c03 c03c 66d9 90bd
000003f0: 824c 3ebd e21c 253d cebb 1d3d 00cb 663c
-0.038702004 -0.014966457 -0.022817828 -0.0007182881 0.07511737 0.015885953 -0.02872001 0.054885082
-0.055425175 -0.08488817 -0.13436408 0.09807795 -0.11890356 -0.092339166 0.0016995345 -0.004716277
0.06012196 -0.0072414996 0.011646599 0.05844023 -0.14267285 -0.06713792 -0.073007375 -0.07574271
-0.012365015 -0.05313763 0.14771082 0.09056584 0.028509699 0.021099567 -0.11093738 -0.13833329
-0.012191633 -0.051837377 0.05994215 -0.08657287 -0.08719772 -0.070340276 -0.14535008 -0.11698567
0.039315052 -0.008223005 -0.051083054 0.015714556 -0.007663404 -0.10198875 -0.07324451 0.0038243579
0.01748492 0.061933704 -0.06268665 -0.085546784 -0.09982297 0.008635994 -0.041605633 -0.09954992
-0.0011406738 -0.13254997 0.016500153 0.0010993034 -0.11477137 -0.07899977 0.025753293 -0.062298328
-0.047953878 -0.12105766 -0.06313577 -0.10292778 0.088624164 -0.1269633 0.0555646 0.1402635
-0.015843749 -0.12195967 0.0036089793 0.07721322 -0.09613897 0.00756527 -0.12047535 0.014482267
-0.07787955 -0.10518236 -0.030379638 -0.060554624 -0.146071 -0.09151596 -0.076221816 0.015348586
-0.030115422 0.004944131 0.066824205 -0.03860995 -0.13567881 0.010572664 0.05914452 0.01920318
-0.018156359 -0.009617038 -0.14487883 0.087128766 -0.10490672 0.13015588 -0.046963673 -0.1185251
0.0068981787 -0.05266961 0.08853403 0.047721617 -0.060879976 0.0012676886 0.050453566 -0.008067795
-0.03993128 0.015492714 0.006442137 0.0743537 -0.21017168 -0.06611091 0.0010756354 -0.118854135
0.019482665 -0.11085416 -0.0013338178 0.06486862 -0.08165789 -0.060855072 0.039894346 -0.118402295
-0.07933386 -0.073682584 0.054523937 -0.05853704 -0.0075393617 -0.021855302 -0.15874341 -0.00893897
0.07149053 0.024158321 0.0043232366 0.02834227 -0.023882352 0.046438105 0.025987223 -0.030576117
0.054114364 -0.06981784 0.042562135 -0.067786716 0.010887088 0.04995384 0.0022241324 -0.041466407
-0.05576225 0.041237094 -0.047129218 -0.05887288 -0.027323104 -0.012149438 0.048339806 0.039777495
0.0963485 -0.18619294 -0.057607006 0.080811135 -0.054381087 -0.070667595 0.0249497 -0.0236561
0.06914642 -0.14916 -0.08838404 0.080779605 0.045294575 0.067415394 0.021633565 -0.0766496
0.072456814 0.03131988 -0.16317518 0.03228736 -0.05478147 -0.10590651 0.07138754 -0.02032128
-0.0745289 0.0328207 0.03100852 -0.088706605 -0.05452756 -0.05686712 0.029499874 0.07504923
-0.039576057 0.027793795 0.081929035 -0.07658063 0.085794814 -0.0476283 -0.047711685 0.046319626
-0.06457639 -0.04985124 -0.031817194 -0.050947826 -0.06465934 0.0714864 0.039835833 0.060878746
0.0064776316 0.08219973 0.0014578775 -0.08671983 0.045987092 -0.08435733 0.036625557 0.051308863
-0.053351346 0.08827027 0.064724706 -0.0716528 -0.083522364 -0.07720135 -0.04827735 -0.08661623
0.03652093 0.071196906 -0.0942577 -0.0036056638 -0.08198695 -0.1653978 -0.2810687 -0.12895611
-0.06530738 0.039570726 -0.03715471 -0.056281403 0.040715523 0.019817397 0.012100801 0.08260726
-0.1381982 -0.08079191 0.083061494 0.058854006 -0.11305337 -0.07798446 -0.037262112 -0.1406573
0.05027073 -0.05351479 0.023439221 -0.070727155 -0.046459682 0.040310748 0.038509183 0.014086485

graph_matcher.mlp.2.bias f4 [128]
00000000: 204d 16be 09e7 e4bd dbf0 8bbd 378f 60bd
00000010: b9a3 a1bd ffa2 1cbe 27af c6bd c34a f0bd
00000020: 9667 2a3e bb61 afbd f0ed 24be f8aa 89b9
00000030: 1ee9 8b3d 514a c7bd e68e 9cbd fa24 e2bd
00000040: 1780 b23d 6845 11be 4093 04bd d9be ae3d
00000050: 2220 fdbd 3951 923d 5c95 ddbc e995 1ebe
00000060: 878c f2bd f16f adbe 5e1d 053e 2fce 9ebd
00000070: 2b7e a73d 56e0 5a3d 2fb1 5fbd 0da7 013e
00000080: 1558 abbc e09d d4bd 264f b3bd 16d2 8dbd
00000090: 5566 1ebe 670c 38be bfa1 8abb e0c0 d7bd
000000a0: 8b11 da3c 8868 22be 49a8 0abd 95ad 9cbd
000000b0: a7d7 abbd 66ae d53c e384 3f3d 095c 273e
000000c0: 2f92 743d 4da4 073e 28e6 103d dfa6 10be
000000d0: 6986 a1bd c687 07be bf6c 153e 62ca 74bc
000000e0: 073f 08bb 04b1 9f3c 0692 8dbe 53ca a7bd
000000f0: 800d a73d 40c4 803d 08e5 5cbc 7886 7bbd
00000100: 8388 88bd 90da a4bd cf3c a1bd 6955 18bc
00000110: c75a 2a3d df07 debd e2de 83bd c93d d0bd
00000120: 0215 0d3e 52bc 103e db58 7b3e 1893 7c3d
00000130: 4284 083e 506d e63d 626e 033d 27f8 10be
00000140: 4bfd 73bd 5ee2 9ebd 510b b0bd e513 e5bd
00000150: 3b57 21be 74fa db3c ef00 0ebe 6621 ffbd
00000160: 8e8c 29be edb3 0b3d 9a47 52be 64e4 e9bd
00000170: 2461 8c3d 4b16 573c f8c2 bfbc d0e6 ca3d
00000180: 3078 7fbd 2835 073e 79fc 06be ef70 0a3e
00000190: a64a b6bd ef98 42be d615 47bd 6387 d0bd
000001a0: f2a3 d7bd 82e0 9abc 4dfe 383d 7049 06be
000001b0: 51c6 6e3c fcf3 7d3d a87f 9abd 4472 b0bc
000001c0: 4543 1ebe 5008 3d3c dd1a a4bd 0474 13bd
000001d0: 6636 a83c 1fbc 48bd 918b 5a3d 356f 20be
000001e0: 7f29 42be cf26 f63d 6064 d8bd 3201 183e
000001f0: 5658 9bbd f947 82bd 07c7 c33d 7ca6 e2bd
-0.14677858 -0.11176879 -0.06833049 -0.05482408 -0.07892556 -0.15296553 -0.097013764 -0.1173301
0.16641077 -0.085635625 -0.16106391 -0.00026258058 0.06831573 -0.097309716 -0.07644443 -0.11042209
0.087158374 -0.14186633 -0.03236699 0.08532495 -0.123596445 0.07144398 -0.02704876 -0.15486874
-0.1184321 -0.33874467 0.12999484 -0.0775417 0.081783615 0.0534366 -0.054612335 0.12661381
-0.020916024 -0.10381675 -0.08755331 -0.06924836 -0.15468724 -0.17973481 -0.0042307074 -0.10534835
0.026619693 -0.15860188 -0.033851895 -0.07650296 -0.08390742 0.026084136 0.04675759 0.16343702
0.059709724 0.1324627 0.035375744 -0.14126156 -0.07886965 -0.13235387 0.14592265 -0.01494083
-0.002078952 0.019493587 -0.2765047 -0.08192887 0.08156872 0.06287432 -0.01348234 -0.061407536
-0.066666625 -0.080495 -0.078729264 -0.009297707 0.04159048 -0.10841345 -0.06438996 -0.101680346
0.13777545 0.14134338 0.24545614 0.061663717 0.13331702 0.112513185 0.03208769 -0.14157163
-0.05956773 -0.0775802 -0.085959084 -0.11185435 -0.15755932 0.026852824 -0.13867544 -0.12457542
-0.16557524 0.034107137 -0.20535126 -0.11420515 0.068544656 0.013127874 -0.023408398 0.09907305
-0.06237048 0.13203871 -0.13182248 0.13519643 -0.08900957 -0.19003652 -0.04860481 -0.10182073
-0.10529317 -0.018905882 0.045164395 -0.13113952 0.0145736495 0.06200026 -0.0754388 -0.021538861
-0.15455349 0.011537626 -0.08012936 -0.035999313 0.020533752 -0.04900753 0.053355757 -0.15667422
-0.18961142 0.12019121 -0.1056602 0.14844206 -0.07585208 -0.06361384 0.09559446 -0.110669106

graph_matcher.mlp.4.weight f4 [64, 128]
00000000: 94a1 a43d 5c39 afbc 0253 cb3c bc9d cf3d
00000010: e3bb a13b 5dc8 52bb f0f9 793e 5356 78bd
00000020: 463b 1d3e e2cc 213d 7d6c be3d bb1b 96bd
00000030: 3753 edbb 7c23 29bc 19b9 943d 7e70 1cbd
00000040: d667 f6bd f0e5 30be 7ffc 3abc 93a0 b63d
00000050: ccc6 a43d 5283 873d 7c64 593c bd09 1d3e
00000060: 01bb 3b3d 3c6a 13bd 34ab f0bd e523 1abb
00000070: 5f02 c7bd d6ee bc3d 221d 663d 12d8 d63d
00000080: 23e5 553c a1b8 a5bd fb49 01be cc9e 92bd
00000090: 4c24 1abe 1316 d0bb 42de ddbd 6a84 9abd
000000a0: 062e 89be 7ab3 cfbb 91bb b23d 2b28 ccbd
000000b0: 6c9e a4bd fee1 57bd 5c2f 1bbd fa07 7bbd
000000c0: aa6c 4bbc e63d 383d 4bce 2fbc f516 c0bd
000000d0: 4a2f 16be 8f80 2ebd aea7 143e 7e04 1fbd
000000e0: f6d5 033e 2011 c9bc 6cc7 95bd 422f 083e
000000f0: 475e 9bbb 61b5 27bd 5db3 00be 8a03 963d
00000100: 31dc 053e 457f 81bd 7235 69bd 4e10 d0bd
00000110: af32 35bd 1990 37bd f7ed 28bd e490 3ebe
00000120: 6818 2c3d 657e ea3d e26d 77be 9779 823d
00000130: d981 83be bf00 0d3e 5d9e 2b3d 5922 ad3d
00000140: fbd4 643d 19a8 2cbe 3da4 fcbb b50f 4e3e
00000150: d455 8d3d 43d6 4fbc cfce c33d bad6 c3bc
00000160: c426 573d 277a fabd 419d d0bb 2d3b 98bb
00000170: 38a6 cb3d 365a e3bd cc0f 9b39 abe5 f13c
00000180: d835 083d 1327 28bc 1dac bbbd 8143 04be
00000190: f377 373d 692a 623d 18b4 913c 2f94 ee3c
000001a0: 0a65 7b3d b4d2 37bd f2a9 1fbe 0778 c2bc
000001b0: 5868 27bd 1264 853d f1e7 b93b 0c5c 4b3d
000001c0: 49ed 35bc bed8 12be f9ac 113c bfdf 00be
000001d0: e052 4d3d ce13 c3bd b30e 063d 8c22 11be
000001e0: 4471 623d fc88 d53d 149a 503c 5605 d23d
000001f0: 2005 3bbe 3c35 44bd af13 b13d 9a12 98bd
00000200: 21fc 27be 056f dabb a8f6 233d 23dd ecbd
00000210: 5449 c4bd eca2 d13d de61 ecbd 1380 b5bb
00000220: c20d 04be f142 94bc 9dce dcbd 2f3c 013e
00000230: 866b 0dbe f851 c2bd 9366 41bd 483a f6bd
00000240: 9c6f bc3c 247a 2b3d e1b6 08bc 50e0 17be
00000250: 4a0e 813d 622e b3bc 58bb 3cbe f7f6 15be
00000260: 8626 86bd 50d6 cfbb 9322 6f3e 1411 85bc
00000270: 901b 333e 4794 abbc 4aff 68bd d4fe debd
00000280: f4ef 383d ff10 403d 2cc5 173e 8949 8f3d
00000290: 1942 593e aa10 09be acfa c03c fff2 e13d
000002a0: 6e51 9f3e 775f 55bc ae64 4ebc 8b3c 5abb
000002b0: 9ce4 a1bc 7f64 373c 7caa 94bd 5e5c 933d
000002c0: 1dd4 153e 35d4 c1bd 248d 1cbe b3a4 05be
000002d0: 7b02 bf3d 11cf 5a3d e812 b8bd 5e74 1bbc
000002e0: 4d47 2fbe 9615 08be 1cf1 533d 2df1 673c
000002f0: dd66 13be ca07 bb3c d866 05be a4f4 d33b
00000300: fd61 e33c 788f b7bc 98da cebd 5258 58bd
00000310: 9017 a7bd 0bfb 173d d0d9 2e3d c53d b33e
00000320: b3bb 95bd 3450 3cbe b915 6c3e 6416 9d3d
00000330: 50d4 b03e 2770 78bd 9032 16be f2e7 fdbd
00000340: a90c 26be abe4 0dbe 271a 05bc 1a22 4fbe
00000350: fec5 67bd ff27 29be 9771 6fbd 6425 89bc
00000360: 2734 2bbd ac27 00be 9998 05be cc52 44bd
00000370: d5ce 5bbd 3c7b dd3c 2943 63bd 2c32 a9bd
00000380: 60b0 993b 559d 26be fba4 753d 7fd3 fd3d
00000390: c52b b0bd cdee 76be 5dfb a23c 0cce f9bd
000003a0: a7ca 26ba 21da 44bd c1fe ffbd d91f 22bc
000003b0: 1ae6 c73d 3df0 d1bc dd3d 2abe ccde 7cbd
000003c0: a716 e53d ed3d 993d 15f9 323d f619 db3d
000003d0: fe8b 22be cb5e be3d 8d9e 7bbd 3f8b 59bd
000003e0: 9513 b0bd 7ba7 1ebe ca62 4f3d e357 053e
000003f0: 68e4 213e e45f 94bc 93e5 d7bd 755c 773e
0.08038631 -0.021389656 0.024819855 0.10137507 0.004935728 -0.0032162883 0.2441175 -0.0606292
0.15354642 0.039502032 0.09298036 -0.07329508 -0.007242586 -0.010323402 0.07261867 -0.03819322
-0.12031524 -0.17275214 -0.011412739 0.08917346 0.0804573 0.06616844 0.013268586 0.15335746
0.045832638 -0.035989985 -0.117514044 -0.002351993 -0.09717249 0.09225242 0.056180127 0.10490431
0.013055119 -0.08091856 -0.12625878 -0.07159194 -0.15052909 -0.0063502877 -0.10833408 -0.07544787
-0.26792926 -0.006338534 0.08727182 -0.09968599 -0.08038029 -0.052705757 -0.037886962 -0.061286904
-0.012416044 0.044980906 -0.010730336 -0.09379379 -0.14666477 -0.04260307 0.1451709 -0.038822643
0.12874588 -0.024544299 -0.07313427 0.13299277 -0.0047414633 -0.04094446 -0.12568422 0.07324894
0.13072278 -0.06323103 -0.056935735 -0.1015936 -0.04423779 -0.044815157 -0.041242566 -0.18609959
0.042015463 0.11449889 -0.2416301 0.06370848 -0.25685003 0.13769816 0.041899074 0.08453817
0.055867177 -0.16860999 -0.0077100084 0.2012318 0.06901136 -0.012685361 0.0956093 -0.0239061
0.052527204 -0.1223033 -0.0063664024 -0.004645726 0.09943813 -0.11101191 0.00029575673 0.02952846
0.033254474 -0.010263222 -0.091636874 -0.12916376 0.044792127 0.055216227 0.01778607 0.029123394
0.061375655 -0.044878677 -0.15592173 -0.023738874 -0.040870994 0.065132275 0.0056734015 0.04964833
-0.0111039365 -0.14340493 0.008891338 -0.12585352 0.050127864 -0.09525262 0.032728862 -0.14173335
0.0552838 0.10426518 0.012732048 0.10254924 -0.18263674 -0.04790233 0.086463325 -0.07425423
-0.16404773 -0.0066660666 0.04003015 -0.11565616 -0.09584299 0.10236153 -0.11542104 -0.0055389493
-0.12895873 -0.018098326 -0.10781596 0.12620614 -0.13810548 -0.094882905 -0.047216963 -0.12022835
0.023002438 0.04186453 -0.008344383 -0.14831662 0.063015535 -0.021872703 -0.18430841 -0.14644991
-0.065503165 -0.0063426867 0.23353033 -0.016243495 0.17490983 -0.020944728 -0.056884088 -0.10888448
0.045150712 0.04689121 0.14821309 0.069964476 0.2121662 -0.13385263 0.02355703 0.11032676
0.31116813 -0.013023249 -0.012597246 -0.0033300247 -0.01976233 0.011193394 -0.0725908 0.07195352
0.14631696 -0.094643034 -0.15288216 -0.13051109 0.09326645 0.05342013 -0.08987981 -0.009488193
-0.17117043 -0.13289484 0.05174361 0.014156622 -0.14394708 0.022830863 -0.13027513 0.0064683724
0.027756685 -0.022407278 -0.10100287 -0.052818604 -0.08158791 0.037104648 0.04268819 0.35008064
-0.073111914 -0.1838997 0.23055162 0.07670286 0.34536982 -0.06065383 -0.14667726 -0.12397756
-0.16215767 -0.13856761 -0.008123911 -0.20227852 -0.056585304 -0.16519164 -0.058457937 -0.016741462
-0.041797783 -0.12515134 -0.13046493 -0.047930524 -0.053664047 0.027036302 -0.05548397 -0.08261523
0.004690215 -0.16270955 0.05997179 0.12393855 -0.086020984 -0.24114533 0.01989525 -0.121975034
-0.0006362595 -0.048059586 -0.12499762 -0.009895288 0.09760685 -0.02562725 -0.16625161 -0.061735913
0.11185961 0.074825145 0.043694574 0.10698311 -0.15873715 0.09295424 -0.061430503 -0.05311131
-0.08597485 -0.15493576 0.050631322 0.13021807 0.15809786 -0.01811213 -0.10541835 0.24156363

graph_matcher.mlp.4.bias f4 [64]
00000000: 0a76 7f3d 724a d4bd 042f b3bd 70dc 19be
00000010: 3f86 0e3e b585 1a3e 81e1 7abb 7317 d3bd
00000020: dc3a 43be f01a 4bbc 636d e2bd 9e77 d7bd
00000030: 11fb 6d3c 5f68 a9bd 910d 36be 75b1 12be
00000040: ce7e 9dbe 392b 8abd 901e 013e 768a aebd
00000050: 702d ec3d 611a f23d b625 17be 88b6 7ebb
00000060: fc9a f33d aa61 453d 5907 6a3d 764b 1dbe
00000070: c589 2bbe 61e5 113e d5b9 bd3c b11f f5bd
00000080: edd5 503e 6752 2b3e 2716 12be 37a7 1ebe
00000090: 780d 563e 0026 1ebe f988 cabd 77da 16be
000000a0: 771d 04bd 789c ddbd 5bcc eabd 88d9 9ebc
000000b0: 36d2 8ebd 5522 c8bd 8241 993d 879c 50be
000000c0: 87e9 1c3d f3df b63d c22e 1abd 44d2 8cbd
000000d0: 54cb 8bbe 75e8 c13d f59f efbd a8f3 42be
000000e0: 979e 203e 339e 023e 7387 3dbd c768 2c3e
000000f0: c1d3 0e3e e698 d93b acdd e13d efb4 f23d
0.06236843 -0.10365762 -0.08749202 -0.15025496 0.13918398 0.15090068 -0.0038281383 -0.10307207
-0.19065422 -0.012396559 -0.1105602 -0.10520862 0.014525191 -0.0827186 -0.17778613 -0.14325507
-0.30760807 -0.06746525 0.12609315 -0.08522503 0.11532104 0.118214376 -0.1476048 -0.0038866121
0.11894795 0.048188843 0.057135914 -0.15360817 -0.16751774 0.14247657 0.0231599 -0.11968935
0.20394106 0.16730653 -0.14266263 -0.15493475 0.20903575 -0.15444183 -0.09889407 -0.14731775
-0.032254662 -0.1082086 -0.11464759 -0.019390836 -0.06973688 -0.09772173 0.07483198 -0.2037221
0.038308647 0.08929434 -0.037642248 -0.068760425 -0.27303565 0.09468166 -0.11700431 -0.1903826
0.15685497 0.1275566 -0.046271753 0.16836844 0.13947965 0.0066405414 0.11028609 0.118509166

classifier.0.weight f4 [32, 64]
00000000: 1b78 05be 17ce 483e 4db0 e73d 4a3b 583c
00000010: 4545 b1bd 1cd1 bebd 06b7 94bb 1fb5 9b3d
00000020: defd b2bc 716e be3d fd74 be3d f978 da3d
00000030: b791 30bb 91ad 263e 45aa 093e e0b0 023e
00000040: ca74 953e 0e9d 093e 95f7 84bd 2088 a5bd
00000050: 14a0 62be 97ee d8bc 072d 243e 169f 4fbd
00000060: a598 89bb 4681 fd3d a07b 913d f578 1d3e
00000070: c00a a4bc 46c9 f1bd d5d9 5b3c 44f6 d33d
00000080: 26f9 d2bd 6937 89bd 2cf6 df3d 5752 793d
00000090: 9b57 1bbd 462a 303d 3abb 583d cd96 f13d
000000a0: 15a6 843c 4c82 d73d b9fc a73d 32fe bfbd
000000b0: 2521 20bd 3d92 d43d b0e0 13be e440 913d
000000c0: 5263 68bd 78f4 143d ec34 39bd a510 55ba
000000d0: 3621 1f3e ba38 59bd d4ed 603e 1b04 153e
000000e0: d627 cbbc 6c8e 7ebd f8e1 6ebd f5a7 1b3d
000000f0: 348f 8bbd 3a5d ce3d c050 5fbe 2a07 adbd
00000100: 2792 36be 250c 093e c361 083f 3ed2 c7bc
00000110: be16 02bf 54f5 e0be 1990 14bd c07b babe
00000120: b330 0d3d 68f4 96bd c317 3bbd 774b a5be
00000130: 48ff fb3d 4602 b1be f947 033c 0d4a 7b3d
00000140: ba62 443e 0028 81be f330 d63d 2488 24be
00000150: cdf9 96bd a682 c6bd e340 83bd 1cc9 82be
00000160: a4ea f6bd c61a acbd ef88 cbbe 87c5 0f3e
00000170: 0ac7 14be 969a bd3d 53bd 3fbd 659d 35be
00000180: 75e5 853d eb33 1abe a9a0 e43d 63b8 e23d
00000190: fe23 9bbd 6aa0 b23d e3c2 fcbd 4b99 3abe
000001a0: 3149 30ba 22a7 9dbe 029e 2a3c 5a48 7abe
000001b0: 4871 133e 49ea 0fbb faab 33be 6f26 543e
000001c0: 5215 0a3e d2ae 3abe e078 b63e f439 893e
000001d0: ae7b 65be b7c0 f33d 6ffe 433b 72e5 a9ba
000001e0: 3195 f7be a786 0e3e 12bb 073e 9dc1 cc3d
000001f0: 3262 8dbe 7cec d43e 8ae5 293e 963b 043d
00000200: e7b2 09be 3327 3bbd 7e52 f43d 18e9 a23d
00000210: fa22 2dbc 06a8 a5bd db22 e83c 3dea 2c3d
00000220: f2ed 1b3e 05a0 3dbd a3b1 d03c 12bb 5ebd
00000230: 3ef7 883d 0410 723d 24b1 00bd bec9 183e
00000240: 8193 753c b30d cd3c c3a6 e1bb cc7c c2bd
00000250: e4c3 3dbe efbd 10be 9b19 fd3d 3af4 0f3c
00000260: 48df f3bc cf09 8b3d dea1 f63c fe4a 25bd
00000270: e505 ef3c aeeb 05bc da65 db3c 9335 28bd
00000280: 6fa9 8ebd 19c8 37be fd6b 0d3e 4309 043e
00000290: adce 5fbd aaf5 373e 3d1d eebd e130 7bbd
000002a0: 8013 2abe 1c03 39be c5ba 0e3b 2cf0 04be
000002b0: 2b26 87bc 9f3c 243e 5b8c 0c3d 3d4d a23d
000002c0: e72c a8bd 0cdb 37be e08b 1a3d 607e f9bd
000002d0: d2fa 343e 147b 5a3d a538 173e 19b9 83bd
000002e0: 0078 28bc 6dec 993c 216c 283e ec69 48bd
000002f0: 04a9 17be 0787 49bb 929c e5bd e9fd e9bd
00000300: 9035 fd3d ac13 43be aaf6 3c3d 7c42 66be
00000310: d482 87be eaa9 69bd b4e1 0b3e 94da 9dbd
00000320: 4002 c3bd cd21 cabc 34d0 84be 3c08 58be
00000330: 76ce 303e 2381 1dbe c84d 65be 2c7f d5bd
00000340: d779 b7bc 1de6 e5bd 7e5b 7e3c 3601 38be
00000350: d03d 293d 980f 10bd e9ee 16be 0c1e ebbd
00000360: bd1c 883c 4f8d 4dbe 8da5 21be eeaa 793c
00000370: e5d5 2dbe d12c 783e bc14 823e 619c d4bd
00000380: 3fdf fb3d 6347 6a3e 5cfc 0fbe 4373 63be
00000390: 1de5 f13d f7f0 69bd e7f2 eb3c 0504 f0bd
000003a0: f3cb 1cbd 9194 3fbe 7c01 2bbd aa93 0ebc
000003b0: 0d2e 87bc d49b 08be ce36 3dbd ee48 babc
000003c0: dd09 573e 7ce5 d13d 41c8 5b3e baa2 093e
000003d0: 08de 8abe a571 163e a096 2ebe 02cb 11be
000003e0: 0c71 a9bd 73e6 ef3d bfa9 a5bd 2514 033e
000003f0: fee0 db3d 972a 533e 36b4 6e3e ac0a d63d
-0.13034098 0.19609867 0.113129236 0.013197729 -0.0865579 -0.09317228 -0.0045384197 0.076029055
-0.021849569 0.09298409 0.092996575 0.10667605 -0.0026942322 0.16277148 0.13443859 0.12762785
0.29190665 0.13438818 -0.06492535 -0.080826044 -0.22131377 -0.026480956 0.16032802 -0.050688826
-0.004199105 0.123781726 0.07103658 0.15378173 -0.020024657 -0.11805968 0.013418634 0.10349706
-0.103014275 -0.06700022 0.109356254 0.06086954 -0.037925344 0.043009065 0.05291293 0.11796341
0.016192475 0.10522899 0.082025 -0.09374656 -0.03909411 0.10379455 -0.1444118 0.07092455
-0.056735344 0.036365956 -0.045216486 -0.00081277854 0.15540013 -0.053032614 0.21965724 0.14552347
-0.024799269 -0.062147543 -0.05832097 0.038001973 -0.06814423 0.10076375 -0.21808147 -0.08448632
-0.1782919 0.13383539 0.5327417 -0.024392243 -0.5081595 -0.4393717 -0.036270235 -0.3642254
0.03447027 -0.073708355 -0.045676958 -0.32284138 0.123045504 -0.34572047 0.008012765 0.061349917
0.19178286 -0.2522583 0.10458555 -0.16067559 -0.073718645 -0.09692888 -0.064088605 -0.2554406
-0.12056473 -0.08403544 -0.3975291 0.14040194 -0.14529052 0.092580006 -0.046811413 -0.17735822
0.06537906 -0.15058868 0.11163456 0.11070325 -0.07575224 0.08722003 -0.12341859 -0.18222539
-0.00067247736 -0.30791575 0.010413649 -0.24441662 0.14398682 -0.0021959713 -0.17546073 0.20717786
0.13484696 -0.18230751 0.35639095 0.26802027 -0.22410461 0.11901992 0.0029906293 -0.0012962057
-0.48356012 0.13918553 0.13254955 0.09997866 -0.2761398 0.41586673 0.16591468 0.032283388
-0.13447152 -0.04569168 0.11929797 0.07954615 -0.010567421 -0.080886886 0.028336933 0.042215575
0.15227488 -0.046295185 0.025475329 -0.054377623 0.06687783 0.059097305 -0.031418934 0.14920709
0.014988781 0.025030946 -0.0068863346 -0.09496459 -0.18531758 -0.14134954 0.123583995 0.0087862555
-0.029769555 0.0678898 0.030106481 -0.04035472 0.029177615 -0.008173866 0.026781965 -0.041066717
-0.06965911 -0.17947425 0.13810726 0.12894158 -0.05464046 0.17964807 -0.116266705 -0.06132591
-0.16609001 -0.18067592 0.0021778804 -0.12982243 -0.016497692 0.1603875 0.03431354 0.07924888
-0.082116894 -0.17954654 0.03773105 -0.12182307 0.17673805 0.053340033 0.14767702 -0.06431789
-0.0102825165 0.018789494 0.16447498 -0.04892914 -0.14810568 -0.0030750649 -0.11211504 -0.11425383
0.12363732 -0.19050473 0.046133675 -0.224863 -0.26467 -0.05704681 0.13660318 -0.07707706
-0.095219135 -0.02467432 -0.25940096 -0.21096891 0.17266259 -0.15381293 -0.22392952 -0.10424647
-0.022396965 -0.11225531 0.015524743 -0.17969212 0.041318715 -0.03517112 -0.14739574 -0.1148034
0.016615266 -0.20073436 -0.15785809 0.015238507 -0.16976126 0.24235846 0.25406444 -0.103813894
0.1229844 0.22878794 -0.14061111 -0.22211938 0.11811278 -0.057114568 0.028802348 -0.11719517
-0.03828044 -0.18709017 -0.041749462 -0.008702198 -0.01650145 -0.13340694 -0.046194844 -0.022739854
0.20999856 0.10248849 0.2146311 0.13440982 -0.2712252 0.1469179 -0.17049646 -0.14237598
-0.08273515 0.117138766 -0.08089017 0.12800653 0.10736273 0.20621715 0.23310933 0.10451254
