Result/GCN/1000_sample/model_epoch_17_f1_0.7335.pth (torch, 841514 bytes, 42 tensors)

graph_matcher.gnn.conv1.bias f4 [64]
-0.068934724 -0.004955998 0.034446377 -0.029734885 0.09815296 0.044078227 0.05695206 -0.050073277
-0.027255781 0.024856994 0.01402411 -0.030907301 -0.0149250375 -0.021906469 -0.19357687 0.008842302
-0.004389585 0.0 -0.03341077 0.048354015 0.03624345 0.0 0.0 0.0
-0.05905442 -0.010119021 0.059506852 0.10726636 0.12131441 0.1425754 0.018146379 -0.10482247
-0.060043868 0.020098701 -0.05301055 -0.025855651 -0.06777498 -0.068924695 -0.023344753 0.08704181
0.0 -0.07857096 -0.107405886 0.0 -0.023762813 -0.03696249 -0.10416755 0.0020001219
-0.025662465 -0.12425082 -0.062828824 -0.02750214 -0.055051625 0.096860945 0.0 0.16729258
0.13433936 0.030253597 -0.040941134 0.0073459195 -0.062122468 0.0227294 0.1068657 -0.020441048
00000000: a62d 8dbd ed65 a2bb a517 0d3d 9396 f3bc
00000010: 6b04 c93d 5f8b 343d 9046 693d a319 4dbd
00000020: 8447 dfbc e5a0 cb3c 61c5 653c 4f31 fdbc
00000030: 2588 74bc 3275 b3bc 0439 46be 4ddf 103c
00000040: 82d6 8fbb 0000 0000 bbd9 08bd dc0e 463d
00000050: 0374 143d 0000 0000 0000 0000 0000 0000
00000060: 0ce3 71bd 40ca 25bc 75bd 733d 77ae db3d
00000070: b073 f83d 49ff 113e b7a7 943c 2aad d6bd
00000080: 8ff0 75bd 08a6 a43c 9721 59bd 3bcf d3bc
00000090: 9ccd 8abd 6428 8dbd 7f3d bfbc fa42 b23d
000000a0: 0000 0000 d0e9 a0bd 9ef7 dbbd 0000 0000
000000b0: 3baa c2bc fb65 17bd cc55 d5bd 7a14 033b
000000c0: 173a d2bc 3777 febd 66ac 80bd 2b4c e1bc
000000d0: d07d 61bd 085f c63d 0000 0000 bf4e 2b3e
000000e0: 4290 093e 64d6 f73c e4b1 27bd 0ab6 f03b
000000f0: 2174 7ebd 0233 ba3c 67dc da3d fc73 a7bc

graph_matcher.gnn.conv1.lin.weight f4 [64, 4]
0.67282647 0.17755446 0.04359354 -0.04939173 -0.22676405 0.02282767 -0.22403032 0.2042072
0.09274024 0.272347 -0.3162985 -0.32182583 -0.18473493 -0.24044752 -0.16569081 0.13443056
0.81156045 -0.076663874 0.35569364 -0.14156899 -0.33843416 -0.27088594 -0.30930966 0.17249086
-0.34494177 -0.040911503 -0.28355855 0.13970803 -0.31319734 0.17635944 -0.04603179 0.16344436
-0.16248259 0.1838011 -0.31026924 0.17758277 -0.21869703 0.07049341 -0.1673136 0.085210785
-0.26126057 -0.3744588 -0.27743128 0.22696394 -0.1823887 -0.23600271 -0.22370173 0.20693034
-0.06374499 -0.28905436 -0.17716068 0.056089517 0.5502033 -0.0027815409 -0.04903593 -0.13047302
0.033471834 -0.28225926 0.02302011 0.067765236 0.6086753 0.12293699 0.631413 -0.007864195
-0.20560244 -0.16190235 -0.24795115 0.15871748 -0.28061903 -0.21111086 -0.29556087 -0.17309652
-0.106339626 0.07229637 -0.20263946 0.11476616 -0.3596062 0.05131775 -0.36910948 0.23591588
-0.1890706 -0.23373634 -0.16400714 0.043745086 -0.28650683 -0.07311313 -0.06456424 -0.079367965
-0.28557512 -0.13893355 -0.10889581 -0.21781094 -0.074710816 -0.13019384 -0.12930468 -0.21281184
-0.22150525 0.23158681 -0.124597736 0.19038269 0.48859537 0.0026302473 -0.22243887 -0.042070515
-0.028253978 0.10098145 0.6033204 -0.2798115 0.83012104 -0.009805609 0.67051136 -0.22166488
0.57023287 0.024072215 0.8019174 -0.25532645 0.45364696 -0.15658844 0.8677994 -0.11377923
-0.10565972 0.20709033 -0.39765754 -0.28048694 0.12949745 -0.321908 -0.09577281 0.09700469
-0.27443543 -0.12126891 -0.24010915 -0.04599465 0.6818248 -0.00622332 0.8462599 -0.039404493
-0.060342275 -0.11675624 -0.14897154 0.009145796 0.3789437 -0.361072 -0.35395062 -0.019926589
-0.21422593 -0.12968758 0.2722012 -0.34570816 -0.12066297 -0.0049630217 -0.09568222 -0.041624766
-0.17170295 -0.07071272 0.0017496932 -0.20374751 0.799694 -0.08758492 0.687659 -0.1075711
-0.06225027 -0.155868 -0.22904378 -0.22162914 0.11211294 0.25328615 -0.13433705 -0.26122257
0.30665183 -0.0056576747 0.12117195 0.12474686 -0.26243156 -0.25326967 -0.21028283 -0.20024794
-0.28789636 -0.27776977 -0.14487354 0.21374379 -0.1672666 -0.15603685 -0.29381424 0.08353294
-0.29669812 0.23225898 -0.047063485 -0.18397187 0.6040525 0.11087343 -0.18502605 -0.061062746
0.015228232 -0.1759044 -0.09958264 -0.14159817 0.31859037 -0.3073706 0.34362134 0.02325551
0.61496824 0.058584604 0.5637324 0.00025125017 -0.11395041 -0.24957347 -0.29303196 0.16301347
-0.051728006 0.26488268 -0.29196736 -0.15767588 0.5425046 0.12813273 0.7044789 -0.11285411
-0.06148219 -0.25929296 -0.068211615 -0.14990811 0.46635583 0.009954974 0.6317623 -0.18261155
0.46176186 -0.13956118 0.88724345 -0.054920606 -0.031169351 -0.5017564 0.9185344 -0.016372932
-0.21308792 -0.46703735 0.55587626 -0.05753258 0.52565455 0.10397461 -0.05126293 -0.2800697
-0.13414538 0.20673215 -0.21085456 0.25778514 -0.2915117 -0.28106275 -0.34748426 0.19931982
0.54220825 0.15596485 0.60259295 -0.25027743 0.5576814 -0.14400604 0.4795894 -0.0128978845
00000000: 5b3e 2c3f d6d0 353e 248f 323d fc4e 4abd
00000010: d634 68be 1801 bb3c 3468 65be b11b 513e
00000020: 98ee bd3d 1171 8b3e e1f1 a1be 5bc6 a4be
00000030: 272b 3dbe e037 76be daaa 29be 2aa8 093e
00000040: 6dc2 4f3f f301 9dbd 7a1d b63e 76f7 10be
00000050: 3e47 adbe 90b1 8abe d65d 9ebe 72a1 303e
00000060: 359c b0be d292 27bd 962e 91be 9f0f 0f3e
00000070: 675b a0be 9297 343e d58b 3cbd f55d 273e
00000080: d661 26be 5b36 3c3e 9cdb 9ebe 42d8 353e
00000090: 1df2 5fbe d95e 903d 4254 2bbe fe82 ae3d
000000a0: f2c3 85be 10b9 bfbe 790b 8ebe 3c69 683e
000000b0: 1ac4 3abe b2aa 71be 1112 65be 8ce5 533e
000000c0: bc8c 82bd effe 93be 9c69 35be 1fbe 653d
000000d0: 20da 0c3f 834a 36bb e6d9 48bd b89a 05be
000000e0: c319 093d 4984 90be ab94 bc3c 80c8 8a3d
000000f0: 25d2 1b3f 63c6 fb3d 48a4 213f d3d8 00bc
00000100: 7289 52be bbc9 25be e8e6 7dbe d686 223e
00000110: 4cad 8fbe 722d 58be c153 97be 3740 31be
00000120: 97c8 d9bd 1f10 943d b880 4fbe 850a eb3d
00000130: 4e1e b8be 9032 523d ebfb bcbe ef93 713e
00000140: b99b 41be 9458 6fbe 7df1 27be 0c2e 333d
00000150: 06b1 92be 56bc 95bd 423a 84bd ac8b a2bd
00000160: e736 92be 9944 0ebe c404 dfbd d509 5fbe
00000170: fc01 99bd 8951 05be 7268 04be 59eb 59be
00000180: 46d2 62be 1825 6d3e 192d ffbd aef3 423e
00000190: 2c29 fa3e 3a60 2c3b 04c7 63be 2252 2cbd
000001a0: e374 e7bc 5dcf ce3d 3573 1a3f 7443 8fbe
000001b0: d082 543f b4a7 20bc a2a6 2b3f 1efc 62be
000001c0: c8fa 113f 1833 c53c 754a 4d3f 26ba 82be
000001d0: 6a44 e83e b858 20be 1a28 5e3f 1605 e9bd
000001e0: 2064 d8bd 7d0f 543e c599 cbbe fc9b 8fbe
000001f0: fb9a 043e 20d1 a4be 8924 c4bd 65aa c63d
00000200: cd82 8cbe d65b f8bd 2cdf 75be e364 3cbd
00000210: 128c 2e3f feec cbbb 7da4 583f 9b66 21bd
00000220: 7629 77bd e51d efbd ff8b 18be 40d8 153c
00000230: e904 c23e 6ede b8be 0439 b5be 163d a3bc
00000240: 0b5e 5bbe d2cc 04be f55d 8b3e a900 b1be
00000250: 261e f7bd d8a0 a2bb 0af5 c3bd bb7e 2abd
00000260: e6d2 2fbe d5d1 90bd f655 e53a 30a3 50be
00000270: bfb8 4c3f b95f b3bd 6c0a 303f 3d4e dcbd
00000280: 24fa 7ebd dc9b 1fbe 748a 6abe c0f2 62be
00000290: 789b e53d b9ae 813e a78f 09be f7be 85be
000002a0: 7801 9d3e 0464 b9bb 0029 f83d 487b ff3d
000002b0: 6e5d 86be 90ac 81be 6254 57be cc0d 4dbe
000002c0: 2767 93be d737 8ebe bb59 14be a7df 5a3e
000002d0: f047 2bbe 20c8 1fbe d26e 96be 5113 ab3d
000002e0: d1e8 97be 4cd5 6d3e a4c5 40bd 1f63 3cbe
000002f0: 2fa3 1a3f 9c11 e33d 7877 3dbe ee1c 7abd
00000300: d67f 793c 4820 34be fcf1 cbbd 1cff 10be
00000310: 471e a33e ae5f 9dbe 23ef af3e 5782 be3c
00000320: 8f6e 1d3f 69f6 6f3d c450 103f 3aba 8339
00000330: d55e e9bd 3090 7fbe 4908 96be 01ed 263e
00000340: bfe0 53bd b49e 873e bf7c 95be c975 21be
00000350: 95e1 0a3f 3a35 033e bb58 343f 0e20 e7bd
00000360: c0d4 7bbd 0cc2 84be 88b2 8bbd 8381 19be
00000370: 31c6 ee3e 301a 233c 2dbb 213f 86fe 3abe
00000380: 0d6c ec3e 20e9 0ebe 6322 633f 6ef4 60bd
00000390: de56 ffbc 1c73 00bf 1225 6b3f 8720 86bc
000003a0: b833 5abe 851f efbe e84d 0e3f 48a7 6bbd
000003b0: 4c91 063f a4f0 d43d 14f9 51bd 4c65 8fbe
000003c0: 685d 09be 98b1 533e 42ea 57be 6afc 833e
000003d0: 0641 95be 75e7 8fbe 75e9 b1be 7f1a 4c3e
000003e0: 29ce 0a3f 40b5 1f3e 8843 1a3f 5d24 80be
000003f0: 35c4 0e3f 5276 13be be8c f53e a651 53bc

graph_matcher.gnn.conv2.bias f4 [128]
0.037179645 -0.039474256 -0.034063682 -0.05397789 -0.064133465 -0.038134333 -0.0043088105 -0.015563207
-0.06070391 -0.057794 -0.12457514 -0.065358005 -0.058733698 -0.038628843 -0.06262754 -0.0520032
-0.099347636 -0.050994538 -0.07482344 -0.03405513 -0.04755214 -0.03791709 -0.018100608 0.032350227
-0.04367141 -0.014952004 0.037961442 -0.064068876 0.0018151149 0.012223693 0.0051422133 0.013760922
-0.015986053 -0.052403186 -0.050356146 -0.007470259 -0.06054626 -0.04627698 -0.058977127 -0.072368294
-0.012242207 0.041234743 -0.060158707 0.020005135 -0.019383945 -0.037128735 -0.07789202 -0.020856403
-0.016127996 -0.061533008 -0.041634656 -0.08439383 0.025189698 -0.05722603 0.04117412 -0.015157807
-0.06309957 0.024906501 0.060185652 -0.0053819506 -0.013931528 -0.07833371 -0.033422492 -0.042393297
0.02379411 -0.035067376 -0.07236493 -0.0023446616 -0.078858 -0.07968266 0.016911333 -0.06800419
0.030811893 0.0074558714 0.05415776 0.009042218 0.0014408561 -0.05528669 -0.056026448 -0.022378992
-0.052975275 0.026578043 -0.079534456 -0.023179183 -0.038936134 -0.009648443 -0.05160081 0.011900851
-0.02041269 0.005593344 -0.12332254 -0.05945648 -0.022361109 -0.10748108 -0.064988285 -0.016283048
-0.09612838 -0.022731785 0.015285408 -0.06120985 -0.033033818 -0.05065151 0.057460245 -0.025616294
0.014240228 0.031127851 -0.01714342 -0.060893603 -0.06837013 -0.0013599804 -0.0291146 -0.036034808
-0.042192098 0.029609634 -0.050791614 -0.017416501 -0.06868002 -0.033172417 -0.035112843 -0.055613223
-0.034959674 -0.059045248 -0.049943168 -0.030208552 -0.050281465 -0.015378371 -0.02823017 0.005535284
00000000: af49 183d c2af 21bd 5c86 0bbd ec17 5dbd
00000010: 6858 83bd bf32 1cbd ec30 8dbb d2fc 7ebc
00000020: aaa4 78bd 67b9 6cbd 4021 ffbd 6bda 85bd
00000030: bf92 70bd 4739 1ebd de42 80bd 4f01 55bd
00000040: c676 cbbd a6df 50bd 083d 99bd 647d 0bbd
00000050: 08c6 42bd f34e 1bbd ba47 94bc ac81 043d
00000060: cbe0 32bd 40f9 74bc 757d 1b3d 8b36 83bd
00000070: 26e9 ed3a e245 483c 0380 a83b 7d75 613c
00000080: 2ff5 82bc b9a4 56bd 3f42 4ebd 13c9 f4bb
00000090: 5bff 77bd ee8c 3dbd 0092 71bd d435 94bd
000000a0: 8a93 48bc c3e5 283d fa68 76bd cfe1 a33c
000000b0: 14cb 9ebc 4d14 18bd da85 9fbd 0cdb aabc
000000c0: dc1e 84bc 090a 7cbd 1a89 2abd acd6 acbd
000000d0: a05a ce3c d765 6abd 32a6 283d 7358 78bc
000000e0: 593a 81bd b808 cc3c 3b85 763d 135b b0bb
000000f0: 1041 64bc 6d6d a0bd 06e6 08bd 98a4 2dbd
00000100: deeb c23c cfa2 0fbd 1034 94bd e5a8 19bb
00000110: 4e80 a1bd aa30 a3bd a389 8a3c c845 8bbd
00000120: 3969 fc3c 6250 f43b 87d4 5d3d d025 143c
00000130: 1cdb bc3a 4c74 62bd fd7b 65bd 2654 b7bc
00000140: 9afc 58bd 32ba d93c f6e2 a2bd 45e2 bdbc
00000150: 7f7b 1fbd 8114 1ebc 5f5b 53bd c9fb 423c
00000160: 8338 a7bc 5f48 b73b 8790 fcbd a388 73bd
00000170: a52e b7bc 0a1f dcbd 9418 85bd 0764 85bc
00000180: f5de c4bd 0238 babc a66f 7a3c 2eb7 7abd
00000190: 784e 07bd f577 4fbd 6f5b 6b3d 43d9 d1bc
000001a0: d84f 693c d6ff fe3c 5c70 8cbc 926b 79bd
000001b0: a405 8cbd 5f41 b2ba be81 eebc 3c99 13bd
000001c0: 9fd1 2cbd e78f f23c de0a 50bd 0dad 8ebc
000001d0: 1ca8 8cbd cddf 07bd 7cd2 0fbd b1ca 63bd
000001e0: e031 0fbd 6ed9 71bd 3591 4cbd ed77 f7bc
000001f0: f0f3 4dbd 90f5 7bbc f542 e7bc 5461 b53b

graph_matcher.gnn.conv2.lin.weight f4 [128, 64]
0.17735057 0.020861452 0.2966355 -0.20656241 0.17023012 -0.10919652 0.08780484 -0.05866456
-0.019898446 -0.053695925 -0.25319445 -0.09329316 0.099572584 0.14913228 -0.044694252 0.27383304
0.009239489 -0.061496213 -0.141842 -0.12862925 -0.21754536 0.16720648 0.03066434 0.1584575
0.0078028888 0.40609828 0.3324198 0.53902924 0.36521438 0.32244346 0.30314225 0.074042566
0.02885922 0.20240822 0.039313223 0.19499929 -0.08665204 0.05585795 0.16895543 0.39587057
0.0049190074 0.072215594 0.0748927 0.019136906 -0.10312447 0.02879262 0.19898067 0.268696
-0.1934569 -0.11699773 -0.03579928 -0.18834314 0.02707132 0.3594065 0.1744547 0.7369119
0.7126661 0.41960967 0.35258842 0.45284653 -0.18127885 -0.13985658 0.24223381 0.33875427
-0.25899342 -0.09618014 0.0027392968 0.077667944 -0.15767422 -0.058317903 0.10819368 -0.14301653
-0.092160195 0.06677815 -0.11919564 -0.043353356 0.01682148 -0.1270811 0.13896103 -0.07614788
0.07431112 -0.13722691 0.06320382 0.1020074 -0.049862552 0.16062506 -0.028124735 -0.11060385
0.025174795 -0.06882821 -0.038014747 -0.24805932 -0.20060275 -0.2966871 -0.20444997 0.13676825
0.04003003 -0.026463388 0.03166824 0.02154306 -0.09985982 0.0045194016 -0.109373264 -0.19345018
0.01947458 -0.21483654 0.0324565 0.07977651 0.07182833 -0.0032183272 -0.25297126 0.017003223
-0.103285715 -0.176621 -0.13404927 0.021577567 -0.29539716 0.007731018 -0.023028433 -0.046933983
-0.13532974 -0.09381984 0.0035817358 -0.13003603 -0.017449515 0.09588872 -0.34520864 -0.07770089
0.027792417 0.021045847 -0.13465405 -0.15413149 -0.13800326 0.11768988 0.02806626 -0.11009935
-0.08563191 -0.19216542 -0.15019007 -0.020368319 -0.11489874 -0.09471342 -0.10295813 -0.19389524
-0.10688689 0.16534336 -0.1813368 -0.016305372 -0.14970227 -0.114009075 -0.12730378 0.006182179
-0.00640748 -0.23863868 -0.100370765 -0.12593625 -0.2493134 -0.07054555 0.07527439 0.03486505
0.19630145 -0.23930515 -0.13932982 0.05421143 0.04036578 -0.06285632 0.06285706 -0.0762822
-0.018228382 0.09287831 0.0038713913 -0.17155705 0.14483857 -0.110784635 -0.04141562 0.003202715
-0.17207357 -0.0901858 -0.038380507 -0.06720571 -0.17076504 0.0046448833 -0.018903702 -0.20076405
-0.045854755 -0.26923728 0.13713776 0.074167386 0.048189126 -0.030182028 -0.13305232 0.025416378
0.057639986 0.12855811 -0.13662824 0.017343609 -0.07566671 0.14252399 -0.08188127 -0.18776947
0.00089629146 0.0043044426 0.050645724 0.09408621 -0.16617548 -0.12538014 -0.08362337 -0.20352633
-0.20595142 0.09015043 -0.15233186 -0.1655622 -0.1579959 0.021469906 0.064497516 -0.17275369
0.049652264 -0.009050036 0.013896237 -0.2155206 -0.27425843 -0.38655224 0.18547074 0.036087275
-0.026472483 -0.31225595 -0.09763352 -0.032257196 -0.22258584 -0.14562906 -0.17784312 -0.2095397
0.0605859 -0.19226909 0.10805901 -0.030187115 0.045582835 0.07721806 -0.27491063 -0.13269585
-0.22357166 -0.13875534 0.023528509 0.058895368 -0.38762608 -0.12539032 0.09168865 -0.008937306
-0.20316347 -0.021755366 -0.2447252 0.0020078213 0.053850442 -0.10784003 -0.098996796 0.011863474
00000000: 639b 353e a3e5 aa3c 9ce0 973e 1985 53be
00000010: ce50 2e3e 6da2 dfbd 06d3 b33d 404a 70bd
00000020: 1102 a3bc 42f0 5bbd b4a2 81be 7c10 bfbd
00000030: b6ec cb3d 22b6 183e 5211 37bd d833 8c3e
00000040: 3a61 173c 74e3 7bbd 073f 11be 63b7 03be
00000050: 36c4 5ebe 2d38 2b3e c833 fb3c af42 223e
00000060: 60af ff3b 1dec cf3e ee32 aa3e d2fd 093f
00000070: 61fd ba3e 4f17 a53e 7635 9b3e a1a3 973d
00000080: 2c6a ec3c 1a44 4f3e e706 213d e5ad 473e
00000090: a076 b1bd 4ecb 643d a702 2d3e 8caf ca3e
000000a0: a02f a13b c5e5 933d 5861 993d 00c5 9c3c
000000b0: ec32 d3bd 80de eb3c 97c1 4b3e 8692 893e
000000c0: 9119 46be 829c efbd 44a2 12bd 06dd 40be
000000d0: acc4 dd3c 2104 b83e 41a4 323e 42a6 3c3f
000000e0: 4971 363f 14d7 d63e 7886 b43e 80db e73e
000000f0: 2aa1 39be 9036 0fbe 240c 783e 3371 ad3e
00000100: c99a 84be 18fa c4bd c685 333b 5f10 9f3d
00000110: 5a75 21be c1de 6ebd a694 dd3d ed72 12be
00000120: 7cbe bcbd fcc2 883d d81c f4bd 4a93 31bd
00000130: 33cd 893c 8c21 02be cd4b 0e3e 6bf3 9bbd
00000140: 6e30 983d 3685 0cbe 0171 813d 41e9 d03d
00000150: ad3c 4cbd e57a 243e d865 e6bc 4584 e2bd
00000160: 5f3b ce3c cef5 8cbd 5ab5 1bbd 4303 7ebe
00000170: cf6a 4dbe 5fe7 97be 555b 51be fa0c 0c3e
00000180: 87f6 233d bfc9 d8bc 8eb6 013d 127b b03c
00000190: 4e83 ccbd 7d17 943b 17ff dfbd ce17 46be
000001a0: 2889 9f3c 1cfe 5bbe 1bf1 043d de61 a33d
000001b0: bb1a 933d 92ea 52bb 7385 81be 584a 8b3c
000001c0: 7687 d3bd 23dc 34be 3644 09be 70c3 b03c
000001d0: 4c3e 97be 7b54 fd3b 20a6 bcbc d93d 40bd
000001e0: e193 0abe 9e24 c0bd 8ebb 6a3b 2a28 05be
000001f0: 49f2 8ebc 4e61 c43d 30bf b0be a521 9fbd
00000200: ecac e33c 5768 ac3c c0e2 09be a5d4 1dbe
00000210: ba50 0dbe 6407 f13d 37eb e53c c57b e1bd
00000220: c85f afbd 03c7 44be 6dcb 19be 76db a6bc
00000230: 0850 ebbd 1cf9 c1bd b6db d2bd 798c 46be
00000240: 84e7 dabd c54f 293e 5bb0 39be d892 85bc
00000250: 8d4b 19be 977d e9bd ec5b 02be e093 ca3b
00000260: d7f5 d1bb b35d 74be 308f cdbd 6ff5 00be
00000270: 034c 7fbe 2f7a 90bd 7629 9a3d a8ce 0e3d
00000280: 3f03 493e 690c 75be 7aac 0ebe ce0c 5e3d
00000290: 9756 253d d0ba 80bd 34bb 803d d839 9cbd
000002a0: b053 95bc fc36 be3d 2bb7 7d3b a7ac 2fbe
000002b0: 9050 143e 0ee3 e2bd 6da3 29bd a4e4 513b
000002c0: 0e34 30be 55b3 b8bd e134 1dbd 26a3 89bd
000002d0: 08dd 2ebe 1b34 983b f0db 9abc 1795 4dbe
000002e0: 32d2 3bbd 78d9 89be d76d 0c3e 12e5 973d
000002f0: f661 453d 4d40 f7bc de3e 08be 0236 d03c
00000300: e817 6c3d bda4 033e 46e8 0bbe 2f14 8e3c
00000310: 26f7 9abd cff1 113e 5eb1 a7bd a446 40be
00000320: 1af5 6a3a 480c 8d3b e471 4f3d 45b0 c03d
00000330: e829 2abe a763 00be bb42 abbd 3569 50be
00000340: eee4 52be caa0 b83d e2fc 1bbe 2389 29be
00000350: adc9 21be a8e1 af3c 4617 843d 58e6 30be
00000360: 2c60 4b3d 9a46 14bc 0bad 633c 6fb1 5cbe
00000370: 9a6b 8cbe 2dea c5be 0bec 3d3e 40d0 133d
00000380: d2dc d8bc 03e0 9fbe 15f4 c7bd 1f20 04bd
00000390: 8bed 63be c91f 15be 821c 36be 9391 56be
000003a0: ec28 783d 30e2 44be 0b4e dd3d f84a f7bc
000003b0: 11b5 3a3d 8124 9e3d 16c1 8cbe 6ce1 07be
000003c0: f8ef 64be e115 0ebe dcbe c03c 453c 713d
000003d0: ed76 c6be 5266 00be 42c7 bb3d c76d 12bc
000003e0: 160a 50be 4f38 b2bc 3e99 7abe a795 033b
000003f0: 4892 5c3d 3cdb dcbd d5be cabd 045f 423c

graph_matcher.mlp.0.weight f4 [128, 256]
-0.25176013 -0.0098544415 0.07005508 0.039572727 -0.008285219 0.06960724 -0.13026384 0.08250212
0.10257015 -0.009520676 -0.0032315233 0.01918152 -0.026248844 0.041499153 0.020772127 -0.023601878
-0.024489488 0.08583163 0.05919323 -0.023061011 0.0807195 -0.054188922 -0.008131595 -0.21441492
0.060223695 0.0025627778 0.11882567 0.09820934 0.08432839 -0.16064936 -0.080686875 -0.0027616718
-0.051656723 0.041274507 0.011111333 -0.004158255 0.088472106 -0.13749495 0.09050443 -0.029058404
-0.02379122 0.09652535 0.0012435638 -0.1866809 -0.02614998 0.059455775 0.026565416 0.043855432
0.027191965 0.07207204 -0.018036153 0.034221627 0.015251475 -0.0036378887 -0.36584336 0.037108775
0.085065834 0.028732868 -0.29528564 -0.06955594 0.04809514 0.039104406 0.03202016 0.053470396
0.029974395 0.036328036 0.01807419 -0.16191758 0.05027461 -0.053836785 0.025854157 0.08493791
0.02873311 0.027468378 -0.2199848 0.10266567 0.07091015 0.05242306 0.057424184 -0.0780531
0.087678544 0.08442068 0.08106486 -0.04122549 0.019468905 0.07316497 -0.19391789 0.11317469
-0.24030365 0.105985925 0.0046647154 -0.07564199 0.052862223 -0.035913788 -0.0036052507 -0.0062291487
-0.04730691 -0.017885786 0.007113784 0.00454934 -0.015396263 -0.025298454 -0.29615936 0.01480031
0.065954655 -0.017414682 -0.043597676 0.09072937 0.045825675 0.004979527 -0.0029976685 -0.008845662
0.03021953 -0.014157475 -0.09548057 0.030491233 -0.051793512 0.07387016 -0.03687406 0.038074378
-0.0017466523 -0.03645837 -0.02620618 0.039158028 0.041912764 -0.029056596 0.026398793 0.04479963
-0.1932015 -0.029778047 -0.060765747 -0.0030297306 -0.083287805 0.010703101 -0.24315608 -0.018620066
0.0039718687 0.032710567 -0.16324362 0.023064423 0.012319145 -0.015601302 0.014710521 -0.031233624
0.07750582 0.0080021545 0.0377318 0.026562525 0.048030764 0.025151204 -0.03091636 -0.20911843
0.032500256 0.02335655 0.098098576 0.09256551 0.052304335 -0.1609128 -0.18228552 -0.0103890225
0.050921775 0.0021866907 -0.01596753 -0.07542743 -0.04349076 -0.11700902 -0.060162492 -0.044199508
-0.020829484 0.00087818946 0.015293778 -0.19967356 0.047731496 0.06460209 0.054209005 -0.03262059
0.027827729 0.035589773 -0.019728102 0.08804393 0.122738406 0.016289987 -0.35137782 0.0115578
0.03265795 0.058140747 -0.3638705 -0.013855297 -0.026690492 -0.07597686 0.039741274 0.025072152
0.040029325 0.014665292 -0.044137698 -0.20711778 0.035159573 -0.07420914 0.06059097 0.061870106
0.07826525 0.052197475 -0.2544041 0.0389875 0.00182252 0.024811726 0.038281463 -0.05208502
0.08193911 0.060713515 0.1138326 0.02349852 -0.06909253 0.026390195 -0.19773304 0.0017966732
-0.19325943 0.036284365 -0.08172468 -0.010201001 0.032726835 -0.14770281 -0.036622684 -0.034936134
0.073278606 0.047239006 0.04208002 0.0983654 -0.010963796 -0.02401918 -0.31167674 0.046666946
-0.021612193 0.07772245 -0.037650444 0.06975377 0.037862785 0.095112465 0.020992836 0.03187444
0.066684216 0.10898081 -0.09483375 -0.035226323 -0.060692668 0.035280723 -0.021215163 -0.006117703
0.01932632 0.069344416 0.057172157 0.08451976 0.017168127 0.025813118 0.06696825 0.028481923
00000000: b4e6 80be 8674 21bc 0a79 8f3d 0317 223d
00000010: babe 07bc 3e8e 8e3d e263 05be dff6 a83d
00000020: 4c10 d23d 9cfc 1bbc f7c7 53bb 9022 9d3c
00000030: d107 d7bc 04fb 293d 4f2a aa3c ba58 c1bc
00000040: 2e9e c8bc 7ec8 af3d 9a74 723d 72ea bcbc
00000050: 4450 a53d 34f5 5dbd 623a 05bc 968f 5bbe
00000060: 1fad 763d 47f4 273b df5a f33d fa21 c93d
00000070: 5db4 ac3d 4481 24be 293f a5bd 2afd 34bb
00000080: 0096 53bd 750f 293d 4f0c 363c f941 88bb
00000090: dd30 b53d 7acb 0cbe 635a b93d e40b eebc
000000a0: cee5 c2bc 15af c53d 14ff a23a 4729 3fbe
000000b0: 7c38 d6bc e687 733d b79f d93c c1a1 333d
000000c0: afc1 de3c 819a 933d 8ec0 93bc fa2b 0c3d
000000d0: 53e1 793c a569 6ebb d24f bbbe 5fff 173d
000000e0: ff36 ae3d 3161 eb3c ae2f 97be 5873 8ebd
000000f0: 69ff 443d f12b 203d 9227 033d c603 5b3d
00000100: dd8c f53c b5cc 143d 5310 943c b9cd 25be
00000110: c0ec 4d3d f683 5cbd 19cc d33c edf3 ad3d
00000120: b361 eb3c 5d05 e13c b243 61be 6142 d23d
00000130: 5739 913d 90b9 563d 9f35 6b3d 4eda 9fbd
00000140: cf90 b33d c0e4 ac3d 5505 a63d 0fdc 28bd
00000150: 417d 9f3c 84d7 953d 6992 46be 22c8 e73d
00000160: 2912 76be 260f d93d 78da 983b 30ea 9abd
00000170: 0f86 583d 561a 13bd 1246 6cbb e31d ccbb
00000180: e4c4 41bd 3685 92bc bf1a e93b a112 953b
00000190: 9c40 7cbc b43e cfbc 33a2 97be 007d 723c
000001a0: 3c13 873d 3ca9 8ebc 7a93 32bd 52d0 b93d
000001b0: b4b3 3b3d 4d2b a33b 8874 44bb 65ed 10bc
000001c0: f38e f73c c1f4 67bc 518b c3bd c0c8 f93c
000001d0: 6f25 54bd 3d49 973d 4109 17bd e1f3 1b3d
000001e0: edef e4ba 5f55 15bd 58ae d6bc 2b64 203d
000001f0: b8ac 2b3d 1908 eebc 4842 d83c d17f 373d
00000200: 9dd6 45be 17f1 f3bc 81e5 78bd 728e 46bb
00000210: cc92 aabd 0f5c 2f3c e8fd 78be 1c89 98bc
00000220: 7326 823b 84fb 053d 5629 27be 9af1 bc3c
00000230: 3dd6 493c 9a9c 7fbc 6604 713c a8dd ffbc
00000240: 5fbb 9e3d 781b 033c a98c 1a3d a799 d93c
00000250: e8bb 443d e609 ce3c 4e44 fdbc 2423 56be
00000260: fd1e 053d 3c56 bf3c e8e7 c83d fc92 bd3d
00000270: 123d 563d 53c6 24be 0ea9 3abe b836 2abc
00000280: 5a93 503d 954e 0f3b 56ce 82bc b279 9abd
00000290: 5e23 32bd 6da2 efbd f26c 76bd 8b0a 35bd
000002a0: 98a2 aabc 4c36 663a c192 7a3c 3a77 4cbe
000002b0: 1a82 433d 1a4e 843d 430a 5e3d 2b9d 05bd
000002c0: faf6 e33c 95c6 113d d49c a1bc 6050 b43d
000002d0: 465e fb3d 9472 853c cbe7 b3be ed5c 3d3c
000002e0: 58c4 053d fe24 6e3d 3c4d babe 5401 63bc
000002f0: 05a6 dabc c299 9bbd bfc7 223d 1d64 cd3c
00000300: caf5 233d b146 703c bbc9 34bd af16 54be
00000310: 7c03 103d f6fa 97bd 3d2e 783d 826b 7d3d
00000320: 8849 a03d 05cd 553d 4141 82be 5bb1 1f3d
00000330: a0e1 ee3a f641 cb3c 06cd 1c3d 1a57 55bd
00000340: b1cf a73d bcae 783d 1121 e93d f87f c03c
00000350: 6280 8dbd 4030 d83c 887a 4abe 597e eb3a
00000360: cde5 45be ea9e 143d 455f a7bd 1922 27bc
00000370: 930c 063d 683f 17be ab01 16bd 3119 0fbd
00000380: 1813 963d b07d 413d 195c 2c3d cd73 c93d
00000390: 7ea1 33bc dfc3 c4bc 1894 9fbe d725 3f3d
000003a0: 0e0c b1bc f32c 9f3d 5a37 1abd 11db 8e3d
000003b0: 0216 1b3d 53ca c23d 2bf9 ab3c c68e 023d
000003c0: bc91 883d 5531 df3d 3238 c2bd 7a49 10bd
000003d0: e098 78bd 8582 103d 6ccb adbc 0377 c8bb
000003e0: 3b52 9e3c 7204 8e3d 5a2d 6a3d b218 ad3d
000003f0: 2ca4 8c3c 0876 d33c a626 893d ec52 e93c

graph_matcher.mlp.0.bias f4 [128]
0.02572861 -0.03193625 -0.042137474 -0.1286006 -0.048880782 0.0449614 0.057084233 -0.09971653
0.056549765 -0.089801826 -0.021554103 0.021834983 -0.09497851 -0.012543024 0.04024745 -0.10256526
-0.07847874 0.04990957 -0.10124896 -0.114926465 0.04671317 0.008627075 -0.032824624 0.018217579
0.021797555 -0.046847813 -0.0498772 -0.026151508 -0.0020971224 -0.05139888 0.036308948 -0.07342114
-0.025593355 0.024710603 -0.13198832 0.01267529 -0.06450962 -0.11309791 -0.107331656 -0.002375022
-0.11850814 -0.09137765 -0.091800705 -0.04945924 0.06709699 0.00055151584 -0.090714656 -0.07894579
-0.020730127 -0.08032054 0.03358735 -0.1075285 -0.08378859 0.027369954 -0.059175454 -0.04658251
-0.1027917 0.01758997 -0.039333288 -0.08703592 0.022423664 0.012894702 0.037185576 -0.112903185
0.015481211 0.057498395 -0.040650986 0.007768933 0.038907863 -0.026098961 -0.065582715 -0.12618332
-0.03362321 0.035625845 -0.05647187 -0.041723073 0.059255045 -0.047661655 -0.03243541 -0.06205768
0.037788965 -0.08386686 -0.06232836 -0.004934045 -0.013636307 0.030407889 -0.0053656613 0.045988284
-0.015504128 -0.052324794 -0.020555384 0.04337659 0.032056436 -0.12093019 -0.025852703 0.05397617
-0.016016196 0.010545056 0.062449194 -0.11480819 -0.07364322 -0.035674375 -0.015167263 0.009479335
-0.08568088 -0.08642289 -0.12102788 -0.055082858 -0.05915092 0.04373867 0.0028902143 0.03294389
0.07340791 -0.057993133 -0.093469344 -0.016229525 -0.020007035 -0.018992513 0.041979473 0.047051158
-0.099060066 -0.01017225 -0.053369023 -0.10429849 0.009845927 -0.013079311 0.008468565 0.044395637
00000000: cec4 d23c 96cf 02bd 5898 2cbd e0af 03be
00000010: 3737 48bd 7229 383d 28d1 693d 2e38 ccbd
00000020: baa0 673d 05ea b7bd 3b92 b0bc 47df b23c
00000030: 1884 c2bd 4181 4dbc 83da 243d bc0d d2bd
00000040: 76b9 a0bd fa6d 4c3d 9d5b cfbd 915e ebbd
00000050: 4f56 3f3d 9358 0d3c 1d73 06bd 083d 953c
00000060: c990 b23c 7ee3 3fbd 094c 4cbd b03b d6bc
00000070: e06f 09bb a287 52bd b1b8 143d d35d 96bd
00000080: 28a9 d1bc e46d ca3c f227 07be 05ac 4f3c
00000090: 9f1d 84bd e19f e7bd b3d0 dbbd 42a6 1bbb
000000a0: 65b4 f2bd 3524 bbbd 0202 bcbd c695 4abd
000000b0: 266a 893d 9a93 103a 9bc8 b9bd 55ae a1bd
000000c0: 3ad2 a9bc 187f a4bd e492 093d e737 dcbd
000000d0: 5a99 abbd f436 e03c f661 72bd 4dcd 3ebd
000000e0: 7484 d2bd d718 903c f11b 21bd e33f b2bd
000000f0: d5b1 b73c 4d44 533c e74f 183d c939 e7bd
00000100: e8a4 7d3c 7083 6b3d a681 26bd 8992 fe3b
00000110: da5d 1f3d 7dcd d5bc 3b50 86bd 3336 01be
00000120: 7eb8 09bd 68ec 113d 0c4f 67bd d0e5 2abd
00000130: 6bb5 723d de38 43bd feda 04bd 3230 7ebd
00000140: 9ac8 1a3d 63c2 abbd 064c 7fbd c5ad a1bb
00000150: d16a 5fbc f719 f93c 6ed2 afbb 365e 3c3d
00000160: 0705 7ebc 8652 56bd c463 a8bc a7ab 313d
00000170: 9c4d 033d 3faa f7bd 0cc9 d3bc 1e16 5d3d
00000180: 6634 83bc 2cc5 2c3c baca 7f3d 8e20 ebbd
00000190: 42d2 96bd 4b1f 12bd 1d80 78bc 364f 1b3c
000001a0: 7579 afbd 7cfe b0bd 77dd f7bd 909e 61bd
000001b0: 3c48 72bd 5227 333d c069 3d3b 2cf0 063d
000001c0: e356 963d 358a 6dbd db6c bfbd c8f3 84bc
000001d0: cbe5 a3bc 3096 9bbc abf2 2b3d b7b8 403d
000001e0: 01e0 cabd 82a9 26bc 7a99 5abd 729a d5bd
000001f0: d050 213c 9b4a 56bc bcbf 0a3c 33d8 353d

graph_matcher.mlp.2.weight f4 [128, 128]
-0.038694244 -0.014958673 -0.022817828 -0.0007182881 0.07511737 0.015893748 -0.028712213 0.054885082
-0.0554174 -0.08488817 -0.13435645 0.09807024 -0.11889579 -0.092331395 0.0017073193 -0.004716277
0.06012196 -0.007233706 0.011646599 0.05844023 -0.13169238 -0.06713019 -0.072999604 -0.07573554
-0.012357301 -0.05313763 0.14770323 0.09055825 0.028509699 0.021099567 -0.110929705 -0.13832566
-0.011083524 -0.0518296 0.05994215 -0.08656511 -0.08718999 -0.070340276 -0.1448961 -0.116977915
0.039315052 -0.008215219 -0.051083054 0.015714556 -0.007655612 -0.101981066 -0.07324451 0.003832148
0.017478548 0.061933704 -0.052511796 -0.085546784 -0.09981521 0.018757107 -0.041597873 -0.09954215
-0.0011331512 -0.13254228 0.016500153 0.0010993034 -0.104759306 -0.07899219 0.025761092 -0.062298328
-0.047946103 -0.121049896 -0.06312802 -0.10292001 0.08861651 -0.12695561 0.055557996 0.13464472
-0.015843749 -0.121951915 0.0036089793 0.07721322 -0.0961312 0.008111809 -0.12046759 0.014482267
-0.077871785 -0.10517968 -0.030379638 -0.06054746 -0.1460633 -0.091508195 -0.07621408 0.015340822
-0.030107636 0.004944131 0.06681648 -0.038613465 -0.13567112 0.010572664 0.05914452 0.019210966
-0.018161435 -0.009617038 -0.14487113 0.087128766 -0.104899 0.12973768 -0.046955913 -0.11851734
0.006905917 -0.05266961 0.088116445 0.047721617 -0.060879976 0.0012754843 0.050453566 -0.008060073
-0.039923504 0.0155005 0.006442137 0.0743537 -0.20107652 -0.066103145 0.0010834275 -0.118846364
0.019482665 -0.11084642 -0.0013338178 0.06486862 -0.08165789 -0.060847297 0.03989088 -0.11839453
-0.07933386 -0.073682584 0.054523937 -0.05853704 -0.0075393617 -0.021855302 -0.1571562 -0.008467674
0.07149053 0.024158321 0.0043232366 0.02834227 -0.023882352 0.046438105 0.025987223 -0.030576117
0.054114364 -0.06981784 0.042562135 -0.067786716 0.015782857 0.04995384 0.0022241324 -0.041466407
-0.05576225 0.041237094 -0.047129218 -0.05887288 -0.027323104 -0.012149438 0.048339806 0.039777495
0.0991828 -0.18133831 -0.057607006 0.080811135 -0.054381087 -0.070667595 0.0249497 -0.0236561
0.06914642 -0.14846043 -0.08838404 0.080779605 0.045294575 0.067415394 0.021633565 -0.0766496
0.072456814 0.03131988 -0.15628989 0.03228736 -0.05478147 -0.099002175 0.07138754 -0.02032128
-0.0745289 0.0328207 0.03100852 -0.086648226 -0.05452756 -0.05686712 0.029499874 0.07504923
-0.039576057 0.027793795 0.081929035 -0.07658063 0.085794814 -0.0476283 -0.047711685 0.046319626
-0.06457639 -0.04985124 -0.031817194 -0.050947826 -0.06465934 0.070630334 0.039835833 0.060878746
0.0064776316 0.08219973 0.0014578775 -0.08671983 0.045987092 -0.08293423 0.036625557 0.051308863
-0.053351346 0.08827027 0.064724706 -0.0716528 -0.083522364 -0.07720135 -0.04827735 -0.08661623
0.03652093 0.071196906 -0.09282488 -0.0036056638 -0.08198695 -0.16408265 -0.27729878 -0.12751801
-0.064617164 0.039570726 -0.03715471 -0.056281403 0.040715523 0.019817397 0.012100801 0.08260726
-0.13605279 -0.08079191 0.080899976 0.058854006 -0.107949875 -0.076930374 -0.037262112 -0.13927817
0.05027073 -0.05351479 0.023439221 -0.070727155 -0.046459682 0.040310748 0.038509183 0.014086485
00000000: db7d 1ebd 3915 75bc 74ec babc 804b 3cba
00000010: 23d7 993d 9b33 823c e035 ebbc 2ecf 603d
00000020: 5bfd 62bd d9d9 adbd bd94 09be 0dd9 c83d
00000030: a37f f3bd 3e18 bdbd 21c8 df3a 008b 9abb
00000040: 7242 763d b908 edbb 60d1 3e3c 065f 6f3d
00000050: 5eda 06be 8e7b 89bd d180 95bd 3c1b 9bbd
00000060: 4776 4abc d8a6 59bd 843f 173e 9b76 b93d
00000070: 2c8d e93c 00d9 ac3c 1d2f e3bd 3ea5 0dbe
00000080: ab97 35bc 464b 54bd e685 753d 0c49 b1bd
00000090: aa90 b2bd 900e 90bd a55f 14be 1e92 efbd
000000a0: d208 213d 2099 06bc 773c 51bd d0bb 803c
000000b0: eedb fabb 73db d0bd 3801 96bd c624 7b3b
000000c0: 2c2f 8f3c 32ae 7d3d 9c16 57bd 2733 afbd
000000d0: eb6b ccbd 81a8 993c 8862 2abd c1dc cbbd
000000e0: 3f86 94ba 2ab9 07be 542b 873c 8016 903a
000000f0: 0c8c d6bd a8c6 a1bd ed08 d33c 882c 7fbd
00000100: 2263 44bd 02e9 f7bd 4349 81bd bac7 d2bd
00000110: 937c b53d a700 02be c890 633d 4ee0 093e
00000120: c0ca 81bc edc1 f9bd a084 6c3b f721 9e3d
00000130: 6fe0 c4bd 65e7 043c b6b7 f6bd 0847 6d3c
00000140: 3e7b 9fbd 7268 d7bd b8de f8bc 9d00 78bd
00000150: 9e91 15be a668 bbbd 2116 9cbd 1258 7b3c
00000160: 4aa4 f6bc 6002 a23b 14d7 883d 2729 1ebd
00000170: 5fed 0abe f838 2d3c 8641 723d 5160 9d3c
00000180: 4ac7 94bc c890 1dbc 1959 14be 9170 b23d
00000190: 49d5 d6bd f4d9 043e d854 40bd 38b9 f2bd
000001a0: 084b e23b 17bc 57bd 6576 b43d be77 433d
000001b0: 485d 79bd 272e a73a 66a8 4e3d 650e 04bc
000001c0: d486 23bd cff5 7d3c 9018 d33b c146 983d
000001d0: 01e7 4dbe 1661 87bd cb01 8e3a b965 f3bd
000001e0: 1c9a 9f3c 7303 e3bd 80d3 aeba d7d9 843d
000001f0: 403c a7bd 043b 79bd 9f64 233d d578 f2bd
00000200: ca79 a2bd e5e6 96bd 7e54 5f3d 89c4 6fbd
00000210: c00c f7bb e409 b3bc 8eed 20be 00bc 0abc
00000220: a169 923d ace7 c53c f0a9 8d3b 0c2e e83c
00000230: eca4 c3bc e235 3e3d 28e3 d43c c47a fabc
00000240: 06a7 5d3d a8fc 8ebd a255 2e3d c3d3 8abd
00000250: 0d4b 813c 669c 4c3d c0c2 113b aed8 29bd
00000260: f566 64bd 3ae8 283d 910a 41bd b024 71bd
00000270: b4d4 dfbc 700e 47bc f6ff 453d baed 223d
00000280: 5a20 cb3d c0b0 39be 53f5 6bbd 4f80 a53d
00000290: b4be 5ebd 2cba 90bd 5063 cc3c 70ca c1bc
000002a0: a39c 8d3d 0306 18be b102 b5bd c76f a53d
000002b0: ce86 393d 1511 8a3d e038 b13c 77fa 9cbd
000002c0: 3d64 943d 4649 003d 750a 20be c03f 043d
000002d0: 8962 60bd a7c1 cabd a133 923d d078 a6bc
000002e0: 9ca2 98bd 006f 063d 9405 fe3c a074 b1bd
000002f0: 4a58 5fbd 7fed 68bd b8a9 f13c 69b3 993d
00000300: 811a 22bd d0af e33c 69ca a73d 4ed6 9cbd
00000310: 31b5 af3d e415 43bd 546d 43bd a6b9 3d3d
00000320: a040 84bd d030 4cbd bf52 02bd abae 50bd
00000330: 1e6c 84bd a3a6 903d e62a 233d fe5b 793d
00000340: 5042 d43b 5558 a83d 4016 bf3a 2b9a b1bd
00000350: f65c 3c3d 6cd9 a9bd ae04 163d 3e29 523d
00000360: f186 5abd 0bc7 b43d 638e 843d b4be 92bd
00000370: c60d abbd be1b 9ebd 78be 45bd da63 b1bd
00000380: f896 153d afcf 913d f81a bebd 004d 6cbb
00000390: c6e8 a7bd 4805 28be 1bfa 8dbe 1594 02be
000003a0: 0156 84bd ea14 223d 8a2f 18bd 5487 66bd
000003b0: 52c5 263d 1858 a23c 7042 463c ff2d a93d
000003c0: 6c51 0bbe 3b76 a5bd e3ae a53d e610 713d
000003d0: d314 ddbd ac8d 9dbd 28a0 18bd f09e 0ebe
000003e0: aee8 4d3d 5332 5bbd 9c03 c03c 66d9 90bd
000003f0: 824c 3ebd e21c 253d cebb 1d3d 00cb 663c

graph_matcher.mlp.2.bias f4 [128]
-0.13714227 -0.10786433 -0.068318374 -0.054816294 -0.07867094 -0.15213828 -0.0010824597 0.026717486
0.12038459 -0.08539395 -0.15603608 0.037065778 0.0721318 -0.09482541 -0.076435596 -0.11013391
0.0147286 -0.04273293 -0.032039423 0.049098626 -0.12355065 0.052142974 -0.015587805 -0.06479253
-0.11842136 -0.1680748 0.1477412 -0.07750515 0.08639192 0.01337656 -0.05460455 0.079259135
-0.020854406 -0.10336914 -0.08687899 -0.06924836 -0.06695399 -0.17888543 -0.0007250144 -0.14429036
-0.10593937 -0.13837445 0.015573962 -0.076480836 -0.08390742 0.04150742 0.05533176 0.1396297
0.010145962 0.10497576 -0.023007251 -0.13648355 -0.07866842 -0.11080104 0.11157855 -0.014898137
0.0026895124 0.008316419 -0.13342173 -0.08140027 0.045788128 0.010083878 -0.026237762 -0.06139975
-0.066568546 -0.080495 -0.0786797 -0.011437029 0.05320017 -0.10798558 -0.064319484 -0.072228506
0.08528386 0.09628397 0.12544583 0.03328979 0.1673967 0.074496984 -0.02634568 -0.13777767
-0.10479294 -0.07720018 -0.0855411 -0.02899709 -0.15378545 -0.028364815 -0.1012517 -0.12391153
-0.1437677 0.017619077 -0.20203567 -0.11378886 0.060979176 -0.0028803176 -0.023400595 0.057608295
-0.009428516 0.10999793 -0.1313449 0.1458497 -0.08895053 -0.14983869 -0.048520584 -0.101809934
-0.103861146 -0.027788777 -0.0008722716 -0.13047816 0.046475682 0.06823345 -0.07515022 0.0006307975
0.0050122733 0.04148471 -0.08011979 -0.035991535 -0.040495563 -0.048999745 0.01093063 -0.15405819
-0.18855686 0.0686329 -0.096407734 0.113915406 -0.052291747 -0.07050074 0.1054305 -0.0074212346
00000000: 066f 0cbe f9e7 dcbd 81ea 8bbd 0d87 60bd
00000010: 3b1e a1bd 23ca 1bbe 52e1 8dba a1de da3c
00000020: 328c f63d 06e3 aebd ecc7 1fbe 49d2 173d
00000030: d6b9 933d d333 c2bd 448a 9cbd e38d e1bd
00000040: 3a50 713c ba08 2fbd c53b 03bd a41b 493d
00000050: 2008 fdbd df93 553d fe63 7fbc f2b1 84bd
00000060: e686 f2bd cd1b 2cbe 7849 173e 05bb 9ebd
00000070: 3fee b03d 5c29 5b3c 05a9 5fbd 9d52 a23d
00000080: dcd6 aabc 33b3 d3bd 9ded b1bd 16d2 8dbd
00000090: 2c1f 89bd be2d 37be e50e 3eba dac0 13be
000000a0: bef6 d8bd 08b2 0dbe ee29 7f3c fca1 9cbd
000000b0: a7d7 abbd af03 2a3d 8ea3 623d 17fb 0e3e
000000c0: 403b 263c 88fd d63d b479 bcbc 58c2 0bbe
000000d0: e91c a1bd a8eb e2bd 4b83 e43d 5117 74bc
000000e0: 8842 303b 9741 083c b59f 08be 2fb5 a6bd
000000f0: 558c 3b3d da36 253c 93f0 d6bc 4e7e 7bbd
00000100: 1755 88bd 90da a4bd d322 a1bd 6062 3bbc
00000110: 6ce8 593d 8b27 ddbd efb9 83bd 8aec 93bd
00000120: 4ea9 ae3d 8830 c53d df74 003e e05a 083d
00000130: 0a6a 2b3e e091 983d e5d2 d7bc 9715 0dbe
00000140: ae9d d6bd 211b 9ebd 2c30 afbd 4e8b edbc
00000150: ef79 1dbe 545d e8bc 0d5d cfbd 54c5 fdbd
00000160: d737 13be e255 903c 70e2 4ebe 220a e9bd
00000170: 4dc5 793d b6c3 3cbb 9bb2 bfbc adf6 6b3d
00000180: 107a 1abc 9846 e13d 477f 06be a059 153e
00000190: b22b b6bd 506f 19be 85bd 46bd ba81 d0bd
000001a0: 27b5 d4bd 4aa5 e3bc 28a9 64ba 119c 05be
000001b0: 495d 3e3d fbbd 8b3d 5ce8 99bd 1b5c 253a
000001c0: ff3d a43b dfeb 293d d815 a4bd dc6b 13bd
000001d0: adde 25bd f5b3 48bd 6316 333c 6ec1 1dbe
000001e0: 0d15 41be 688f 8c3d 6b71 c5bd 7b4c e93d
000001f0: df2f 56bd b162 90bd f2eb d73d d42d f3bb

graph_matcher.mlp.4.weight f4 [64, 128]
0.074986644 -0.02258592 0.024840653 0.10136741 0.004848915 -0.0023873744 0.14489104 -0.036248613
0.14609271 0.03920593 0.08964333 -0.067933746 -0.006734365 -0.012689636 0.07262388 -0.038202226
0.0067993333 -0.08417685 -0.011292955 0.08150654 0.080452465 0.06507272 0.00812845 0.035255782
0.045822825 -0.04304162 -0.059907697 -0.0014189967 -0.027710408 0.09331957 0.056172416 0.09928452
0.013714872 -0.080503516 -0.124738 -0.07159194 -0.02055905 -0.0069302176 -0.10924886 -0.013423047
-0.12732947 -0.0024526934 0.08034156 -0.09966278 -0.08038029 -0.043096464 -0.036746662 -0.056043662
-0.028632464 0.046390116 -0.019451171 -0.09472712 -0.14648078 -0.042358965 0.13779128 -0.038815383
0.12293024 -0.02065475 -0.08087009 0.13172539 -0.0036423728 0.055003196 -0.09546175 0.07324126
0.13062775 -0.06323103 -0.056942075 -0.07591597 -0.039020512 -0.04440113 -0.04117227 -0.07225096
0.041802626 0.106465004 -0.22426064 0.06554186 -0.16784497 0.123192094 0.026833447 0.08076199
0.046446506 -0.16813934 -0.007316639 0.07731553 0.06523861 -0.0289867 0.124757595 -0.023335554
0.060952317 -0.09589216 -0.0070375493 -0.004844524 0.09377026 -0.10782261 0.00028824434 0.021205414
0.031813428 -0.014511483 -0.09129496 -0.09875971 0.044805426 0.037523452 0.017699093 0.029114908
0.060747694 -0.020200549 -0.17052667 -0.022925554 -0.027490368 0.06600778 0.0053813276 0.018648984
0.014777982 -0.1047799 0.008886029 -0.12584761 0.03570841 -0.095245555 0.023812676 -0.14181662
0.055461116 0.09989842 -0.0048562842 0.107824184 -0.16231658 -0.04777501 0.091916844 0.003967691
-0.15723322 -0.002379417 0.040010553 -0.115648516 -0.09575677 0.10159153 -0.08309404 -0.073909365
-0.123102665 -0.017812893 -0.10416525 0.11656229 -0.13951205 -0.0924998 -0.04720601 -0.12020357
-0.030075004 -0.045017816 -0.0083409175 -0.14153732 0.063016236 -0.03283901 -0.18593714 -0.078494355
-0.06549605 -0.009516095 0.14998007 -0.01760581 0.0298795 -0.024082327 -0.056876328 -0.1010992
0.044877212 0.04645332 0.14668564 0.069964476 0.0083750235 -0.13378696 0.024875492 -0.07400095
0.05086881 -0.028841352 -0.03327627 -0.0033411204 -0.01976233 0.00030348558 -0.07365861 0.035026666
0.09962944 -0.1034281 -0.14562705 -0.12522304 0.09311199 0.051215045 -0.08162214 -0.00947139
-0.17148012 -0.13394383 0.022016177 0.015477996 -0.14798635 -0.0072791227 -0.15380456 0.0064761667
0.027850863 -0.022407278 -0.100993924 -0.069776736 -0.085842736 0.036693573 0.04261796 0.17241822
-0.07886237 -0.17663917 0.16303346 0.05152902 0.25175902 -0.046659496 -0.13352777 -0.12024316
-0.15432496 -0.13861033 -0.008497298 -0.08783489 -0.052862093 -0.15014006 -0.07655018 -0.016108453
-0.045885567 -0.1377882 -0.12958997 -0.04769862 -0.0508506 0.021685978 -0.055476196 -0.074722216
0.004838124 -0.1612549 0.059798717 0.077013925 -0.08603549 -0.1897756 0.019982634 -0.12196522
-5.1955234e-05 -0.1378752 -0.081372745 -0.010232729 0.06384918 -0.027854588 -0.16595717 -0.05621296
0.047315836 0.000832696 0.043692775 0.1069758 -0.14540152 0.09294656 -0.054309044 -0.050555248
-0.08610011 -0.15166287 0.068507366 0.0965257 0.13848938 -0.018580891 -0.11319741 0.11135958
00000000: 9992 993d 1b06 b9bc a07e cb3c b799 cf3d
00000010: a6e3 9e3b 7f75 1cbb 515e 143e 6d79 14bd
00000020: 5499 153e 6696 203d ec96 b73d d920 8bbd
00000030: f3ab dcbb 31e8 4fbc d4bb 943d f079 1cbd
00000040: f1cc de3b ea64 acbd 1606 39bc e7ec a63d
00000050: 43c4 a43d d944 853d 312d 053c 5e68 103d
00000060: b7b0 3b3d 694c 30bd c661 75bd a1fd b9ba
00000070: f000 e3bc 551e bf3d 0c15 663d af55 cb3d
00000080: 58b4 603c 07df a4bd a376 ffbd cc9e 92bd
00000090: 746b a8bc e116 e3bb debd dfbd 57ec 5bbc
000000a0: a862 02be 5ebd 20bb 1e8a a43d 001c ccbd
000000b0: 6c9e a4bd eb85 30bd ab83 16bd 0a8e 65bd
000000c0: a18e eabc 9003 3e3d 1058 9fbc 4b00 c2bd
000000d0: 0fff 15be 9880 2dbd 2819 0d3e e1fc 1ebd
000000e0: dac2 fb3d 2634 a9bc 389f a5bd 05e3 063e
000000f0: e0b4 6ebb 084b 613d 7381 c3bd 84ff 953d
00000100: 48c3 053e 457f 81bd 183c 69bd d579 9bbd
00000110: f9d3 1fbd f6dd 35bd 41a4 28bd 50f8 93bd
00000120: 3b39 2b3d 530a da3d 95a4 65be d03a 863d
00000130: 8ddf 2bbe 234c fc3d d1d1 db3c 8b66 a53d
00000140: b13e 3e3d b82c 2cbe 6bc0 efbb 9b57 9e3d
00000150: d29b 853d 8475 edbc e980 ff3d 342a bfbc
00000160: 23a9 793d 1c63 c4bd 3e9b e6bb d0be 9ebb
00000170: 9f0a c03d 1ad2 dcbd 801f 9739 fab6 ad3c
00000180: cc4e 023d 92c1 6dbc daf8 babd 8842 cabd
00000190: e585 373d 31b2 193d b0fd 903c 6382 ee3c
000001a0: 93d2 783d 9f7b a5bc 8b9e 2ebe 5fce bbbc
000001b0: 7b33 e1bc 162f 873d d955 b03b c1c5 983c
000001c0: 591f 723c d896 d6bd b596 113c 32de 00be
000001d0: fb42 123d 1a10 c3bd cd12 c33c 6038 11be
000001e0: 322b 633d 8b97 cc3d 7721 9fbb edd2 dc3d
000001f0: 5136 26be bbaf 43bd e63e bc3d 6803 823b
00000200: bf01 21be feef 1bbb 1be2 233d 21d9 ecbd
00000210: 201c c4bd 380f d03d 352d aabd cb5d 97bd
00000220: 401d fcbd 58ec 91bc 9754 d5bd 36b8 ee3d
00000230: 3fdc 0ebe 8970 bdbd 175b 41bd 4a2d f6bd
00000240: db5f f6bc 9a64 38bd 58a8 08bc 29ef 10be
00000250: a80e 813d 3382 06bd 4e66 3ebe a6c1 a0bd
00000260: cb22 86bd 65e9 1bbc 6094 193e 0f3a 90bc
00000270: dac5 f43c 4d48 c5bc 27f7 68bd 190d cfbd
00000280: 2bd1 373d d645 3e3d c334 163e 8949 8f3d
00000290: 6537 093c 73ff 08be b0c7 cb3c cf8d 97bd
000002a0: d05b 503d b344 ecbc b34c 08bd b3f6 5abb
000002b0: 9ce4 a1bc 251d 9f39 53da 96bd 1f78 0f3d
000002c0: 850a cc3d 1dd2 d3bd 421f 15be 783a 00be
000002d0: 80b1 be3d dec6 513d 8229 a7bd e42d 1bbc
000002e0: 7c98 2fbe 9228 09be 455b b43c 6c97 7d3c
000002f0: bc89 17be b585 eebb f17e 1dbe 0636 d43b
00000300: 7e27 e43c 788f b7bc e7d5 cebd 1be7 8ebd
00000310: 51ce afbd 004c 163d 2c90 2e3d 678e 303e
00000320: 9882 a1bd e6e0 34be 3ef2 263e 1810 533d
00000330: 8fe6 803e 071e 3fbd 81bb 08be 0c42 f6bd
00000340: 5d07 1ebe deef 0dbe 4038 0bbc c7e2 b3bd
00000350: ec85 58bd 51be 19be 57c6 9cbd e0f5 83bc
00000360: 81f2 3bbd 5a18 0dbe 3cb3 04be a15f 43bd
00000370: b848 50bd cba6 b13c 023b 63bd f607 99bd
00000380: 2089 9e3b 0120 25be 80ef 743d 7ab9 9d3d
00000390: 6033 b0bd 8954 42be 9fb2 a33c e7c8 f9bd
000003a0: 82ea 59b8 282f 0dbe c1a6 a6bd 2da7 27bc
000003b0: 5cc3 823d 4e2f e4bc adf0 29be 903f 66bd
000003c0: 40ce 413d 4849 5a3a 32f7 323d 2116 db3d
000003d0: 23e4 14be c45a be3d 2973 5ebd 0513 4fbd
000003e0: 4155 b0bd 834d 1bbe 974d 8c3d 44af c53d
000003f0: 29d0 0d3e f436 98bc 0bd4 e7bd 7e10 e43d

graph_matcher.mlp.4.bias f4 [64]
0.028503768 -0.07098064 -0.074457586 -0.09757978 0.119070396 0.054668475 0.0594551 -0.14500976
-0.2274148 -0.039257072 -0.102929175 -0.10449867 0.063886315 -0.09655758 -0.15348539 -0.18129408
-0.21089965 -0.043662567 0.1641632 -0.15556507 0.120542906 0.12759258 -0.13313818 0.04343511
0.07123776 0.08994301 -0.044648975 -0.10221603 -0.19783087 0.19765547 0.005879347 -0.17048296
0.21733692 0.13083857 -0.119932234 -0.16630334 0.19546142 -0.18506262 -0.14935319 -0.17373542
0.0349055 -0.18394701 -0.14346042 -0.06597148 -0.019655347 -0.13922022 0.0044144625 -0.19834448
0.022893524 0.031624433 0.054655906 -0.09192832 -0.2960862 0.13838948 -0.07539256 -0.22272202
0.13687317 0.112884976 -0.008602452 0.19258179 0.1287585 -0.0004643791 0.10424763 0.17424706
00000000: bc80 e93c 4c5e 91bd 387d 98bd e8d7 c7bd
00000010: 2edb f33d 0dec 5f3d 3187 733d 707d 14be
00000020: 6ddf 68be 06cc 20bd 88cc d2bd 6603 d6bd
00000030: d4d6 823d fbbf c5bd 462b 1dbe 28a5 39be
00000040: 14f6 57be 85d7 32bd 661a 283e 734c 1fbe
00000050: 33df f63d a1a7 023e 6055 08be 04e9 313d
00000060: 1ae5 913d 0a34 b83d d8e1 36bd a356 d1bd
00000070: 2d94 4abe 3266 4a3e 8aa7 c03b 1693 2ebe
00000080: 928d 5e3e 8cfa 053e 089f f5bd 6c4b 2abe
00000090: 0a27 483e 0e81 3dbe 0bf0 18be b3e7 31be
000000a0: 12f9 0e3d 9b5c 3cbe 4ae7 12be 0e1c 87bd
000000b0: 4004 a1bc bf8f 0ebe 32a7 903b d11a 4bbe
000000c0: 338b bb3c 9f88 013d dfde 5f3d ea44 bcbd
000000d0: 9c98 97be f9b5 0d3e 6a67 9abd 3e11 64be
000000e0: 7b28 0c3e 3d30 e73d 4df1 0cbc 2934 453e
000000f0: 45d9 033e e877 f3b9 c87f d53d d26d 323e
