Result/GCN/1000_sample/model_epoch_0_f1_0.2033.pth (torch, 841454 bytes, 42 tensors)

graph_matcher.gnn.conv1.bias f4 [64]
0	0xbd26cb3f	-0.040721174
1	0xbb916aee	-0.004437796
2	0xbc5263e9	-0.012841203
3	0xbc1f9714	-0.00974061
4	0x3cb2ea20	0.021840155
5	0x3c9ec0a9	0.019378977
6	0x3c9a8f8f	0.018867282
7	0x3ca5b9bf	0.020230172
8	0x3ca78e04	0.02045346
9	0x3caa8cb0	0.020819038
10	0xbca5b2bb	-0.020226827
11	0xbb4e2431	-0.0031454677
12	0x3ca54d20	0.020178378
13	0x3cc67207	0.024224294
14	0xbb2e4343	-0.0026590384
15	0xbba660ce	-0.005077458
16	0x3ca12662	0.019671623
17	0x00000000	0.0
18	0xbca3bbb2	-0.019986961
19	0x3c9f1dce	0.019423392
20	0x3ca42027	0.020034863
21	0x00000000	0.0
22	0x00000000	0.0
23	0x00000000	0.0
24	0xbc9881f3	-0.018616652
25	0xbba669a8	-0.005078513
26	0x3cb7d72b	0.022441467
27	0xbcec51ca	-0.028847594
28	0x3ca419a7	0.020031763
29	0x3d299890	0.04140526
30	0xbc9b4312	-0.01895288
31	0x3c91e76f	0.017810551
32	0xbcf35e6a	-0.029708106
33	0xbc714b48	-0.014727421
34	0x3c9c491f	0.019077836
35	0x3c9d9990	0.019238263
36	0xbc3b9b2f	-0.011450573
37	0xbce21f60	-0.027602851
38	0x3c94b3a5	0.018152067
39	0xbc444dfd	-0.0119814845
40	0x00000000	0.0
41	0x3cae9107	0.021309389
42	0x3ca66536	0.020311933
43	0x00000000	0.0
44	0x3ca1124f	0.01966205
45	0x3c94ec84	0.018179186
46	0x3c849ff8	0.01618956
47	0x3ccabd75	0.024748543
48	0xbbf59643	-0.0074947192
49	0xbb71b43a	-0.0036881105
50	0x3ca0ab66	0.01961298
51	0x3ca6fbad	0.02038368
52	0xbcb0449b	-0.021517089
53	0x3c8c463c	0.017123334
54	0x00000000	0.0
55	0xbbe44461	-0.006966159
56	0xbc295913	-0.010336178
57	0xbc114cf4	-0.008868445
58	0x3c90e796	0.017688554
59	0x3ca6e5f1	0.020373316
60	0xbb14e0ae	-0.0022716927
61	0x3ca9684c	0.020679615
62	0x3c880d7e	0.016607996
63	0x3c92c6f9	0.017917143

graph_matcher.gnn.conv1.lin.weight f4 [64, 4]
0	0x3e869373	0.2628437
1	0x3e36a298	0.17835462
2	0x3d18c0a8	0.037293106
3	0x3d6222dc	0.055209026
4	0xbe0370ed	-0.12836047
5	0x3bb9cc51	0.0056701084
6	0xbc878afa	-0.016545761
7	0x3e436c47	0.19084273
8	0xbe63baaa	-0.22239175
9	0x3ded8a0e	0.115985975
10	0xbdd46026	-0.10369901
11	0xbe1943a3	-0.14967208
12	0xbd8c7b11	-0.068594106
13	0xbe7637e0	-0.24044752
14	0x3d153375	0.036426026
15	0x3e0e6c70	0.13908553
16	0x3e9f8c2c	0.3116163
17	0xbe2aeaba	-0.16691104
18	0xbd9463a5	-0.07245568
19	0xbe760974	-0.24027044
20	0xbe47b5f8	-0.1950301
21	0xbe260b65	-0.16215284
22	0xbdf398db	-0.11894389
23	0x3e0b91b5	0.13629802
24	0xbe86681c	-0.26251304
25	0xbd9d8503	-0.076913856
26	0xbe1dd739	-0.15414132
27	0x3dcf333a	0.101171926
28	0xbe573c10	-0.21019006
29	0x3e57dea8	0.2108103
30	0x3e85cc09	0.2613223
31	0x3e5e94d5	0.21736462
32	0x3d00b1d2	0.031419583
33	0x3e6b92f9	0.23005284
34	0xbdcd0df4	-0.10012427
35	0x3e4bd3fc	0.19905084
36	0xbd87f0a6	-0.06637697
37	0x3d9f195e	0.0776851
38	0xbde9d532	-0.11417617
39	0x3d876d36	0.06612627
40	0xbe0b0e70	-0.13579726
41	0xbe2f243d	-0.17103668
42	0xbe1be3f0	-0.1522367
43	0x3e40341b	0.18769877
44	0x3dda7dd6	0.106685326
45	0xbe213288	-0.15741932
46	0xbc744b56	-0.01491054
47	0x3e505e25	0.20348413
48	0x3d0d41b1	0.034486476
49	0xbe93feef	-0.28905436
50	0xbe0a78ef	-0.13522695
51	0x3da69b2a	0.08135064
52	0x3e2f8277	0.17139612
53	0x3de6bb26	0.112661645
54	0xbd88a873	-0.06672754
55	0xbd8a9aaa	-0.06767781
56	0x3e6801e9	0.22656979
57	0xbe7a0095	-0.24414285
58	0x3e86dea5	0.2634174
59	0x3e6c940b	0.23103349
60	0x3e4b056d	0.19826289
61	0x3e1ad541	0.15120412
62	0x3e389d7c	0.18028826
63	0x3cb87f44	0.022521622
64	0xbcaaa66d	-0.020831311
65	0xbda7288c	-0.081620306
66	0xbd598f57	-0.053115215
67	0x3e22699a	0.15860596
68	0xbe8fad4c	-0.28061903
69	0xbe582d72	-0.21111086
70	0xbe9753c1	-0.29556087
71	0xbe314037	-0.17309652
72	0xbd82c2dd	-0.063848235
73	0x3e301f70	0.17199492
74	0xbe4f80b8	-0.20263946
75	0x3df41ad2	0.11919178
76	0xbdb5c5c2	-0.0887561
77	0x3dafa350	0.08576071
78	0xbe8b3ea0	-0.27196217
79	0x3e3c257f	0.18373679
80	0xbe419bb9	-0.1890706
81	0xbe6f5894	-0.23373634
82	0xbd780ae3	-0.060557257
83	0x3cd0f742	0.025508527
84	0xbe92b106	-0.28650683
85	0xbd95bc56	-0.07311313
86	0xbd843a42	-0.06456424
87	0xbda28bac	-0.079367965
88	0xbe9236e7	-0.28557512
89	0xbe0e4499	-0.13893355
90	0xbddf04c4	-0.10889581
91	0xbe5f09d5	-0.21781094
92	0xbd9901fc	-0.074710816
93	0xbe055189	-0.13019384
94	0xbe046872	-0.12930468
95	0xbe59eb59	-0.21281184
96	0xbdedac5b	-0.1160514
97	0x3e449b70	0.1919992
98	0x3e846d40	0.258646
99	0x3e5ac36f	0.21363614
100	0x3e224e57	0.15850197
101	0xbe16c3f8	-0.14723194
102	0xbdfbb7c0	-0.12290907
103	0xbb2a02d9	-0.0025941639
104	0xbe8f5a88	-0.27998757
105	0x3e1d01dc	0.1533274
106	0x3e1e66e7	0.15468942
107	0xbe8a2b35	-0.2698609
108	0x3e69f4e4	0.22847325
109	0xbd9a1fa1	-0.07525564
110	0x3c40f200	0.011776447
111	0xbe71a3b0	-0.23597598
112	0x3d9e4277	0.07727521
113	0xbc817c06	-0.01580621
114	0x3e28738f	0.16450332
115	0xbe8cef10	-0.2752614
116	0xbd877c6e	-0.0661553
117	0xbe419a9c	-0.18906635
118	0x3e8bc976	0.2730214
119	0xbe29785a	-0.16549817
120	0xbe7044f0	-0.23463798
121	0x3d87c024	0.06628445
122	0xbe1a0de2	-0.15044358
123	0xbdc6efd6	-0.09713714
124	0x3e6ed892	0.23324803
125	0xbe86ea33	-0.26350555
126	0x3d77f27b	0.06053398
127	0x3e4bff36	0.19921574
128	0xbe8c82cd	-0.27443543
129	0xbdf85bd6	-0.12126891
130	0xbe75df2c	-0.24010915
131	0xbc804701	-0.015658857
132	0x3e26477d	0.16238208
133	0x3c09b87f	0.008405804
134	0x3e6fba61	0.23410942
135	0xbccfb7be	-0.02535617
136	0x3db3195f	0.087450735
137	0xbd951852	-0.07280029
138	0x3cf347a1	0.029697241
139	0x3d6f56b5	0.0584323
140	0x3e7bb6ad	0.24581404
141	0xbe87b52a	-0.26505405
142	0xbe72647e	-0.23671147
143	0x3ce51453	0.027963793
144	0xbdaaf3b0	-0.08347261
145	0xbe007f22	-0.12548497
146	0x3e8fa9aa	0.2805913
147	0xbea1ac90	-0.31576967
148	0xbdf71e26	-0.12066297
149	0x3cf82f05	0.030295858
150	0xbdc3f50a	-0.09568222
151	0xbb8b3d28	-0.0042492338
152	0xbe2fd2e6	-0.17170295
153	0xbd229f73	-0.039702844
154	0x3d825028	0.06362945
155	0xbe1c1daf	-0.15245698
156	0x3e818a31	0.25300744
157	0x3c2f50ac	0.010700386
158	0x3dcc25a0	0.09968114
159	0xbe56bfa3	-0.20971541
160	0xbd7efa24	-0.06225027
161	0xbe1f9bdc	-0.155868
162	0xbe6a8a74	-0.22904378
163	0xbe62f2c0	-0.22162914
164	0xbce30c5e	-0.027715858
165	0x3ea183b7	0.31545803
166	0xbb25a3a8	-0.0025274549
167	0xbe167cf2	-0.146961
168	0x3e8ebd19	0.27878645
169	0x3e28ac19	0.164719
170	0x3dbe64a4	0.092965394
171	0x3e78d83b	0.24301235
172	0xbe865d6e	-0.26243156
173	0xbe81ac90	-0.25326967
174	0xbe575462	-0.21028283
175	0xbe4d0dcc	-0.20024794
176	0xbde4965e	-0.11161493
177	0xbe34d274	-0.17658406
178	0x3e5d9c37	0.21641622
179	0x3e6c6111	0.23083903
180	0xbb091694	-0.0020917999
181	0xbd1a08f4	-0.037606195
182	0xbe966ed2	-0.29381424
183	0x3df7c7f4	0.12098685
184	0xbe54e55c	-0.20790619
185	0x3e9b770c	0.30364263
186	0x3bc35944	0.005961569
187	0xbd0fe848	-0.03513363
188	0x3e5236f1	0.20528771
189	0xbe096e84	-0.13421065
190	0xbe87ef00	-0.2654953
191	0xbd3fbb11	-0.04680926
192	0x3d08fe82	0.033445843
193	0xbe342048	-0.1759044
194	0xbdcbf1fc	-0.09958264
195	0xbe10ff1c	-0.14159817
196	0x3e864df0	0.26231337
197	0xbe895df6	-0.268295
198	0x3e52a892	0.20572117
199	0x3e0df4b4	0.13862878
200	0x3e9a8e3c	0.3018664
201	0xbe1f03c5	-0.15528782
202	0x3e1de956	0.15421042
203	0x3dc2c066	0.09509353
204	0x3e237e7e	0.15966222
205	0xbe4fd126	-0.20294628
206	0xbe1cb11b	-0.15301935
207	0x3e3ae946	0.18253049
208	0xbe93dbf5	-0.2887875
209	0x3e793ceb	0.24339645
210	0xbe76c79e	-0.24099585
211	0xbe114523	-0.1418653
212	0x3e06d935	0.13168795
213	0x3e4af6ab	0.19820659
214	0x3e3f9515	0.18709214
215	0xbe8098fd	-0.2511672
216	0xbd7bd4c0	-0.06148219
217	0xbe84c20c	-0.25929296
218	0xbd8bb288	-0.068211615
219	0xbe198183	-0.14990811
220	0x3d9cddda	0.07659502
221	0xbdd8fccc	-0.10595092
222	0x3e58262b	0.2110831
223	0xbe62e93d	-0.22159286
224	0xbdd6f3c0	-0.104957104
225	0xbe31c615	-0.17360719
226	0x3e452cbb	0.19255345
227	0xbdaaa38a	-0.08331974
228	0xbe7201f8	-0.23633564
229	0xbe933d93	-0.28757915
230	0x3e719894	0.2359336
231	0xbc06b542	-0.008221926
232	0xbdb46222	-0.0880778
233	0xbe5fcbf6	-0.21855149
234	0x3e0197f5	0.12655623
235	0x3cee75a3	0.029108828
236	0x3e765821	0.24057056
237	0x3df2ebcc	0.11861381
238	0xbd0eb819	-0.034843538
239	0xbe35e5c0	-0.17763424
240	0x3e7240c4	0.23657519
241	0x3e782f4f	0.24236797
242	0x3dcc36bf	0.099713795
243	0x3e8ec6fb	0.27886185
244	0xbe817502	-0.25284582
245	0xbe592c71	-0.2120836
246	0x3e51e5c9	0.20497812
247	0x3e33fc01	0.175766
248	0x3e3e47b9	0.18582048
249	0x3e2b09af	0.16702913
250	0x3e1dc03c	0.15405363
251	0xbe7cf237	-0.24701773
252	0x3e8e1633	0.27751312
253	0xbe8c4e9b	-0.2740372
254	0x3e04f26d	0.12983103
255	0x3d3200de	0.04345786

graph_matcher.gnn.conv2.bias f4 [128]
0	0x3b3871ed	0.0028144077
1	0x3cb39020	0.02191931
2	0x3c94a227	0.018143727
3	0xbb9cbeb6	-0.0047834767
4	0xbca740c2	-0.020416621
5	0xbb1dd816	-0.0024085096
6	0x3c9572be	0.01824319
7	0x3cb6e950	0.022328049
8	0xbcd5ba92	-0.02608994
9	0xbc8b5c75	-0.01701186
10	0xbcc5c783	-0.024142986
11	0xbb84f2e2	-0.004057274
12	0xbc0c8289	-0.008576044
13	0xbc192d33	-0.009349155
14	0xbc222712	-0.00989701
15	0x3cae806a	0.021301467
16	0xbc0390ac	-0.008030098
17	0xbcb07582	-0.021540407
18	0x3c9a42c3	0.018830663
19	0x3caca3a4	0.021074124
20	0xbc9e4de4	-0.01932425
21	0xbbc72771	-0.0060777
22	0x3cafa259	0.021439718
23	0x3c8be4a8	0.017076805
24	0xbc003a03	-0.007826331
25	0x3ca0ccf0	0.019628972
26	0x3c8e88e0	0.017399251
27	0xbcda3ec0	-0.02664125
28	0x3c9a8838	0.018863782
29	0x3cab1e0e	0.020888355
30	0xbcabe482	-0.020982984
31	0x3caca73d	0.02107584
32	0x3ca9f119	0.020744847
33	0xbccddb74	-0.025129057
34	0x3cb46d57	0.022024794
35	0x3c84e8da	0.016224314
36	0xbcbdcf34	-0.023170091
37	0xbc5ca5cc	-0.013467263
38	0xbcb83926	-0.022488188
39	0xbcd28b3d	-0.02570116
40	0x3ca76f52	0.020438824
41	0x3cad4cf3	0.021154856
42	0xbcc4c070	-0.024017543
43	0xbba688f1	-0.0050822427
44	0xbbb26fc1	-0.005445451
45	0x3ca5f744	0.020259507
46	0x3cb60132	0.022217367
47	0x3cb473c6	0.022027861
48	0x3c984804	0.018589027
49	0xbcf63438	-0.030054197
50	0xbb1263da	-0.0022337348
51	0xbd182cbb	-0.037152033
52	0x3c9bc3c8	0.019014254
53	0xbc880a6d	-0.016606534
54	0x3c8dea2a	0.017323572
55	0xbbd887cb	-0.0066079847
56	0xbc9c442d	-0.019075477
57	0xbb9860b1	-0.0046501984
58	0x3c90ef98	0.017692372
59	0x3c916811	0.017749818
60	0x3c9167d4	0.017749704
61	0xbc837da1	-0.016051115
62	0x3c9c92bb	0.019112935
63	0x3ca91627	0.020640446
64	0x3cb4ab06	0.022054207
65	0x3c9f95da	0.019480634
66	0xbcb56829	-0.022144394
67	0x3c9f214c	0.019425057
68	0xbc300ec6	-0.01074571
69	0xbcd7a273	-0.026322579
70	0x3cbdd7fe	0.023174282
71	0xbce20ad0	-0.027593046
72	0x3cad7561	0.021174135
73	0x3cafc818	0.021457717
74	0xbbff0b31	-0.0077833165
75	0x3ca599c2	0.020214919
76	0x3cb752ed	0.02237841
77	0xbcc8b17c	-0.024498694
78	0x3cb3364b	0.021876475
79	0x3a207cb8	0.00061221
80	0xbcf1ea58	-0.02953069
81	0x3caeeada	0.02135222
82	0x3c9b3ffa	0.018951405
83	0x3ca78387	0.02044846
84	0xbc4d7c36	-0.012541821
85	0x3ca0d5b6	0.019633155
86	0xbc8f974d	-0.0175282
87	0x3cba2c0e	0.022726085
88	0x3ca6ab9f	0.020345507
89	0x3cb0420c	0.021515869
90	0xbd14bf0e	-0.036315016
91	0xbbc4d08c	-0.006006306
92	0x3ca71754	0.020396866
93	0xbd35fd5e	-0.044431083
94	0xbccd9836	-0.025096994
95	0x3c91310c	0.017723583
96	0xbd20aa6a	-0.03922502
97	0x3ca2dbb4	0.019880153
98	0x3cafe1f2	0.021470044
99	0x3ca89441	0.020578505
100	0x3ca488f2	0.020084832
101	0xbc62ba9c	-0.013838436
102	0x3cb46bda	0.022024084
103	0x3ca4b682	0.020106558
104	0x3c9d9294	0.019234933
105	0x3c9ca93b	0.019123664
106	0x3c9f361c	0.019434981
107	0xbcebaac5	-0.028767953
108	0xbcc2e477	-0.023790581
109	0x3cb65bd2	0.02226058
110	0x3c9de960	0.019276321
111	0x3ca183b9	0.01971613
112	0x3c9f83f7	0.019472105
113	0x3cb0d828	0.021587446
114	0xbc0302a0	-0.007996231
115	0x3c9c4951	0.019077929
116	0xbcf8f3e2	-0.03038973
117	0x3ca03295	0.01955537
118	0xbc40a93f	-0.011759101
119	0x3c4f33df	0.012646644
120	0x3cacabaf	0.021077959
121	0x3c9c61e9	0.019089656
122	0xbca7e81b	-0.020496419
123	0xbc387b34	-0.011259843
124	0xbc92a80b	-0.017902395
125	0x3ca5bee8	0.020232633
126	0x3cb5ad44	0.022177346
127	0x3cb8bd55	0.022551218

graph_matcher.gnn.conv2.lin.weight f4 [128, 64]
0	0xbe0bf68f	-0.13668273
1	0x3ddb8bb0	0.10720003
2	0x3bf596ee	0.007494799
3	0xbe139c7f	-0.14415167
4	0xbe2c055c	-0.1679892
5	0xbd0c3236	-0.034227572
6	0x3e3710fd	0.17877574
7	0xbd780974	-0.06055589
8	0x3cd2dbd1	0.025739582
9	0x3be2a3d2	0.0069165016
10	0xbe23e74a	-0.16006199
11	0xbcd307ea	-0.02576061
12	0x3e1db120	0.15399599
13	0xbe194a11	-0.1496966
14	0xbd85ad59	-0.06527204
15	0x3de790b0	0.11306894
16	0x3dab010a	0.083498076
17	0xbd7be374	-0.061496213
18	0xbdcf762e	-0.10129963
19	0xbd34518a	-0.044023074
20	0xbe016bf4	-0.12638837
21	0x3e2b382d	0.16720648
22	0x3cfb33c8	0.03066434
23	0x3e2242af	0.1584575
24	0x3ca24123	0.01980645
25	0x3d940a20	0.07228494
26	0x3e07748c	0.13228053
27	0x3e057ff4	0.13037091
28	0xbd60fcf4	-0.054928735
29	0x3d981f6a	0.07427867
30	0x3d8dcee6	0.06924228
31	0x3dbd2ccf	0.09237062
32	0x3c2e9826	0.010656392
33	0xbd9f610a	-0.077821806
34	0x3da4b4fe	0.08042334
35	0x3d1ca0af	0.038239177
36	0x3db3bfc7	0.08776813
37	0x3daa92f3	0.083288096
38	0x3e2e915a	0.17047635
39	0x3e10bdd8	0.1413492
40	0x3ba12fa0	0.0049190074
41	0xbd0be89f	-0.03415739
42	0x3d906b34	0.070516974
43	0x3c9cc500	0.019136906
44	0xbd7ac06c	-0.061218664
45	0x3dbe9217	0.09305208
46	0x3df0d8b2	0.11760081
47	0x3cb23071	0.021751614
48	0xbe1e256a	-0.1544396
49	0xbe1d416a	-0.15356985
50	0xbe34e1d0	-0.17664266
51	0xbe0b5715	-0.13607438
52	0xbce4b098	-0.027916238
53	0x3e2365ac	0.15956753
54	0x3e32a441	0.1744547
55	0x3e2363d9	0.15956058
56	0x3e0b7435	0.13618548
57	0xbdf4c4fa	-0.11951633
58	0x3ded34fe	0.11582373
59	0x3d9a525b	0.07535239
60	0xbe1f5881	-0.15561105
61	0xbdbd2fcc	-0.09237632
62	0xbd4eb951	-0.0504697
63	0x3d85656d	0.06513486
64	0xbe1b9372	-0.15192965
65	0xbdafaf00	-0.085783005
66	0x3dadc686	0.08485131
67	0x3e0192e4	0.1265369
68	0xbbd98657	-0.006638329
69	0xbd3a5455	-0.04549058
70	0x3df3eaf3	0.119100474
71	0xbde719e8	-0.11284238
72	0xbd5e9239	-0.054338668
73	0x3dd2e11d	0.10296843
74	0xbdf6e9da	-0.120563224
75	0x3b9b1896	0.0047331555
76	0x3d559fe8	0.05215445
77	0x3c2f87c8	0.010713525
78	0x3e44774d	0.19186135
79	0x3d8a12d9	0.06741876
80	0x3de7d851	0.11320556
81	0xbe0c8536	-0.13722691
82	0x3d96d971	0.073656924
83	0x3de469d2	0.11152996
84	0xbc1bb947	-0.009504623
85	0x3e247ae5	0.16062506
86	0xbce665d8	-0.028124735
87	0xbde28445	-0.11060385
88	0x3d8baaf6	0.068197176
89	0x3cfb657a	0.030688036
90	0x3dfcc1d3	0.123416565
91	0x3d7103d2	0.058841534
92	0x3e06f6b7	0.13180052
93	0xbd442ec2	-0.047896154
94	0xbd617b2f	-0.055049118
95	0x3e3b1d37	0.18272863
96	0x3c217496	0.009854456
97	0x3e3caf14	0.18426162
98	0x3d92784b	0.0715185
99	0x3d9ea2c5	0.077458896
100	0xbd1d695d	-0.03843056
101	0xbc59220c	-0.013252746
102	0xbde20648	-0.11036354
103	0x3d6f07cd	0.05835705
104	0x3c9f8928	0.01947458
105	0xbd95fbb5	-0.073234
106	0x3d96fddb	0.07372638
107	0x3da361de	0.07977651
108	0x3de2e9a3	0.11079719
109	0x3cf4d3a7	0.02988608
110	0xbe145ae2	-0.14487794
111	0x3db14434	0.08655587
112	0xbd61fd53	-0.05517323
113	0xbe1941a1	-0.14966442
114	0xbdc2b86f	-0.09507834
115	0x3d68fe8a	0.056883372
116	0xbdcdddc9	-0.10052068
117	0x3e3d2719	0.18471946
118	0xbcbca620	-0.023028433
119	0x3d01d096	0.031693064
120	0x3de4938c	0.11160955
121	0x3c73b957	0.014875731
122	0x3ce3669c	0.027758889
123	0x3c430749	0.011903592
124	0x3ce5e8c6	0.028065097
125	0x3e03820e	0.1284258
126	0xbdef279c	-0.11677477
127	0xbcccc9c4	-0.024998553
128	0x3d8c111a	0.06839199
129	0x3d93c064	0.0721443
130	0xbdb32a8c	-0.087483495
131	0xbde27874	-0.11058131
132	0xbd2182c0	-0.039431334
133	0x3e29c518	0.16579092
134	0x3da18d06	0.07888226
135	0xbd99d6a6	-0.07511644
136	0xbd77e7a9	-0.060523663
137	0xbe2020be	-0.1563749
138	0xbdde4a03	-0.1085396
139	0x3c85bb5f	0.016324697
140	0xbdc2c551	-0.09510291
141	0xbc64a6ad	-0.013955754
142	0xbd8a3a41	-0.06749392
143	0xbdb94464	-0.090462476
144	0xbd9d4ff3	-0.07681265
145	0x3e294fc5	0.16534336
146	0xbe1fa4d9	-0.15590228
147	0x3cbedd5c	0.023298912
148	0xbdd1fe90	-0.10253632
149	0xbde97d97	-0.114009075
150	0xbe025bec	-0.12730378
151	0x3bca93e0	0.006182179
152	0x3c83a177	0.016068203
153	0xbdd83042	-0.105560794
154	0xbda773df	-0.081763975
155	0xbc9266d4	-0.017871298
156	0xbe1cb5d6	-0.1530374
157	0x3e0d4f7c	0.13799852
158	0x3dfc574d	0.12321339
159	0x3d8bf64b	0.06834086
160	0x3e310f81	0.1729107
161	0xbdcb8109	-0.09936721
162	0xbddfc9cf	-0.10927164
163	0x3db5c1b4	0.088748366
164	0x3d970316	0.073736355
165	0xbd2fa935	-0.042885978
166	0x3d537282	0.051622875
167	0x3da93cb7	0.082635336
168	0xbc9553b0	-0.018228382
169	0x3e133a96	0.14377818
170	0x3d2031be	0.039109938
171	0xbe2faca7	-0.17155705
172	0x3e3d2cab	0.1847407
173	0xbdaaa0c3	-0.08331444
174	0xbbc232de	-0.005926474
175	0x3da89c76	0.082329676
176	0xbe018df7	-0.12651812
177	0xbd68c254	-0.05682595
178	0xba3c8344	-0.0007191191
179	0xbc97136e	-0.018441882
180	0xbdf3120e	-0.11868678
181	0x3df7ed4e	0.12105809
182	0xbc9adbf0	-0.018903702
183	0xbe033550	-0.12813306
184	0x3db7a02c	0.08966097
185	0xbe207a05	-0.15671547
186	0x3e44b9b4	0.19211465
187	0x3e2b5d44	0.16734797
188	0x3dc28ee8	0.094999135
189	0x3caecb1d	0.021337086
190	0xbd0917a2	-0.033469804
191	0x3d92227e	0.07135485
192	0x3e191807	0.14950572
193	0x3e15db3b	0.14634411
194	0xbde3906c	-0.11111531
195	0x3d97faca	0.07420881
196	0x3d40f146	0.047105096
197	0x3e260425	0.16212519
198	0xbd676ad6	-0.05649837
199	0xbe2a6720	-0.16640902
200	0x3d3f0902	0.04663945
201	0x3d4d5818	0.05013284
202	0x3d840b59	0.06447477
203	0x3e183e15	0.14867432
204	0xbe0b47e4	-0.13601643
205	0xbc9b789c	-0.01897841
206	0xbd433339	-0.04765627
207	0xbda52a94	-0.08064762
208	0xbe2917b5	-0.1651295
209	0x3db8a0ca	0.09015043
210	0xbe063555	-0.13106282
211	0xbe142e92	-0.1447089
212	0xbdd25847	-0.10270744
213	0x3cafe1a8	0.021469906
214	0x3d841746	0.064497516
215	0xbe30e658	-0.17275369
216	0x3d98f123	0.07467868
217	0x3e29171c	0.16512722
218	0x3d003785	0.031302948
219	0x3d14263f	0.036169287
220	0xbd626bf1	-0.055278722
221	0xbe46e9b7	-0.19425093
222	0x3e10cd0e	0.14140722
223	0x3d9226eb	0.07136329
224	0x3b5af4e8	0.0033410136
225	0xbe36073f	-0.17776202
226	0xbd8725a8	-0.06598979
227	0x3bcde343	0.006283195
228	0xbde1616f	-0.11004912
229	0xbdf715b5	-0.12064687
230	0xbe23ea78	-0.16007411
231	0x3bc86b94	0.00611634
232	0x3d7828ec	0.0605859
233	0xbda25811	-0.079269536
234	0x3e0cba6c	0.1374299
235	0xbcf74af8	-0.030187115
236	0x3da086bd	0.07838199
237	0x3df9255a	0.12165327
238	0xbe352012	-0.17688015
239	0xbda65a8b	-0.081227385
240	0xbe32ab16	-0.17448077
241	0xbe00d4a9	-0.12581123
242	0x3d172c2b	0.036907356
243	0x3dc42870	0.09578025
244	0xbe39a238	-0.18128288
245	0xbc8f3b0e	-0.017484214
246	0x3dbbc742	0.09168865
247	0x3db82fa8	0.08993465
248	0xbe302795	-0.172026
249	0xbd8d6c6a	-0.06905444
250	0xbe34507f	-0.17608832
251	0x3df2bb34	0.118521124
252	0x3dd409c6	0.10353427
253	0xbda3f37e	-0.08005427
254	0x3d695333	0.05696411
255	0x3cfec388	0.031099096

graph_matcher.mlp.0.weight f4 [128, 256]
0	0xbcdd1626	-0.0269881
1	0x3b4b129c	0.0030986434
2	0x3da1b338	0.078955114
3	0x3d2f24eb	0.042759817
4	0xbb7f2507	-0.0038931982
5	0x3da23424	0.07920101
6	0x3d960031	0.07324255
7	0x3da0d0a1	0.07852293
8	0x3d95f4af	0.0732206
9	0x3cb06495	0.021532336
10	0xbc4adffb	-0.012382503
11	0x3d148b4d	0.03626566
12	0xbba9c4ba	-0.0051809223
13	0x3da153e6	0.078773305
14	0x3ced43a1	0.028962912
15	0xbb84662e	-0.004040501
16	0xbd191d31	-0.037381355
17	0x3d984c8a	0.07436474
18	0x3b49d682	0.0030798023
19	0xba911b6c	-0.0011070794
20	0x3d9d9a8e	0.076954946
21	0xbce8be75	-0.02841113
22	0x3ba50f46	0.005037221
23	0x3cb40585	0.021975288
24	0x3d86f643	0.065899394
25	0x3ca902ad	0.020631159
26	0x3d9524a7	0.072823815
27	0x3d98600a	0.07440193
28	0x3d93cfa9	0.072173424
29	0xbc4d50e9	-0.0125314975
30	0x3d8666e4	0.065625936
31	0xbc369b54	-0.011145432
32	0xbd2d57d6	-0.042320095
33	0x3cf4f981	0.029904129
34	0x3b287e98	0.0025710221
35	0x3d198218	0.037477583
36	0x3d6c4333	0.057681274
37	0xbb4827ab	-0.0030541222
38	0x3da2530a	0.07925995
39	0xba09d8cc	-0.00052584405
40	0xbccbc7c8	-0.024875537
41	0x3d79a267	0.060945895
42	0x3c3bdad5	0.011465748
43	0xbcc1aaf0	-0.02364108
44	0x39bd72d8	0.00036134454
45	0x3d6d3c04	0.057918563
46	0x3cb67e31	0.02227697
47	0x3d9a6995	0.075396694
48	0x3d57c80e	0.05268102
49	0x3d30df13	0.04318149
50	0x3c93a57a	0.018023241
51	0x3b89fbb0	0.0042109117
52	0xbc3f5afa	-0.011679405
53	0x3cf2086e	0.029545035
54	0x3cabe382	0.020982508
55	0x3ca51529	0.020151692
56	0x3d722270	0.059114873
57	0xbc9fd19a	-0.019509126
58	0x3d359725	0.044333596
59	0xbc2609d5	-0.01013418
60	0x3d61ca1d	0.05512439
61	0x3bbc554a	0.005747472
62	0x3d91e554	0.07123819
63	0x3d9b5fbb	0.075866185
64	0x3b0a11e0	0.0021067783
65	0x3d472074	0.048614934
66	0x3d36d721	0.044638757
67	0x3d0c57fb	0.034263592
68	0x3d27799e	0.040887468
69	0xbca2bf11	-0.019866498
70	0x3c89eb4e	0.016835835
71	0x3d5b2d43	0.05350996
72	0xbb1d8625	-0.0024036255
73	0x3c9030b6	0.017601352
74	0xbb21b2de	-0.0024673264
75	0x3d8fa388	0.07013613
76	0x3d827834	0.06370583
77	0x3d1e9841	0.03871942
78	0x3da1d4d3	0.07901921
79	0xbd268fdc	-0.04066454
80	0x3d70ebf8	0.058818787
81	0x3d73202a	0.059356846
82	0x3da4e48b	0.080514036
83	0xbd1cd5a1	-0.03828967
84	0x3d5ecb00	0.054392815
85	0x3d943800	0.07237244
86	0xbc9a7189	-0.018852966
87	0x3da167ee	0.07881151
88	0xbc65d8e3	-0.014028761
89	0x3da5e3e2	0.08100106
90	0x3c227ab8	0.009916954
91	0xbcdd5398	-0.0270174
92	0x3d5f4b05	0.054514904
93	0x3cdfd8ff	0.027325151
94	0xbc542848	-0.012949057
95	0x3ceef450	0.029169232
96	0xbcdd45bf	-0.027010797
97	0x3c9879a3	0.018612688
98	0xbca17cb5	-0.019712785
99	0xbbfcb507	-0.00771201
100	0xbca36a8f	-0.019948272
101	0xbbad0d17	-0.0052811014
102	0x3c845dd9	0.016158031
103	0x3ca70f73	0.020393109
104	0x3d90ed93	0.07076564
105	0x3bdba7be	0.006703346
106	0xbc69de7e	-0.014274238
107	0x3d60a21d	0.054842103
108	0x3c755a62	0.014975162
109	0xbc013078	-0.007885091
110	0x3c5474e5	0.012967323
111	0x3c8da73a	0.017291654
112	0x3d5d09e1	0.0539645
113	0xbd29f62b	-0.04149453
114	0xbd0e15ca	-0.03468875
115	0x3d68aacc	0.05680351
116	0x3cb1b4e2	0.021692697
117	0x3da1090f	0.07863056
118	0x3a497058	0.0007684282
119	0x3d2702bd	0.040774096
120	0xbb3cc127	-0.0028801651
121	0x3b51650b	0.0031951095
122	0xbcd6ae58	-0.02620618
123	0x3d170b0e	0.036875777
124	0x3d8c4130	0.06848371
125	0xbbcc709c	-0.00623901
126	0x3d26690d	0.040627528
127	0x3d1b818b	0.03796534
128	0x3d1859a2	0.037194856
129	0xbd01d989	-0.0317016
130	0xbcca5f13	-0.024703538
131	0xbc830c30	-0.015997022
132	0xbd1fc2b0	-0.039004028
133	0x3b8f70cc	0.00437746
134	0xbc40ab5d	-0.011759606
135	0xbd245853	-0.040123295
136	0xbccaf85e	-0.024776634
137	0x3d8b3a34	0.06798211
138	0xbdbde4f8	-0.09272188
139	0x3d9a66ae	0.07539116
140	0x3d276eb4	0.04087706
141	0x3c8ae820	0.016956389
142	0x3cc278e0	0.023739278
143	0xbcdd8e24	-0.027045317
144	0x3d9fe8fb	0.078081094
145	0x3c866c2d	0.016409004
146	0x3cc6eec6	0.024283778
147	0x3d687913	0.05675609
148	0x3d147e09	0.03625301
149	0x3d57e800	0.052711487
150	0xbcf32619	-0.029681252
151	0x3d02203e	0.03176903
152	0x3cbb9713	0.022899186
153	0x3d49ef89	0.049300704
154	0x3d3e920c	0.046526
155	0x3d818195	0.06323544
156	0x3cfb21fa	0.03065585
157	0xbcf3705a	-0.02971666
158	0x3d8a2d7a	0.06746955
159	0xbcf69a33	-0.030102825
160	0x3d194599	0.03741989
161	0xbc36a784	-0.011148337
162	0xbcd09f76	-0.025466662
163	0xbd2c6206	-0.04208567
164	0xbc3e5632	-0.01161723
165	0x3bd2e868	0.0064363964
166	0xbd16e35f	-0.03683793
167	0xbafcd7ad	-0.0019290351
168	0xbcfd4652	-0.03091732
169	0xbd187b51	-0.03722698
170	0x3ce5879a	0.028018761
171	0xbd1a960c	-0.037740752
172	0x3d326fea	0.04356376
173	0x3d5020e5	0.05081262
174	0x3d3acc09	0.04560474
175	0xbce0f664	-0.027461238
176	0x3d594d74	0.05305238
177	0x3bd93aec	0.0066293385
178	0x3cb79a5a	0.022412468
179	0x3d74e28c	0.059786364
180	0x3da33e27	0.07970839
181	0x3d401b15	0.046900827
182	0x3d074628	0.03302589
183	0xbcbba1af	-0.022904245
184	0x3d8a4da8	0.06753093
185	0xbacd8f63	-0.0015682991
186	0x390c68d0	0.00013390486
187	0x3d82a59c	0.06379244
188	0xbc8f144a	-0.01746573
189	0x3d167402	0.036731727
190	0x3d491fb4	0.0491025
191	0x3cfaf88b	0.030636093
192	0xbb2e5828	-0.0026602838
193	0x3b0e02a0	0.0021669045
194	0xbcee40e3	-0.029083675
195	0x3d24ff7a	0.040282704
196	0x3d071518	0.0329791
197	0xbcd97539	-0.026545154
198	0x3d358cd3	0.044323754
199	0x3d12e26f	0.035860475
200	0x3d063a07	0.032770183
201	0x3d04be04	0.032407776
202	0xba7ff750	-0.00097643305
203	0x3aa8b6ec	0.0012871898
204	0xbcb20e7d	-0.021735424
205	0xbb91d07c	-0.004449902
206	0x3ce25079	0.027626263
207	0xbbe8d272	-0.007105165
208	0x3d4913a2	0.04909099
209	0x3c9f8022	0.019470278
210	0x3d95bfba	0.073119596
211	0x3c96f3e6	0.018426847
212	0xbd24dcd9	-0.04024968
213	0x3b62d2e0	0.0034610555
214	0xbc2c7a94	-0.010527272
215	0xbd2dd542	-0.042439707
216	0x3bf1e4d8	0.0073820166
217	0x3962c600	0.000216268
218	0xbd81f99a	-0.06346436
219	0x3cc79378	0.02436231
220	0x3cf1bf8a	0.029510278
221	0x3cf5240a	0.029924411
222	0xbd134ff1	-0.03596491
223	0xbaa91a54	-0.0012901523
224	0x3d47fd3a	0.04882548
225	0x3d7ab059	0.061203334
226	0xbb84cf61	-0.004053042
227	0x3d7df7c4	0.062003866
228	0xbcc9326f	-0.024560181
229	0x3c337c4b	0.010954927
230	0x3c3d1cd8	0.011542521
231	0x3d013246	0.031542085
232	0x3c86c04f	0.016449122
233	0x3d588c09	0.052867923
234	0xbc03f061	-0.008052916
235	0x3d7171e8	0.05894652
236	0x3c2f0404	0.01068211
237	0x3d9cd279	0.07657332
238	0x3d23aba2	0.039958604
239	0x3d63ed4b	0.055646222
240	0x3da404cc	0.080087274
241	0x3d89cbaa	0.06728299
242	0xbc7c5f78	-0.015403621
243	0xbcabbcac	-0.02096399
244	0x3d2733af	0.040820774
245	0x3cb4c812	0.022068057
246	0xbc40e1a9	-0.011772552
247	0x3c102e4d	0.0088001015
248	0x3a524a16	0.0008021904
249	0x3d8b1cd3	0.06792607
250	0x3d6997d8	0.057029575
251	0x3d71d0f5	0.059037168
252	0x3d0890d2	0.033341236
253	0x3d507b55	0.05089887
254	0x3d9567b6	0.07295172
255	0x3b10792d	0.0022044883

graph_matcher.mlp.0.bias f4 [128]
0	0x3cf82392	0.030290399
1	0xbad1aa8c	-0.0015996261
2	0xbd2c9858	-0.042137474
3	0xbd1cf550	-0.038319886
4	0xbc78df94	-0.015190024
5	0x3d68d97f	0.056848045
6	0x3d4535b7	0.04814693
7	0xbd74b58e	-0.059743457
8	0x3d96872f	0.07350003
9	0xbcd37952	-0.025814686
10	0xbc900642	-0.017581109
11	0x3cbee33f	0.023301719
12	0xbc0aa16c	-0.008461338
13	0x3c91c531	0.017794224
14	0x3d5fea97	0.05466708
15	0xbd32a0da	-0.04361043
16	0xbd2c1750	-0.04201442
17	0x3cf86b65	0.030324647
18	0xbd302b3a	-0.043009974
19	0xbda68136	-0.08130114
20	0x3b00ba80	0.0019642413
21	0x3ca6d9a8	0.020367458
22	0xbb230888	-0.0024876911
23	0x3c8bf382	0.017083887
24	0x3c8e7202	0.017388348
25	0xbd3fe37e	-0.046847813
26	0xbca01375	-0.019540528
27	0x3c7a0697	0.01526036
28	0xbb096fe0	-0.0020971224
29	0xbd5287a2	-0.05139888
30	0x3d63de77	0.05563208
31	0xbd30784e	-0.04308348
32	0x3cdc4ed0	0.02689305
33	0x3da58742	0.08082439
34	0xbd79f848	-0.061027795
35	0x3c77adf3	0.015117156
36	0xbd0bf9ac	-0.034173653
37	0xbd4887ea	-0.048957743
38	0xbd3aa664	-0.04556884
39	0x3cc2723b	0.02373611
40	0xbd45ce74	-0.048292592
41	0x3af59158	0.0018735332
42	0xbd5edbe6	-0.05440893
43	0xbd4a95c6	-0.04945924
44	0x3d913da1	0.07091833
45	0x3c97483d	0.018467063
46	0xbd03451e	-0.032048337
47	0xbd471cbc	-0.048611388
48	0x3cb2039f	0.021730242
49	0xbd3f999a	-0.046777345
50	0xbb28fcdc	-0.0025785482
51	0xbd872224	-0.06598309
52	0xbd39026a	-0.045168318
53	0x3aeef6cc	0.001823151
54	0xbcec46da	-0.028842378
55	0xbc329cb7	-0.010901622
56	0xbd94691c	-0.072466105
57	0x3d592aff	0.05301952
58	0xbb11deac	-0.0022257967
59	0xbca75068	-0.020424083
60	0x3c410117	0.011780045
61	0xbbb2026c	-0.0054324176
62	0x3da0cf73	0.07852068
63	0xbd5a18de	-0.05324637
64	0x3d9b6217	0.075870685
65	0x3d75ab0d	0.05997758
66	0xbc28fd52	-0.0103143025
67	0x3d095d62	0.033536322
68	0x3d185456	0.037189804
69	0x3b8ae4b0	0.0042386875
70	0xbd108ad2	-0.03528864
71	0xbd43a47a	-0.04776428
72	0xbd743772	-0.05962319
73	0x3d77fce2	0.060543902
74	0x3cb1d558	0.021708176
75	0xbd2ae5d0	-0.041723073
76	0x3db295cb	0.08719977
77	0x386aa000	5.593896e-05
78	0xbb097f86	-0.002098055
79	0xbce87fb7	-0.028381212
80	0x3d2821b7	0.041047778
81	0xbd288593	-0.04114301
82	0xbd7f4c06	-0.06232836
83	0x3ccfd064	0.025367923
84	0x3ce3581f	0.02775198
85	0x3cb2e3fc	0.021837227
86	0xbb142c98	-0.0022609588
87	0x3d6238c9	0.055229936
88	0xbad4515c	-0.0016198563
89	0x3bb00f70	0.005372934
90	0x3ce3891a	0.027775336
91	0x3d2dda19	0.042444322
92	0x3d570907	0.052498844
93	0xbd4fffae	-0.050780945
94	0xbcd3c90c	-0.025852703
95	0x3d629dcb	0.055326264
96	0x3d0a56b8	0.033774108
97	0x3a47ad54	0.00076170755
98	0x3daa2dc6	0.08309512
99	0xbd5cb61e	-0.053884618
100	0xbd3161f1	-0.043306295
101	0x3cb5915c	0.02216404
102	0x3a86115e	0.0010228564
103	0xbb446cd4	-0.0029972093
104	0xbc875cb8	-0.016523704
105	0xbd48bdd0	-0.049009144
106	0xbd56c34a	-0.052432336
107	0xbd619e90	-0.055082858
108	0xbd72483c	-0.05915092
109	0x3d88fd0a	0.06688888
110	0x3b3d69c0	0.0028902143
111	0x3cf950b3	0.030433988
112	0x3d38c1a5	0.04510655
113	0xbce28e65	-0.02765579
114	0xbcbec508	-0.023287311
115	0xbc84f3c8	-0.016229525
116	0x3d2072f0	0.039172113
117	0xbcdeab50	-0.027181298
118	0x3d6ac1e9	0.057313833
119	0x3da59667	0.080853276
120	0xbcb0243c	-0.021501653
121	0x3ca5319e	0.02016526
122	0xbd5a997a	-0.053369023
123	0xbd8004cd	-0.06250916
124	0x3c2150d0	0.009845927
125	0x3c8d6112	0.0172582
126	0x3ca6439e	0.020295914
127	0x3d567dfb	0.052366238

graph_matcher.mlp.2.weight f4 [128, 128]
0	0xbc09b239	-0.008404308
1	0x3c7ba8af	0.0153600415
2	0xbcbaec74	-0.022817828
3	0xba3c4b80	-0.0007182881
4	0x3d99d723	0.07511737
5	0x3d3d4fb1	0.046218578
6	0x3ad3aa9c	0.0016148868
7	0x3d60cf2e	0.054885082
8	0xbccd8d76	-0.025091868
9	0xbdadd9d9	-0.08488817
10	0xbdd54be0	-0.10414863
11	0x3d8adeff	0.067808144
12	0xbdb563b1	-0.08856905
13	0xbd7df8f3	-0.062004995
14	0x3d032625	0.0320188
15	0xbb9a8b00	-0.004716277
16	0x3d764272	0.06012196
17	0x3cbd2e01	0.023093225
18	0x3c3ed160	0.011646599
19	0x3d6f5f06	0.05844023
20	0xbb5eef20	-0.0034017041
21	0xbd16eb7a	-0.03684566
22	0xbd2ec9b3	-0.042672824
23	0xbd3db90b	-0.04631905
24	0x3c923f4a	0.017852444
25	0xbd59a6d8	-0.05313763
26	0x3df0c4b4	0.11756268
27	0x3d77d491	0.060505453
28	0x3ce98d2c	0.028509699
29	0x3cacd900	0.021099567
30	0xbda55e16	-0.08074586
31	0xbddd702e	-0.10812412
32	0xbd76c1dc	-0.060243472
33	0xbcb01ff2	-0.021499608
34	0x3d7585e6	0.05994215
35	0xbd666468	-0.0562481
36	0xbd690c29	-0.056896362
37	0xbd900e90	-0.070340276
38	0xbd867031	-0.065643676
39	0xbdb17e1b	-0.08666631
40	0x3d2108d2	0.039315052
41	0x3cb51335	0.022103885
42	0xbd513c77	-0.051083054
43	0x3c80bbd0	0.015714556
44	0x3cb9b3d5	0.022668758
45	0xbd92f35d	-0.07175324
46	0xbd960138	-0.07324451
47	0x3d0be21a	0.034151174
48	0xbc2cf57c	-0.010556575
49	0x3d7dae32	0.061933704
50	0x3c19703b	0.009365137
51	0xbdaf3327	-0.085546784
52	0xbd8e5770	-0.06950271
53	0x3c9c809c	0.019104294
54	0xbc391e14	-0.011298675
55	0xbd8dc38f	-0.069220655
56	0x3cebda56	0.028790634
57	0xbdd16668	-0.102246106
58	0x3c872b54	0.016500153
59	0x3a901680	0.0010993034
60	0x3c01283b	0.007883127
61	0xbd4875fb	-0.04894064
62	0x3d65bf03	0.056090366
63	0xbd7f2c88	-0.062298328
64	0xbc905d09	-0.017622488
65	0xbdb9d153	-0.090731286
66	0xbd066ed6	-0.032820545
67	0xbd94ad56	-0.07259624
68	0x3d6fa5a8	0.05850759
69	0xbdc5e4ec	-0.09662804
70	0x3cdde152	0.02708498
71	0x3d6d65fa	0.05795858
72	0xbc81cac0	-0.015843749
73	0xbdbbadd1	-0.09164012
74	0x3b6c84a0	0.0036089793
75	0x3d9e21f7	0.07721322
76	0xbd86c407	-0.06580358
77	0x3db4b167	0.08822899
78	0xbdb8a09d	-0.090150096
79	0x3c6d4708	0.014482267
80	0xbd42c58f	-0.047551688
81	0xbdb25b02	-0.087087646
82	0xbcf8deb8	-0.030379638
83	0xbcff27ae	-0.03114685
84	0xbded056f	-0.11573302
85	0xbd7aa60c	-0.06119351
86	0xbd3c0fd5	-0.045913536
87	0xbc74deb5	-0.014945676
88	0x395cb8b0	0.00021049636
89	0x3ba20260	0.004944131
90	0x3d15acea	0.036541857
91	0xbd74886e	-0.059700422
92	0xbdd7c0d1	-0.10534824
93	0x3c2d38f8	0.010572664
94	0x3d724186	0.05914452
95	0x3d4adbf5	0.049526174
96	0xbd32539a	-0.04353676
97	0xbc1d90c8	-0.009617038
98	0xbdea950a	-0.11454208
99	0x3db27091	0.087128766
100	0xbd98cf89	-0.07461459
101	0x3da9708d	0.082734205
102	0xbc887e50	-0.016661793
103	0xbdb4a315	-0.08820168
104	0x3d182ddb	0.037153106
105	0xbd57bc17	-0.05266961
106	0x3ca13d84	0.019682653
107	0x3d4377be	0.047721617
108	0xbd795d48	-0.060879976
109	0x3d0172c6	0.031603597
110	0x3d4ea866	0.050453566
111	0x3cb5910a	0.022163887
112	0xbc1d386a	-0.00959597
113	0x3d3bad57	0.045819607
114	0x3bd31890	0.006442137
115	0x3d9846c1	0.0743537
116	0xbdcb544d	-0.099281885
117	0xbd129373	-0.03578515
118	0x3d00a3b1	0.03140611
119	0xbdb547be	-0.08851574
120	0x3c9f9a1c	0.019482665
121	0xbda4f4a2	-0.080544725
122	0xbaaed380	-0.0013338178
123	0x3d84d9d7	0.06486862
124	0xbda73c40	-0.08165789
125	0xbcfa0ced	-0.030523742
126	0x3c9b4082	0.018951658
127	0xbdb45ffd	-0.08807371
128	0xbda279ca	-0.07933386
129	0xbd96e6e5	-0.073682584
130	0x3d5f547e	0.054523937
131	0xbd6fc489	-0.05853704
132	0xbbf70cc0	-0.0075393617
133	0xbcb309e4	-0.021855302
134	0xbd4fda1b	-0.05074511
135	0xbd88670f	-0.06660282
136	0x3d9269a1	0.07149053
137	0x3cc5e7ac	0.024158321
138	0x3b8da9f0	0.0043232366
139	0x3ce82e0c	0.02834227
140	0xbcc3a4ec	-0.023882352
141	0x3d3e35e2	0.046438105
142	0x3cd4e328	0.025987223
143	0xbcfa7ac4	-0.030576117
144	0x3d5da706	0.054114364
145	0xbd8efca8	-0.06981784
146	0x3d2e55a2	0.042562135
147	0xbd8ad3c3	-0.067786716
148	0x3d46d132	0.048539348
149	0x3d4c9c66	0.04995384
150	0x3b11c2c0	0.0022241324
151	0xbd29d8ae	-0.041466407
152	0xbd6466f5	-0.05576225
153	0x3d28e83a	0.041237094
154	0xbd410a91	-0.047129218
155	0xbd7124b0	-0.05887288
156	0xbcdfd4b4	-0.027323104
157	0xbc470e70	-0.012149438
158	0x3d45fff6	0.048339806
159	0x3d22edba	0.039777495
160	0x3da18fdd	0.07888768
161	0x3d67f062	0.05662573
162	0xbd6bf553	-0.057607006
163	0x3da5804f	0.080811135
164	0xbd5ebeb4	-0.054381087
165	0xbd90ba2c	-0.070667595
166	0x3ccc6350	0.0249497
167	0xbcc1ca70	-0.0236561
168	0x3d8d9ca3	0.06914642
169	0xbd9ec946	-0.077532336
170	0xbdb502b1	-0.08838404
171	0x3da56fc7	0.080779605
172	0x3d3986ce	0.045294575
173	0x3d8a1115	0.067415394
174	0x3cb138e0	0.021633565
175	0xbd9cfa77	-0.0766496
176	0x3d94643d	0.072456814
177	0x3d004946	0.03131988
178	0xbd7bef1c	-0.06150733
179	0x3d043fc0	0.03228736
180	0xbd606289	-0.05478147
181	0xbc99d358	-0.018777534
182	0x3d9233a1	0.07138754
183	0xbca678d0	-0.02032128
184	0xbd98a29c	-0.0745289
185	0x3d066f00	0.0328207
186	0x3cfe0594	0.03100852
187	0xbb136ec0	-0.0022496432
188	0xbd5f584a	-0.05452756
189	0xbd68ed7f	-0.05686712
190	0x3cf1a9b8	0.029499874
191	0x3d99b369	0.07504923
192	0xbd221a81	-0.039576057
193	0x3ce3afd0	0.027793795
194	0x3da7ca69	0.081929035
195	0xbd9cd64e	-0.07658063
196	0x3dafb531	0.085794814
197	0xbd4315e4	-0.0476283
198	0xbd436d54	-0.047711685
199	0x3d3db9a6	0.046319626
200	0xbd8440a0	-0.06457639
201	0xbd4c30d0	-0.04985124
202	0xbd0252bf	-0.031817194
203	0xbd50aeab	-0.050947826
204	0xbd846c1e	-0.06465934
205	0xbc841d5c	-0.01612728
206	0x3d232ae6	0.039835833
207	0x3d795bfe	0.060878746
208	0x3bd44250	0.0064776316
209	0x3da85855	0.08219973
210	0x3abf1640	0.0014578775
211	0xbdb19a2b	-0.08671983
212	0x3d3c5cf6	0.045987092
213	0x3caeaa3c	0.021321408
214	0x3d1604ae	0.036625557
215	0x3d52293e	0.051308863
216	0xbd5a86f1	-0.053351346
217	0x3db4c70b	0.08827027
218	0x3d848e63	0.064724706
219	0xbd92beb4	-0.0716528
220	0xbdab0dc6	-0.083522364
221	0xbd9e1bbe	-0.07720135
222	0xbd45be78	-0.04827735
223	0xbdb163da	-0.08661623
224	0x3d1596f8	0.03652093
225	0x3d91cfaf	0.071196906
226	0x3c45ba68	0.0120683685
227	0xbb6c4d00	-0.0036056638
228	0xbda7e8c6	-0.08198695
229	0xbd5473e1	-0.051868323
230	0xbd693ddd	-0.056943763
231	0xbcb5c308	-0.022187725
232	0x3bb84890	0.0056238845
233	0x3d2214ea	0.039570726
234	0xbd182f8a	-0.03715471
235	0xbd668754	-0.056281403
236	0x3d26c552	0.040715523
237	0x3ca25818	0.019817397
238	0x3c464270	0.012100801
239	0x3da92dff	0.08260726
240	0xbaf70e00	-0.0018848777
241	0xbda5763b	-0.08079191
242	0xbc76bfb8	-0.015060358
243	0x3d7110e6	0.058854006
244	0x3d657fee	0.056030206
245	0xbb90e850	-0.004422225
246	0xbd18a028	-0.037262112
247	0xbd1be8c9	-0.038063798
248	0x3d4de8ae	0.05027073
249	0xbd5b3253	-0.05351479
250	0x3cc0039c	0.023439221
251	0xbd90d966	-0.070727155
252	0xbd3e4c82	-0.046459682
253	0x3d251ce2	0.040310748
254	0x3d1dbbce	0.038509183
255	0x3c66cb00	0.014086485

graph_matcher.mlp.2.bias f4 [128]
0	0x3cd5a687	0.026080383
1	0xbd97ee85	-0.07418541
2	0xbd1b9dd8	-0.03799233
3	0xbcc889af	-0.024479715
4	0xbceae6fe	-0.028674599
5	0xbd045b0b	-0.032313388
6	0x3cefa913	0.029255426
7	0x3cc668a7	0.024219824
8	0x3dd071f2	0.10177983
9	0xbc1ac478	-0.009446256
10	0xbda4fb81	-0.08055783
11	0xbcd6b8bc	-0.026211135
12	0x3dd2621b	0.102726184
13	0xbc92dc50	-0.017927319
14	0xbd73abc8	-0.059489995
15	0xbd9356ec	-0.071943134
16	0x3d3897aa	0.045066513
17	0xbd2f08ba	-0.04273293
18	0x3d3fbf5c	0.046813354
19	0x3da3d73d	0.08000038
20	0xbd5f3b8d	-0.05450015
21	0x3d598cf4	0.05311294
22	0x3cd692c4	0.02619303
23	0xbd84b1f2	-0.06479253
24	0xbda5e5a6	-0.081004426
25	0xbd0faf7e	-0.03507947
26	0x3cd408de	0.025883134
27	0xbb07d124	-0.0020724023
28	0x3c9c0c6c	0.019048892
29	0x3cf49904	0.02985812
30	0xbcc6cd63	-0.024267858
31	0x3dbda689	0.0926028
32	0x3bf65ee0	0.007518634
33	0xbd0e6b66	-0.034770392
34	0xbc88da34	-0.01670561
35	0xbd8dd216	-0.06924836
36	0xbd085dc2	-0.03329254
37	0xbd580363	-0.052737605
38	0x3d1314da	0.035908557
39	0xbd9ddfec	-0.07708725
40	0xbbc3bd6d	-0.005973509
41	0xbd8bfe45	-0.068356074
42	0x3dbc4a2e	0.09193836
43	0xbc078ae3	-0.008272859
44	0xbdabd7a7	-0.08390742
45	0x3d50c7ac	0.050971672
46	0x3d7e9779	0.062156174
47	0x3d608ea7	0.054823544
48	0xbca93dbc	-0.02065932
49	0x3dc8c270	0.09802711
50	0xbbd1d25e	-0.0064032516
51	0xbd6132a5	-0.05497994
52	0xbc6ceba8	-0.014460482
53	0xbd386224	-0.04501547
54	0x3dc3416e	0.09533964
55	0xbb06752c	-0.0020516617
56	0x3cfb4ef4	0.030677296
57	0x3d1e5420	0.038654447
58	0xbc7050dc	-0.014667716
59	0xbcb292d0	-0.021798521
60	0x3da7490c	0.081682295
61	0x3d4c74a6	0.049915932
62	0xbd827e11	-0.063717015
63	0xbcfe758a	-0.031061906
64	0xbbe2b590	-0.0069186166
65	0xbda4da90	-0.080495
66	0xbc0571a2	-0.008144768
67	0xbdafabdc	-0.085777014
68	0x3d3e53f9	0.0464668
69	0xbd211db1	-0.039334957
70	0xbbd87b50	-0.006606497
71	0xbd937384	-0.07199767
72	0x3d8ed493	0.06974139
73	0x3dd959e7	0.10612851
74	0x3d3a87c4	0.045539632
75	0x3bcdb452	0.0062775994
76	0x3d02d842	0.03194452
77	0x3de328d3	0.11091771
78	0xbd124d74	-0.035718396
79	0xbd743728	-0.059622914
80	0xbb92f9c5	-0.0044853413
81	0x3bbf4e97	0.005838226
82	0xbc8bc258	-0.017060444
83	0x3aaf65da	0.0013381795
84	0xbd9b956f	-0.075968616
85	0x3c13503d	0.008991298
86	0xbd4683bb	-0.04846547
87	0xbcc37a48	-0.02386202
88	0xbcfaa37c	-0.030595534
89	0xbdb32e31	-0.08749045
90	0xbdbd3db7	-0.09240287
91	0xbd05c490	-0.03265816
92	0x3d0484f6	0.032353364
93	0x3c8416fc	0.016124241
94	0x3be34fd8	0.0069370084
95	0x3d99f92f	0.07518231
96	0xbc1a7a10	-0.009428516
97	0x3dd74b8e	0.10512458
98	0xbd231e58	-0.03982386
99	0x3d4ad924	0.049523488
100	0xbd0162fd	-0.031588543
101	0xbdb27358	-0.08713406
102	0x3b5d7820	0.0033793524
103	0xbd747ec0	-0.05969119
104	0xbcf945d2	-0.0304288
105	0x3b402c41	0.0029323252
106	0xbaec820e	-0.001804413
107	0xbc7c0872	-0.015382873
108	0x3d605825	0.05477156
109	0x3dc2f515	0.09519402
110	0x3c6beed8	0.0144002065
111	0x3d531104	0.0515299
112	0x3cf3bc1a	0.02975278
113	0xbd03fe42	-0.0322249
114	0xbd2eef5b	-0.042708736
115	0xbbb981f8	-0.0056612454
116	0xbbc8ebe3	-0.0061316355
117	0xbc98e08c	-0.01866176
118	0x3d0605b3	0.03272028
119	0xbd58d6be	-0.05293917
120	0xbd56e814	-0.05246742
121	0x3daa21ee	0.08307253
122	0xbce3faea	-0.027829606
123	0x3d4ee05d	0.05050694
124	0xbc82d34c	-0.015969895
125	0xbd9062b1	-0.07050074
126	0x3ded0cb4	0.115746886
127	0xbd135b79	-0.035975907

graph_matcher.mlp.4.weight f4 [64, 128]
0	0x3d7548f8	0.05988404
1	0x3d6ebede	0.058287494
2	0x3dabbe7f	0.083859436
3	0x3d91deee	0.071225986
4	0xbd6a2672	-0.05716557
5	0x3c91f9b4	0.017819263
6	0x3dead3a5	0.11466149
7	0x3d377ea4	0.04479851
8	0x3ddadcf4	0.10686675
9	0xbd58cb49	-0.052928243
10	0x3d2b24aa	0.041783012
11	0xbd3019de	-0.04299342
12	0xbb8816ab	-0.004153093
13	0xbdb17870	-0.0866555
14	0x3dbb0738	0.09132236
15	0xbca618ce	-0.0202755
16	0xbcc012e8	-0.023446515
17	0xbdac64ea	-0.08417685
18	0xbcb1c1df	-0.02169889
19	0x3d4f8459	0.050663326
20	0x3d880016	0.066406414
21	0x3dc9e5e1	0.09858299
22	0xbcf5c140	-0.029999375
23	0x3d10685e	0.035255782
24	0x3c09c8d2	0.008409696
25	0xbc57abe7	-0.013163543
26	0x3d52eb7b	0.051494103
27	0x3d8bbc07	0.06822973
28	0x3d442e4e	0.047895722
29	0x3da85e35	0.082210936
30	0x3cd4c400	0.025972366
31	0x3da638db	0.08116313
32	0x3d526c80	0.051373005
33	0xbc500dc0	-0.012698591
34	0xbd00b4ce	-0.03142243
35	0xbd929ecc	-0.07159194
36	0xbd5e2c50	-0.05424148
37	0xbda23828	-0.07920867
38	0x3b9daf0e	0.004812128
39	0xbd42e167	-0.04757824
40	0xb902c6a0	-0.0001247176
41	0x3c4830c0	0.012218654
42	0x3de380e0	0.11108565
43	0xbd19ba36	-0.0375311
44	0xbda49e6c	-0.08038029
45	0xbc9b1175	-0.018929223
46	0xbca8c48e	-0.020601537
47	0xbc3d1e30	-0.011542842
48	0x3d6b73ce	0.057483487
49	0x3d53855a	0.051640846
50	0xbd4c050c	-0.0498095
51	0xbd99f625	-0.075176515
52	0xbdafd51e	-0.08585571
53	0xbd2a228d	-0.041536856
54	0x3dcf11d8	0.10110825
55	0xbc395d00	-0.011313677
56	0x3da076a9	0.07835133
57	0xbd50704c	-0.050888345
58	0xbc7baee2	-0.0153615195
59	0x3cfb70ac	0.030693375
60	0xbbe6a6f6	-0.0070389463
61	0x3c242547	0.010018653
62	0xbc11ed98	-0.008906744
63	0x3d30739a	0.043078996
64	0x3d927d83	0.07152846
65	0xbd817f45	-0.06323103
66	0xbdb041d1	-0.086063035
67	0xbd5a46a9	-0.053290043
68	0xbcc280c7	-0.023743046
69	0x3cc16ed8	0.023612425
70	0x3c86d0a4	0.01645691
71	0x3ccfdc04	0.025373466
72	0x3d04799c	0.03234254
73	0x3dadf52c	0.084940284
74	0xbda0ce15	-0.07851807
75	0x3dcaf772	0.09910478
76	0xbcdd98f7	-0.027050478
77	0x3da5c799	0.08094711
78	0xbd1ffae3	-0.039057624
79	0x3b3e7080	0.0029058754
80	0x3a35e824	0.00069391937
81	0xbd8efedc	-0.06982204
82	0x3d6f023e	0.058351748
83	0x3d42fd48	0.04760483
84	0xbc4dc738	-0.0125597045
85	0xbd836105	-0.064149894
86	0x3d88ec33	0.066856764
87	0x3c266e98	0.010158204
88	0x3c8bf284	0.017083414
89	0xbc3d6c68	-0.011561491
90	0x3ca77d43	0.020445472
91	0xbd41e44f	-0.047336873
92	0x3d4ad608	0.049520522
93	0xbdaaecff	-0.08345985
94	0xbcf2a9b9	-0.029621946
95	0x3b62516f	0.0034533401
96	0x3d024ecc	0.031813428
97	0xbd030df7	-0.03199574
98	0xbd3cc51a	-0.04608641
99	0xbd4a00d3	-0.049317192
100	0x3d9758a3	0.07389953
101	0x3d943672	0.07236947
102	0xbd18dabf	-0.037317988
103	0xbb802ef0	-0.0039118454
104	0x3cc26900	0.023731709
105	0xbd5ae1ab	-0.05343787
106	0xbdde4da0	-0.108546495
107	0x3d5cd2c0	0.053911924
108	0x3cc2af8e	0.023765352
109	0x3d8d1d85	0.06890396
110	0xbdaef1f0	-0.0854224
111	0x3905f8b0	0.00012776512
112	0x3dc7645b	0.09735938
113	0xbd61915e	-0.055070274
114	0xbca3e3c6	-0.020006072
115	0xbdc9e087	-0.09857278
116	0xbc4cde9d	-0.012504247
117	0xbd871c2a	-0.06597169
118	0x3c01b3ca	0.0079164
119	0xbdb0f175	-0.08639804
120	0x3d2184b5	0.0394332
121	0x3dac4ae3	0.08412721
122	0x3d7d1f3e	0.061797373
123	0x3de38ed6	0.11111228
124	0xbd92d86c	-0.071701854
125	0xbd43afbb	-0.04777501
126	0x3dce3ec0	0.10070562
127	0x3d56dad6	0.052454792
128	0xbd9f1c06	-0.07769017
129	0xbb3272a0	-0.0027228966
130	0xbc5103c8	-0.012757249
131	0xbdaf33ef	-0.085548274
132	0xbd22ee84	-0.039778247
133	0x3db03c51	0.086052544
134	0xbd581b62	-0.05276049
135	0xbdb59e8e	-0.088681325
136	0xbd5eb028	-0.054367214
137	0x3d91da81	0.071217544
138	0xbd5d181b	-0.053978067
139	0x3d4ca7c6	0.04996469
140	0xbde75fde	-0.11297582
141	0xbc945cfc	-0.018110745
142	0x3b9c1b7b	0.004764018
143	0xbd960173	-0.07324495
144	0x39877b60	0.00025841128
145	0xbd38649a	-0.045017816
146	0x3cae85a3	0.021303957
147	0xbda303db	-0.0795972
148	0x3d9a9fd2	0.075500146
149	0xbdd444e9	-0.10364706
150	0xbdf84f9c	-0.12124559
151	0xbda0c1a6	-0.078494355
152	0xbce62e63	-0.02809829
153	0x3d668634	0.05628033
154	0x3cd62fa1	0.026145758
155	0xbdaca4fc	-0.08429906
156	0xbdeffc24	-0.11718014
157	0x3ce548c3	0.027988797
158	0xbcd9caaa	-0.026585896
159	0xbd555002	-0.052078255
160	0x3d3c300e	0.045944266
161	0xbca90f8c	-0.020637296
162	0x3d4ffe9c	0.050779924
163	0x3d8f4989	0.069964476
164	0x3d2c40f6	0.04205414
165	0xbdc5e2a2	-0.096623674
166	0x3d19491b	0.037423234
167	0xbd27fbde	-0.041011684
168	0xbcb1b038	-0.021690473
169	0xbdadcd50	-0.08486426
170	0x3c4568ee	0.012048943
171	0xbce47c11	-0.02789119
172	0xbca1e49c	-0.01976233
173	0x3c979c54	0.01850716
174	0xbd862aa2	-0.065511
175	0xbdc84b01	-0.09779931
176	0xbdc9ecf0	-0.09859645
177	0xbdb32021	-0.087463625
178	0xbda26d96	-0.07931058
179	0xbbfe1630	-0.00775411
180	0x3d2098ee	0.039208345
181	0x3d33a3fa	0.043857552
182	0xbb95abd9	-0.004567605
183	0x3d6c5b22	0.0577041
184	0xbdc00262	-0.093754545
185	0xbdd431c1	-0.10361052
186	0x3c406b2f	0.011744305
187	0x3d79b467	0.06096306
188	0xbdfebbe2	-0.124381796
189	0x3cb64e44	0.022254117
190	0xbd994b29	-0.07485039
191	0x3d16bff4	0.036804155
192	0x3db17c8d	0.08666334
193	0xbcb78f78	-0.022407278
194	0xbd6e48d0	-0.05817491
195	0x3d53354a	0.051564492
196	0xbd57b519	-0.052662943
197	0xbcfc2892	-0.030781064
198	0xbc757f10	-0.014983907
199	0x3da4c79b	0.08045884
200	0xbd391cbe	-0.045193426
201	0xbdf2be6a	-0.11852725
202	0xbcb2e288	-0.021836534
203	0x3d03a65e	0.032141082
204	0x3d2fab95	0.042888243
205	0x3ce47633	0.027888393
206	0xbd9af8c7	-0.07566982
207	0xbd30819a	-0.043092348
208	0xbd98091f	-0.07423615
209	0xbded0759	-0.11573667
210	0xbd930dc3	-0.07180359
211	0xbd6b9744	-0.057517305
212	0x3cc56bd8	0.024099275
213	0xbda12f82	-0.078703895
214	0xbc917694	-0.017756738
215	0x3da7c945	0.08192686
216	0x3d126bbc	0.035747275
217	0xbda31d8e	-0.079646215
218	0xbd8ffcec	-0.07030663
219	0x3a922ac0	0.0011151657
220	0x3cc31038	0.023811445
221	0x3ccb7064	0.024833865
222	0xbcce0168	-0.025147155
223	0xbc3250a2	-0.010883482
224	0x3b9e8920	0.004838124
225	0xbdeb83e4	-0.114997655
226	0x3d162876	0.03665968
227	0xbbd46a3b	-0.00648239
228	0xbda49be5	-0.08037547
229	0xbdaec2df	-0.085332625
230	0x3daca98d	0.08430777
231	0xbdab421c	-0.08362219
232	0x3d0e05da	0.03467355
233	0xbddc60fe	-0.10760687
234	0xbde2de81	-0.110775955
235	0xbc889b2c	-0.016675554
236	0x3d2c4065	0.0420536
237	0xbb87864c	-0.0041358825
238	0xbd9867e3	-0.0744169
239	0xbcd26200	-0.025681496
240	0x3cd35c8c	0.025800966
241	0xbd523019	-0.0513154
242	0x3cebfb0a	0.028806228
243	0x3d9e6517	0.07734125
244	0xbd8d3a83	-0.06895926
245	0x3d80832a	0.062750176
246	0xbc01cb34	-0.007921983
247	0xbc448f50	-0.011997059
248	0xbd84f657	-0.06492298
249	0xbdcd66ff	-0.100294106
250	0x3b11ae00	0.0022228956
251	0x3acb391a	0.0015504688
252	0x3d4fc48e	0.05072456
253	0xbc9836f4	-0.018580891
254	0xbdbd85f0	-0.09254062
255	0x3d883eb9	0.066525884

graph_matcher.mlp.4.bias f4 [64]
0	0x3d92c289	0.07166011
1	0xbdf0ceb3	-0.11758175
2	0xbd55c677	-0.052191224
3	0xbd8c5e5b	-0.068539344
4	0x3d5010ad	0.050797153
5	0xbc25cbca	-0.010119388
6	0xbd7f4df7	-0.062330212
7	0xbdcc31a7	-0.09970408
8	0xbd92fe87	-0.071774535
9	0xbc00f07f	-0.007869839
10	0xbd98a834	-0.07453957
11	0xbd9430af	-0.07235848
12	0xbd356a69	-0.044290934
13	0xbd2033a8	-0.039111763
14	0xbdde6021	-0.10858179
15	0xbd54b2f5	-0.05192848
16	0xbd4ac6bf	-0.049505945
17	0xbd3f28f5	-0.04666992
18	0x3dc62657	0.096752815
19	0xbcd15170	-0.025551528
20	0x3dc2f423	0.09519222
21	0x3d22d3f1	0.039752904
22	0xbdc089be	-0.09401272
23	0xbcfa0373	-0.030519223
24	0xbd260f8b	-0.040542167
25	0xbc4bdd4a	-0.012442896
26	0x3cf71080	0.030159235
27	0xbdf2df4d	-0.118589975
28	0xbd845063	-0.06460645
29	0x3cb47ff8	0.022033677
30	0x3d881c08	0.066459715
31	0x3c8fcd5c	0.017553978
32	0x3df4aecc	0.11947402
33	0x3d895c75	0.06707088
34	0xbd980743	-0.0742326
35	0xbdbd2432	-0.09235419
36	0x3dd96b5a	0.10616179
37	0xbd7e4e98	-0.06208667
38	0xbcfd6945	-0.030933985
39	0xbdbe8d53	-0.09304299
40	0x3d110bd2	0.035411663
41	0x3c70ef87	0.014705545
42	0xbd8e3de7	-0.06945401
43	0x3d0ba735	0.034095008
44	0xbcd5d25c	-0.026101284
45	0xbd2614a7	-0.04054704
46	0x3d0500d3	0.03247149
47	0xbd96f0da	-0.073701575
48	0x3d62653f	0.055272337
49	0x3dc8de05	0.09807972
50	0xbd5c8897	-0.0538412
51	0x3d6b7942	0.057488687
52	0xbdb9df4e	-0.09075795
53	0x3bc19d26	0.005908626
54	0xbda3bb3f	-0.07994699
55	0xbda720b5	-0.08160535
56	0x3d4e0f41	0.050307516
57	0x3dde8908	0.108659804
58	0xbd6e795a	-0.0582212
59	0x3d9df469	0.07712633
60	0x3db5be65	0.088742055
61	0x3c3aa730	0.0113924
62	0x3debd9af	0.11516129
63	0x3d947771	0.07249344
