Result/GCN/1000_sample/model_epoch_25_f1_0.8771.pth (torch, 841514 bytes, 42 tensors)

graph_matcher.gnn.conv1.bias f4 [64]
000000 b2 59 e7 bd bf b3 42 bc 7d f6 4e 3d 07 b5 c4 bc
       -0.11296405 -0.011883675 0.05052804 -0.024012102
000010 87 81 cc 3d 14 b5 15 3d 82 71 4c 3d 7b cc 95 bd
       0.09985643 0.036549643 0.049912937 -0.07314392
000020 66 b7 ec bc d3 db ca 3c ea fe 07 3c 2e 43 36 bd
       -0.028896045 0.024763023 0.008300522 -0.04449766
000030 fb 39 b3 bc 01 62 00 bd 43 88 4c be 99 db 88 3a
       -0.021878233 -0.031343464 -0.19973855 0.0010441422
000040 fb aa 6e bc 00 00 00 00 8e 09 23 bd 1b 2d 1e 3d
       -0.014567132 0.0 -0.039804034 0.038617235
000050 36 77 0f 3d 00 00 00 00 00 00 00 00 00 00 00 00
       0.035025798 0.0 0.0 0.0
000060 a5 9e 9e bd ce c7 d6 bc 96 e7 df 3d ae 6c ac 3d
       -0.07745103 -0.026218321 0.109328434 0.084191665
000070 b1 69 e8 3d e2 e0 0c 3e b7 42 93 3d ae c0 c1 bd
       0.11348284 0.13757661 0.07190459 -0.09460579
000080 97 f8 75 bd d8 54 92 3c b2 3c 5f bd 02 5d dc bc
       -0.060051527 0.017862722 -0.054501243 -0.026899818
000090 86 16 9d 3b dc 2d 8d bd da 3c c8 bc f9 ce ab 3d
       0.004793945 -0.068935126 -0.024443079 0.08389086
0000a0 00 00 00 00 58 c0 21 bd b2 33 03 be 00 00 00 00
       0.0 -0.039490074 -0.12812689 0.0
0000b0 70 2c fc bc 32 17 32 bd 74 fa 9c bd be 8b c8 bb
       -0.030782908 -0.043479152 -0.07664958 -0.006120174
0000c0 bc 3e d2 bc 04 f5 02 be 35 d1 62 bd 50 88 23 bd
       -0.02566468 -0.12788779 -0.055375297 -0.03992492
0000d0 5a cd 23 bd f8 b0 bc 3d 00 00 00 00 25 e5 c3 3d
       -0.03999076 0.092134416 0.0 0.0956519
0000e0 48 ba 00 3e ac 3d 0b 3d c5 45 3e bc 2d b6 47 bb
       0.1257106 0.03399436 -0.011613314 -0.0030473575
0000f0 99 f6 95 bd e3 75 a1 3c ed 1c 9d 3d 41 4a 3f bc
       -0.073224254 0.019709533 0.07671533 -0.011675418

graph_matcher.gnn.conv1.lin.weight f4 [64, 4]
000000 70 35 0e 3f 8f e1 80 3e 77 e5 e4 3e dd fa 10 be
       0.5555029 0.25172088 0.44706318 -0.14158197
000010 71 00 61 be fc 27 90 3d 97 c7 67 be 3f 45 46 3e
       -0.21972825 0.070388764 -0.22634731 0.19362353
000020 72 46 6d 3e bf ba ad 3e cf f6 dc be 12 40 d0 be
       0.23171404 0.33931538 -0.4315705 -0.40673882
000030 3f 4e 3d be e0 37 76 be a7 68 29 be a0 6c 0f 3e
       -0.1848688 -0.24044752 -0.16543828 0.14006281
000040 19 d4 4c 3f 06 27 d2 bd bd 56 28 3f 41 5e 13 be
       0.80011135 -0.102613494 0.6575735 -0.14391424
000050 c7 7a af be fe cf 84 be 0a d5 9f be 73 13 28 3e
       -0.3427336 -0.25939935 -0.31217223 0.1641367
000060 55 49 b1 be 73 cf 0b bd 48 2a 8e be 5b c3 05 3e
       -0.3462626 -0.034133386 -0.27766633 0.13062803
000070 ff 60 a0 be 97 31 1b 3e 2e ab f3 bd f6 ac 0f 3e
       -0.31324002 0.15155636 -0.11897884 0.14030823
000080 de fd 2d be a5 92 6a 3e 1b e9 9e be f0 8d 30 3e
       -0.16991374 0.22907503 -0.3103722 0.17241645
000090 0f 08 60 be f7 91 f5 3d 75 86 2a be 05 7b a8 3d
       -0.21878074 0.11990731 -0.16652854 0.08226589
0000a0 71 37 8c be 7c 67 c3 be 8e 70 8d be 96 6b 61 3e
       -0.27386048 -0.3816489 -0.27624935 0.22013697
0000b0 dd 97 2d be 3e c5 71 be 40 bf 63 be e3 06 45 3e
       -0.16952462 -0.23610398 -0.22240925 0.19240908
0000c0 11 0a 82 bd ef fe 93 be 63 6c 35 be d5 0b 45 3d
       -0.06349576 -0.28905436 -0.17717128 0.048106987
0000d0 73 ab 0e 3f 75 d8 7b 3b 3e fd 53 3e 24 70 22 be
       0.5573036 0.003842858 0.20702073 -0.15863091
0000e0 09 e1 07 3d 92 85 90 be 55 e5 b3 3c a8 a3 7b 3d
       0.033173595 -0.28226906 0.02195994 0.06143537
0000f0 a8 7f 04 3f 84 ad 9b 3d ec d0 53 3f fb 90 5b bc
       0.5175729 0.07601455 0.82740664 -0.013401265
000100 c0 8d 45 be d5 4e 1d be f8 fe 7d be 59 58 17 3e
       -0.19292355 -0.15362103 -0.24804294 0.14779796
000110 4c ad 8f be 72 2d 58 be c1 53 97 be 37 40 31 be
       -0.28061903 -0.21111086 -0.29556087 -0.17309652
000120 1e 4b d8 bd a6 57 94 3d b8 80 4f be e7 dc da 3d
       -0.105612025 0.0724328 -0.20263946 0.10686665
000130 fe 72 b3 be 16 00 5b 3d c5 38 c2 be d8 01 66 3e
       -0.3504867 0.05346688 -0.37933937 0.22461641
000140 b9 9b 41 be 94 58 6f be dd 09 28 be 0f c6 2b 3d
       -0.1890706 -0.23373634 -0.16410013 0.04193693
000150 06 b1 92 be 56 bc 95 bd 42 3a 84 bd ac 8b a2 bd
       -0.28650683 -0.07311313 -0.06456424 -0.079367965
000160 e7 36 92 be 99 44 0e be c4 04 df bd d5 09 5f be
       -0.28557512 -0.13893355 -0.10889581 -0.21781094
000170 fc 01 99 bd 89 51 05 be 72 68 04 be 59 eb 59 be
       -0.074710816 -0.13019384 -0.12930468 -0.21281184
000180 dd aa 63 be 7a 44 82 3e 57 41 14 be 95 90 2e 3e
       -0.22233148 0.25442868 -0.1447805 0.17047341
000190 bb 85 da 3e a3 0c 54 3d e5 5a 59 3e 1d 29 65 bd
       0.42680153 0.051769864 0.2122608 -0.05594741
0001a0 af e3 23 3d 9a eb ff 3d c3 4c 71 3f 4d fc 92 be
       0.040012058 0.12496109 0.94257754 -0.28708115
0001b0 82 7e 36 3f c3 b0 ac bb cf a2 6d 3f f3 86 8a be
       0.71286786 -0.005270095 0.9282655 -0.27056083
0001c0 1d 80 ec 3e dd 32 13 3d 8b db 8b 3f 01 41 91 be
       0.46191493 0.03593718 1.0926374 -0.28369907
0001d0 23 50 d4 3e 1a 3f 3b be 4e cd 8a 3f 7f bb f3 bd
       0.4146739 -0.1828579 1.0843904 -0.119009964
0001e0 3b 46 f8 3d e0 6b a4 3e 02 44 e4 be ea de b9 be
       0.121227704 0.32113552 -0.44583136 -0.36302882
0001f0 35 bf 68 3e 2e d3 a4 be 9d 81 c3 bd 7e 04 ce 3d
       0.2272919 -0.32192367 -0.09546206 0.100594506
000200 cd 82 8c be d6 5b f8 bd 2c df 75 be eb 6c 3c bd
       -0.27443543 -0.12126891 -0.24010915 -0.04600231
000210 a6 e7 18 3f 3d bf 99 3b ea 55 8d 3f 40 32 30 bd
       0.5972847 0.004691987 1.1041844 -0.043016672
000220 64 7f 77 bd e3 27 ef bd 94 a0 18 be f6 e0 f7 3b
       -0.060424224 -0.1167753 -0.14905006 0.007564659
000230 4d 1c c7 3e 0b e2 b8 be 84 3d b5 be 24 58 cb bc
       0.3888878 -0.36109957 -0.35398495 -0.024822302
000240 68 c4 e3 be 6a a2 9d 3e cd 61 bc 3e 72 10 e9 be
       -0.44485784 0.30787975 0.36793366 -0.4552036
000250 26 1e f7 bd 90 eb a2 bb 0a f5 c3 bd a3 88 2a bd
       -0.12066297 -0.004971929 -0.09568222 -0.041634213
000260 e6 d2 2f be 23 db 90 bd 70 58 e1 ba d5 a7 50 be
       -0.17170295 -0.07073047 -0.0017192494 -0.20376523
000270 07 51 31 3f 69 fb b8 bd f0 7a 78 3f b6 a6 e3 bd
       0.6926426 -0.09032328 0.9706259 -0.11115782
000280 24 fa 7e bd dc 9b 1f be 74 8a 6a be c0 f2 62 be
       -0.06225027 -0.155868 -0.22904378 -0.22162914
000290 f2 71 2d 3e db 45 b3 3e d6 87 9d be d6 25 8f be
       0.16937998 0.35014233 -0.30767697 -0.27958554
0002a0 9b c6 c0 3e 28 8e 08 bd c9 3f 89 3d 90 65 cd 3d
       0.37651524 -0.033338696 0.06701619 0.10029137
0002b0 6e 5d 86 be 90 ac 81 be 62 54 57 be cc 0d 4d be
       -0.26243156 -0.25326967 -0.21028283 -0.20024794
0002c0 d0 7b 93 be 09 4d 8e be 53 88 64 be ac d5 53 3e
       -0.288054 -0.27793148 -0.22317629 0.20686978
0002d0 53 68 2b be 2a f5 1f be d2 6e 96 be a9 f1 9d 3d
       -0.16739015 -0.15620866 -0.29381424 0.07712109
0002e0 b2 d9 97 be 9f f4 96 3e 05 a4 21 be e7 9f 3f be
       -0.29658276 0.29483506 -0.15785225 -0.18713342
0002f0 20 7d 1e 3f 6b 76 c2 3d 04 dd 54 3e 09 7a 8f bd
       0.61909676 0.09495243 0.20787436 -0.07005698
000300 9a 76 79 3c 48 20 34 be fc f1 cb bd 1c ff 10 be
       0.015226031 -0.1759044 -0.09958264 -0.14159817
000310 2e 74 8e 3e fa 60 9d be a7 02 05 3f ab 25 94 3c
       0.27823013 -0.3073805 0.5195717 0.018084368
000320 66 42 1d 3f 03 a2 6a 3e 1b a5 63 3f d4 9a 31 ba
       0.6142944 0.22913365 0.88923806 -0.00067750853
000330 68 68 ed bd 4d 96 7f be 20 0e 96 be 5d 5d 19 3e
       -0.115921795 -0.24959679 -0.29307652 0.14977022
000340 a4 9f 91 3d d2 24 a3 3e 4d ad 96 be 4a d1 39 be
       0.07110527 0.3186403 -0.29429093 -0.18146244
000350 90 15 f2 3e 76 c1 e6 3d 0f 70 76 3f 82 68 f1 bd
       0.47282076 0.112673685 0.9626474 -0.117875114
000360 c0 d4 7b bd 0c c2 84 be 88 b2 8b bd 83 81 19 be
       -0.06148219 -0.25929296 -0.068211615 -0.14990811
000370 48 5d b4 3e 49 bb 81 3c 5e ca 56 3f 79 89 95 be
       0.35227418 0.015836375 0.8390254 -0.29206446
000380 9c 77 b3 3e 59 7d 2c be 55 8c 8d 3f 45 c3 74 bd
       0.35052192 -0.16844691 1.1058451 -0.059756536
000390 c2 f5 29 be a7 d7 1b bf 5a a5 94 3f c6 73 87 bc
       -0.16597655 -0.60875934 1.1612961 -0.016534697
0003a0 04 ca 40 3e 60 c3 ed be ae a7 61 3f df f3 44 bd
       0.18827063 -0.46438122 0.88146484 -0.048084136
0003b0 3c 52 e8 3e 69 48 25 3e 4b 4e 86 3e 42 40 ab be
       0.4537524 0.16140904 0.26231608 -0.33447462
0003c0 43 39 32 be 19 ca 68 3e 0d ee 59 be a5 8e 7a 3e
       -0.17404656 0.22733344 -0.21282215 0.24468477
0003d0 f8 d3 71 be e3 fe 85 be 4a db b8 be b3 b0 48 3e
       -0.23616016 -0.26171026 -0.36104804 0.19598655
0003e0 3a 99 ee 3e 7a 1f 0f 3e 18 7c 5c 3f 81 d8 9d be
       0.46601278 0.13976851 0.8612685 -0.30829242
0003f0 1f ea 02 3f f6 a2 e0 3b 5f a6 44 3f 3b 2a 5f bc
       0.5113849 0.006855364 0.7681636 -0.013620908

graph_matcher.gnn.conv2.bias f4 [128]
000000 8d 99 12 3d ae fb 48 bd f9 ae 11 bd 11 61 6a bd
       0.03579097 -0.049068145 -0.035567258 -0.057221476
000010 41 a5 3b bd c2 64 39 bd 5b cf 2e bc 9a ab 29 bd
       -0.045811895 -0.045262106 -0.010669555 -0.041423418
000020 e6 db 78 bd c2 ea af bd 41 80 5d be 19 88 24 be
       -0.060756586 -0.085896984 -0.21630956 -0.16067542
000030 0e c4 7b bd a8 d9 1e bd a8 f5 8e bd 1d 0e 5f bd
       -0.06146627 -0.038781792 -0.06980449 -0.05445682
000040 2f 9a d2 bd 30 4e 7d bd 20 45 a1 bd 11 11 1f bd
       -0.102833144 -0.061842144 -0.07874513 -0.038834635
000050 a1 ce 42 bd b4 4b 1b bd 7c 2b b5 bc 00 19 05 3d
       -0.047560338 -0.037913993 -0.022115462 0.032494545
000060 bc a7 69 bd 10 5c 77 bd 46 ac 1d 3d eb 9a fb bd
       -0.05704473 -0.060390532 0.03849437 -0.12285408
000070 86 a1 17 bc 33 31 24 3c 2a d8 70 bb 53 cb 28 bc
       -0.009254819 0.010021496 -0.0036749938 -0.0103023825
000080 84 b2 29 bd e8 15 cb bd ac 14 5b bd be 06 f5 bb
       -0.04143001 -0.09916288 -0.05348651 -0.0074776104
000090 86 e5 af bd 69 17 70 bd 12 a8 71 bd 12 45 94 bd
       -0.085887 -0.058616076 -0.058998175 -0.072397366
0000a0 40 40 0d bd 94 0e 29 3d a9 72 76 bd b1 67 95 3c
       -0.0344851 0.04127367 -0.060167942 0.01823792
0000b0 cf 01 02 bd 37 01 2a bd d9 e0 a7 bd 1b e0 c9 bc
       -0.031740006 -0.041505065 -0.08197183 -0.024642995
0000c0 d9 04 93 bc 58 12 7c bd d2 48 e3 bd e0 dc ac bd
       -0.017946647 -0.06154093 -0.11097874 -0.08440566
0000d0 ff 2a c3 3c 52 72 6a bd 6e ab f8 3c b1 8f d8 bc
       0.023824213 -0.05723793 0.030355182 -0.026435705
0000e0 d5 49 81 bd 53 ad f2 3c 5f 10 4b 3d cc 10 b0 bd
       -0.063129105 0.029623663 0.04957616 -0.08596954
0000f0 1e 20 8a bc 38 41 a9 bd 2a 3d 03 bd 20 ca 2e bd
       -0.016861018 -0.082643926 -0.032040752 -0.04267323
000100 52 9c c2 3c 93 21 19 bd 95 3d 94 bd 9a f7 a6 bc
       0.02375618 -0.037385534 -0.07238308 -0.020381738
000110 33 54 a4 bd 81 4d a3 bd 45 b5 85 3c ea 90 8b bd
       -0.08023872 -0.07973767 0.016321788 -0.068147495
000120 00 7f 09 3d d8 09 e0 bb ea 39 28 3d 7e 89 e0 3b
       0.033568382 -0.006837111 0.041070856 0.006852328
000130 28 8d c5 b9 a3 7f 62 bd 52 23 71 bd cd fd 55 bd
       -0.00037679938 -0.055297505 -0.058871575 -0.052243996
000140 0f 52 4f bd 5e 0d e6 3c 44 86 ab bd b6 67 01 bd
       -0.050615367 0.028082546 -0.083752185 -0.031593047
000150 01 1b ed bc ef 0f a6 bc 8c 35 89 bd 01 a3 75 3c
       -0.02894354 -0.02027127 -0.066996664 0.014992476
000160 5f 25 36 3b b7 96 0a 3c 38 00 fd bd e3 71 8b bd
       0.002779327 0.008458785 -0.12353557 -0.068088315
000170 14 16 0a bd 83 2c ff bd f6 1e 85 bd 9c 3b 8b bc
       -0.03371246 -0.12459662 -0.06500046 -0.016996197
000180 71 e6 c4 bd f3 b1 dc bc 1b d5 92 3c 7d 91 84 bd
       -0.09614266 -0.026940322 0.017923882 -0.06473062
000190 1f cf 13 bd 3c 8d 4f bd e3 be 51 3d e0 29 1a bd
       -0.036086198 -0.0506718 0.051207434 -0.03763759
0001a0 92 e4 90 3d e4 c4 b5 bb 9e 16 7c bc 15 74 79 bd
       0.07074846 -0.005547153 -0.015386252 -0.06090172
0001b0 bc 1c 8c bd ed 3a fa bb 70 a6 04 bd 23 fb 11 bd
       -0.06841418 -0.007636419 -0.03238529 -0.035639893
0001c0 2f 7d 39 bd f0 9d fa 3c 0d 1a 50 bd 33 f5 8e bc
       -0.0452854 0.030592889 -0.050806094 -0.017450904
0001d0 48 8f 61 bd 5c 0e 1d bd 51 92 98 bd eb c3 6b bd
       -0.055068284 -0.038343772 -0.07449783 -0.05755989
0001e0 e7 bf 1f bd bc dd 79 bd 9f 97 4c bd ea b9 3a bd
       -0.03900137 -0.061002478 -0.049949285 -0.045587458
0001f0 ad fc 4d bd b0 e2 0f bd 78 5a 3a bd d2 b6 5f 3b
       -0.0502898 -0.035128295 -0.045496434 0.003413607

graph_matcher.gnn.conv2.lin.weight f4 [128, 64]
000000 c6 6d 0a 3e fd dc 71 3c 02 89 f2 3e 78 52 53 be
       0.13518438 0.01476216 0.47370154 -0.20636928
000010 97 75 50 3e 9f 99 e3 bd 6d 8e a7 3d 46 3b 77 bd
       0.20357357 -0.11113285 0.081814624 -0.060359262
000020 47 6b d6 bc 53 d8 82 bd 12 9a 81 be fc 4c bb bd
       -0.0261742 -0.06388917 -0.2531286 -0.09145543
000030 a9 e3 ce 3d 4b ae 32 3e f9 a5 3a bd e8 cb 8b 3e
       0.101020165 0.174493 -0.04556844 0.27304006
000040 da 7b 2d 3c 74 e3 7b bd 28 c3 13 be 48 72 05 be
       0.010588611 -0.061496213 -0.14429915 -0.13031876
000050 1e 73 61 be 2d 38 2b 3e c8 33 fb 3c af 42 22 3e
       -0.2201657 0.16720648 0.03066434 0.1584575
000060 e8 99 2c 3b 13 8e c2 3e 87 0e fd 3e 1b 8c 14 3f
       0.0026336852 0.3799902 0.49425146 0.58026284
000070 9e 55 dd 3e da d6 ba 3e 40 1f fa 3e 15 a7 94 3d
       0.43229383 0.36492044 0.48851967 0.07258431
000080 cd 6f ec 3c ec 4b 78 3e e9 b1 1e 3d 01 ac 18 3e
       0.028861905 0.24247712 0.038743887 0.14909364
000090 e3 fc 8a 3c 2e c4 64 3d 89 c3 26 3e 25 63 d5 3e
       0.016966289 0.055851154 0.16285528 0.41677204
0000a0 a0 2f a1 3b 00 5b 23 3e 18 d6 96 3d 00 c5 9c 3c
       0.0049190074 0.15952682 0.07365054 0.019136906
0000b0 5e 24 d1 bd f5 eb e4 3c 6f 71 7c 3e f5 e6 8b 3e
       -0.102120146 0.027944544 0.24652646 0.27324644
0000c0 14 1c 46 be aa ab cf bd 04 45 7c 3c 8a 91 41 be
       -0.19346648 -0.10140164 0.015397314 -0.18903175
0000d0 48 f9 85 3d 7a 13 c6 3e 41 a4 32 3e 5f 77 46 3f
       0.06541687 0.38686734 0.1744547 0.77525896
0000e0 f5 5f 43 3f 1f e6 17 3f 4b 18 f9 3e 47 9a 00 3f
       0.76318294 0.5933551 0.48651347 0.5023541
0000f0 22 cf 3f be b1 da 0c be 48 9e 97 3e f9 78 d0 3e
       -0.18731359 -0.13755299 0.29612947 0.40717295
000100 ee ac 84 be 6c 8d d3 bd e8 78 c6 3b 3a 9f 8c 3d
       -0.25913185 -0.103297085 0.0060568936 0.068663076
000110 12 dc 20 be 0f 67 8d bd 5c f0 c4 3d ea 1c 17 be
       -0.1570895 -0.069044225 0.096161574 -0.14757124
000120 a2 ca cf bd 42 b6 5d 3d 0d 7c 00 be 3d 23 6d bd
       -0.10146071 0.054128893 -0.12547322 -0.057894934
000130 31 25 37 3c f6 51 02 be 65 34 0d 3e 6a 48 9d bd
       0.011178301 -0.12726578 0.13789518 -0.076798275
000140 36 b6 7d 3d 36 85 0c be 27 0d 5d 3d 89 c7 b0 3d
       0.061941348 -0.13722691 0.05396762 0.08631808
000150 d9 90 75 bd e5 7a 24 3e d8 65 e6 bc 45 84 e2 bd
       -0.05995259 0.16062506 -0.028124735 -0.11060385
000160 d0 65 f0 3b 65 d6 8e bd 0f ff 20 bd eb b0 7e be
       0.0073363557 -0.06974486 -0.039305743 -0.24872176
000170 ab 3c 4e be b4 31 9a be 7c 22 57 be dd 86 0a 3e
       -0.2014033 -0.30116045 -0.21009248 0.13528009
000180 73 fe 23 3d 36 f2 d6 bc 89 93 ff 3c fc 0e b1 3c
       0.040037584 -0.026238542 0.03119828 0.02161359
000190 10 91 cc bd 01 3d 94 3b 9d 02 e0 bd 39 1e 46 be
       -0.09988606 0.004523874 -0.109379984 -0.19347467
0001a0 28 89 9f 3c da f0 5c be e0 27 f6 3c de 61 a3 3d
       0.01947458 -0.21576253 0.03004831 0.07977651
0001b0 fe 12 7c 3d 37 b8 15 bc d8 e6 81 be b0 73 8f 3c
       0.06154155 -0.0091381585 -0.25371432 0.017511219
0001c0 5b 8e d3 bd 58 d2 34 be c4 36 09 be c6 c1 3d 3c
       -0.103298865 -0.17658365 -0.13399798 0.011581844
0001d0 ed 14 98 be 67 98 f0 3b 20 a6 bc bc 5b 83 a5 bc
       -0.29703465 0.0073423865 -0.023028433 -0.020204237
0001e0 90 b7 29 be 91 cf be bd 73 4f 5f 3b 78 6b 05 be
       -0.1657393 -0.09316934 0.0034074455 -0.13029277
0001f0 12 04 d8 bc 47 1b ac 3d 73 ae b2 be 97 b6 9e bd
       -0.026369128 0.0840364 -0.3489872 -0.0774967
000200 23 8b e3 3c de 02 9b 3c 25 e6 09 be d8 7b 1f be
       0.027776306 0.018922266 -0.134667 -0.15574586
000210 a0 c2 0d be 5f b1 ec 3d 37 44 d2 3c 51 f2 e2 bd
       -0.13843775 0.11557268 0.025667293 -0.110813744
000220 ff 30 b1 bd 2b 95 46 be e3 9b 1b be a9 0c af bc
       -0.086519234 -0.1939284 -0.15196185 -0.021368342
000230 6c 1d ec bd 5b 10 c2 bd 3d f2 d3 bd e3 39 48 be
       -0.11529049 -0.09475776 -0.10348938 -0.19553332
000240 41 04 dd bd c5 4f 29 3e b5 80 3a be e2 91 96 bc
       -0.10791827 0.16534336 -0.1821316 -0.01838011
000250 00 65 1b be 97 7d e9 bd ec 5b 02 be e0 93 ca 3b
       -0.15175247 -0.114009075 -0.12730378 0.006182179
000260 b7 3b de bb e6 56 77 be a9 3e ce bd ee 36 01 be
       -0.006782021 -0.24154243 -0.10070545 -0.1261861
000270 d3 5a 7f be c1 41 97 bd 48 22 9a 3d d4 13 0c 3d
       -0.2493699 -0.073855884 0.0752607 0.034198597
000280 5b 04 49 3e c3 c4 76 be bb e7 0e be 14 fb 5d 3d
       0.19630568 -0.24098496 -0.13955586 0.054194525
000290 dd 45 25 3d 6e bd 80 bd 36 b9 80 3d fd 7b a1 bd
       0.04034983 -0.06286131 0.06285326 -0.07884977
0002a0 b0 53 95 bc 60 1b be 3d e8 c5 2f 3b a7 ac 2f be
       -0.018228382 0.09282565 0.0026820842 -0.17155705
0002b0 7a d1 12 3e 95 10 e5 bd 5d c8 29 bd fc b0 4e 3b
       0.14337721 -0.111848034 -0.041450847 0.0031538596
0002c0 3e 37 30 be 4e 47 b9 bd 08 f3 1d bd 34 c5 8c bd
       -0.17208573 -0.090468034 -0.03856185 -0.06873551
0002d0 e6 45 2f be c8 79 82 3b f0 db 9a bc 04 9b 4d be
       -0.17116508 0.0039818026 -0.018903702 -0.20078665
0002e0 cf cd 3e bd 7c df 89 be 2a e0 0a 3e b6 cf 97 3d
       -0.046582993 -0.26928318 0.13562074 0.074126646
0002f0 c4 20 40 3d 2b 21 05 bd b9 48 08 be c3 ff cf 3c
       0.046906248 -0.032502335 -0.13308991 0.025390511
000300 16 cc 6b 3d 09 1f 00 3e b2 cb 0b be e4 a0 68 3c
       0.05756768 0.12511839 -0.13651922 0.014198516
000310 e7 b6 9a bd c5 e3 0d 3e f5 ee b1 bd 19 21 43 be
       -0.07554417 0.13856418 -0.086881556 -0.19055595
000320 e1 bd 59 bb 71 83 85 b8 d5 3b 3d 3d db 24 b8 3d
       -0.003322475 -6.366417e-05 0.04619964 0.089914046
000330 40 fa 2c be da 63 00 be df a0 ae bd c1 3b 52 be
       -0.16892338 -0.1253809 -0.085267775 -0.20530607
000340 66 46 56 be ca a0 b8 3d 69 29 1f be e5 c9 2c be
       -0.20925292 0.09015043 -0.1554314 -0.16873892
000350 9c a3 26 be a8 e1 af 3c 46 17 84 3d 58 e6 30 be
       -0.1627335 0.021469906 0.064497516 -0.17275369
000360 cc 2f 3a 3d 30 bb 6d bc ab 92 47 3c 28 4c 5d be
       0.04545574 -0.014509961 0.012180964 -0.21611083
000370 17 bf 8c be 22 d5 c6 be d1 e5 48 3e 12 9d 0c 3d
       -0.2748954 -0.38834482 0.19618918 0.03432948
000380 2d ec d8 bc bb 4d a0 be a7 8e c9 bd 79 b6 03 bd
       -0.026479805 -0.31309304 -0.09841662 -0.03215644
000390 50 f6 63 be 6a 21 15 be 62 1f 36 be 6b e6 57 be
       -0.2226193 -0.14563528 -0.17785409 -0.21083991
0003a0 ec 28 78 3d 56 5b 45 be 3a 34 d9 3d f8 4a f7 bc
       0.0605859 -0.19273123 0.106056646 -0.030187115
0003b0 84 ff 2b 3d 0d c4 97 3d 26 0e 8d be ca 3c 07 be
       0.041991726 0.074104406 -0.27549857 -0.13206783
0003c0 7e f3 64 be 1a b5 0e be 45 09 be 3c 59 32 64 3d
       -0.2235851 -0.13936272 0.02319778 0.055712078
0003d0 60 b0 c7 be d9 2a 00 be 42 c7 bb 3d b8 66 ce bc
       -0.3900175 -0.12516345 0.09168865 -0.025195464
0003e0 f1 75 38 be 3e ef b9 bc 17 d5 7e be 54 85 f2 3a
       -0.18013741 -0.022697087 -0.24885975 0.001850287
0003f0 e7 7c 4c 3d cf 31 e4 bd 02 d1 cc bd 29 6c 46 3c
       0.049923804 -0.11142313 -0.100008026 0.012110748

graph_matcher.mlp.0.weight f4 [128, 256]
000000 3f 65 7b be f1 48 29 bc ef 49 90 3d 1b 8b 24 3d
       -0.24550341 -0.010332332 0.07045352 0.040171724
000010 39 82 8b 3d 90 47 95 3d 5f 52 0a be e9 35 9c 3d
       0.068119474 0.0728904 -0.13507985 0.0762747
000020 28 14 d2 3d e6 63 4c bc d5 3b 54 bb 2c cd d4 bb
       0.10257751 -0.0124749895 -0.0032384295 -0.006494185
000030 75 99 db bc c0 f0 29 3d 59 3b ad 3c 53 80 bd bc
       -0.026806572 0.041489363 0.021146463 -0.023132479
000040 41 6d b9 bc 5f b4 b1 3d 70 90 80 3d 72 60 c4 bc
       -0.022635104 0.08676981 0.06277549 -0.02397177
000050 a6 50 a5 3d 30 00 5e bd 9f 8b 0c bc 9d 11 5f be
       0.08072023 -0.054199398 -0.00857821 -0.21784063
000060 e9 ff 6d 3d 99 21 0d 3d bb ad eb 3d 10 25 c9 3d
       0.058105383 0.03445587 0.11507746 0.09821522
000070 bd f1 a5 3d f1 32 27 be 3d 75 86 bd b7 1a 22 bc
       0.081027485 -0.16328026 -0.0656533 -0.009894065
000080 ad 37 5d bd cf da e1 bb c4 df 41 3c e8 b6 88 bb
       -0.054008175 -0.006892539 0.011833135 -0.0041721947
000090 06 a7 b5 3d eb ab f3 bd e6 5b b9 3d 4f 1e ee bc
       0.08869748 -0.11898025 0.09050731 -0.029067187
0000a0 cb ba 16 bd bc e0 b6 3d f3 a9 a2 3a 9e 06 3e be
       -0.036799233 0.089295834 0.0012410268 -0.18557212
0000b0 19 93 e2 bc 38 8a 73 3d 7d 6b e3 3c e0 02 2d 3d
       -0.027658032 0.059457988 0.027761215 0.04223907
0000c0 c2 f2 da 3c 2b 9e 93 3d 58 d3 93 bc a3 31 0c 3d
       0.026727084 0.072079025 -0.018045112 0.034227025
0000d0 de d5 51 3c b5 13 6f bb 02 44 bd be 25 f0 15 3d
       0.012807338 -0.0036480252 -0.36965948 0.036605973
0000e0 49 3a ae 3d 1d dd d7 3c 76 c5 95 be dd 58 8e bd
       0.08507211 0.026350552 -0.29252213 -0.06950543
0000f0 db e5 45 3d da 77 15 3d c9 51 fc 3c 75 2c 59 3d
       0.04831491 0.036491252 0.030800717 0.053020913
000100 53 9d bf 3c 13 91 14 3d a9 ff 93 3c 80 25 1d be
       0.023390448 0.036271166 0.018066244 -0.15346336
000110 aa 39 53 3d f7 8c 5c bd 90 53 97 3c 12 f8 ad 3d
       0.051568665 -0.053845372 0.018472463 0.08494581
000120 fa ad d7 3c dd 84 b9 3c 4a 1c 5c be aa cf c6 3d
       0.026328076 0.022646362 -0.21495166 0.097075775
000130 e7 17 81 3d f9 b9 56 3d 79 f1 6e 3d 4f e9 b8 3d
       0.06303387 0.05242345 0.058335755 0.09028875
000140 0e be c1 3d 59 49 a1 3d 19 fb a9 3d 21 97 2f bd
       0.09460078 0.07875318 0.08299846 -0.042868737
000150 73 6b 9c 3c 70 23 72 3d 42 c1 54 be 55 28 e5 3d
       0.019094205 0.059115827 -0.20776847 0.11189333
000160 c7 a5 7f be 46 05 d0 3d 3a d1 98 3b 25 04 91 bd
       -0.24965583 0.10157256 0.0046636136 -0.07080869
000170 00 b4 46 3d db eb 41 bd fa 26 6c bb a5 a2 3f bc
       0.048511505 -0.04734407 -0.0036033974 -0.011696492
000180 a6 c9 41 bd 20 b4 9b bc df fb 33 ba 09 6a c0 3b
       -0.047311448 -0.019006789 -0.000686584 0.0058720154
000190 7b ad 74 bc 66 43 cf bc d5 c6 96 be be 4a 46 3c
       -0.014933939 -0.025300693 -0.29448572 0.012102781
0001a0 c8 38 3d 3e fd aa ec 3c e5 be 33 bd 04 d5 b9 3d
       0.18478692 0.028890127 -0.043883223 0.09073833
0001b0 56 bb 3b 3d e8 b8 d8 bb 5d 6a 5a bb 85 12 17 bc
       0.045832954 -0.0066138394 -0.0033327558 -0.009220724
0001c0 a4 cb f3 3c 75 a5 ba bc 9b 96 c3 bd e9 32 fa 3c
       0.02976019 -0.022783974 -0.0955021 0.030541854
0001d0 ef ba 82 bd 41 d4 95 3d 8e 37 c3 bc b2 77 1f 3d
       -0.06383311 0.07315875 -0.023830201 0.03893251
0001e0 2c 02 d7 ba f1 33 15 bd 58 ae d6 bc 71 00 ec 3c
       -0.0016403846 -0.03642649 -0.02620618 0.028808804
0001f0 7f a5 2b 3d 5f 84 fa bc 36 06 cf 3c 1e b4 09 3d
       0.041905876 -0.030580698 0.025271516 0.03361904
000200 a4 e1 5a be 34 22 fe bc 45 3e 79 bd 30 c4 10 bb
       -0.21375138 -0.031022169 -0.0608504 -0.0022089593
000210 34 cc 34 be 70 59 34 3c 86 70 a0 be 95 9e b9 bc
       -0.17656022 0.011007652 -0.3133585 -0.022658626
000220 9d 62 82 3b 79 9a f3 3c e6 2d 27 be 24 ec c7 3d
       0.003979041 0.029736744 -0.16326103 0.09761837
000230 13 f7 4d 3c ef ca 7e bc 04 1f 6c 3c d2 b1 fa bc
       0.012571114 -0.015551313 0.014411692 -0.03060237
000240 99 d4 a0 3d a7 11 03 3c ea 96 24 3d c9 0d d6 3c
       0.0785305 0.007999814 0.040182985 0.02612962
000250 df be 44 3d a6 0a ce 3c 30 6c 00 bd 7d a6 63 be
       0.04803359 0.025151562 -0.031353176 -0.22231479
000260 0b 48 00 3d 49 02 c6 3c 79 8a d1 3d c7 96 bd 3d
       0.031318706 0.024171012 0.1023149 0.09257274
000270 f9 67 46 3d 1f 3d 31 be ec 03 7f be 2e d3 54 bc
       0.048439 -0.17308472 -0.2490384 -0.012989802
000280 7f 40 52 3d 0a 83 23 bd 13 4c 81 bc 27 80 9a bd
       0.05133104 -0.03991989 -0.015783345 -0.07543974
000290 c8 09 88 bd d6 bb 4e be bc 8a 76 bd 98 1a 35 bd
       -0.066424906 -0.20188841 -0.0601909 -0.044214815
0002a0 f6 45 ae bc 90 c0 31 3b 6d 84 7a 3c 6f 36 55 be
       -0.021273594 0.0027122833 0.015290362 -0.20821546
0002b0 0f 62 39 3d 19 a5 83 3d 80 91 62 3d 34 f2 07 bd
       0.04525953 0.06427974 0.05531454 -0.033189967
0002c0 bf 65 f4 3c da cd 11 3d 08 b3 a1 bc a1 53 b4 3d
       0.029833673 0.035596706 -0.019738689 0.088050134
0002d0 78 a1 00 3e db 5f 85 3c 66 5c c7 be df ae 28 3c
       0.12561595 0.016281059 -0.38937682 0.010295599
0002e0 31 b7 05 3d 26 d7 80 3d 75 fb ce be 23 4c 63 bc
       0.032645408 0.06291036 -0.4042622 -0.013873133
0002f0 44 35 db bc 7d 0e a4 bd 77 97 1f 3d 94 ab ca 3c
       -0.026758797 -0.08010576 0.038962808 0.024740018
000300 f3 5b 2d 3d 0c 32 76 3c 06 d1 34 bd f8 b6 89 be
       0.042324018 0.015026581 -0.044144653 -0.26897407
000310 bd 59 11 3d 47 01 98 bd 5c 72 7a 3d 58 72 7d 3d
       0.03548597 -0.07422119 0.061144218 0.061876625
000320 69 a7 ae 3d f1 a7 5a 3d f1 7e 8b be 56 51 1c 3d
       0.08528025 0.053382818 -0.27245286 0.038163505
000330 1e fd a1 3b 9d 51 cb 3c 38 19 24 3d 53 bd f1 bd
       0.004943504 0.02481919 0.040063113 -0.11803689
000340 65 a4 d5 3d 41 da 81 3d bb 53 ed 3d 17 41 ab 3c
       0.104317464 0.06340457 0.11588236 0.02090506
000350 5c b9 8a bd 73 45 a8 3c 9a cf 60 be d1 49 14 3c
       -0.06773636 0.020540928 -0.21954194 0.009050802
000360 6c 90 69 be fe 01 24 3d 3c 61 a7 bd 0d 56 2e bc
       -0.22808999 0.040040962 -0.08172843 -0.010640633
000370 11 31 07 3d 7c ce 35 be 3f 03 16 bd fe e8 03 bd
       0.033005778 -0.17754549 -0.03662419 -0.03220462
000380 8a 15 96 3d 23 cb 3b 3d ee 62 31 3d 8a 6a cc 3d
       0.07328327 0.045848023 0.043307237 0.09981258
000390 f0 55 2f bc e4 d7 c4 bc 48 12 ac be e6 04 40 3d
       -0.010701641 -0.024028726 -0.33607697 0.04687967
0003a0 9d 3f 85 bd 6c f1 fd 3d 6a b1 1d bd 7b dc 8e 3d
       -0.06506274 0.12399563 -0.038499273 0.06975647
0003b0 ca 19 1b 3d 9f 5a b7 3d 1d ba a8 3c de f7 fd 3c
       0.03786639 0.089528315 0.020596558 0.031001981
0003c0 85 60 87 3d 14 fb e6 3d df 45 c2 bd 08 2e 0f bd
       0.066102065 0.11278358 -0.09485983 -0.03495601
0003d0 95 26 b3 bd 6b 52 0f 3d f8 34 11 bd e0 0c c5 bb
       -0.08747593 0.03499071 -0.035450906 -0.0060134977
0003e0 d4 68 9a 3c 09 7c 8f 3d 5a 2d 6a 3d 30 d7 a4 3d
       0.018848814 0.0700608 0.057172157 0.08048856
0003f0 53 9b 8c 3c 49 3a bf 3c 0d ad 81 3d 54 28 ea 3c
       0.017163908 0.023343222 0.06331835 0.028583683

graph_matcher.mlp.0.bias f4 [128]
000000 16 ba 2d 3d 9e d7 02 bd a5 21 10 be 27 c8 03 be
       0.042413794 -0.03194391 -0.14075334 -0.12869321
000010 25 40 48 bd 80 78 4d 3d d8 cc a2 3d fd 15 d9 bd
       -0.048889298 0.050163746 0.07949227 -0.10599897
000020 ed 1d 99 3d 1c f9 19 be f5 de 1a bc 40 b8 07 3d
       0.07476411 -0.15036434 -0.009452571 0.0331347
000030 22 54 df bd 69 a1 4d bc 8a a6 51 3d 7a 3a d2 bd
       -0.10904719 -0.01255069 0.051184215 -0.1026506
000040 ab ec e7 bd fa 6b 80 3d 41 cd cf bd 01 63 eb bd
       -0.11324438 0.06270595 -0.10146571 -0.11493493
000050 a2 d2 0b 3c fd 91 b5 3c 25 7b 06 bd ca ae 05 3d
       0.0085341055 0.02216434 -0.032832284 0.032637395
000060 e9 31 09 3d 94 e3 3f bd 11 54 4c bd a1 51 d6 bc
       0.033494864 -0.046847895 -0.04988486 -0.02616197
000070 e0 6f 09 bb a2 87 52 bd 5b 11 49 3d d7 61 96 bd
       -0.0020971224 -0.05139888 0.049088817 -0.0734288
000080 36 bf f3 bc 6b 4a 4e 3c 16 cc 07 be 8d fc e2 3c
       -0.029754262 0.012590985 -0.13261446 0.027708316
000090 a3 21 84 bd 56 07 e8 bd eb a6 dc bd ed b5 38 3c
       -0.06451728 -0.11329524 -0.107740246 0.011273843
0000a0 af c3 0d be 1f 75 bc bd f2 06 bc bd c6 95 4a bd
       -0.13844179 -0.092020266 -0.09181012 -0.04945924
0000b0 98 c4 aa 3d 9b d1 0e 3a 36 d2 b9 bd 59 b2 a1 bd
       0.083382785 0.0005448104 -0.09073298 -0.07895345
0000c0 ba e8 a9 bc 7f 83 a4 bd ef a6 42 3d 67 3d dc bd
       -0.020740855 -0.080328934 0.04752248 -0.10753899
0000d0 76 9e ab bd 6a 8d 26 3d fc 69 72 bd 49 8e 6a bd
       -0.083798334 0.040662207 -0.059183106 -0.0572646
0000e0 78 88 d2 bd 9e e4 25 3c c5 25 21 bd ee 2d b6 bd
       -0.102799356 0.010125307 -0.03934266 -0.08895479
0000f0 d2 41 22 3d b5 e2 e4 3c 5b 7e 20 3d 8a 6b e7 bd
       0.039613552 0.027940134 0.039183002 -0.11299808
000100 39 a4 58 3c 82 43 8f 3d ae 89 26 bd c5 cd a7 3c
       0.0132227475 0.06995298 -0.040658645 0.02048386
000110 53 c0 63 3d 93 dd d5 bc 3a 54 86 bd 31 04 07 be
       0.055603337 -0.026106631 -0.06559034 -0.13185193
000120 c6 be 69 bd 5d 53 3f 3d 4d f9 81 bd d0 e5 2a bd
       -0.0570667 0.04671036 -0.063463785 -0.041723073
000130 b8 86 9b 3d 30 8e 45 bd 06 e3 04 bd 1c 39 7e bd
       0.07594055 -0.048231304 -0.03244307 -0.062066182
000140 a2 ce 66 3d 09 c8 ab bd 06 4c 7f bd e0 ed a1 bb
       0.056349404 -0.08387763 -0.06232836 -0.004941687
000150 af 96 5f bc f3 c4 35 3d 3e 4c 0d 3c 18 f8 7a 3d
       -0.013646766 0.04437728 0.008624135 0.061271757
000160 76 ad 81 bc 1c 9b 56 bd 5f 7d a8 bc c5 b5 90 3d
       -0.015829783 -0.052394018 -0.020567594 0.0706592
000170 ad 94 37 3d 73 d0 f8 bd cb 84 eb bd 8f e3 84 3d
       0.044819523 -0.121491335 -0.114999376 0.06488716
000180 c9 4e 83 bc 83 70 f4 3c 6c df a9 3d dc 5d eb bd
       -0.016028779 0.029838806 0.082945675 -0.11492512
000190 46 d6 96 bd 90 d5 12 bd 93 b5 10 bd 8d f7 9e 3c
       -0.07365088 -0.0358482 -0.035329413 0.01940515
0001a0 66 43 b0 bd 6e 03 b1 bd 48 b5 f8 bd 90 9e 61 bd
       -0.08606605 -0.08643232 -0.12143952 -0.055082858
0001b0 3c 48 72 bd 70 bb 5b 3d c0 69 3d 3b ce ae 34 3d
       -0.05915092 0.05364555 0.0028902143 0.04411202
0001c0 23 06 c8 3d 3d 92 6d bd 64 9a c7 bd c8 f3 84 bc
       0.097667955 -0.05800079 -0.097462445 -0.016229525
0001d0 23 20 16 bd e8 81 a7 3a f9 bd 5f 3d 6a e4 90 3d
       -0.03665174 0.0012779804 0.05462453 0.070748165
0001e0 ec 85 dc bd aa c9 26 bc 7a 99 5a bd fc 9f d5 bd
       -0.10767731 -0.010179916 -0.053369023 -0.10430905
0001f0 d0 50 21 3c c3 6a 56 bc b0 bc 0d 3d c7 59 60 3d
       0.009845927 -0.013086977 0.034603775 0.05477312

graph_matcher.mlp.2.weight f4 [128, 128]
000000 dc 85 1e bd 4d 35 75 bc 74 ec ba bc 80 4b 3c ba
       -0.038701877 -0.014966321 -0.022817828 -0.0007182881
000010 23 d7 99 3d 89 23 82 3c f3 45 eb bc 2e cf 60 3d
       0.07511737 0.015886085 -0.028719878 0.054885082
000020 60 05 63 bd d9 d9 ad bd b7 96 09 be 09 dd c8 3d
       -0.055425048 -0.08488817 -0.134364 0.09807784
000030 a7 83 f3 bd 42 1c bd bd 84 c7 de 3a 00 8b 9a bb
       -0.11890345 -0.092339054 0.0016996716 -0.004716277
000040 72 42 76 3d f7 48 ed bb 60 d1 3e 3c 06 5f 6f 3d
       0.06012196 -0.007241364 0.011646599 0.05844023
000050 1f e6 11 be 8c 7f 89 bd d5 84 95 bd f1 1e 9b bd
       -0.1424794 -0.06713781 -0.07300726 -0.07574261
000060 12 96 4a bc d8 a6 59 bd 7b 41 17 3e 86 7a b9 3d
       -0.012364881 -0.05313763 0.14771073 0.090565726
000070 2c 8d e9 3c 00 d9 ac 3c 14 33 e3 bd 38 a7 0d be
       0.028509699 0.021099567 -0.11093727 -0.1383332
000080 90 6d 47 bc 4c 53 54 bd e6 85 75 3d 0f 4d b1 bd
       -0.012172118 -0.05183725 0.05994215 -0.08657276
000090 a9 94 b2 bd 90 0e 90 bd 91 d4 14 be 20 96 ef bd
       -0.08719761 -0.070340276 -0.14534213 -0.11698556
0000a0 d2 08 21 3d 36 b9 06 bc 77 3c 51 bd d0 bb 80 3c
       0.039315052 -0.008222869 -0.051083054 0.015714556
0000b0 28 1c fb bb 6b df d0 bd 38 01 96 bd 5f a4 7a 3b
       -0.0076632686 -0.101988636 -0.07324451 0.0038244945
0000c0 51 3c 8f 3c 32 ae 7d 3d e3 03 80 bd 27 33 af bd
       0.017484816 0.061933704 -0.06250741 -0.085546784
0000d0 ed 6f cc bd ec 69 10 3c 89 6a 2a bd c5 e0 cb bd
       -0.09982286 0.008814316 -0.041605506 -0.09954981
0000e0 3b 7e 95 ba 28 bb 07 be 54 2b 87 3c 80 16 90 3a
       -0.0011405417 -0.13254988 0.016500153 0.0010993034
0000f0 cb b0 ea bd 93 ca a1 bd d9 f8 d2 3c 88 2c 7f bd
       -0.11459502 -0.07899966 0.025753425 -0.062298328
000100 27 6b 44 bd 05 ed f7 bd 45 4d 81 bd be cb d2 bd
       -0.04795375 -0.12105755 -0.06313566 -0.10292767
000110 87 80 b5 3d a5 02 02 be 9a 97 63 3d 6b 87 0f 3e
       0.08862405 -0.12696321 0.0555645 0.14016502
000120 c0 ca 81 bc ef c5 f9 bd a0 84 6c 3b f7 21 9e 3d
       -0.015843749 -0.12195956 0.0036089793 0.07721322
000130 73 e4 c4 bd d8 36 f8 3b b9 bb f6 bd 08 47 6d 3c
       -0.09613886 0.0075748973 -0.12047524 0.014482267
000140 41 7f 9f bd d7 69 d7 bd b8 de f8 bc 02 08 78 bd
       -0.07787944 -0.10518234 -0.030379638 -0.06055451
000150 9d 93 15 be a9 6c bb bd 20 1a 9c bd 13 78 7b 3c
       -0.14607091 -0.09151585 -0.076221704 0.015348452
000160 57 b4 f6 bc 60 02 a2 3b 12 db 88 3d 83 25 1e bd
       -0.03011529 0.004944131 0.06682409 -0.038609993
000170 5d ef 0a be f8 38 2d 3c 86 41 72 3d 44 50 9d 3c
       -0.13567872 0.010572664 0.05914452 0.019203313
000180 cf bc 94 bc c8 90 1d bc 18 5b 14 be 91 70 b2 3d
       -0.018156437 -0.009617038 -0.14487875 0.087128766
000190 47 d9 d6 bd a8 45 05 3e d9 5c 40 bd 3b bd f2 bd
       -0.10490661 0.13014853 -0.046963546 -0.11852499
0001a0 3f 0b e2 3b 17 bc 57 bd 79 4d b5 3d be 77 43 3d
       0.0068983133 -0.05266961 0.08852667 0.047721617
0001b0 48 5d 79 bd 2d 2d a6 3a 66 a8 4e 3d 39 2e 04 bc
       -0.060879976 0.0012678258 0.050453566 -0.008067661
0001c0 d9 8e 23 bd b9 d5 7d 3c 90 18 d3 3b c1 46 98 3d
       -0.039931152 0.01549285 0.006442137 0.0743537
0001d0 40 0d 57 be 19 65 87 bd f1 00 8d 3a bd 69 f3 bd
       -0.21001148 -0.0661108 0.0010757727 -0.11885402
0001e0 1c 9a 9f 3c 72 07 e3 bd 80 d3 ae ba d7 d9 84 3d
       0.019482665 -0.110854045 -0.0013338178 0.06486862
0001f0 40 3c a7 bd 09 43 79 bd 36 68 23 3d d8 7c f2 bd
       -0.08165789 -0.060854945 0.039894305 -0.11840218
000200 ca 79 a2 bd e5 e6 96 bd 7e 54 5f 3d 89 c4 6f bd
       -0.07933386 -0.073682584 0.054523937 -0.05853704
000210 c0 0c f7 bb e4 09 b3 bc 4c 86 22 be f2 51 12 bc
       -0.0075393617 -0.021855302 -0.15871543 -0.00893067
000220 a1 69 92 3d ac e7 c5 3c f0 a9 8d 3b 0c 2e e8 3c
       0.07149053 0.024158321 0.0043232366 0.02834227
000230 ec a4 c3 bc e2 35 3e 3d 28 e3 d4 3c c4 7a fa bc
       -0.023882352 0.046438105 0.025987223 -0.030576117
000240 06 a7 5d 3d a8 fc 8e bd a2 55 2e 3d c3 d3 8a bd
       0.054114364 -0.06981784 0.042562135 -0.067786716
000250 8c c9 33 3c 66 9c 4c 3d c0 c2 11 3b ae d8 29 bd
       0.0109733455 0.04995384 0.0022241324 -0.041466407
000260 f5 66 64 bd 3a e8 28 3d 91 0a 41 bd b0 24 71 bd
       -0.05576225 0.041237094 -0.047129218 -0.05887288
000270 b4 d4 df bc 70 0e 47 bc f6 ff 45 3d ba ed 22 3d
       -0.027323104 -0.012149438 0.048339806 0.039777495
000280 88 6c c5 3d f1 92 3e be 53 f5 6b bd 4f 80 a5 3d
       0.09639841 -0.18610741 -0.057607006 0.080811135
000290 b4 be 5e bd 2c ba 90 bd 50 63 cc 3c 70 ca c1 bc
       -0.054381087 -0.070667595 0.0249497 -0.0236561
0002a0 a3 9c 8d 3d 2e ba 18 be b1 02 b5 bd c7 6f a5 3d
       0.06914642 -0.14914772 -0.08838404 0.080779605
0002b0 ce 86 39 3d 15 11 8a 3d e0 38 b1 3c 77 fa 9c bd
       0.045294575 0.067415394 0.021633565 -0.0766496
0002c0 3d 64 94 3d 46 49 00 3d 9e f7 26 be c0 3f 04 3d
       0.072456814 0.03131988 -0.16305396 0.03228736
0002d0 89 62 60 bd bb a5 d8 bd a1 33 92 3d d0 78 a6 bc
       -0.05478147 -0.105784856 0.07138754 -0.02032128
0002e0 9c a2 98 bd 00 6f 06 3d 94 05 fe 3c d1 98 b5 bd
       -0.0745289 0.0328207 0.03100852 -0.08867038
0002f0 4a 58 5f bd 7f ed 68 bd b8 a9 f1 3c 69 b3 99 3d
       -0.05452756 -0.05686712 0.029499874 0.07504923
000300 81 1a 22 bd d0 af e3 3c 69 ca a7 3d 4e d6 9c bd
       -0.039576057 0.027793795 0.081929035 -0.07658063
000310 31 b5 af 3d e4 15 43 bd 54 6d 43 bd a6 b9 3d 3d
       0.085794814 -0.0476283 -0.047711685 0.046319626
000320 a0 40 84 bd d0 30 4c bd bf 52 02 bd ab ae 50 bd
       -0.06457639 -0.04985124 -0.031817194 -0.050947826
000330 1e 6c 84 bd 90 5f 92 3d e6 2a 23 3d fe 5b 79 3d
       -0.06465934 0.07147133 0.039835833 0.060878746
000340 50 42 d4 3b 55 58 a8 3d 40 16 bf 3a 2b 9a b1 bd
       0.0064776316 0.08219973 0.0014578775 -0.08671983
000350 f6 5c 3c 3d 6a b6 ac bd ae 04 16 3d 3e 29 52 3d
       0.045987092 -0.0843323 0.036625557 0.051308863
000360 f1 86 5a bd 0b c7 b4 3d 63 8e 84 3d b4 be 92 bd
       -0.053351346 0.08827027 0.064724706 -0.0716528
000370 c6 0d ab bd be 1b 9e bd 78 be 45 bd da 63 b1 bd
       -0.083522364 -0.07720135 -0.04827735 -0.08661623
000380 f8 96 15 3d af cf 91 3d f4 fc c0 bd 00 4d 6c bb
       0.03652093 0.071196906 -0.09423247 -0.0036056638
000390 c6 e8 a7 bd f8 57 29 be 89 df 8f be 6d 06 04 be
       -0.08198695 -0.16537464 -0.2810023 -0.12893076
0003a0 89 b9 85 bd ea 14 22 3d 8a 2f 18 bd 54 87 66 bd
       -0.06529529 0.039570726 -0.03715471 -0.056281403
0003b0 52 c5 26 3d 18 58 a2 3c 70 42 46 3c ff 2d a9 3d
       0.040715523 0.019817397 0.012100801 0.08260726
0003c0 ed 79 0d be 3b 76 a5 bd 30 08 aa 3d e6 10 71 3d
       -0.13816042 -0.08079191 0.08302343 0.058854006
0003d0 6a 59 e7 bd a1 ac 9f bd 28 a0 18 bd 1d 02 10 be
       -0.11296351 -0.07796598 -0.037262112 -0.14063306
0003e0 ae e8 4d 3d 53 32 5b bd 9c 03 c0 3c 66 d9 90 bd
       0.05027073 -0.05351479 0.023439221 -0.070727155
0003f0 82 4c 3e bd e2 1c 25 3d ce bb 1d 3d 00 cb 66 3c
       -0.046459682 0.040310748 0.038509183 0.014086485

graph_matcher.mlp.2.bias f4 [128]
000000 a2 20 16 be ff c2 e4 bd c1 f0 8b bd 15 8f 60 bd
       -0.14660886 -0.11170005 -0.068330295 -0.054823954
000010 2b 48 a1 bd 2e 9f 1c be 88 e2 8e ba ce 5b 06 bd
       -0.07875093 -0.15295097 -0.0010901252 -0.032802396
000020 b0 82 f2 3d 82 5f af bd b9 d6 24 be dc 0f a3 bb
       0.11841333 -0.085631385 -0.16097535 -0.004976256
000030 8f 12 8c 3d 64 33 c7 bd d5 8e 9c bd 50 22 e2 bd
       0.06839477 -0.09726599 -0.076444305 -0.11041701
000040 11 30 71 3c 3c db 0e be 30 8d 04 bd 22 f2 6a 3d
       0.014720933 -0.13950819 -0.03236121 0.057359822
000050 aa 1f fd bd f9 d9 61 3d d2 3d cc bc f2 b1 84 bd
       -0.12359555 0.055139516 -0.024931822 -0.06479253
000060 d8 8b f2 bd 5b 58 52 be 8d ed 06 3e 82 b0 9f bd
       -0.11843079 -0.20541517 0.13176556 -0.07797338
000070 3d dd 87 3d 99 66 ea 3c 0d b1 5f bd 37 86 ad 3d
       0.06633995 0.028613375 -0.05461221 0.08472865
000080 d0 55 ab bc 07 8b d4 bd ec 48 b3 bd 16 d2 8d bd
       -0.020914942 -0.1037808 -0.08754143 -0.06924836
000090 9e 23 89 bd 7d 08 38 be 4b 4a 7d ba 02 17 14 be
       -0.066962466 -0.17971988 -0.00096622546 -0.14461902
0000a0 b4 90 da bd 33 0b 22 be 9f fa 82 bc 64 ad 9c bd
       -0.10672131 -0.15824585 -0.015988646 -0.07650259
0000b0 a7 d7 ab bd 3e eb f5 3c 87 bc 57 3d 6b 18 0e 3e
       -0.08390742 0.030019399 0.052670028 0.13876502
0000c0 54 d1 15 3d fe f7 ea 3d 73 a5 85 3b d1 90 10 be
       0.036576584 0.11473082 0.004078561 -0.14117743
0000d0 8f 84 a1 bd 18 25 07 be 6f 97 e4 3d 3c c7 74 bc
       -0.07886612 -0.13197744 0.11161696 -0.014940079
0000e0 f4 10 98 bc 6e 21 08 3c 74 59 38 be 6e c5 a7 bd
       -0.018562771 0.0083087515 -0.18002874 -0.081919536
0000f0 50 1a 66 3d a5 0c 25 3c 08 61 96 bc 56 86 7b bd
       0.056177437 0.0100738155 -0.018356815 -0.06140741
000100 d7 86 88 bd 90 da a4 bd 4a 3c a1 bd ec 41 14 bc
       -0.06666344 -0.080495 -0.07872827 -0.00904892
000110 52 d1 10 3d ab ff dd bd 3d de 83 bd fe 56 92 bd
       0.035355873 -0.108397804 -0.06438873 -0.07145499
000120 6c 61 c7 3d 3b 55 d4 3d 77 1f aa 3d 47 2f 1e 3d
       0.097353786 0.10367819 0.08306783 0.038619306
000130 19 78 0b 3e 12 cf b3 3d ec 33 3c 3a a1 e6 10 be
       0.13620032 0.0877973 0.0007179368 -0.14150478
000140 5d 7e c4 bd dd de 9e bd 75 07 b0 bd 63 9b ed bc
       -0.095944144 -0.077573515 -0.08595172 -0.029004758
000150 d4 45 21 be 1a 7b a0 bb 2c d7 05 be bd 1a ff bd
       -0.15749294 -0.0048974873 -0.13070363 -0.12456272
000160 da 27 29 be f5 f3 fb 3c 49 38 52 be 8d e0 e9 bd
       -0.16519108 0.030755976 -0.20529284 -0.11419783
000170 d9 a5 34 3d 2e 5a 0a 3b b1 c2 bf bc 9b b5 9a 3d
       0.044103477 0.002111088 -0.023408266 0.0755417
000180 10 7a 1a bc a5 64 f4 3d 45 fa 06 be 3b fc 10 3e
       -0.009428516 0.11933259 -0.13181408 0.14158718
000190 1e 4a b6 bd 41 35 39 be 4b 14 47 bd 4e 87 d0 bd
       -0.089008555 -0.18086721 -0.048603337 -0.10182057
0001a0 cc 96 d7 bd 29 39 9f 3d 4c 70 09 3b 64 46 06 be
       -0.10526809 0.07774574 0.0020971475 -0.1311279
0001b0 98 e0 bc 3c e4 07 80 3d fc 7c 9a bd d4 3f 0f 3a
       0.023056313 0.06251505 -0.0754337 0.0005464528
0001c0 69 b2 55 bd 40 ee ed 3c ca 1a a4 bd e2 73 13 bd
       -0.0521721 0.02904427 -0.08012922 -0.035999186
0001d0 d8 44 7e bc fd bb 48 bd 2a b0 f3 3c 22 63 20 be
       -0.015519343 -0.049007405 0.029747088 -0.15662816
0001e0 9c 24 42 be da 30 ba 3d 24 49 c6 bd 29 37 cb 3d
       -0.18959278 0.09091349 -0.09681919 0.0992263
0001f0 b7 7e 9a bd b1 62 90 bd 97 71 87 3d f8 99 a6 bd
       -0.075437 -0.07050074 0.066134624 -0.08134836

graph_matcher.mlp.4.weight f4 [64, 128]
000000 b5 6f a4 3d 88 65 af bc c4 53 cb 3c ad 9d cf 3d
       0.08029119 -0.021410719 0.024820216 0.10137496
000010 d0 b0 a1 3b 36 d4 51 bb 4b 60 14 3e 2e 3d 61 bd
       0.004934408 -0.0032017357 0.14489858 -0.054989986
000020 d5 85 19 3e 6d c7 21 3d ab 4d be 3d 45 a8 95 bd
       0.14992459 0.039496828 0.09292158 -0.073074855
000030 f9 20 e9 bb 9e d0 29 bc 22 b9 94 3d a4 70 1c bd
       -0.0071145264 -0.01036468 0.07261874 -0.03819336
000040 b7 0c df 3b bb c7 2e be ae f3 3a bc 9a b8 b6 3d
       0.0068069356 -0.17068379 -0.011410637 0.08921929
000050 c4 c6 a4 3d a1 f8 88 3d 65 1c 83 3c 5e 68 10 3d
       0.08045724 0.06688047 0.01600475 0.035255782
000060 a0 ba 3b 3d 22 f3 41 bd 8c 03 0f be 21 d7 1f bb
       0.045832276 -0.04735101 -0.13966197 -0.0024389701
000070 8e 56 59 bd 1c fd c4 3d 00 1d 66 3d 6e c4 d1 3d
       -0.05306106 0.09618589 0.05618 0.10242544
000080 d9 15 56 3c 3c b3 a5 bd f7 42 01 be cc 9e 92 bd
       0.013066732 -0.08090827 -0.12623201 -0.07159194
000090 9c 59 a8 bc 21 6b d0 bb 19 3f e0 bd 7d 56 5c bc
       -0.020550542 -0.006360427 -0.10949535 -0.013448355
0000a0 57 75 03 be 68 c3 cd bb 05 3d af 3d f7 27 cc bd
       -0.1283773 -0.0062793978 0.085565604 -0.0996856
0000b0 6c 9e a4 bd 26 6d 52 bd 33 dc 1a bd c5 6d 64 bd
       -0.08038029 -0.051373623 -0.037807655 -0.055768747
0000c0 6f b3 32 bd 36 88 39 3d 0d c4 10 bc 92 1f c0 bd
       -0.043628152 0.045295916 -0.008835805 -0.093810216
0000d0 76 2e 16 be c5 7c 2e bd 2a 96 10 3e 60 04 1f bd
       -0.14666161 -0.04259946 0.14119783 -0.03882253
0000e0 16 6c 04 3e 38 24 a9 bc 67 ae a2 bd 69 29 08 3e
       0.12931857 -0.020647153 -0.07943421 0.13297047
0000f0 1e 82 79 b9 e0 56 61 3d 78 18 03 be 7b 03 96 3d
       -0.00023794963 0.05501449 -0.12802303 0.073248826
000100 c3 db 05 3e 45 7f 81 bd 8d 35 69 bd 0b 7f e0 bd
       0.13072114 -0.06323103 -0.056935836 -0.109617315
000110 b2 91 3c bd 4e 88 37 bd ac ec 28 bd 64 64 12 be
       -0.046037383 -0.044807725 -0.041241333 -0.14296108
000120 73 58 31 3d ff 5a e4 3d 66 36 6c be 66 3f 86 3d
       0.043297242 0.11150169 -0.23067626 0.06555061
000130 58 24 81 be 66 2d 0b 3e 6c af 2b 3d 83 ff ac 3d
       -0.2522304 0.13591537 0.041915342 0.084471725
000140 ff c0 6d 3d ed a5 2c be cf 6a fc bb 66 5b 9e 3d
       0.058045384 -0.1686017 -0.0077031623 0.077322766
000150 08 33 8d 3d 39 7f 55 bc 5a b1 cf 3d bb be c3 bc
       0.06894499 -0.0130308205 0.10141249 -0.023894658
000160 66 c2 57 3d e8 b3 02 be 6a 00 d1 bb 2d 58 98 bb
       0.052675627 -0.12763941 -0.006378223 -0.0046491832
000170 b8 54 cb 3d 1c ef de bd 2c fe 9a 39 49 92 f9 3c
       0.09928268 -0.1088545 0.00029562542 0.030465262
000180 cc 4e 02 3d 25 f9 28 bc f6 a8 bb bd 9e 74 09 be
       0.031813428 -0.010313307 -0.09163086 -0.13423392
000190 2e 78 37 3d 68 aa 5e 3d e2 b0 91 3c e2 93 ee 3c
       0.044792347 0.05436173 0.01778454 0.02912325
0001a0 99 5a 7b 3d 30 f0 05 be 20 88 2d be ff 59 c2 bc
       0.061365698 -0.13079906 -0.16946459 -0.023724554
0001b0 c3 b6 1a bd 43 d7 85 3d dd bc b9 3b 46 77 98 3c
       -0.03777195 0.065351985 0.005668266 0.018611562
0001c0 d3 99 12 bc 79 95 1c be a0 ac 11 3c bc df 00 be
       -0.008947807 -0.15291394 0.008891255 -0.12585348
0001d0 d7 3c 4c 3d c1 13 c3 bd ec ac 0f 3d ed 22 11 be
       0.04986271 -0.09525252 0.03507702 -0.1417348
0001e0 8a 74 62 3d bc 41 d0 3d d2 11 ac bb 08 d7 d6 3d
       0.05528692 0.10168788 -0.005251148 0.10490233
0001f0 48 a7 3a be bb af 43 bd 47 e9 b1 3d 8a 84 34 bd
       -0.18227875 -0.04777501 0.08687072 -0.04407171
000200 ac dc 27 be 79 f5 d7 bb 4f f6 23 3d 14 dd ec bd
       -0.16392773 -0.006590542 0.04002982 -0.11565605
000210 ee 48 c4 bd dd 9b d1 3d 39 31 aa bd a8 e2 db bc
       -0.09584223 0.10234807 -0.0831017 -0.026841477
000220 dc bc 00 be 6f 38 94 bc e4 ac dc bd 71 b9 00 3e
       -0.12572044 -0.018093316 -0.10775164 0.1257074
000230 85 11 0e be 28 3c c2 bd 63 66 41 bd 10 3a f6 bd
       -0.1387387 -0.0948413 -0.047216784 -0.12022793
000240 ef 6f f6 bc f8 30 23 3d a2 b6 08 bc 61 0c 1a be
       -0.030082671 0.039841622 -0.008344324 -0.15043785
000250 4a 0e 81 3d b2 3e f3 bc a8 fe 45 be a6 c1 a0 bd
       0.063015535 -0.029692981 -0.19335425 -0.078494355
000260 bc 27 86 bd dc af f9 3b 45 cd 7c 3e 33 4b 88 bc
       -0.065505475 0.007619841 0.24687679 -0.01663742
000270 46 76 a2 3d 14 54 ea bc 28 ff 68 bd f7 19 dc bd
       0.07932715 -0.028604545 -0.05688396 -0.1074714
000280 e9 ea 38 3d ce e7 3f 3d 22 be 17 3e 89 49 8f 3d
       0.045145903 0.046851926 0.14818624 0.069964476
000290 bb 13 09 3c 62 10 09 be 1e ea cb 3c 20 7a 97 bd
       0.0083665205 -0.13385156 0.02489191 -0.0739634
0002a0 b1 97 54 3d 3e c0 59 bc 49 44 ec bc d1 3f 5a bb
       0.051902477 -0.013290463 -0.028841155 -0.0033302198
0002b0 9c e4 a1 bc 14 01 a4 3b 48 36 95 bd d0 c8 46 3d
       -0.01976233 0.0050050113 -0.07285744 0.048531353
0002c0 fd 2a 1c 3e f8 5d ca bd 22 73 21 be 49 8c 05 be
       0.15250774 -0.09881204 -0.15766576 -0.13041796
0002d0 20 01 bf 3d 70 ac 5a 3d 65 44 af bd 23 73 1b bc
       0.093263865 0.053387105 -0.08557967 -0.0094879
0002e0 30 00 34 be 91 2a 09 be 42 9b 52 3d b8 52 68 3c
       -0.17578197 -0.13395144 0.051417597 0.014179878
0002f0 45 0d 1b be 4f c4 ee bb fc 79 0f be c7 f5 d3 3b
       -0.1514178 -0.0072865854 -0.14011377 0.006468508
000300 46 65 e3 3c 78 8f b7 bc 86 da ce bd f0 03 63 bd
       0.027758252 -0.022407278 -0.10100274 -0.055423677
000310 0c 10 a0 bd bc f1 17 3d 85 d8 2e 3d 0d 33 9d 3e
       -0.07815561 0.03709577 0.042686958 0.3070301
000320 01 e8 a1 bd b2 aa 3a be d2 cf 3f 3e 14 9c 6e 3d
       -0.07905579 -0.18229178 0.18731621 0.058254316
000330 1c ea b6 3e d9 f2 7a bd 32 ce 18 be 92 c5 fd bd
       0.35725486 -0.061266754 -0.14922407 -0.12391199
000340 ee bf 2a be da e4 0d be 26 35 05 bc ca e6 b3 bd
       -0.16674778 -0.13856831 -0.008130347 -0.08784254
000350 79 81 67 bd 11 61 2b be 3a 44 7e bd 4a 03 8a bc
       -0.05651996 -0.16736247 -0.062076785 -0.016847271
000360 a4 7f 2b bd af 42 05 be 90 94 05 be 95 4e 44 bd
       -0.041869774 -0.13013719 -0.13044953 -0.047926504
000370 c9 bc 62 bd 04 85 be 3c 07 43 63 bd c1 f7 b1 bd
       -0.05535582 0.023256786 -0.055483844 -0.086898334
000380 20 89 9e 3b 8e e6 29 be cb a1 75 3d 12 98 fb 3d
       0.004838124 -0.16591856 0.05996875 0.122848645
000390 e3 2b b0 bd c6 5a 74 be 96 fe a2 3c f8 cd f9 bd
       -0.08602121 -0.23862752 0.019896787 -0.121974885
0003a0 85 60 24 ba a5 72 ec bc ac 86 9f bd c7 38 22 bc
       -0.0006270486 -0.02886326 -0.077893585 -0.009901232
0003b0 bd 22 a8 3d 20 06 db bc 85 3c 2a be 2f 48 66 bd
       0.08209751 -0.026736319 -0.16624649 -0.056221183
0003c0 78 a4 bc 3d 75 dd 8a 3d 11 f9 32 3d e8 19 db 3d
       0.092110574 0.06780521 0.04369456 0.106983006
0003d0 b3 ab 24 be bc 5e be 3d 4d 73 89 bd 10 5c 59 bd
       -0.16081123 0.09295413 -0.06711445 -0.053066313
0003e0 bb 14 b0 bd 1e 18 1e be f6 1a 8d 3d 96 88 ea 3d
       -0.08597704 -0.15438887 0.06889908 0.11451833
0003f0 dc 89 21 3e f4 36 98 bc 01 61 d8 bd cc 17 42 3e
       0.15775245 -0.018580891 -0.10565377 0.1895439

graph_matcher.mlp.4.bias f4 [64]
000000 cb 01 b9 3c d1 2e 88 bd d6 16 9b bd c9 7d dc bd
       0.022583863 -0.066495545 -0.07572715 -0.10766179
000010 6c 73 00 3e bf 06 a9 3d 80 9e d2 3c 77 21 e4 bd
       0.1254403 0.0825324 0.025710344 -0.111391954
000020 86 c5 50 be 9c 5c 29 bd 25 71 bc bd ee 7b bf bd
       -0.20387849 -0.041348085 -0.09201268 -0.093498096
000030 af 20 38 3d da 51 91 bd 04 00 10 be 8e 41 26 be
       0.044953045 -0.0709569 -0.14062506 -0.16235945
000040 30 36 64 be c6 37 1c bd 46 d9 0c 3e 63 8c fc bd
       -0.22286296 -0.038139127 0.13754758 -0.12331464
000050 6e fc f8 3d bf c1 02 3e 27 d5 fb bd d4 b1 d9 3c
       0.12157522 0.12769221 -0.12296515 0.026574053
000060 2d be 8d 3d 5d 10 93 3d f5 52 1e bc a4 fd ca bd
       0.06921039 0.071808554 -0.009663333 -0.09911659
000070 85 6e 28 be 85 f2 33 3e 02 67 12 3c d4 b4 11 be
       -0.1644841 0.17572983 0.008935692 -0.14229137
000080 ae f5 42 3e 62 f3 f7 3d 25 cb d9 bd 13 a6 0b be
       0.19039032 0.121069685 -0.1063445 -0.13637571
000090 d9 99 2b 3e 0b 23 30 be 6c 16 fd bd 94 67 26 be
       0.16757907 -0.17200868 -0.12357792 -0.1625045
0000a0 79 99 7a 3c ed fb 11 be cd d9 04 be 02 3a 69 bd
       0.01529538 -0.14256258 -0.1297371 -0.056940086
0000b0 0e 31 5c bd ff 55 e3 bd 87 62 f8 3c e4 2d 47 be
       -0.05375772 -0.11100387 0.030320419 -0.194511
0000c0 bf 34 a8 3c 3a 6a 12 3d 15 02 af 3c 27 51 be bd
       0.020532964 0.035745837 0.021363297 -0.09292822
0000d0 fa 46 92 be 08 93 ed 3d 0b 46 a3 bd 03 67 50 be
       -0.28569776 0.116003096 -0.07972344 -0.20351796
0000e0 af 9a ff 3d 61 8a cd 3d c9 25 85 bc ec 99 33 3e
       0.124806754 0.10036159 -0.016253369 0.17539185
0000f0 fb bb e8 3d 36 b3 14 bb c8 17 c8 3d 87 fd 19 3e
       0.113639794 -0.0022689826 0.09770161 0.1503812
