Result/GCN/1000_sample/model_epoch_24_f1_0.8702.pth (torch, 841514 bytes, 42 tensors)

graph_matcher.gnn.conv1.bias f4 [64]
000000 89 42 ef bd d7 60 46 bc c3 90 26 3d db 6e d7 bc
       -0.116826124 -0.012108049 0.0406654 -0.026297977
000010 7e f1 c9 3d 80 ba 14 3d bc 08 49 3d f8 29 95 bd
       0.09860514 0.036310673 0.049080595 -0.072833955
000020 19 33 01 bd ef c4 bf 3c 33 63 ce 3b a7 60 30 bd
       -0.03154287 0.023409335 0.0062984466 -0.043060925
000030 3e eb be bc e2 5d fc bc 0e 75 4c be fa 18 f3 3a
       -0.023305532 -0.030806486 -0.19966528 0.0018546872
000040 91 d3 62 bc 00 00 00 00 09 9c 2a bd f9 a8 1b 3d
       -0.013844387 0.0 -0.041652713 0.03800294
000050 dc 86 03 3d 00 00 00 00 00 00 00 00 00 00 00 00
       0.032111034 0.0 0.0 0.0
000060 47 34 8b bd 7e 72 db bc d5 0f db 3d c0 37 af 3d
       -0.067970805 -0.026787993 0.10696379 0.08555555
000070 27 c4 e2 3d 1a 58 0e 3e 71 70 5c 3d ef 21 c9 bd
       0.11072569 0.13900796 0.05381817 -0.098209254
000080 7f f8 75 bd 39 1f 92 3c 1d 2a 5f bd 62 66 0b bd
       -0.060051437 0.017837154 -0.05448352 -0.034033187
000090 3b 55 dc 3c cb 2d 8d bd 77 21 c8 bc 7d 1f ac 3d
       0.02689611 -0.068935 -0.02443002 0.084044434
0000a0 00 00 00 00 56 5e 13 bd 4d 9b 02 be 00 00 00 00
       0.0 -0.035978638 -0.12754555 0.0
0000b0 d1 6d 00 bd 74 f0 2e bd ca 03 a3 bd b5 e4 ad bb
       -0.03135473 -0.042709783 -0.07959707 -0.005306805
0000c0 ae 3e d2 bc 69 3a 02 be c6 14 6c bd 77 12 23 bd
       -0.025664654 -0.12717594 -0.057637 -0.03981253
0000d0 67 4f 15 bd cb 7b be 3d 00 00 00 00 f1 f6 ca 3d
       -0.036452677 0.093009554 0.0 0.099103816
0000e0 bd 9e 03 3e 27 0e 1a 3d 83 20 8a bc fa 74 8e bb
       0.12853523 0.037611153 -0.016861206 -0.004347441
0000f0 2e 0a 91 bd 27 02 91 3c f0 5f 9d 3d df 3b 57 bc
       -0.0708202 0.017701222 0.07684314 -0.013136833

graph_matcher.gnn.conv1.lin.weight f4 [64, 4]
000000 73 7e 0d 3f d4 29 77 3e aa 62 dd 3e 01 9c 0d be
       0.5527107 0.2413705 0.43239337 -0.13829042
000010 6d 29 56 be 50 de 82 3d 14 d6 66 be 8b 7d 46 3e
       -0.2091424 0.06390059 -0.22542602 0.19383828
000020 26 61 58 3e 06 d2 a9 3e 22 87 c7 be 5f 0f d3 be
       0.21130809 0.33168048 -0.38970286 -0.41222665
000030 d5 4d 3d be e0 37 76 be 71 69 29 be d8 0a 0d 3e
       -0.18486722 -0.24044752 -0.16544129 0.13773668
000040 b1 58 46 3f 10 23 b9 bd 00 cd 26 3f ac eb 13 be
       0.7747908 -0.09039891 0.65156555 -0.1444537
000050 13 74 af be fe bb 86 be a2 c7 9f be 17 f5 27 3e
       -0.34268245 -0.26315302 -0.31206995 0.16402088
000060 47 47 b1 be e9 e7 00 bd 79 b9 8d be 0b c1 04 3e
       -0.34624693 -0.031471167 -0.27680567 0.12964265
000070 ee 60 a0 be 58 00 21 3e 7f 70 f1 bd 79 af 0f 3e
       -0.3132395 0.15722787 -0.11789035 0.14031781
000080 7b 9b 2a be f5 f8 63 3e f2 e8 9e be 58 2e 2e 3e
       -0.16660874 0.22262938 -0.31037098 0.17009866
000090 cc 07 60 be e9 a0 d9 3d ad 86 2a be 7c fa a6 3d
       -0.21877974 0.10626394 -0.16652937 0.08153245
0000a0 f9 66 8b be 48 5c c3 be 53 f7 8c be 3c 7a 5f 3e
       -0.27227 -0.38156343 -0.27532443 0.21823972
0000b0 9d e0 2c be ed c4 71 be 62 ba 63 be 76 89 46 3e
       -0.16882558 -0.23610277 -0.22239068 0.19388375
0000c0 9e 0b 82 bd ef fe 93 be 5a 6c 35 be 25 8d 3f 3d
       -0.06349872 -0.28905436 -0.17717114 0.046765465
0000d0 f8 cf 0c 3f ce 27 53 3b f0 04 6d 3e 47 d7 1f be
       0.55004835 0.003221977 0.23146415 -0.15609466
0000e0 c1 e4 07 3d 8d 85 90 be c5 ff b3 3c 95 f2 7b 3d
       0.03317714 -0.2822689 0.021972546 0.06151064
0000f0 b7 7d 06 3f 30 9f a4 3d 16 b4 50 3f 6c c5 52 bc
       0.52535576 0.08038175 0.8152479 -0.012864452
000100 4c a7 45 be db 4a 1e be af fe 7d be cf 23 18 3e
       -0.193021 -0.15458243 -0.24804185 0.1485741
000110 4c ad 8f be 72 2d 58 be c1 53 97 be 37 40 31 be
       -0.28061903 -0.21111086 -0.29556087 -0.17309652
000120 a7 4f d8 bd c4 8c 8f 3d b8 80 4f be 68 70 d7 3d
       -0.105620675 0.07009271 -0.20263946 0.10519487
000130 5c 24 b7 be 4c 25 59 3d 13 71 c1 be 7d 89 65 3e
       -0.35769928 0.053014085 -0.3778158 0.22415729
000140 b9 9b 41 be 94 58 6f be 93 09 28 be 97 2d 20 3d
       -0.1890706 -0.23373634 -0.16409902 0.039105978
000150 06 b1 92 be 56 bc 95 bd 42 3a 84 bd ac 8b a2 bd
       -0.28650683 -0.07311313 -0.06456424 -0.079367965
000160 e7 36 92 be 99 44 0e be c4 04 df bd d5 09 5f be
       -0.28557512 -0.13893355 -0.10889581 -0.21781094
000170 fc 01 99 bd 89 51 05 be 72 68 04 be 59 eb 59 be
       -0.074710816 -0.13019384 -0.12930468 -0.21281184
000180 ed 57 63 be bf 40 83 3e 6d c2 13 be 2a a7 38 3e
       -0.2220151 0.25635335 -0.14429636 0.18032518
000190 ce 57 d5 3e ca c0 75 3d e9 c7 49 3e cc b4 64 bd
       0.41668552 0.05999831 0.19705166 -0.055836484
0001a0 bb b8 c5 3c cb 24 f8 3d b9 4f 6e 3f 7e ef 8e be
       0.024135938 0.12116393 0.930904 -0.27917093
0001b0 cb 89 39 3f a8 79 19 bc eb be 6a 3f 9e 87 88 be
       0.7247588 -0.009367384 0.9169757 -0.26665968
0001c0 74 38 f0 3e c2 24 f0 3c 46 2b 89 3f 3e 04 91 be
       0.4691807 0.029314402 1.0716331 -0.2832355
0001d0 0b 00 d1 3e 0c dc 3a be 93 13 8a 3f 24 5c f0 bd
       0.40820345 -0.18248004 1.0787224 -0.117363244
0001e0 ee 68 d7 3d 4b 33 99 3e 74 3c e5 be 90 89 ba be
       0.105180606 0.29921946 -0.44772685 -0.36433077
0001f0 00 7d 56 3e 28 d3 a4 be 8d 83 c3 bd 62 dc c9 3d
       0.20946121 -0.3219235 -0.09546576 0.09856488
000200 cd 82 8c be d6 5b f8 bd 2c df 75 be d3 6c 3c bd
       -0.27443543 -0.12126891 -0.24010915 -0.04600222
000210 d5 45 18 3f 6c 4b d6 3b ed 60 8b 3f f3 ed 2f bd
       0.59481555 0.0065397527 1.0888954 -0.042951535
000220 5f 7e 77 bd c5 27 ef bd 56 a0 18 be ac 7e f8 3b
       -0.06042325 -0.11677507 -0.14904913 0.00758346
000230 5c 82 b9 3e 00 e2 b8 be 77 3d b5 be 7f dd e0 bc
       0.3623227 -0.36109924 -0.35398456 -0.027449368
000240 33 e8 dd be 10 9b 8e 3e e2 d4 c7 3e dd 2f da be
       -0.43341216 0.27852678 0.39029604 -0.42614642
000250 26 1e f7 bd ac ea a2 bb 0a f5 c3 bd 85 88 2a bd
       -0.12066297 -0.0049718227 -0.09568222 -0.0416341
000260 e6 d2 2f be 06 db 90 bd 6a f0 db ba c7 a7 50 be
       -0.17170295 -0.070730254 -0.0016780023 -0.20376502
000270 0e 53 31 3f df a4 b9 bd 80 fc 76 3f 73 30 e3 bd
       0.69267356 -0.0906465 0.96479034 -0.11093225
000280 24 fa 7e bd dc 9b 1f be 74 8a 6a be c0 f2 62 be
       -0.06225027 -0.155868 -0.22904378 -0.22162914
000290 ad 25 35 3e 70 28 b0 3e 67 c2 84 be 8d ea 8b be
       0.17690153 0.3440585 -0.25929567 -0.27327386
0002a0 ac 84 ba 3e 34 72 e6 bc cd d8 98 3d a8 e6 cf 3d
       0.36429346 -0.028130628 0.074632265 0.10151416
0002b0 6e 5d 86 be 90 ac 81 be 62 54 57 be cc 0d 4d be
       -0.26243156 -0.25326967 -0.21028283 -0.20024794
0002c0 92 7b 93 be c8 4c 8e be d6 4c 63 be ec 51 53 3e
       -0.28805214 -0.27792954 -0.2219728 0.2063672
0002d0 ef 67 2b be a1 f4 1f be d2 6e 96 be d2 67 9f 3d
       -0.16738866 -0.15620662 -0.29381424 0.07783474
0002e0 df d9 97 be ad 5a 93 3e 4a 85 0e be 27 ca 3e be
       -0.2965841 0.28780118 -0.13918033 -0.18631802
0002f0 4b ee 1c 3f 9d d7 c7 3d 52 3c 4d 3e de 6d 8d bd
       0.61301106 0.09757922 0.20042542 -0.06905721
000300 b7 76 79 3c 48 20 34 be fc f1 cb bd 1c ff 10 be
       0.015226058 -0.1759044 -0.09958264 -0.14159817
000310 36 3c 8d 3e f5 60 9d be ff b1 05 3f 22 82 9a 3c
       0.27585 -0.30738035 0.52224725 0.01886088
000320 7f 90 16 3f 4a 8a 65 3e 12 dc 60 3f 94 4f b5 ba
       0.58814234 0.22416034 0.878358 -0.001383292
000330 aa 7a ef bd 3a 96 7f be 0e 0e 96 be 4e 9a 19 3e
       -0.11693318 -0.2495965 -0.29307598 0.15000269
000340 d4 bb 90 3d 74 6c a2 3e ae a9 96 be 22 78 32 be
       0.07067075 0.31723368 -0.2942633 -0.1742864
000350 26 d2 f3 3e d7 5e f1 3d ce 1c 73 3f de 16 f0 bd
       0.47621268 0.117856674 0.9496583 -0.117231116
000360 c0 d4 7b bd 0c c2 84 be 88 b2 8b bd 83 81 19 be
       -0.06148219 -0.25929296 -0.068211615 -0.14990811
000370 9c 47 b4 3e f8 de 2a 3c ad 6e 56 3f 03 3e 91 be
       0.35210884 0.010429136 0.8376263 -0.28367624
000380 b4 17 b8 3e f1 14 26 be b8 31 8d 3f 41 dc 6d bd
       0.35955584 -0.16218926 1.1030798 -0.05807138
000390 47 0b 2a be 52 01 12 bf 8f 5f 94 3f 0d 53 56 bc
       -0.16605864 -0.57033265 1.1591662 -0.013081324
0003a0 de a5 27 3e 56 5c ec be fd 60 5c 3f 21 8e 4d bd
       0.16371867 -0.46164197 0.8608549 -0.050184373
0003b0 72 57 e8 3e bb 88 1e 3e 26 ca 83 3e a6 89 a9 be
       0.45379215 0.15481846 0.25740165 -0.3311283
0003c0 d7 9d 30 be ea 64 6b 3e 15 99 59 be 98 04 7d 3e
       -0.17247711 0.22987714 -0.21249802 0.24708784
0003d0 0d e4 79 be ba 8e 87 be 27 c6 b8 be e0 a8 46 3e
       -0.244034 -0.2647608 -0.36088678 0.19400358
0003e0 24 52 ef 3e 54 f1 0e 3e 53 02 58 3f cb 75 9c be
       0.46742356 0.13959247 0.84378546 -0.3055862
0003f0 05 03 fe 3e b5 7e fe 3c 7f 91 42 3f f2 58 60 bc
       0.4961168 0.031066278 0.7600326 -0.013693081

graph_matcher.gnn.conv2.bias f4 [128]
000000 58 cc 10 3d 17 9d 48 bd 3a 9c 11 bd 7b 28 6a bd
       0.035351127 -0.048977938 -0.03554938 -0.05716751
000010 15 dd 1f bd 24 06 37 bd 1d 05 39 bc f8 3c 23 bd
       -0.0390292 -0.04468359 -0.011292723 -0.039853066
000020 3e db 78 bd d0 c8 aa bd 3f 3b 58 be 04 83 1f be
       -0.06075596 -0.08339083 -0.2111635 -0.15577322
000030 62 82 7a bd 15 db 1e bd c4 82 8e bd e0 fb 5e bd
       -0.0611595 -0.03878315 -0.06958535 -0.054439425
000040 75 84 d2 bd 5a 71 7c bd ad 2c a1 bd 25 2a 1e bd
       -0.102791704 -0.061631538 -0.07869849 -0.03861441
000050 87 ce 42 bd be 4b 1b bd b6 6a b5 bc ce 6d 00 3d
       -0.04756024 -0.03791403 -0.02214561 0.031354718
000060 8b 0f 69 bd 0d 0e 51 bd 99 b8 10 3d ed a9 f8 bd
       -0.05689959 -0.05103879 0.035332296 -0.12141786
000070 84 ab 26 bc 12 ef 19 3c 4a 71 96 bb 4d 6f 13 bc
       -0.010172728 0.009395378 -0.004591142 -0.008998704
000080 06 f4 24 bd c5 1b c7 bd 0d 2e 5b bd 02 06 f5 bb
       -0.04027178 -0.097220935 -0.053510714 -0.007477523
000090 8c 47 af bd 14 63 77 bd cf a7 71 bd 52 3d 94 bd
       -0.08558568 -0.060397223 -0.058997925 -0.072382584
0000a0 4e 2a 0a bd 64 7e 16 3d 8c 72 76 bd 61 c2 90 3c
       -0.03373175 0.03674163 -0.060167834 0.017670812
0000b0 3b 0a 00 bd f5 ec 29 bd 6a c7 a7 bd 7b 29 cb bc
       -0.031259757 -0.041485745 -0.08192332 -0.024800053
0000c0 11 e3 92 bc 3e 12 7c bd b7 f6 d3 bd cd dc ac bd
       -0.01793054 -0.061540835 -0.103497915 -0.08440552
0000d0 2f 67 a4 3c 2c 72 6a bd a4 c5 e4 3c 6e b8 ce bc
       0.020068733 -0.05723779 0.027926274 -0.025234427
0000e0 a7 49 81 bd b0 7e d2 3c bf ea 4b 3d 17 0a ae bd
       -0.06312876 0.025695175 0.04978442 -0.08498018
0000f0 c5 92 8a bc 59 26 a9 bd b0 38 04 bd 46 16 2d bd
       -0.016915688 -0.08259267 -0.032280624 -0.04225757
000100 8d 6a 99 3c c1 18 19 bd 78 3d 94 bd 98 f1 a0 bc
       0.018727565 -0.037377123 -0.07238287 -0.01964645
000110 23 42 a4 bd 2a 4d a3 bd 8e 48 4e 3c ee 8f 8b bd
       -0.08020427 -0.07973702 0.012590541 -0.06814562
000120 3f 57 f4 3c 56 38 dc bb 91 f5 2a 3d e1 62 60 3b
       0.029826758 -0.006720583 0.041738097 0.0034238624
000130 25 6f 89 bb 80 7f 62 bd d9 ff 70 bd 01 fa 5d bd
       -0.0041941577 -0.055297375 -0.058837745 -0.0541935
000140 76 b8 43 bd ca 1e c4 3c fa 6b ab bd 8a a2 03 bd
       -0.047783338 0.023940463 -0.08370204 -0.03213743
000150 14 aa 03 bd fd 57 ba bc d0 7f 8b bd 7c e6 41 3c
       -0.03214462 -0.022747034 -0.06811488 0.011834737
000160 c0 79 a1 bb 1e d0 97 3b e5 fe fc bd 88 f5 8a bd
       -0.004927844 0.004632964 -0.12353305 -0.067851126
000170 54 73 0a bd 4d 8a fb bd e3 1e 85 bd c6 65 88 bc
       -0.03380139 -0.12282238 -0.06500032 -0.016650092
000180 5a e6 c4 bd 13 c7 d7 bc a8 dc 6c 3c 8a 7b 84 bd
       -0.096142486 -0.026340043 0.014456905 -0.06468876
000190 4e 47 13 bd fb 8c 4f bd 7a 7c 4e 3d 04 bd 18 bd
       -0.035956673 -0.05067156 0.05041168 -0.037289634
0001a0 d1 6d a2 3d 7a 30 b9 bb 20 aa 85 bc fb 73 79 bd
       0.07931102 -0.005651531 -0.016316473 -0.060901623
0001b0 76 1c 8c bd 5a f5 1a bc 44 60 04 bd ae 7a 12 bd
       -0.06841366 -0.00945791 -0.03231837 -0.035761528
0001c0 84 39 3a bd 3e c4 dd 3c e0 19 50 bd 98 cd 8e bc
       -0.045465007 0.027071115 -0.050805926 -0.01743202
0001d0 a4 5f 61 bd 2f 76 1d bd a8 a5 97 bd a5 ab 6b bd
       -0.05502285 -0.038442787 -0.07404643 -0.05753674
0001e0 45 c1 20 bd a3 a5 79 bd 8c 97 4c bd 83 c6 35 bd
       -0.039246816 -0.06094898 -0.049949214 -0.04437877
0001f0 93 fc 4d bd 61 3f f9 bc ad 74 34 bd c0 06 ec 37
       -0.0502897 -0.03042573 -0.044056583 2.8136536e-05

graph_matcher.gnn.conv2.lin.weight f4 [128, 64]
000000 f0 2f 0a 3e 64 37 74 3c b3 1d ee 3e cb 99 53 be
       0.13494849 0.014905784 0.46507034 -0.20664136
000010 b3 73 41 3e e1 24 e4 bd 28 01 a8 3d 39 cd 76 bd
       0.18891792 -0.111398466 0.082033455 -0.06025431
000020 71 a9 cd bc d8 a1 80 bd 36 c4 81 be 81 90 bc bd
       -0.02510521 -0.06280869 -0.2534501 -0.092072494
000030 e5 32 ce 3d d4 cc 30 3e 14 9b 3a bd 3f 74 8b 3e
       0.10068301 0.17265636 -0.04555805 0.27237126
000040 5d 7f 1f 3c 74 e3 7b bd 7d aa 13 be d3 a7 05 be
       0.009734956 -0.061496213 -0.14420505 -0.13052301
000050 a9 b8 61 be 2d 38 2b 3e c8 33 fb 3c af 42 22 3e
       -0.22043099 0.16720648 0.03066434 0.1584575
000060 90 c6 7a 3b b0 0b c2 3e 74 0f f4 3e ec c3 13 3f
       0.0038265325 0.37899542 0.4766804 0.5772083
000070 2a 33 d8 3e ab ac b8 3e 6b 94 ec 3e cf 97 94 3d
       0.42226535 0.36069235 0.46206984 0.07255518
000080 bd 6f ec 3c cc b3 71 3e 02 b9 1e 3d 96 1b 1d 3e
       0.028861875 0.23603743 0.038750656 0.15342554
000090 0e 3e ed bb 43 c4 64 3d 85 d6 26 3e 89 2e d3 3e
       -0.0072400635 0.055851232 0.1629277 0.4124644
0000a0 a0 2f a1 3b a3 f0 17 3e d0 0c 96 3d 00 c5 9c 3c
       0.0049190074 0.1483789 0.073266625 0.019136906
0000b0 59 1a d3 bd 35 c5 e3 3c a9 48 76 3e 45 2b 8e 3e
       -0.1030776 0.027803997 0.24051155 0.27767387
0000c0 0c 1c 46 be b5 55 d7 bd a4 95 af 3b 02 d2 41 be
       -0.19346637 -0.10514394 0.0053584147 -0.18927768
0000d0 d0 cd 74 3d 50 bd c4 3e 41 a4 32 3e 74 8a 44 3f
       0.05976659 0.38425684 0.1744547 0.7677376
0000e0 14 2a 43 3f d3 a9 14 3f e2 15 ee 3e c5 04 00 3f
       0.7623608 0.5807163 0.4650107 0.5000728
0000f0 db 06 40 be a7 c8 0d be d1 b7 93 3e cb fc c8 3e
       -0.18752615 -0.13846074 0.28851178 0.39255366
000100 b7 ac 84 be 78 75 d3 bd c3 2c c5 3b b0 dd 8c 3d
       -0.2591302 -0.1032514 0.006017299 0.06878221
000110 e3 dd 20 be f7 2d 8d bd 26 37 c5 3d 20 05 17 be
       -0.15709643 -0.06893533 0.09629659 -0.14748049
000120 56 91 cf bd f9 87 5d 3d 73 63 00 be 5a 40 6c bd
       -0.101351425 0.05408475 -0.12537937 -0.057678558
000130 8b bc 37 3c 63 51 02 be b7 37 0d 3e cf 44 9d bd
       0.011214386 -0.12726359 0.13790785 -0.0767914
000140 af cf 7d 3d 36 85 0c be 05 9a 5d 3d 27 39 b1 3d
       0.06196564 -0.13722691 0.054101963 0.08653479
000150 3e 0e 75 bd e5 7a 24 3e d8 65 e6 bc 45 84 e2 bd
       -0.059828036 0.16062506 -0.028124735 -0.11060385
000160 5f da ed 3b ad d0 8e bd d0 ee 20 bd da ae 7e be
       0.007258698 -0.069733955 -0.03929025 -0.24871388
000170 2c 3a 4e be 27 33 9a be e7 10 57 be 2f 8e 0a 3e
       -0.20139378 -0.3011715 -0.21002541 0.13530801
000180 5b fe 23 3d d1 f7 d6 bc 41 9f ff 3c 39 0d b1 3c
       0.040037494 -0.026241215 0.031203868 0.02161275
000190 e7 90 cc bd 8f 3c 94 3b 92 02 e0 bd 26 1e 46 be
       -0.099885754 0.0045238207 -0.1093799 -0.19347438
0001a0 28 89 9f 3c f8 ed 5c be 8b 67 f6 3c de 61 a3 3d
       0.01947458 -0.21575153 0.03007867 0.07977651
0001b0 24 bc 7c 3d e0 ef 14 bc af e5 81 be 0d 67 8f 3c
       0.061702862 -0.009090394 -0.25370547 0.017505193
0001c0 46 8e d3 bd 76 d2 34 be ed 36 09 be e6 32 41 3c
       -0.10329871 -0.1765841 -0.13399859 0.01179192
0001d0 60 12 98 be 74 be f0 3b 20 a6 bc bc 49 1d a8 bc
       -0.2970152 0.0073469225 -0.023028433 -0.020521777
0001e0 8a d3 28 be 33 e4 bf bd 38 72 5f 3b aa 6a 05 be
       -0.16486946 -0.093696974 0.003409518 -0.1302897
0001f0 d0 64 d7 bc 36 55 ac 3d 90 a8 b2 be dd b7 9e bd
       -0.026293188 0.0841469 -0.34894228 -0.07749913
000200 8a 8b e3 3c d3 37 9b 3c 1a e6 09 be d1 76 1f be
       0.027776498 0.018947517 -0.13466683 -0.15572669
000210 45 c1 0d be 92 be ec 3d 0a 80 d2 3c dd ed e2 bd
       -0.13843258 0.11559786 0.02569582 -0.11080525
000220 78 2b b1 bd ac 8f 46 be 5c 96 1b be ba f3 ae bc
       -0.08650869 -0.19390744 -0.15194076 -0.021356452
000230 fa 1a ec bd 14 10 c2 bd ed ee d3 bd c8 34 48 be
       -0.11528583 -0.09475723 -0.10348306 -0.19551384
000240 d3 fd dc bd c5 4f 29 3e 3a 7e 3a be 26 5e 96 bc
       -0.10790601 0.16534336 -0.18212214 -0.01835544
000250 9b 5e 1b be 97 7d e9 bd ec 5b 02 be e0 93 ca 3b
       -0.15172808 -0.114009075 -0.12730378 0.006182179
000260 5c 16 de bb d7 4d 77 be 93 3c ce bd 27 36 01 be
       -0.006777568 -0.24150787 -0.10070147 -0.12618314
000270 a6 5a 7f be 1f 2d 97 bd 5e 22 9a 3d 24 1c 0c 3d
       -0.24936923 -0.07381653 0.07526086 0.034206524
000280 56 04 49 3e 86 bf 76 be 06 e7 0e be 4b fb 5d 3d
       0.1963056 -0.24096498 -0.13955316 0.05419473
000290 0f 46 25 3d 66 bd 80 bd 3b b9 80 3d fb 6b a1 bd
       0.040350016 -0.06286125 0.0628533 -0.07881924
0002a0 b0 53 95 bc b4 1b be 3d 2a b3 30 3b a7 ac 2f be
       -0.018228382 0.09282628 0.002696226 -0.17155705
0002b0 09 d6 12 3e f4 09 e5 bd ed c7 29 bd bb ba 4e 3b
       0.1433946 -0.11183539 -0.04145043 0.0031544406
0002c0 34 37 30 be 8b 45 b9 bd c4 f0 1d bd aa bb 8c bd
       -0.17208558 -0.090464674 -0.03855969 -0.068717316
0002d0 a7 44 2f be ea bb 82 3b f0 db 9a bc f2 9a 4d be
       -0.17116033 0.0039896863 -0.018903702 -0.20078638
0002e0 bb c4 3e bd 6a df 89 be e5 e4 0a 3e f8 cf 97 3d
       -0.046574336 -0.26928264 0.13563879 0.07412714
0002f0 c3 30 40 3d 3e 04 05 bd 9b 48 08 be 69 00 d0 3c
       0.046921503 -0.03247475 -0.13308947 0.02539082
000300 fd cc 6b 3d 6a 2c 00 3e 09 cc 0b be 4d 80 69 3c
       0.05756854 0.12516943 -0.13652052 0.014251781
000310 ab b7 9a bd 1b f6 0d 3e df ad b1 bd 2f 15 43 be
       -0.07554563 0.13863413 -0.086757414 -0.1905105
000320 ae ff 53 bb 8b 2d aa 37 55 4e 3d 3d d3 57 b8 3d
       -0.0032348442 2.0286787e-05 0.04621728 0.09001126
000330 a7 f3 2c be da 63 00 be 9e 96 ae bd 2c 36 52 be
       -0.16889821 -0.1253809 -0.08524822 -0.20528477
000340 bf 41 56 be ca a0 b8 3d cb 12 1f be 5b c1 2c be
       -0.20923518 0.09015043 -0.15534513 -0.16870634
000350 75 91 26 be a8 e1 af 3c 46 17 84 3d 58 e6 30 be
       -0.16266425 0.021469906 0.064497516 -0.17275369
000360 25 74 3a 3d e4 aa 6c bc 32 e8 47 3c 52 4a 5d be
       0.04552092 -0.01444504 0.012201356 -0.21610382
000370 19 be 8c be 1d d4 c6 be 79 c4 48 3e 16 b4 0c 3d
       -0.27488783 -0.38833705 0.19606198 0.03435143
000380 ff eb d8 bc 6d 4c a0 be c5 89 c9 bd bb b7 03 bd
       -0.02647972 -0.31308308 -0.098407306 -0.03215764
000390 36 f6 63 be 65 21 15 be 59 1f 36 be 5e e2 57 be
       -0.22261891 -0.1456352 -0.17785396 -0.21082446
0003a0 ec 28 78 3d e5 59 45 be 47 41 d9 3d f8 4a f7 bc
       0.0605859 -0.19272573 0.10608154 -0.030187115
0003b0 d6 47 2c 3d e4 de 97 3d 3c 0d 8d be bf 3e 07 be
       0.042060696 0.0741556 -0.2754916 -0.1320753
0003c0 73 f3 64 be 36 b3 0e be 84 11 be 3c d8 5d 64 3d
       -0.22358494 -0.13935551 0.023201711 0.05575356
0003d0 a6 ac c7 be 8e 2b 00 be 42 c7 bb 3d 61 d1 cc bc
       -0.38998908 -0.12516615 0.09168865 -0.025002183
0003e0 92 c6 39 be 12 e4 b8 bc 34 c8 7e be 2f c4 f2 3a
       -0.18142155 -0.02256969 -0.24881059 0.0018521602
0003f0 74 b8 4c 3d 8f 20 e4 bd b4 ca cc bd d4 5f 46 3c
       0.049980596 -0.111390226 -0.099996 0.012107808

graph_matcher.mlp.0.weight f4 [128, 256]
000000 75 3b 7c be 5d 3e 29 bc 73 47 90 3d 88 7b 24 3d
       -0.24632056 -0.01032981 0.07044878 0.04015687
000010 ba a0 2a 3d 22 fe 94 3d c4 4f 0a be b4 bd 9c 3d
       0.041657187 0.072750345 -0.1350699 0.076533705
000020 1c 14 d2 3d 97 52 4c bc 75 3a 54 bb 84 f6 9e bb
       0.10257742 -0.012470863 -0.0032383476 -0.0048511643
000030 34 87 db bc e0 f0 29 3d 3b 3f ad 3c 93 8c bd bc
       -0.026797868 0.041489482 0.021148315 -0.02313832
000040 7f 9b b9 bc 86 ae b1 3d 1b 7a 80 3d b8 c4 c4 bc
       -0.022657154 0.08675866 0.0627329 -0.024019584
000050 a6 50 a5 3d 0f 00 5e bd 73 5b 0d bc a9 08 5f be
       0.08072023 -0.054199275 -0.00862776 -0.21780647
000060 b7 1a 6e 3d 8e 7f fb 3c 4f 30 eb 3d 06 25 c9 3d
       0.058130946 0.030700471 0.114838235 0.09821515
000070 d6 43 a6 3d 53 47 27 be 7f 0f 88 bd ac 88 1e bc
       0.081184074 -0.16335802 -0.06643581 -0.00967614
000080 92 27 5d bd 43 59 ad bb ba a0 41 3c 84 b5 88 bb
       -0.053992815 -0.005290182 0.011818105 -0.004172029
000090 9f a5 b5 3d ae 28 f4 bd e1 5b b9 3d 17 1e ee bc
       0.0886948 -0.119218215 0.09050728 -0.029067082
0000a0 90 88 14 bd 5c 23 b8 3d f6 aa a2 3a 26 1f 3e be
       -0.03626305 0.08991119 0.001241057 -0.1856657
0000b0 79 a3 e1 bc 38 84 73 3d ac 4d e3 3c d6 11 2d 3d
       -0.02754377 0.059452266 0.027746998 0.042253338
0000c0 53 d4 dc 3c 20 9e 93 3d 1f d3 93 bc 92 31 0c 3d
       0.026956713 0.07207894 -0.018045006 0.03422696
0000d0 43 a0 5b 3c b0 11 6f bb 90 4c bd be 6e 22 17 3d
       0.013404909 -0.0036479048 -0.36972475 0.03689807
0000e0 3f 3a ae 3d 3c cf d8 3c 60 36 96 be 2e 59 8e bd
       0.08507203 0.026466005 -0.2933836 -0.069506034
0000f0 fd 84 45 3d 6d 98 15 3d 32 f7 fb 3c 83 33 59 3d
       0.04822253 0.036522318 0.03075752 0.05302764
000100 a1 ac ca 3c c8 91 14 3d db ff 93 3c d0 cf 1d be
       0.024740519 0.03627184 0.018066337 -0.15411305
000110 04 2c 53 3d dc 8c 5c bd e6 20 a0 3c 05 f8 ad 3d
       0.05155565 -0.05384527 0.019546937 0.084945716
000120 98 44 d8 3c 4a 9f c0 3c 4b d0 5c be 13 cc c9 3d
       0.026399896 0.023513455 -0.21563832 0.09853377
000130 e8 d9 81 3d f9 b9 56 3d 1c e6 6e 3d 87 47 b3 3d
       0.063403904 0.05242345 0.05832492 0.08753877
000140 6b 89 c3 3d 80 d5 a2 3d 0b ef a9 3d 89 ec 2f bd
       0.09547695 0.07950878 0.08297547 -0.042950187
000150 15 c5 97 3c 0c a7 79 3d 16 96 54 be b6 ff e3 3d
       0.018526593 0.060950324 -0.20760378 0.11132757
000160 7b 84 7f be e3 a0 d1 3d 55 d1 98 3b 5a 94 91 bd
       -0.24952881 0.10235765 0.004663626 -0.07108374
000170 6b 37 49 3d 8f 5d 41 bd 59 27 6c bb 04 fc 23 bc
       0.049125116 -0.047208365 -0.0036034195 -0.010008816
000180 98 c9 41 bd df 92 9d bc a0 60 c1 b8 1b e6 bf 3b
       -0.047311395 -0.019235073 -9.220955e-05 0.005856288
000190 a3 c4 74 bc 58 43 cf bc e9 ff 96 be 36 c4 46 3c
       -0.01493946 -0.025300667 -0.2949212 0.012131741
0001a0 2a 59 25 3e 3d 9b e9 3c 23 71 33 bd f6 d4 b9 3d
       0.16147295 0.028516406 -0.043809067 0.09073822
0001b0 3e bb 3b 3d c6 0a 91 bb b3 48 5c bb d5 18 14 bc
       0.045832865 -0.004426333 -0.0033612668 -0.009039124
0001c0 77 96 f3 3c 0d cf b5 bc 78 96 c3 bd ea 2d fa 3c
       0.029734833 -0.022193456 -0.09550184 0.030539472
0001d0 ea 6f 82 bd b2 e7 95 3d 9c 5a c4 bc ff 6c 1f 3d
       -0.06369002 0.07319583 -0.023968987 0.038922306
0001e0 1c c8 d6 ba cf 3b 15 bd 58 ae d6 bc 4e e2 f2 3c
       -0.0016386542 -0.03643399 -0.02620618 0.029648926
0001f0 95 a5 2b 3d 40 78 fb bc 89 3e d1 3c 12 0c 0f 3d
       0.04190596 -0.030696988 0.025542514 0.03492362
000200 72 a9 57 be 86 f0 fd bc 38 3d 79 bd 3d 9a 11 bb
       -0.21060732 -0.03099848 -0.0608494 -0.0022217177
000210 ae d7 17 be 82 55 39 3c 01 0f 9a be 03 2e b8 bc
       -0.14828369 0.011311891 -0.30089572 -0.022482878
000220 e6 61 82 3b 9f e4 f3 3c d9 2d 27 be 42 75 c1 3d
       0.0039789556 0.029772101 -0.16326083 0.09446193
000230 27 80 4c 3c 6d cd 7e bc f4 78 6b 3c bf c1 fa bc
       0.012481726 -0.015551907 0.014372099 -0.030609963
000240 36 ce a0 3d c5 11 03 3c 5a 78 24 3d 37 bd d5 3c
       0.078518316 0.007999842 0.04015384 0.026091201
000250 d6 be 44 3d a5 0a ce 3c a9 75 00 bd f8 d0 61 be
       0.048033558 0.02515156 -0.03136221 -0.22052372
000260 d1 55 00 3d 21 ff bf 3c b6 4c ce 3d bb 96 bd 3d
       0.03133184 0.023437085 0.10073225 0.09257265
000270 24 d8 46 3d 68 0f 2f be eb 19 71 be bd 65 51 bc
       0.04854597 -0.17095721 -0.23545043 -0.012780604
000280 44 76 52 3d 5b d8 1d bd 71 52 81 bc 13 80 9a bd
       0.05138232 -0.03853641 -0.015786381 -0.075439595
000290 de 7a 87 bd 1c 40 38 be 61 8a 76 bd 66 1a 35 bd
       -0.06615232 -0.17993206 -0.060190562 -0.04421463
0002a0 98 e5 ac bc e6 e8 da 3a 9a 84 7a 3c 5f 79 53 be
       -0.021105573 0.0016701489 0.015290404 -0.20651768
0002b0 16 fa 39 3d bd a6 83 3d b7 83 62 3d 51 f9 07 bd
       0.045404516 0.06428287 0.055301394 -0.03319675
0002c0 0c 72 f4 3c c4 cd 11 3d c5 b2 a1 bc 97 53 b4 3d
       0.029839538 0.035596624 -0.019738564 0.08805006
0002d0 af 53 00 3e 13 60 85 3c 81 b3 c4 be 16 be 2c 3c
       0.12531923 0.016281163 -0.384182 0.010543367
0002e0 59 b7 05 3d 03 ec 7a 3d 45 da cb be 3f 4b 63 bc
       0.032645557 0.061260235 -0.39814964 -0.013872921
0002f0 ed 8a da bc c1 f4 a3 bd 5d c5 1f 3d f9 84 ca 3c
       -0.026677573 -0.080056675 0.03900658 0.02472161
000300 79 93 2b 3d 11 1a 76 3c f0 d0 34 bd 20 94 83 be
       0.041888688 0.015020863 -0.04414457 -0.25698948
000310 94 55 11 3d 34 01 98 bd 69 72 79 3d 43 72 7d 3d
       0.035482004 -0.074221045 0.060900126 0.061876547
000320 c5 cd aa 3d 72 df 59 3d 4f ee 89 be 84 46 1c 3d
       0.08340029 0.05319161 -0.26939628 0.038153186
000330 61 67 8d 3b 6e 51 cb 3c 02 03 24 3d 7b 8f f0 bd
       0.0043153022 0.024819102 0.04004193 -0.11746117
000340 46 1d d6 3d bd d2 80 3d f3 46 ed 3d 81 96 ab 3c
       0.10454802 0.06290195 0.11585798 0.02094579
000350 f7 b1 8b bd 10 05 b2 3c 9f 8b 60 be b9 bc eb 3b
       -0.068210535 0.02173093 -0.21928261 0.0071941284
000360 af 37 64 be bb 0b 20 3d 37 61 a7 bd 20 8b 2e bc
       -0.22286867 0.039073687 -0.08172839 -0.010653287
000370 8c 81 06 3d 7b 71 35 be 3a 03 16 bd f5 d2 02 bd
       0.03283839 -0.1771907 -0.03662417 -0.031939466
000380 83 15 96 3d 57 0a 3b 3d 6d c4 2d 3d 85 61 cc 3d
       0.07328322 0.045664158 0.042423654 0.09979538
000390 0e 4f 2f bc a7 d7 c4 bc c9 2d aa be 72 2d 40 3d
       -0.0107 -0.024028612 -0.33238056 0.04691834
0003a0 65 b3 86 bd 9d 50 fd 3d 23 ad 1d bd 76 dc 8e 3d
       -0.065771855 0.123688914 -0.038495194 0.06975643
0003b0 be 19 1b 3d b6 8f b7 3d 9b e3 a8 3c 31 4c 00 3d
       0.037866347 0.089629576 0.020616343 0.03132266
0003c0 2d 62 87 3d f9 7a e4 3d b6 45 c2 bd 28 36 0f bd
       0.066105224 0.11156268 -0.094859526 -0.034963757
0003d0 bb 7f b2 bd 3d 1a 0f 3d fd 7d 10 bd 45 17 c5 bb
       -0.08715769 0.034937132 -0.0352764 -0.006014737
0003e0 72 92 9a 3c ab 75 8f 3d 5a 2d 6a 3d 91 4e a6 3d
       0.018868659 0.07004865 0.057172157 0.08120454
0003f0 6e 9b 8c 3c ad 8d bb 3c a6 3e 82 3d 94 eb e6 3c
       0.017163958 0.022894705 0.063596055 0.028188504

graph_matcher.mlp.0.bias f4 [128]
000000 ab 08 21 3d 86 d7 02 bd 4a 52 0c be dd c7 03 be
       0.039314907 -0.03194382 -0.13703266 -0.1286921
000010 0a 40 48 bd 70 45 48 3d 30 5c 99 3d 3b 0a d3 bd
       -0.048889197 0.048894346 0.074882865 -0.10304686
000020 7e cd 91 3d 59 3c 19 be ea 8e 3f bc 79 a9 fa 3c
       0.07119273 -0.14964427 -0.011691788 0.030598389
000030 6e fc de bd 07 a1 4d bc b6 56 47 3d f2 39 d2 bd
       -0.10887991 -0.012550599 0.04866668 -0.102649584
000040 40 1b e7 bd d3 85 72 3d e7 cb cf bd f4 62 eb bd
       -0.112844944 0.059209656 -0.10146313 -0.11493483
000050 49 55 01 3c cb 55 a1 3c 0d 7b 06 bd 47 a3 f7 3c
       0.007893869 0.01969423 -0.032832194 0.030229224
000060 87 40 00 3d 8a e3 3f bd f9 53 4c bd 5e 51 d6 bc
       0.031311538 -0.046847858 -0.04988477 -0.026161846
000070 e0 6f 09 bb a2 87 52 bd ce f7 3c 3d cb 61 96 bd
       -0.0020971224 -0.05139888 0.046134762 -0.07342871
000080 74 57 f3 bc de 2e db 3c 23 ca 07 be e0 8f cf 3c
       -0.029704787 0.026755746 -0.13260703 0.02533716
000090 97 21 84 bd 1c 06 e8 bd 5f a4 dc bd 26 a4 06 3c
       -0.06451719 -0.1132929 -0.10773539 0.008217847
0000a0 8f 85 0d be 1d 71 bc bd e3 06 bc bd c6 95 4a bd
       -0.1382048 -0.09201262 -0.09181001 -0.04945924
0000b0 7f 57 a3 3d f4 d6 0e 3a 19 d2 b9 bd 4d b2 a1 bd
       0.07975673 0.00054489006 -0.09073276 -0.07895336
0000c0 75 e8 a9 bc 72 83 a4 bd c8 33 55 3d 56 3d dc bd
       -0.020740727 -0.08032884 0.052051336 -0.107538864
0000d0 66 9e ab bd 90 46 3c 3d e4 69 72 bd 19 09 6a bd
       -0.083798215 0.04596573 -0.059183016 -0.057137582
0000e0 6c 88 d2 bd e7 58 27 3c a7 25 21 bd f8 21 b6 bd
       -0.10279927 0.010214067 -0.03934255 -0.08893198
0000f0 c4 0b 2c 3d 7d d4 bd 3c 61 05 1b 3d f3 6a e7 bd
       0.042003408 0.023172611 0.037846927 -0.11299696
000100 db 14 59 3c a8 25 8b 3d 96 89 26 bd a7 83 91 3c
       0.013249601 0.06794292 -0.040658556 0.017762972
000110 8a c2 54 3d 61 dd d5 bc 2e 54 86 bd 87 f2 06 be
       0.05194334 -0.026106538 -0.06559025 -0.13178454
000120 ec a0 8c bd 94 72 34 3d b8 cd 81 bd d0 e5 2a bd
       -0.06866631 0.044054583 -0.06338066 -0.041723073
000130 a8 08 95 3d 16 87 45 bd ee e2 04 bd 01 39 7e bd
       0.07277042 -0.04822453 -0.03244298 -0.062066082
000140 bf 81 56 3d f8 c7 ab bd 06 4c 7f bd 1c ed a1 bb
       0.05236983 -0.083877504 -0.06232836 -0.0049415957
000150 2a 96 5f bc 5a 42 2b 3d 1a 93 c2 3b 44 9d 6e 3d
       -0.013646642 0.041811325 0.005937946 0.05825545
000160 57 a5 81 bc 3e 9a 56 bd 11 7d a8 bc ed de 84 3d
       -0.01582591 -0.05239319 -0.020567449 0.06487832
000170 71 5c 2c 3d f4 cc f8 bd ad f4 e7 bd 10 d9 80 3d
       0.042080346 -0.12148467 -0.11325965 0.062914014
000180 79 4e 83 bc 19 ca d4 3c 34 da a0 3d 22 5d eb bd
       -0.01602863 0.025975274 0.07854119 -0.11492373
000190 3a d6 96 bd 65 d3 12 bd fa 0d fe bc f8 d5 8f 3c
       -0.07365079 -0.035846133 -0.031012524 0.017558083
0001a0 ff 40 b0 bd 5f 03 b1 bd b7 b2 f8 bd 90 9e 61 bd
       -0.08606147 -0.08643221 -0.12143462 -0.055082858
0001b0 3c 48 72 bd 59 ff 52 3d c0 69 3d 3b 17 ca 2c 3d
       -0.05915092 0.05151305 0.0028902143 0.042184915
0001c0 d8 50 bd 3d 25 92 6d bd 7f 81 c7 bd c8 f3 84 bc
       0.09243935 -0.058000702 -0.09741496 -0.016229525
0001d0 e5 36 1a bd 7f ba 2d bb e1 b4 54 3d 4f c0 84 3d
       -0.037650008 -0.0026508865 0.051930312 0.064819925
0001e0 36 50 dc bd 48 c9 26 bc 7a 99 5a bd eb 9f d5 bd
       -0.107574865 -0.010179825 -0.053369023 -0.104308926
0001f0 d0 50 21 3c 61 6a 56 bc 87 54 eb 3c 7b eb 57 3d
       0.009845927 -0.013086886 0.02872683 0.052714806

graph_matcher.mlp.2.weight f4 [128, 128]
000000 c4 85 1e bd ec 34 75 bc 74 ec ba bc 80 4b 3c ba
       -0.038701788 -0.014966231 -0.022817828 -0.0007182881
000010 23 d7 99 3d bb 23 82 3c c1 45 eb bc 2e cf 60 3d
       0.07511737 0.015886178 -0.028719785 0.054885082
000020 48 05 63 bd d9 d9 ad bd b2 96 09 be fd dc c8 3d
       -0.05542496 -0.08488817 -0.13436392 0.09807775
000030 9b 83 f3 bd 36 1c bd bd 91 ca de 3a 00 8b 9a bb
       -0.11890336 -0.092338964 0.0016997625 -0.004716277
000040 72 42 76 3d 33 48 ed bb 60 d1 3e 3c 06 5f 6f 3d
       0.06012196 -0.007241273 0.011646599 0.05844023
000050 7f c4 11 be 80 7f 89 bd c9 84 95 bd e6 1e 9b bd
       -0.14235114 -0.06713772 -0.073007174 -0.07574253
000060 b2 95 4a bc d8 a6 59 bd 76 41 17 3e 7a 7a b9 3d
       -0.012364792 -0.05313763 0.14771065 0.09056564
000070 2c 8d e9 3c 00 d9 ac 3c 08 33 e3 bd 33 a7 0d be
       0.028509699 0.021099567 -0.11093718 -0.13833313
000080 48 37 47 bc 34 53 54 bd e6 85 75 3d 03 4d b1 bd
       -0.012159176 -0.05183716 0.05994215 -0.08657267
000090 9d 94 b2 bd 90 0e 90 bd 2d d3 14 be 14 96 ef bd
       -0.08719752 -0.070340276 -0.14533682 -0.11698547
0000a0 d2 08 21 3d d5 b8 06 bc 77 3c 51 bd d0 bb 80 3c
       0.039315052 -0.008222778 -0.051083054 0.015714556
0000b0 64 1b fb bb 5f df d0 bd 38 01 96 bd e6 a5 7a 3b
       -0.0076631773 -0.10198855 -0.07324451 0.0038245856
0000c0 2a 3c 8f 3c 32 ae 7d 3d 25 8b 7f bd 27 33 af bd
       0.017484743 0.061933704 -0.062388558 -0.085546784
0000d0 e1 6f cc bd ca 59 12 3c 71 6a 2a bd b9 e0 cb bd
       -0.09982277 0.00893254 -0.041605417 -0.09954972
0000e0 4c 7b 95 ba 23 bb 07 be 54 2b 87 3c 80 16 90 3a
       -0.0011404543 -0.1325498 0.016500153 0.0010993034
0000f0 7b 73 ea bd 87 ca a1 bd 0b f9 d2 3c 88 2c 7f bd
       -0.114478074 -0.07899957 0.025753519 -0.062298328
000100 0f 6b 44 bd f9 ec f7 bd 39 4d 81 bd b2 cb d2 bd
       -0.04795366 -0.12105746 -0.06313557 -0.10292758
000110 7b 80 b5 3d a0 02 02 be 86 97 63 3d 47 76 0f 3e
       0.08862396 -0.12696314 0.055564426 0.14009963
000120 c0 ca 81 bc e3 c5 f9 bd a0 84 6c 3b f7 21 9e 3d
       -0.015843749 -0.12195947 0.0036089793 0.07721322
000130 67 e4 c4 bd 66 6c f8 3b ad bb f6 bd 08 47 6d 3c
       -0.09613877 0.0075812815 -0.12047515 0.014482267
000140 35 7f 9f bd d2 69 d7 bd b8 de f8 bc ec 07 78 bd
       -0.07787935 -0.105182305 -0.030379638 -0.06055443
000150 98 93 15 be 9d 6c bb bd 14 1a 9c bd b2 77 7b 3c
       -0.14607084 -0.09151576 -0.076221615 0.015348362
000160 25 b4 f6 bc 60 02 a2 3b 06 db 88 3d 8d 25 1e bd
       -0.030115196 0.004944131 0.066824004 -0.03861003
000170 58 ef 0a be f8 38 2d 3c 86 41 72 3d 76 50 9d 3c
       -0.13567865 0.010572664 0.05914452 0.019203406
000180 ed bc 94 bc c8 90 1d bc 13 5b 14 be 91 70 b2 3d
       -0.018156493 -0.009617038 -0.14487867 0.087128766
000190 3b d9 d6 bd 60 44 05 3e c1 5c 40 bd 2f bd f2 bd
       -0.10490652 0.13014364 -0.046963457 -0.1185249
0001a0 00 0c e2 3b 17 bc 57 bd ea 4a b5 3d be 77 43 3d
       0.006898403 -0.05266961 0.08852179 0.047721617
0001b0 48 5d 79 bd 3b 30 a6 3a 66 a8 4e 3d d9 2d 04 bc
       -0.060879976 0.0012679169 0.050453566 -0.008067572
0001c0 c1 8e 23 bd 1a d6 7d 3c 90 18 d3 3b c1 46 98 3d
       -0.039931063 0.01549294 0.006442137 0.0743537
0001d0 66 f1 56 be 0d 65 87 bd fe 03 8d 3a b1 69 f3 bd
       -0.20990524 -0.06611071 0.0010758636 -0.118853934
0001e0 1c 9a 9f 3c 66 07 e3 bd 80 d3 ae ba d7 d9 84 3d
       0.019482665 -0.110853955 -0.0013338178 0.06486862
0001f0 40 3c a7 bd f1 42 79 bd 2c 68 23 3d cc 7c f2 bd
       -0.08165789 -0.060854856 0.039894268 -0.11840209
000200 ca 79 a2 bd e5 e6 96 bd 7e 54 5f 3d 89 c4 6f bd
       -0.07933386 -0.073682584 0.054523937 -0.05853704
000210 c0 0c f7 bb e4 09 b3 bc 72 81 22 be da 3a 12 bc
       -0.0075393617 -0.021855302 -0.15869692 -0.008925164
000220 a1 69 92 3d ac e7 c5 3c f0 a9 8d 3b 0c 2e e8 3c
       0.07149053 0.024158321 0.0043232366 0.02834227
000230 ec a4 c3 bc e2 35 3e 3d 28 e3 d4 3c c4 7a fa bc
       -0.023882352 0.046438105 0.025987223 -0.030576117
000240 06 a7 5d 3d a8 fc 8e bd a2 55 2e 3d c3 d3 8a bd
       0.054114364 -0.06981784 0.042562135 -0.067786716
000250 6a b9 34 3c 66 9c 4c 3d c0 c2 11 3b ae d8 29 bd
       0.011030534 0.04995384 0.0022241324 -0.041466407
000260 f5 66 64 bd 3a e8 28 3d 91 0a 41 bd b0 24 71 bd
       -0.05576225 0.041237094 -0.047129218 -0.05887288
000270 b4 d4 df bc 70 0e 47 bc f6 ff 45 3d ba ed 22 3d
       -0.027323104 -0.012149438 0.048339806 0.039777495
000280 e3 7d c5 3d 14 84 3e be 53 f5 6b bd 4f 80 a5 3d
       0.096431516 -0.18605071 -0.057607006 0.080811135
000290 b4 be 5e bd 2c ba 90 bd 50 63 cc 3c 70 ca c1 bc
       -0.054381087 -0.070667595 0.0249497 -0.0236561
0002a0 a3 9c 8d 3d 0a b8 18 be b1 02 b5 bd c7 6f a5 3d
       0.06914642 -0.14913955 -0.08838404 0.080779605
0002b0 ce 86 39 3d 15 11 8a 3d e0 38 b1 3c 77 fa 9c bd
       0.045294575 0.067415394 0.021633565 -0.0766496
0002c0 3d 64 94 3d 46 49 00 3d 88 e2 26 be c0 3f 04 3d
       0.072456814 0.03131988 -0.16297352 0.03228736
0002d0 89 62 60 bd 72 7b d8 bd a1 33 92 3d d0 78 a6 bc
       -0.05478147 -0.1057042 0.07138754 -0.02032128
0002e0 9c a2 98 bd 00 6f 06 3d 94 05 fe 3c 36 8c b5 bd
       -0.0745289 0.0328207 0.03100852 -0.08864634
0002f0 4a 58 5f bd 7f ed 68 bd b8 a9 f1 3c 69 b3 99 3d
       -0.05452756 -0.05686712 0.029499874 0.07504923
000300 81 1a 22 bd d0 af e3 3c 69 ca a7 3d 4e d6 9c bd
       -0.039576057 0.027793795 0.081929035 -0.07658063
000310 31 b5 af 3d e4 15 43 bd 54 6d 43 bd a6 b9 3d 3d
       0.085794814 -0.0476283 -0.047711685 0.046319626
000320 a0 40 84 bd d0 30 4c bd bf 52 02 bd ab ae 50 bd
       -0.06457639 -0.04985124 -0.031817194 -0.050947826
000330 1e 6c 84 bd 52 5a 92 3d e6 2a 23 3d fe 5b 79 3d
       -0.06465934 0.071461335 0.039835833 0.060878746
000340 50 42 d4 3b 55 58 a8 3d 40 16 bf 3a 2b 9a b1 bd
       0.0064776316 0.08219973 0.0014578775 -0.08671983
000350 f6 5c 3c 3d b6 ad ac bd ae 04 16 3d 3e 29 52 3d
       0.045987092 -0.0843157 0.036625557 0.051308863
000360 f1 86 5a bd 0b c7 b4 3d 63 8e 84 3d b4 be 92 bd
       -0.053351346 0.08827027 0.064724706 -0.0716528
000370 c6 0d ab bd be 1b 9e bd 78 be 45 bd da 63 b1 bd
       -0.083522364 -0.07720135 -0.04827735 -0.08661623
000380 f8 96 15 3d af cf 91 3d 2f f4 c0 bd 00 4d 6c bb
       0.03652093 0.071196906 -0.09421574 -0.0036056638
000390 c6 e8 a7 bd f3 53 29 be c3 d9 8f be 07 02 04 be
       -0.08198695 -0.1653593 -0.28095827 -0.12891398
0003a0 54 b5 85 bd ea 14 22 3d 8a 2f 18 bd 54 87 66 bd
       -0.06528726 0.039570726 -0.03715471 -0.056281403
0003b0 52 c5 26 3d 18 58 a2 3c 70 42 46 3c ff 2d a9 3d
       0.040715523 0.019817397 0.012100801 0.08260726
0003c0 5c 73 0d be 3b 76 a5 bd f4 fa a9 3d e6 10 71 3d
       -0.13813537 -0.08079191 0.08299819 0.058854006
0003d0 28 3a e7 bd 32 a6 9f bd 28 a0 18 bd e4 fd 0f be
       -0.11290389 -0.07795371 -0.037262112 -0.14061695
0003e0 ae e8 4d 3d 53 32 5b bd 9c 03 c0 3c 66 d9 90 bd
       0.05027073 -0.05351479 0.023439221 -0.070727155
0003f0 82 4c 3e bd e2 1c 25 3d ce bb 1d 3d 00 cb 66 3c
       -0.046459682 0.040310748 0.038509183 0.014086485

graph_matcher.mlp.2.bias f4 [128]
000000 20 03 16 be 15 ab e4 bd ae f0 8b bd fd 8e 60 bd
       -0.1464963 -0.11165444 -0.068330154 -0.054823864
000010 ab 47 a1 bd a6 9c 1c be 78 df 8e ba 46 d0 15 bd
       -0.07874998 -0.15294132 -0.0010900339 -0.03657558
000020 24 b7 f6 3d 07 5e af bd 55 c7 24 be 97 bb 9c bb
       0.1204665 -0.08562856 -0.16091664 -0.0047831046
000030 91 26 8c 3d 2f 24 c7 bd c8 8e 9c bd 8d 20 e2 bd
       0.068432935 -0.09723698 -0.07644421 -0.11041365
000040 73 30 71 3c 58 41 0d be 2d 89 04 bd de 5b 58 3d
       0.014721024 -0.13794458 -0.032357384 0.052821986
000050 59 1f fd bd 90 c7 5a 3d 4c de b6 bc f2 b1 84 bd
       -0.12359495 0.053412974 -0.022322796 -0.06479253
000060 c9 8b f2 bd 12 13 52 be 90 40 04 3e 96 ad 9f bd
       -0.11843068 -0.20515087 0.12915254 -0.07796781
000070 aa ce 72 3d 82 5a c7 3c f5 b0 5f bd ba 44 ae 3d
       0.05927912 0.02433515 -0.05461212 0.08509202
000080 4d 54 ab bc 76 88 d4 bd cb 44 b3 bd 16 d2 8d bd
       -0.020914221 -0.1037759 -0.087533556 -0.06924836
000090 91 23 89 bd e3 05 38 be d0 89 7c ba fc 15 14 be
       -0.06696237 -0.17970996 -0.0009633573 -0.14461511
0000a0 d5 8b da bd 4d cd 21 be fe a8 88 bc 41 ad 9c bd
       -0.10671202 -0.15800972 -0.016682144 -0.07650233
0000b0 a7 d7 ab bd b4 97 0a 3d 74 e3 5b 3d 47 6c 0b 3e
       -0.08390742 0.03383608 0.053683713 0.13615523
0000c0 f2 e5 cb 3c 5a 55 e4 3d 28 9b f7 b9 2f 82 10 be
       0.02488992 0.11149092 -0.00047227112 -0.14112161
0000d0 55 83 a1 bd 7f e3 06 be b2 69 e8 3d 24 c5 74 bc
       -0.07886378 -0.1317272 0.11348285 -0.01493958
0000e0 bb b7 8a bc d0 21 08 3c 3b ab 3a be 31 c2 a7 bd
       -0.016933313 0.008308843 -0.18229382 -0.08191336
0000f0 26 b4 57 3d 25 0d 25 3c 70 6a a2 bc 3e 86 7b bd
       0.052662037 0.010073935 -0.019826144 -0.06140732
000100 40 86 88 bd 90 da a4 bd fc 3b a1 bd 69 7e 29 bc
       -0.06666231 -0.080495 -0.07872769 -0.01034508
000110 f7 a9 10 3d 07 fd dd bd ce dd 83 bd 61 a1 86 bd
       0.03531834 -0.10839277 -0.0643879 -0.06573749
000120 02 76 bf 3d d6 d9 d6 3d b4 36 a2 3d b3 cb 19 3d
       0.0934868 0.10490768 0.0792059 0.03754778
000130 d5 8a 06 3e 18 fc aa 3d 5c 57 8b bb 03 db 10 be
       0.13138898 0.08348864 -0.0042523574 -0.14146046
000140 fd 3c cf bd 89 dc 9e bd e6 04 b0 bd 31 9b ed bc
       -0.101190545 -0.077569075 -0.08594684 -0.029004665
000150 47 3a 21 be 92 f0 1c bc af 6d 00 be ad 16 ff bd
       -0.15744887 -0.009578841 -0.12541841 -0.12455497
000160 13 e5 28 be 1a 1f f9 3c 22 2e 52 be 00 de e9 bd
       -0.16493635 0.030410338 -0.20525411 -0.11419296
000170 91 39 24 3d 2d a8 0d 3a 7f c2 bf bc 6e af 93 3d
       0.040093962 0.0005403783 -0.023408173 0.07211195
000180 10 7a 1a bc f3 51 ef 3d ce f8 06 be 86 08 0e 3e
       -0.009428516 0.116855524 -0.13180849 0.13870439
000190 c2 49 b6 bd aa fb 32 be 43 13 47 bd 3d 87 d0 bd
       -0.08900787 -0.17478815 -0.048602354 -0.10182045
0001a0 10 8e d7 bd fd d7 64 3d 98 e7 8f ba 5c 44 06 be
       -0.10525143 0.055870045 -0.0010979054 -0.13112015
0001b0 0e c1 b6 3c b2 33 80 3d 37 7b 9a bd 22 83 0f 3a
       0.022308853 0.0625986 -0.075430326 0.00054745574
0001c0 36 a8 6a bd c8 a8 d0 3c bb 1a a4 bd ca 73 13 bd
       -0.057289325 0.025471106 -0.08012911 -0.035999097
0001d0 f4 25 a9 bc e5 bb 48 bd 12 37 d8 3c 1f 5b 20 be
       -0.02064798 -0.049007315 0.026393447 -0.1565976
0001e0 61 21 42 be bd 2e c1 3d 94 46 c6 bd d5 ac c8 3d
       -0.18958046 0.09432743 -0.096814305 0.0979859
0001f0 6d ee 99 bd b1 62 90 bd 42 20 8d 3d 95 9b 9f bd
       -0.07516179 -0.07050074 0.06890918 -0.07793347

graph_matcher.mlp.4.weight f4 [64, 128]
000000 a4 4e a4 3d d5 82 af bc 47 54 cb 3c a1 9d cf 3d
       0.08022812 -0.02142469 0.02482046 0.10137487
000010 49 a8 a1 3b 2b 32 51 bb 46 60 14 3e de 56 54 bd
       0.004933391 -0.0031920772 0.1448985 -0.051840656
000020 0d 94 18 3e ce c3 21 3d 3b 39 be 3d 98 84 95 bd
       0.14900227 0.039493375 0.092882596 -0.07300681
000030 45 eb e8 bb bd 43 2a bc 2a b9 94 3d c1 70 1c bd
       -0.0071081244 -0.010392127 0.0726188 -0.038193468
000040 f6 0b df 3b 1a 5e 2d be d4 ed 3a bc 25 4d b3 3d
       0.006806846 -0.16930428 -0.011409242 0.087549485
000050 bc c6 a4 3d 64 71 89 3d 46 89 70 3c 5e 68 10 3d
       0.08045718 0.06711081 0.014681166 0.035255782
000060 82 ba 3b 3d b4 6f 1e bd a3 e8 09 be af 0b 1f bb
       0.045832165 -0.038680747 -0.1346765 -0.0024268439
000070 25 f5 46 bd f8 30 c3 3d e8 1c 66 3d 81 58 d2 3d
       -0.04857363 0.095308244 0.05617991 0.10270787
000080 2a 36 56 3c b8 b0 a5 bd 4f 3e 01 be cc 9e 92 bd
       0.013074437 -0.08090347 -0.12621425 -0.07159194
000090 d3 59 a8 bc a9 a3 d0 bb 90 3d e0 bd 3a 55 5c bc
       -0.020550644 -0.006367166 -0.10949242 -0.013448054
0000a0 12 72 03 be 23 6d cc bb af 4e c0 3d d2 27 cc bd
       -0.12836483 -0.006238596 0.09390008 -0.099685326
0000b0 6c 9e a4 bd d7 c9 49 bd 91 c5 1a bd 3f 74 5f bd
       -0.08038029 -0.049264755 -0.03778607 -0.05455422
0000c0 26 1a 27 bd e6 f3 3a 3d 29 16 3e bc 4b 25 c0 bd
       -0.04079642 0.045642756 -0.011601963 -0.09382113
0000d0 e8 2d 16 be 24 7a 2e bd ac ef 10 3e 48 04 1f bd
       -0.1466595 -0.04259695 0.14153928 -0.038822442
0000e0 a7 d9 02 3e 6a 24 a9 bc fc 19 a0 bd 86 25 08 3e
       0.1277834 -0.020647246 -0.07817456 0.13295564
0000f0 49 91 99 ba bc 56 61 3d 51 f2 eb bd 6f 03 96 3d
       -0.0011716272 0.055014357 -0.115208276 0.07324874
000100 79 db 05 3e 45 7f 81 bd a1 35 69 bd 0d dd c3 bd
       0.13072003 -0.06323103 -0.05693591 -0.095636465
000110 18 ad 34 bd 38 83 37 bd d0 eb 28 bd cd a7 0d be
       -0.044110388 -0.044802874 -0.041240513 -0.13833542
000120 09 15 30 3d bf 11 e5 3d 71 da 6b be 64 b5 86 3d
       0.04298881 0.111850254 -0.23032548 0.06577566
000130 2d 69 7d be 8a 53 08 3e 40 db 1d 3d 66 e8 ac 3d
       -0.24747153 0.13313118 0.03853917 0.08442764
000140 cf 9a 62 3d 7c a4 2c be 96 44 fc bb 5a 5b 9e 3d
       0.05532342 -0.16859621 -0.007698606 0.07732268
000150 f1 1b 8d 3d 1e 04 87 bc 91 92 d7 3d d2 b0 c3 bc
       0.06890095 -0.016481455 0.10526002 -0.023888025
000160 97 29 58 3d b4 53 eb bd 2b 42 d1 bb 7a 6b 98 bb
       0.05277404 -0.114905745 -0.0063860617 -0.004651484
000170 c0 e6 c7 3d 5e 64 df bd 74 f2 9a 39 6a 51 e6 3c
       0.09760809 -0.109078154 0.0002955381 0.028114993
000180 cc 4e 02 3d 01 e7 3f bc de a6 bb bd 27 3b 03 be
       0.031813428 -0.0117127905 -0.09162687 -0.12815534
000190 57 78 37 3d 5b 58 5c 3d c1 ae 91 3c ab 93 ee 3c
       0.0447925 0.0537952 0.017783524 0.029123148
0001a0 7a 53 7b 3d 9c 35 c4 bd 19 68 2d be 13 46 c2 bc
       0.061358906 -0.09580538 -0.16934241 -0.023715055
0001b0 c8 a6 18 bd 3e dd 85 3d 47 a0 b9 3b 35 78 98 3c
       -0.03726843 0.06536339 0.0056648585 0.018612007
0001c0 5f a5 bc bb 92 2a 19 be 62 ac 11 3c b7 df 00 be
       -0.0057570185 -0.14957646 0.008891197 -0.1258534
0001d0 5e 60 3f 3d b6 13 c3 bd d9 c6 03 3d 2f 23 11 be
       0.046722762 -0.09525244 0.032172058 -0.14173578
0001e0 b6 76 62 3d 13 9e d2 3d ab ea ab bb 9a a3 d9 3d
       0.055288993 0.102840565 -0.0052464805 0.10626908
0001f0 0f 69 3a be bb af 43 bd 09 20 b2 3d f5 09 29 bd
       -0.18204139 -0.04777501 0.086975165 -0.04126926
000200 ce c7 27 be 70 51 d6 bb 12 f6 23 3d 08 dd ec bd
       -0.16384813 -0.00654047 0.040029593 -0.11565596
000210 66 48 c4 bd 2c 97 d1 3d 2d 31 aa bd eb 2a fc bc
       -0.095841214 0.10233912 -0.08310161 -0.030782184
000220 e3 25 ff bd 74 31 94 bc 89 96 dc bd 25 99 00 3e
       -0.12458398 -0.018089987 -0.107709 0.1255842
000230 6b 15 0e be a7 2d c2 bd 40 66 41 bd e9 39 f6 bd
       -0.13875358 -0.09481364 -0.047216654 -0.12022764
000240 bd 6f f6 bc f6 a8 1d 3d 75 b6 08 bc 8f 21 18 be
       -0.030082578 0.03849121 -0.008344282 -0.14856552
000250 4a 0e 81 3d 83 84 f9 bc 19 63 44 be a6 c1 a0 bd
       0.063015535 -0.030458694 -0.19178428 -0.078494355
000260 ad 27 86 bd f3 e7 27 3b f5 91 75 3e 58 63 88 bc
       -0.06550536 0.002562043 0.2398146 -0.016648933
000270 d5 3b 95 3d 8b b9 e0 bc 10 ff 68 bd 90 10 dc bd
       0.07286803 -0.027432224 -0.05688387 -0.107453465
000280 8f e7 38 3d db e2 3f 3d 75 b9 17 3e 89 49 8f 3d
       0.045142706 0.046847206 0.1481684 0.069964476
000290 27 14 09 3c 30 10 09 be b5 e9 cb 3c 5d 7a 97 bd
       0.008366621 -0.13385081 0.024891714 -0.07396386
0002a0 ce 8a 54 3d 58 b0 5c bc 1d 5a 0e bd fe 41 5a bb
       0.051890187 -0.013469778 -0.034753907 -0.0033303495
0002b0 9c e4 a1 bc 2a 87 41 3b 11 46 95 bd 75 8d 3d 3d
       -0.01976233 0.0029530027 -0.07288755 0.046277482
0002c0 d2 cc 14 3e b9 f3 cb bd a1 4f 1e be 17 7c 05 be
       0.14531258 -0.09958596 -0.15460064 -0.13035618
0002d0 36 00 bf 3d 71 94 5a 3d bf 75 af bd 50 72 1b bc
       0.09326212 0.05336422 -0.0856738 -0.009487703
0002e0 6f 46 32 be 8c 2a 09 be 2a 8f 4c 3d 6a 93 68 3c
       -0.17409681 -0.13395137 0.04994122 0.0141953025
0002f0 eb 15 1a be 90 c3 ee bb 12 99 17 be 8b f6 d3 3b
       -0.15047424 -0.0072864965 -0.14804485 0.006468599
000300 93 67 e3 3c 78 8f b7 bc 78 da ce bd 00 14 82 bd
       0.027759349 -0.022407278 -0.10100263 -0.06351471
000310 64 e8 a4 bd 83 ec 17 3d a9 d7 2e 3d 7a 5c 99 3e
       -0.080521375 0.03709079 0.04268614 0.29953367
000320 06 b0 a1 bd 6a b2 3a be 1f d7 3e 3e 6b 40 69 3d
       -0.07894902 -0.18232122 0.1863675 0.0569462
000330 9d ea b3 3e c7 67 6e bd d6 5d 15 be c0 ae fd bd
       0.35139933 -0.05820444 -0.14586577 -0.123868465
000340 9f c7 27 be fb e4 0d be 2b 47 05 bc be e6 b3 bd
       -0.16384743 -0.1385688 -0.008134644 -0.08784245
000350 fd 53 67 bd de bf 27 be 0d 0c 84 bd 6f f1 89 bc
       -0.05647658 -0.16381785 -0.06447611 -0.016838757
000360 b6 b1 2b bd 44 43 0d be e2 91 05 be c8 4b 44 bd
       -0.041917525 -0.13795191 -0.13043931 -0.047923833
000370 33 d2 5a bd c7 bc c0 3c ef 42 63 bd 8f 06 ac bd
       -0.053423118 0.023527516 -0.055483755 -0.083996885
000380 20 89 9e 3b 47 57 28 be ad 9f 75 3d 30 93 ed 3d
       0.004838124 -0.16439544 0.05996673 0.116003394
000390 fb 2b b0 bd 2e a5 72 be ba 00 a3 3c e9 cd f9 bd
       -0.086021386 -0.23695824 0.019897807 -0.12197477
0003a0 de b9 22 ba 1b 6a 85 bd 54 4a a0 bd 4f 49 22 bc
       -0.0006207506 -0.06514379 -0.07826677 -0.009905173
0003b0 bb 7e a5 3d cd 38 db bc 9e 3b 2a be 15 48 66 bd
       0.080808125 -0.026760483 -0.16624305 -0.056221087
0003c0 e5 4e b5 3d ff 4d 7d 3d 0c f9 32 3d dd 19 db 3d
       0.088529386 0.06184196 0.04369454 0.106982924
0003d0 3b 52 21 be b0 5e be 3d 75 21 83 bd c3 3c 59 bd
       -0.15754025 0.09295404 -0.06402866 -0.053036463
0003e0 80 15 b0 bd ef 27 1f be 89 18 8d 3d 9d b0 e4 3d
       -0.08597851 -0.15542577 0.06889445 0.11166499
0003f0 d2 4d 21 3e f4 36 98 bc 20 fa d8 bd 27 0b 3c 3e
       0.15752342 -0.018580891 -0.105945826 0.1836363

graph_matcher.mlp.4.bias f4 [64]
000000 ba 5a c0 3c a4 d1 8b bd 0d 3a a5 bd 70 89 db bd
       0.023480762 -0.06827095 -0.08067713 -0.107195735
000010 d2 71 03 3e a1 62 b0 3d e8 e1 dd 3c 09 a4 df bd
       0.12836388 0.08612562 0.02708526 -0.10919959
000020 a6 c1 50 be d8 f4 29 bd 42 93 bc bd 9a 72 ba bd
       -0.20386371 -0.041493267 -0.09207775 -0.0910389
000030 07 d5 24 3d 0e 67 89 bd b6 7d 11 be df 97 26 be
       0.04024222 -0.06709109 -0.14208111 -0.16268872
000040 51 51 69 be 59 df 13 bd 4e ab 0c 3e d0 a1 f8 bd
       -0.22784926 -0.036101673 0.13737223 -0.12140238
000050 f1 17 f9 3d 78 50 02 3e 85 57 fb bd 5e b7 e2 3c
       0.121627696 0.12726009 -0.122725524 0.027675327
000060 c7 69 8d 3d d0 f2 93 3d 2c 4f 65 bb d2 c8 c9 bd
       0.06904941 0.07224047 -0.0034989817 -0.098527566
000070 0a 27 27 be 1a cc 33 3e bd c1 2c 3c 90 49 10 be
       -0.16323486 0.17558327 0.010544238 -0.14090562
000080 67 e4 42 3e 2e 8b f7 3d 85 8e da bd 28 f7 0c be
       0.19032441 0.12087093 -0.10671715 -0.13766158
000090 21 1f 2f 3e f8 f4 2f be ec 11 fb bd d1 f8 24 be
       0.17101718 -0.17183292 -0.12259278 -0.16110541
0000a0 bc f4 83 3c 05 74 0f be 1d 34 03 be be 67 5b bd
       0.01610791 -0.14009102 -0.12812848 -0.053565733
0000b0 97 f5 66 bd 9d 67 e4 bd 01 c4 f2 3c 9f c6 49 be
       -0.056386556 -0.11152575 0.029634478 -0.19704674
0000c0 66 88 a8 3c a9 ec 16 3d b5 0a a2 3c 21 7f bc bd
       0.020572852 0.03684679 0.019780496 -0.092039354
0000d0 19 a5 90 be 0e 52 eb 3d 13 97 9e bd d9 ac 4f be
       -0.2825096 0.1149026 -0.07743659 -0.2028078
0000e0 3d d2 05 3e d9 cc cb 3d 7e cf 8f bc 98 cb 31 3e
       0.13068481 0.09951181 -0.017554995 0.17362821
0000f0 eb c9 ec 3d f4 8c eb bb 0b 66 c5 3d 60 bb 1a 3e
       0.1156195 -0.007188434 0.09638604 0.1511054
