Result/GCN/1000_sample/model_epoch_8_f1_0.7183.pth (torch, 841454 bytes, 42 tensors)

graph_matcher.gnn.conv1.bias f4 [64]
00000000: b1be 5fbd cfa0 66bc 3c73 383c 9cb2 b5bc
00000010: 9867 003e f11e 033d 44bc 153d c76f 4ebc
00000020: cb68 c5bc 6c72 db3b aaa1 cd3b 0d67 29bd
00000030: c72e 8abb c734 273d 180a 5bbd 32aa 2e3d
00000040: b37c 40bc 0000 0000 c176 91bc 7149 2c3c
00000050: 4927 fd3c 0000 0000 0000 0000 0000 0000
00000060: 84dd bcbd e9bf e9bc 3a68 013e c169 053e
00000070: 17df 153e 8a6e 273e e8a8 bcbc 7a88 a9bc
00000080: 3e48 73bd 32a0 493d 2588 62bc 926f 65bc
00000090: b6b4 dcbd 0559 8bbd 2e1d 52bc 4853 ee3d
000000a0: 0000 0000 5f14 1d3c 3a4d f1bb 0000 0000
000000b0: 6b87 b8bc ac96 17bc e1ed 7cbc 455b 0c3d
000000c0: 85b0 d0bc f0d2 48bd 79b2 64bc 0eb7 c2bb
000000d0: c5f0 a13c 3617 f03d 0000 0000 f36d bb3d
000000e0: 365c 683d 1652 b0bc 5e45 1dbc 9b84 523d
000000f0: 2576 80bd 0632 443c 793c ef3d 9cc7 e0bb
-0.054625217 -0.014076426 0.011257943 -0.022179894 0.12539518 0.03201193 0.036556497 -0.012599892
-0.02409782 0.0066969898 0.0062753754 -0.041358043 -0.004217002 0.040821817 -0.053476423 0.04264278
-0.011748481 0.0 -0.017756822 0.010515557 0.030902522 0.0 0.0 0.0
-0.09221938 -0.028533893 0.12637416 0.13028623 0.14635883 0.16350761 -0.02302976 -0.02069496
-0.059395067 0.04922504 -0.013826405 -0.014003651 -0.107766554 -0.068040885 -0.01282434 0.116369784
0.0 0.009587376 -0.0073639425 0.0 -0.02252551 -0.009252232 -0.015437574 0.03426673
-0.025474796 -0.04902929 -0.013958567 -0.005942232 0.019768128 0.11723177 0.0 0.091518305
0.056728564 -0.021523517 -0.009599058 0.051395994 -0.06272534 0.011974817 0.11681456 -0.006859733

graph_matcher.gnn.conv1.lin.weight f4 [64, 4]
00000000: b0ac ea3e 525a 5b3e 89cd 893d 678e bcbb
00000010: c9f9 7fbe 3495 a4bd c0a4 5ebe 60b7 4d3e
00000020: cef9 babd f086 2a3e 366f 2abd 396f 6abe
00000030: 24d6 35be e037 76be 369f 25be 4410 123e
00000040: 54c8 053f dc95 31be 2ba5 abbc 811d dabd
00000050: 0ac8 7abe 22ef 84be 5f62 7dbe 6b04 253e
00000060: 1c68 86be d060 2dbe 6fea 69be cda1 013e
00000070: 1d82 9ebe 25c7 013e dae0 6f3d 0243 533e
00000080: 05e1 03be 2391 dc3d bf64 9abe 82aa 3c3e
00000090: 10b0 58be aa48 2bbd e93d 2abe 3154 913d
000000a0: 7554 8abe 485a 8abe 4a04 77be e42e 613e
000000b0: ec27 0cbe f71b 6cbe 32ea 5fbe b7fe 493e
000000c0: 25a4 9fbd effe 93be 367e 34be 0af2 8d3d
000000d0: 5529 a33e 4c73 ef3d cfb8 7ebd cd66 6bbd
000000e0: 737a 643d 2d18 90be b422 553d 9cff 583e
000000f0: 606c cc3e 883b 683e 800c b73e 0286 db3c
00000100: cbf4 44be 288d 22be 71f3 75be f68b 1c3e
00000110: 4cad 8fbe 722d 58be c153 97be 3740 31be
00000120: 2f9d f5bd d37d 7a3d b880 4fbe 95e0 083e
00000130: c842 9bbe 7ed7 44bd 748c 9bbe e1d4 4e3e
00000140: b99b 41be 9458 6fbe 50e1 1fbe e7fa 243d
00000150: 06b1 92be 56bc 95bd 423a 84bd ac8b a2bd
00000160: e736 92be 9944 0ebe c404 dfbd d509 5fbe
00000170: fc01 99bd 8951 05be 7268 04be 59eb 59be
00000180: 041f 5fbe 95e0 cb3d cdea 813c 0b75 243e
00000190: 6e25 623e 288a 79be 32c7 73be f7a1 e2bc
000001a0: 7aa3 0dbe 0276 4a3e 2f1e a73e 899c 42be
000001b0: d1d8 103f bfdd bf3d 05e8 b03e 7088 36be
000001c0: e26c b83e 7b35 ea3d 7c38 f63e f303 5abe
000001d0: 802e 883e f076 67bd d29d 1b3f 9f92 bfbd
000001e0: f044 70be 2bd4 b73d e20d 1abe f757 32be
000001f0: a28b be3d d222 a4be a4b9 eebd 4ba9 3d3e
00000200: cd82 8cbe d65b f8bd 2cdf 75be 91bc 39bd
00000210: afc6 f53e 3f94 343d 8f5d 0b3f 8122 0cbc
00000220: 44be 5abd 30cf ebbd 81bd 11be 9442 4d3d
00000230: b425 363e 46ac b7be d5bb b3be baca c63b
00000240: 43db 57be 98a7 03be 0dc8 5a3e ccad b0be
00000250: 261e f7bd eaea 89bb 0af5 c3bd 8538 27bd
00000260: e6d2 2fbe 90bd 8dbd 54e9 023d 9f19 4fbe
00000270: 955b 0d3f 01e1 633d fb58 b63e e971 a2bd
00000280: 24fa 7ebd dc9b 1fbe 748a 6abe c0f2 62be
00000290: 4884 64bd d17c a23e 4201 9bbc e9c1 15be
000002a0: 83e4 593e ff58 c63d 214b a23c aefd 6b3e
000002b0: 6e5d 86be 90ac 81be 6254 57be cc0d 4dbe
000002c0: 1293 8cbe 0751 87be 15b6 c3bc ae87 5b3e
000002d0: c092 20be 6ae3 10be d26e 96be 2ad9 e53d
000002e0: ae07 9dbe d26e 983e 1591 13bd 04da 9cbd
000002f0: 54ae a43e 3e27 11be 4488 96be 5ad6 babc
00000300: 198e 7c3c 4820 34be fcf1 cbbd 1cff 10be
00000310: 7366 5f3e 2ff2 9cbe ea5e de3d 5f64 d03d
00000320: 910d c73e d52a 1bbe 0d03 853e 04d4 633d
00000330: f299 a6bc 6e8a 7dbe 3b1a 94be f340 3c3e
00000340: 02cc 4fbe 073f a23e 1e6a 85be 857e a6bd
00000350: 5289 973e 6930 7d3e c4ed ce3e fa43 bcbd
00000360: c0d4 7bbd 0cc2 84be 88b2 8bbd 8381 19be
00000370: d15b 683e 0d60 7e3d d266 883e 1251 64be
00000380: 30dd 6e3e af93 d2bd 565e 0e3f ac74 b9bd
00000390: 66e5 d5bc e18e 3ebe 46ea 113f 5baa 19bd
000003a0: cd78 25be f6cb 5fbe 0f66 483e 10e4 2ebc
000003b0: 86bf 903e 07bc 3b3e b9a0 3b3d 232a 58be
000003c0: fe6c b23c b729 dd3d db12 2fbe b16e 843e
000003d0: a33b 9bbe 901c 91be 4581 fbbd 74d9 403e
000003e0: bdc6 9e3e de25 7a3e bc1c 8b3e b7ae 5ebe
000003f0: a02c 9f3e 8939 bfbe e012 083e f272 853c
0.45834875 0.21421173 0.06728656 -0.0057542804 -0.24997629 -0.08036271 -0.21742535 0.20089483
-0.09129678 0.16653037 -0.041609965 -0.2289399 -0.1775747 -0.24044752 -0.16174015 0.14264017
0.522588 -0.17342323 -0.020952782 -0.10650159 -0.24490371 -0.25963694 -0.24744557 0.16114967
-0.26251304 -0.16931462 -0.22843336 0.12659378 -0.30958644 0.12673624 0.058564045 0.2063103
-0.12878807 0.1076987 -0.30154988 0.18424419 -0.21160913 -0.041817345 -0.1662518 0.07096136
-0.2701756 -0.27022004 -0.2412273 0.21990544 -0.13687104 -0.23057543 -0.21866682 0.19726072
-0.0779498 -0.28905436 -0.1762627 0.06930931 0.3186747 0.11691913 -0.062187966 -0.057471085
0.05578084 -0.28143445 0.05203505 0.21191257 0.39926434 0.2267896 0.35751724 0.026797298
-0.19234006 -0.1587416 -0.24018647 0.15287766 -0.28061903 -0.21111086 -0.29556087 -0.17309652
-0.11992871 0.06115515 -0.20263946 0.13366921 -0.30324388 -0.048057072 -0.30380595 0.20198394
-0.1890706 -0.23373634 -0.15613294 0.04027834 -0.28650683 -0.07311313 -0.06456424 -0.079367965
-0.28557512 -0.13893355 -0.10889581 -0.21781094 -0.074710816 -0.13019384 -0.12930468 -0.21281184
-0.21789175 0.09954945 0.015859032 0.16060273 0.22084591 -0.24369109 -0.23806456 -0.027665121
-0.13831893 0.19771579 0.32640216 -0.19005026 0.56580836 0.093684666 0.34552017 -0.17825484
0.3602057 0.11435982 0.4808997 -0.21290569 0.26597977 -0.056509912 0.6078769 -0.09354138
-0.23463798 0.08976015 -0.15044358 -0.17416368 0.093039766 -0.32057816 -0.11656502 0.18521611
-0.27443543 -0.12126891 -0.24010915 -0.045345847 0.48003146 0.04408669 0.54439634 -0.008553148
-0.053404108 -0.11514127 -0.14232446 0.050112322 0.1778782 -0.35873622 -0.35104242 0.0060666474
-0.21079735 -0.128569 0.21365376 -0.34507596 -0.12066297 -0.004208912 -0.09568222 -0.040825386
-0.17170295 -0.06920922 0.0319608 -0.20224617 0.5521787 0.055634502 0.35614762 -0.07931883
-0.06225027 -0.155868 -0.22904378 -0.22162914 -0.055790216 0.31735852 -0.018921498 -0.14624752
0.21278577 0.096849434 0.019811215 0.2304599 -0.26243156 -0.25326967 -0.21028283 -0.20024794
-0.27455956 -0.26429006 -0.023890534 0.21438476 -0.1568098 -0.14149252 -0.29381424 0.112230614
-0.30669922 0.2977205 -0.036027033 -0.07658771 0.32164252 -0.14175126 -0.29400837 -0.022807289
0.015414738 -0.1759044 -0.09958264 -0.14159817 0.21816425 -0.3065352 0.10857947 0.10175394
0.38877538 -0.15153058 0.2597889 0.055622116 -0.020337079 -0.24759838 -0.28926262 0.18384151
-0.20292667 0.3168871 -0.26057523 -0.081296004 0.29596955 0.24725498 0.40415776 -0.09192653
-0.06148219 -0.25929296 -0.068211615 -0.14990811 0.22691275 0.06210332 0.26640946 -0.22296551
0.23326564 -0.10282075 0.55612695 -0.090554565 -0.026110362 -0.18609191 0.569981 -0.03751598
-0.16159363 -0.21855149 0.19570182 -0.0106744915 0.2827112 0.18333445 0.045807574 -0.21109824
0.021780487 0.10798972 -0.17097037 0.258657 -0.30318937 -0.28342104 -0.122805156 0.18832952
0.31011 0.24428508 0.2717036 -0.21746336 0.31088734 -0.37348583 0.1328845 0.016290162

graph_matcher.gnn.conv2.bias f4 [128]
00000000: 0c5d ac3d ee9e 3fbc 7d65 95bb 2262 9abb
00000010: ee7a 7bbd e93b ebbc 2b83 b63c 864c 15bc
00000020: f08f 70bd 790d 02bd d312 e9bd 39cf 69bd
00000030: a9ed cabc 996d 1abd 35ff ffbc d4ea 14bb
00000040: e13d e8bc 99e7 50bd 5a6e 09bb de92 5dbc
00000050: a3ee 3fbd 32bf 17bd 8ea7 5f3c 714f ca3d
00000060: 0d34 bbbc b398 eebb f7bc 883c f592 81bd
00000070: 0cb1 5f3c d7de 463d 9baa b63c 901c a83c
00000080: 4044 9839 ef1e 6bbd 7d30 59bb 2164 e0bb
00000090: d2db 6fbd 8132 40bd 5445 6abd 4bb3 91bd
000000a0: ee87 97bb 9f08 f53c 8935 73bd ed11 a93d
000000b0: 1622 e7bb 7c4d be3b c3c4 0dbc dcc3 cf3b
000000c0: 338b d1bb 244a 79bd de0f 27bd 5ac7 aabd
000000d0: ba03 c43c c944 66bd b7f1 803d e0ec 2b3c
000000e0: 8053 7cbd ce8e ca3b 52c7 b63d 28f0 31bb
000000f0: 5362 00bc 5f9e b2bc ca03 1dbb 7ac3 bcbc
00000100: a251 4d3c b60a 253b 630e 91bd bfa3 123d
00000110: 9aa2 11bd 9c43 9fbd 6e77 e33a 566f 83bd
00000120: bfe2 173c dacd d0ba b6d2 bf3d 4c92 b13b
00000130: 36e4 5cbc fbb4 5ebd 9307 30ba 0f72 3cbd
00000140: f867 6abd a6f8 f83b 4213 f13b 6eee e4bb
00000150: 4552 0cbd f9fa 27bc 49c9 14bd 666d c2bb
00000160: 9bbc 03bc dda0 0dbc cd85 e6bd 43fb f1bc
00000170: 58ab 0bbc 09ad 04be 18fc 82bd 464a e2bb
00000180: d963 c2bd 06bf 983a f78e 043c 12ef f13b
00000190: 1536 313c 9bea 4bbd 45f2 cd3d d068 98bb
000001a0: d8ec 113c 145c 0fbc a08a c6bb 4b9b 76bd
000001b0: 5062 84bd e02d 8fb9 bd53 15bc a46c 8cbc
000001c0: 3659 8fbc 1372 353c 5106 4bbd a6f5 1fbc
000001d0: 5947 79bd 430b 2ebb 8c67 f8bc 113e 8fbc
000001e0: c0e9 51b9 9406 f1bb 5a46 4abd 04fc 88bc
000001f0: 3c10 4bbd b77e cabb 88e9 dcbb 80fb 4639
0.08416185 -0.011695607 -0.0045592175 -0.0047114054 -0.06139653 -0.02871509 0.022279343 -0.009112483
-0.05873102 -0.03175113 -0.113805436 -0.05708239 -0.024771528 -0.037702177 -0.031249622 -0.0022722976
-0.028349819 -0.05100212 -0.0020970316 -0.013523785 -0.04685844 -0.037047572 0.013650788 0.098784335
-0.022851968 -0.0072813868 0.016691668 -0.06326858 0.013653051 0.04855236 0.022298148 0.020521432
0.0002904255 -0.057402547 -0.0033140474 -0.006847874 -0.058559246 -0.046923164 -0.057195023 -0.071142755
-0.0046243584 0.029911337 -0.059377227 0.08255372 -0.007053624 0.0058075767 -0.008652869 0.006340487
-0.0063947677 -0.06086172 -0.040786617 -0.083388045 0.023927558 -0.056217942 0.062961034 0.010493487
-0.06160307 0.0061815744 0.08924736 -0.00271512 -0.007835942 -0.021804033 -0.0023958557 -0.02304243
0.01253167 0.0025183386 -0.07082822 0.03580069 -0.03555546 -0.07776567 0.0017354318 -0.0641772
0.009270369 -0.0015930489 0.09366362 0.0054190513 -0.013482144 -0.054371815 -0.0006714996 -0.046007212
-0.05722806 0.0075980006 0.007357032 -0.006986431 -0.034258146 -0.010252708 -0.036324773 -0.0059334515
-0.0080405725 -0.00864431 -0.11255989 -0.029538756 -0.008524738 -0.12956633 -0.06395739 -0.0069058267
-0.09491701 0.0011653609 0.008090726 0.0073832357 0.010816117 -0.049784284 0.10055975 -0.0046511665
0.008906566 -0.0087499805 -0.006059006 -0.060206693 -0.06464064 -0.00027309265 -0.009114203 -0.017141648
-0.017498594 0.011074561 -0.04956657 -0.009763157 -0.060859058 -0.0026557005 -0.030322812 -0.01748565
-0.00020018872 -0.0073555205 -0.0493835 -0.016721733 -0.04957603 -0.0061796564 -0.0067417063 0.00018976443

graph_matcher.gnn.conv2.lin.weight f4 [128, 64]
00000000: dc28 3c3d 469a a23d fdf7 db3d b4c2 2dbe
00000010: b649 d03c b27d 81bd bc15 1c3e 34af b5bb
00000020: d4ed 253d 38f7 cab9 702d 50be 63fe 2ebd
00000030: e3db 063e b0eb 3c3d 9bd9 6dbc b43a 993e
00000040: e848 603d 74e3 7bbd adc5 b9bd 69ef 80bd
00000050: 5389 20be 2d38 2b3e c833 fb3c af42 223e
00000060: f6b4 4a3d a3d3 883e 59b4 ab3e 5a11 b33e
00000070: 12b7 613e 614d a43e 8d54 173e 4a89 d93d
00000080: 4529 ea3c 3d5a 243e 8970 8a3d f737 c83d
00000090: fca2 ff3d c02b 673d bf02 663e 978b b63e
000000a0: a02f a13b 4cb0 ca3d a688 f03d 00c5 9c3c
000000b0: 6a67 4fbd 7cdd 8f3d 7ddf 673e 57d6 2b3e
000000c0: 2543 45be 68ab bbbd 228f 69bd f010 11be
000000d0: 97ec af3d ba47 b63e 41a4 323e 7811 d23e
000000e0: 67ab e03e 1a3a 193e 0065 8e3e e2a4 a33e
000000f0: b3cc f2bd e7cf b1bd a89f 423e 5868 463e
00000100: e763 7fbe d495 88bd 7cd3 d1bb 41f8 013e
00000110: e4dd 47be 6ecf 9abc 0d2b 133e 03f1 edbd
00000120: 3ae7 6abd 3170 e73d 6085 a9bd 1ee5 53ba
00000130: 6389 633d 8949 eabd 8015 293e 982c 8ebd
00000140: 34d9 f53d 3685 0cbe 2250 c93d 3f4c 073e
00000150: 56dc debb e57a 243e d865 e6bc 4584 e2bd
00000160: 48ff 823d a14e 3bbd 2a8b 443d e449 5bbe
00000170: e21d 1ebe df02 93be 0ab1 01be 2ba1 273e
00000180: 4655 213d b04e 16bd f183 3c3d dc15 813c
00000190: 7df5 c7bd 3aab 873b 4cd4 debd b16c 4cbe
000001a0: 2889 9f3c d2dc 2bbe c2a8 583d de61 a33d
000001b0: 90cd d33d a5b1 033d a3bd 5abe 5f22 01bd
000001c0: dc3e d1bd 5139 3cbe f176 10be 0c82 7b3d
000001d0: 3378 60be f947 d2bb 20a6 bcbc b091 adbd
000001e0: 189a 01be b243 b3bd 83a1 723c 32c0 e9bd
000001f0: 3a25 c33b 65c0 073e 0e13 8ebe 5426 bfbd
00000200: 90da ee3c 1115 843d f8c2 08be a7d3 fdbd
00000210: bd91 00be 1b42 253e 36e0 9c3d 05a9 bcbd
00000220: 22ad 8fbd 90d4 21be 5443 e2bd 34be e83a
00000230: 63d1 d5bd b525 bcbd 8785 bfbd e7a8 1cbe
00000240: 9a17 b7bd c54f 293e b459 2abe 8ae0 c13c
00000250: 51ed debd 977d e9bd ec5b 02be e093 ca3b
00000260: 688e 7e3a 89ef 3abe 53c9 bfbd 5682 f2bd
00000270: 725d 7abe c844 e0bb d389 9c3d 3d48 413d
00000280: c598 483e 843b 53be 9fa5 08be 24e8 633d
00000290: eee0 2a3d 70b8 7fbd f564 813d 466d 69bc
000002a0: b053 95bc c675 c33d 60f2 d23c a7ac 2fbe
000002b0: 8659 303e 60ee babd e542 23bd 48f3 e43b
000002c0: 7d26 2fbe 5311 aabd 498e 09bd f471 04bd
000002d0: e44e 25be de7c d83c f0db 9abc 729e 4bbe
000002e0: 99b9 24bd 86db 87be 5468 2a3e 0bd2 9d3d
000002f0: 6102 963d 526a 483c 5ff9 04be 3fb8 e13c
00000300: f44a 813d 0613 373e ac60 15be 3a38 b23d
00000310: d72c d0bd f386 4b3e 5c55 b1bc e37f 10be
00000320: 4a78 6c3d 567e 903d bfaa e43d d7e8 203e
00000330: bd8b fdbd 1acd 00be 26e6 38bd 9bf2 33be
00000340: 33fa 15be caa0 b83d 50ca c6bd ff65 e7bd
00000350: 6c45 b5bd a8e1 af3c 4617 843d 58e6 30be
00000360: 4135 c43d 7cac d33d cfba b43b a363 43be
00000370: b9d2 80be f03a b4be 6d45 ed3d bdc5 953d
00000380: c0b9 d3bc eec8 9bbe c0f9 9abd ee3a 27bd
00000390: 1906 61be 7594 14be 5d1f 35be d9b5 45be
000003a0: ec28 783d b94d 35be c7f4 103e f84a f7bc
000003b0: 282e c23d 5800 053e 66c4 81be 714c 38be
000003c0: ccc5 63be 0d58 07be d3b0 bb3c 64c5 e63d
000003d0: 7730 9dbe ccb7 16be 42c7 bb3d ca53 0bbb
000003e0: 6899 5dbe 6986 00bd c8c4 22be 3776 063c
000003f0: bfca d43d 5649 3dbd c077 8dbd e5e9 f7bb
0.045937404 0.079395816 0.107406594 -0.16968805 0.025425773 -0.063228026 0.15242666 -0.0055445675
0.040510014 -0.00038712635 -0.20329833 -0.04272307 0.13169818 0.046123207 -0.014517213 0.299276
0.05475703 -0.061496213 -0.09070907 -0.06295664 -0.15677385 0.16720648 0.03066434 0.1584575
0.049488984 0.26723966 0.33536032 0.34974176 0.22042492 0.32090285 0.14778347 0.10621889
0.028584132 0.16050048 0.06759746 0.097762994 0.12482259 0.056438208 0.22461985 0.35653374
0.0049190074 0.09896907 0.117448136 0.019136906 -0.050635733 0.07024667 0.22643848 0.16780983
-0.19263895 -0.091635525 -0.057021268 -0.14166617 0.08590048 0.35601598 0.1744547 0.41028953
0.4388077 0.1496357 0.27811432 0.31961733 -0.118554495 -0.08682232 0.19006217 0.19375741
-0.24940453 -0.066692024 -0.0064033847 0.12692358 -0.19518238 -0.018897738 0.14371891 -0.11618235
-0.05734942 0.11300696 -0.082773924 -0.00080831524 0.055550944 -0.11439807 0.16512108 -0.06942099
0.12004319 -0.13722691 0.09829737 0.1321268 -0.0068011684 0.16062506 -0.028124735 -0.11060385
0.06396347 -0.045729283 0.04798428 -0.21414906 -0.15441087 -0.28713128 -0.12665191 0.16370074
0.039387964 -0.036696136 0.046024267 0.015757494 -0.0976362 0.004140285 -0.10880336 -0.19963337
0.01947458 -0.16783455 0.052895315 0.07977651 0.10341942 0.032151837 -0.21361403 -0.03152692
-0.102170676 -0.1838124 -0.14107873 0.06140332 -0.21920852 -0.006417271 -0.023028433 -0.08475053
-0.12656438 -0.08753146 0.014809015 -0.114136115 0.0059553655 0.13256986 -0.27748913 -0.093334824
0.029156953 0.064493306 -0.13355625 -0.12393885 -0.12555595 0.16138498 0.07659952 -0.092119254
-0.07015444 -0.15803742 -0.11047998 0.001775688 -0.10440328 -0.091868795 -0.0935164 -0.15298806
-0.089400485 0.16534336 -0.16635782 0.023666639 -0.10885108 -0.114009075 -0.12730378 0.006182179
0.0009710551 -0.18255438 -0.093645714 -0.11841266 -0.24449709 -0.006844137 0.076434754 0.047188032
0.19589527 -0.20628172 -0.1334443 0.05564131 0.041718416 -0.062431753 0.06318084 -0.014247244
-0.018228382 0.09543948 0.025750339 -0.17155705 0.1722165 -0.09127498 -0.039858717 0.006987009
-0.17104526 -0.083040856 -0.03358296 -0.032335237 -0.16143376 0.026426729 -0.018903702 -0.19884661
-0.040216062 -0.2653467 0.1664136 0.07706078 0.073246725 0.01223238 -0.12985753 0.027553676
0.06313124 0.1787835 -0.14587659 0.087021306 -0.101648025 0.19875698 -0.021647148 -0.14111285
0.057731904 0.07055347 0.1116538 0.15713821 -0.123801686 -0.1257824 -0.04514136 -0.17573015
-0.14646225 0.09015043 -0.09706557 -0.11298751 -0.08851132 0.021469906 0.064497516 -0.17275369
0.0958047 0.10335633 0.0055154334 -0.19080977 -0.2516077 -0.35201216 0.115855075 0.07313106
-0.025845408 -0.30426735 -0.07567167 -0.040827684 -0.21974982 -0.14509757 -0.17687745 -0.1930765
0.0605859 -0.1770543 0.14155875 -0.030187115 0.0948146 0.12988412 -0.25345153 -0.1799791
-0.22243422 -0.13217182 0.022911465 0.11268118 -0.30701038 -0.1471855 0.09168865 -0.002125966
-0.21640551 -0.031378184 -0.15895379 0.008206896 0.10390233 -0.046212517 -0.06907606 -0.007565724

graph_matcher.mlp.0.weight f4 [128, 256]
00000000: ff8d 53be a427 20bb d5e2 643d fa93 2b3d
00000010: 1276 eebb 6946 6c3d 7c12 b23c 96f6 a73d
00000020: 11c9 d03d 778f aa3c df3c 2dbb 76aa a03c
00000030: a1a2 27bc 5d5f 2d3d f475 e03c 326e 43bc
00000040: 84d3 38bd d05e ae3d 3357 b0ba b73f a0bc
00000050: 452f a53d cc52 5abd 4de1 203c ef3c 2dbe
00000060: f85d 883d e0fe 7c39 04bd e23d 661a c83d
00000070: 6917 b23d ed34 f9bd 7a09 853c c842 d03b
00000080: 0c14 1ebd 35fe 223d cad2 a33b 022d 43bb
00000090: 5b5b 9f3d f10c 33bd 6bda b83d c8f1 e7bc
000000a0: d6ee 67bc 3af3 b13d ea2a bf3a bacd 4dbe
000000b0: f1de 223b 311b 713d bde1 563c 6e71 8b3d
000000c0: bc5e f13c 145e 923d c783 8dbc 250b 0a3d
000000d0: 66e6 283c e824 36bb 5e4b 39be d79f e33c
000000e0: ee1f ad3d 1917 713c 641e 1cbe 10bf 8bbd
000000f0: 36ef 4d3d 9551 0c3d 1654 813d a8ee 683d
00000100: b100 be3c 9190 383d f59a 993c b874 21bd
00000110: ecd6 2c3d 4387 59bd 1ace d73c 4394 ac3d
00000120: 2a85 c03c 2aa9 fe3c 9ee5 36be bda7 b93d
00000130: ac7e 943d 7496 563d 3197 753d 12be abbd
00000140: ad51 b23d fd07 9d3d 1824 853d b11e 1fbd
00000150: f948 a83c b9ec a23d 5079 a0bc c19c cd3d
00000160: 413c 97bd 992a c13d c025 9c3b 8c78 32bd
00000170: 17cf 783d c95b 1d3d 4290 76bb ab71 e43b
00000180: 5c1d 40bd d6e2 413b 3042 97b9 5bf2 25bc
00000190: fafa a0bc 46f8 cbbc f831 55be bb61 b03c
000001a0: 5af3 863d bfd0 0bbd faa5 1ebd c340 b83d
000001b0: 572c 393d 48f2 55ba 8b8a 0e3a 9e3a 4ebb
000001c0: b4ab 1e3d d296 a6bc d3ce bfbd a99f fa3c
000001d0: dd28 5c3d dfd1 8d3d 668a dbbc de7c de3c
000001e0: bc24 58bb 2ada 7abc 58ae d6bc 2b37 473d
000001f0: 170f 2e3d 5dec f8bc f84d 0e3d 0fbf 393d
00000200: 8308 1dbe ec2c 9fbc e87c 6bbd 9378 bbbb
00000210: 50f1 a3bd 2043 37bc 01ba 90bd f8c9 d3bc
00000220: ac4b 5c3b 7595 773d ae9d 25be f2b5 bb3c
00000230: c04c 153d 930f 6cbc 5655 ab3c d8ed c3bc
00000240: fd7e 7d3d ab5a 063c ae2f 1f3c 50a7 033d
00000250: c9bf 433d 80ca cd3c e3dc 6abc b4b6 2cbe
00000260: 11de 183d 68a5 a43c 0b21 b03d 2e4e bc3d
00000270: 0bff 863d e942 03be f36f 3ebd 30ee 30bc
00000280: 71fa 513d 2b08 beba 2829 6bbc 3f57 98bd
00000290: 5662 ebbc 8d3a 13bd 468e 6cbd b9ba 2fbd
000002a0: b4c7 3bbc 24ef 23bc c54f 7f3c f607 66be
000002b0: 572d 853d e2e2 883d 57ff 313d d275 ddbc
000002c0: 492a a43c ef50 0f3d bc40 9abc 082d b33d
000002d0: 6699 e33d b6a3 8b3c 418d 24be a4c4 1a3c
000002e0: 301f 0a3d 2c81 133d fbf2 53be 2e93 41bc
000002f0: eecf c2bc d460 0c3d 43d4 733d ec87 bb3c
00000300: 7cb8 fa3c bcaa 623c 515b 32bd 6442 50bd
00000310: 6bfc 193d b7e3 95bd 3013 7c3d 8d28 7b3d
00000320: 0b0d 8f3d 4d5c 613d a472 52be 8f3b fc3c
00000330: e39c d8ba 210d c63c 0757 323c b273 51bd
00000340: 9438 a53d 6607 4a3d 4ad7 a23d 6b64 083d
00000350: 87a8 74bd 355c ba3c 5dbf 44bc 8c56 7fbc
00000360: 2ddd 1ebd ecb5 c03c c8aa a6bd 7242 153c
00000370: 89b0 1e3d 2e42 613b 267c 15bd bb3d 31bd
00000380: 562c 953d 10fe 943d 3128 dd3c 74a2 943d
00000390: a4b9 46bc 0b25 bebc 2b85 60be ddcc 373d
000003a0: bdfb 22bc fbe1 c33c 3e44 d4bc 1763 8e3d
000003b0: 14d6 193d 91d1 bb3d 9151 0c3d a54d 3d3d
000003c0: 18ae 7d3d 7202 d33d 48b2 bdbd 1af7 1ebd
000003d0: 1ae2 963d 98e2 f23c dd40 93bc 7b0f 1e3b
000003e0: e40f 5c3c 46a0 8c3d d72b 6a3d 2efb a93d
000003f0: 9191 8f3c d4d5 ba3c b038 9d3d 7288 c73c
-0.20659636 -0.002443769 0.055880386 0.04188917 -0.0072772587 0.057684336 0.02173733 0.082013294
0.101946004 0.020820362 -0.0026433987 0.019612532 -0.010231645 0.042327274 0.027399994 -0.011928128
-0.045123592 0.08514178 -0.0013453722 -0.019561632 0.080656566 -0.053301618 0.009819341 -0.16917776
0.06658548 0.00024127541 0.11071208 0.0977066 0.086958714 -0.12168298 0.01623987 0.006355617
-0.038593337 0.039793212 0.0049994932 -0.0029781465 0.077810965 -0.043713514 0.09026035 -0.028313532
-0.014156064 0.0868897 0.0014584933 -0.2009801 0.0024852122 0.058863822 0.013115344 0.06808744
0.029464118 0.0714685 -0.01727475 0.033702035 0.0103088375 -0.0027792994 -0.18095157 0.027786179
0.08453356 0.01471498 -0.15245968 -0.06823552 0.050276957 0.03425749 0.06314866 0.056868225
0.023193689 0.045059744 0.018750647 -0.039417952 0.042197153 -0.05310751 0.026343394 0.08426716
0.023500998 0.031086523 -0.1786103 0.09065197 0.07250723 0.052389577 0.05995864 -0.083858624
0.08706985 0.07667539 0.06501025 -0.03884763 0.020542609 0.079553075 -0.019589096 0.10039664
-0.073845394 0.09431953 0.0047652423 -0.043571994 0.06074437 0.03841761 -0.0037622605 0.006971558
-0.046903 0.0029584668 -0.00028850278 -0.010128583 -0.019650925 -0.02489866 -0.20819843 0.021530977
0.065893844 -0.034134623 -0.038732506 0.08996727 0.0452083 -0.0008161408 0.00054375146 -0.0031468044
0.038737968 -0.020335589 -0.093656205 0.03059371 0.053749908 0.06924795 -0.026799392 0.02715915
-0.003298088 -0.015310803 -0.02620618 0.048636597 0.04249486 -0.030386144 0.034742326 0.045348223
-0.15335278 -0.0194306 -0.057492167 -0.0057211607 -0.08005011 -0.011185437 -0.070667274 -0.025853142
0.003361444 0.060445268 -0.16173431 0.022913907 0.036450148 -0.01440801 0.020914715 -0.023917124
0.061888684 0.008200328 0.009715958 0.032141984 0.047790322 0.025120974 -0.01433489 -0.1686657
0.037321154 0.020098403 0.086000524 0.09194599 0.06591614 -0.12818493 -0.04649348 -0.010798976
0.05126423 -0.0014498284 -0.014353074 -0.07438516 -0.028733414 -0.03594451 -0.05775287 -0.042902682
-0.011461187 -0.010005746 0.015582983 -0.22463974 0.065027885 0.066838995 0.0434564 -0.02703372
0.020039694 0.034989294 -0.018829696 0.087488234 0.11113243 0.017045837 -0.16069509 0.009446297
0.03372115 0.03601186 -0.20698158 -0.0118148755 -0.02378079 0.03427203 0.0595286 0.022891961
0.030605547 0.013834652 -0.043544117 -0.050844565 0.03759424 -0.07318824 0.061541736 0.06131797
0.069849096 0.055019666 -0.20551544 0.030790119 -0.0016526248 0.024176182 0.010885007 -0.051135726
0.08067432 0.049323462 0.079512194 0.03329889 -0.059731033 0.022749046 -0.012008515 -0.015584599
-0.03878515 0.023524247 -0.08138043 0.00911008 0.038742576 0.0034371722 -0.03649535 -0.04327176
0.07283847 0.07275021 0.026996704 0.07257548 -0.012129221 -0.023211023 -0.219258 0.044873107
-0.009947714 0.023911467 -0.025911447 0.06952494 0.037557676 0.09170831 0.034257475 0.046216626
0.061933607 0.10303201 -0.0926252 -0.038809873 0.07367344 0.029649064 -0.017975265 0.0024118114
0.013431523 0.06866507 0.057170715 0.08299862 0.017525466 0.02280704 0.07676828 0.024357054

graph_matcher.mlp.0.bias f4 [128]
00000000: 1a13 13bc 3927 00bd 5898 2cbd 9251 f7bd
00000010: a343 45bd 286b aa3b 51a8 f73c 8eb5 74bd
00000020: a99f f53c 7fb6 70bd 448d 7bbd eb56 56bc
00000030: 8842 1cbd bcdf 42bc 1a8b 063c d840 c3bd
00000040: 5017 2cbd e5fc 4b3c 21c7 a9bd 39e6 e9bd
00000050: a724 993d b2a7 d8bc bdca 03bd 5111 89bc
00000060: 22b3 5fbc 7ee3 3fbd aca3 49bd 27fa cebc
00000070: e06f 09bb a287 52bd ab2f 3b3b a009 95bd
00000080: f843 383d f991 1e3d 3eb9 a1bd c939 abbc
00000090: 76c9 82bd 2563 c5bd e5fa 94bd 8442 eebc
000000a0: 74ce 45bd de76 17bd fc5e babd c695 4abd
000000b0: af6b 063d f2b0 923a ce9b b6bd 365a a0bd
000000c0: a861 a2bc 8f08 a3bd e97a c1bc 1866 dabd
000000d0: 45e8 a9bd 23a0 fdbc c4b9 6fbd b041 26bd
000000e0: 8330 d1bd 9b6a 483d c8db 1dbd 6850 a7bc
000000f0: ebb3 92bc 61d5 0fbd ee75 243d ecc4 d6bd
00000100: c176 bc3c 50b4 bf3c 48d9 23bd 5c95 ecbc
00000110: 44b4 083c b37c d0bc 00fd 84bd 7aa4 43bd
00000120: 7237 74bd 1240 f53b 58d5 b13c d0e5 2abd
00000130: 4c31 0c3d 8e45 903a 9a32 02bd 403d 7bbd
00000140: 161a 133b 5de3 a9bd 064c 7fbd 3277 8cbb
00000150: d7e9 50bc 68e2 3f3a d088 34bd 3717 1d3c
00000160: bd07 4abc cd4f 3ebd e3eb 9fbc 7ed3 5d3c
00000170: 1cae d6ba 7439 96bd 0cc9 d3bc daa6 a73c
00000180: 23f6 74bc 7e51 b1bc a5b4 343d 73d8 d6bd
00000190: 157e 95bd a4c3 a7bc c641 55bc 79ee 0ebc
000001a0: aa63 59bd f65a afbd 667a b0bd 909e 61bd
000001b0: 3c48 72bd 8618 e43b c069 3d3b 0ced e1bb
000001c0: a176 383d d1e1 6abd 08c5 bebc c8f3 84bc
000001d0: 81df 233c 0876 51bd 4b96 013b a84a 143d
000001e0: 3c24 b0bc f007 1cbc 7a99 5abd d1c5 d3bd
000001f0: d050 213c 09a9 4bbc 7e31 93bc 46a2 e63b
-0.008976722 -0.031287406 -0.042137474 -0.12076105 -0.048160207 0.0052007623 0.030231627 -0.059743457
0.029983358 -0.05876779 -0.06141402 -0.013082246 -0.038149387 -0.011894163 0.008211875 -0.09533852
-0.04201442 0.0124504315 -0.08289934 -0.114208646 0.07477694 -0.02644715 -0.03217577 -0.01673189
-0.013653548 -0.046847813 -0.049228355 -0.025265766 -0.0020971224 -0.05139888 0.0028562348 -0.072772264
0.044986695 0.03871343 -0.0789666 -0.020901578 -0.06386082 -0.09638051 -0.07274417 -0.029084451
-0.048292592 -0.036978595 -0.09100148 -0.04945924 0.03281754 0.001119165 -0.08916436 -0.07829706
-0.019821957 -0.07960617 -0.023618178 -0.10664004 -0.08296255 -0.030960148 -0.05852677 -0.04058999
-0.10214331 0.048929792 -0.038539678 -0.020424083 -0.017908057 -0.035115603 0.04015153 -0.104867786
0.023005845 0.02340141 -0.040002137 -0.028879814 0.00834376 -0.025450086 -0.064935684 -0.04776428
-0.05962319 0.0074844444 0.021708176 -0.041723073 0.0342267 0.0011007057 -0.03178654 -0.06133771
0.0022445968 -0.08295319 -0.06232836 -0.00428667 -0.012751064 0.0007319809 -0.044075787 0.009588054
-0.0123309465 -0.046462823 -0.01952166 0.013539193 -0.0016378793 -0.07335177 -0.025852703 0.020465303
-0.014951262 -0.021645304 0.04411759 -0.10490503 -0.07299439 -0.02047903 -0.01301617 -0.0087238485
-0.053073563 -0.08562271 -0.08617096 -0.055082858 -0.05915092 0.0069609312 0.0028902143 -0.0068947133
0.04503501 -0.05734426 -0.023287311 -0.016229525 0.010002018 -0.051137954 0.001977342 0.03620401
-0.021501653 -0.009523377 -0.053369023 -0.10340465 0.009845927 -0.012430438 -0.017967936 0.0070383875

graph_matcher.mlp.2.weight f4 [128, 128]
00000000: 8ed7 1bbd f976 6abc 74ec babc 804b 3cba
00000010: 23d7 993d 4683 873c 05e6 e5bc 2ecf 603d
00000020: 7f55 60bd d9d9 adbd 13ec 08be 8486 c73d
00000030: ab2b f2bd 49c4 bbbd e957 1a3b 008b 9abb
00000040: 7242 763d 53c9 d7bb 60d1 3e3c 065f 6f3d
00000050: afdc acbc 8828 88bd d92c 94bd e3da 99bd
00000060: 40eb 3fbc d8a6 59bd 9897 163e ad28 b83d
00000070: 2c8d e93c 00d9 ac3c 4ede e1bd a6fc 0cbe
00000080: 6693 dfbc 3aa3 51bd e685 753d 4af5 afbd
00000090: 743d b1bd 900e 90bd 8169 dbbd 813e eebd
000000a0: d208 213d a1f5 f7bb 773c 51bd d0bb 803c
000000b0: 6d9d e5bb ac89 cfbd 3801 96bd f9ce 923b
000000c0: 439d 8a3c 32ae 7d3d 9344 22bc 2733 afbd
000000d0: 4718 cbbd 071b 883d d7bb 27bd ea88 cabd
000000e0: c379 03ba 830f 07be 542b 873c 8016 903a
000000f0: 6887 b2bc be78 a0bd fb58 d83c 882c 7fbd
00000100: 5abb 41bd 3795 f6bd 7aeb 7fbd d573 d1bd
00000110: 682d b43d a856 01be 9f36 613d fa65 6d3d
00000120: c0ca 81bc 506e f8bd a084 6c3b f721 9e3d
00000130: 768c c3bd 6f6e 5b3d f163 f5bd 0847 6d3c
00000140: 6e27 9ebd 82d9 d6bd b8de f8bc 9680 75bd
00000150: 96e7 14be f614 babd bfc2 9abd 83bf 703c
00000160: 3955 f1bc 6002 a23b 4284 873d 9c91 1fbd
00000170: 7043 0abe f838 2d3c 8641 723d 23af a23c
00000180: 6399 98bc c890 1dbc 15af 13be 9170 b23d
00000190: 4382 d5bd f173 c23d 5cae 3dbd 7f65 f1bd
000001a0: 416e f73b 17bc 57bd d482 5a3d be77 433d
000001b0: 485d 79bd 662d fc3a 66a8 4e3d c401 f3bb
000001c0: e0de 20bd 114a 843c 9018 d33b c146 983d
000001d0: 6521 eebd 4e0d 86bd 57f9 e23a af11 f2bd
000001e0: 1c9a 9f3c 0bb0 e1bd 80d3 aeba d7d9 843d
000001f0: 403c a7bd 3c93 76bd 1b00 223d 0025 f1bd
00000200: ca79 a2bd e5e6 96bd 7e54 5f3d 89c4 6fbd
00000210: c00c f7bb e409 b3bc 1bda 4fbd 0f67 88bd
00000220: a169 923d ace7 c53c f0a9 8d3b 0c2e e83c
00000230: eca4 c3bc e235 3e3d 28e3 d43c c47a fabc
00000240: 06a7 5d3d a8fc 8ebd a255 2e3d c3d3 8abd
00000250: 4c86 823d 669c 4c3d c0c2 113b aed8 29bd
00000260: f566 64bd 3ae8 283d 910a 41bd b024 71bd
00000270: b4d4 dfbc 700e 47bc f6ff 453d baed 223d
00000280: 2b67 c03d 0797 4c3d 53f5 6bbd 4f80 a53d
00000290: b4be 5ebd 2cba 90bd 5063 cc3c 70ca c1bc
000002a0: a39c 8d3d 287b b8bd b102 b5bd c76f a53d
000002b0: ce86 393d 1511 8a3d e038 b13c 77fa 9cbd
000002c0: 3d64 943d 4649 003d 1784 7ebd c03f 043d
000002d0: 8962 60bd 1d29 9fbc a133 923d d078 a6bc
000002e0: 9ca2 98bd 006f 063d 9405 fe3c c06e 13bb
000002f0: 4a58 5fbd 7fed 68bd b8a9 f13c 69b3 993d
00000300: 811a 22bd d0af e33c 69ca a73d 4ed6 9cbd
00000310: 31b5 af3d e415 43bd 546d 43bd a6b9 3d3d
00000320: a040 84bd d030 4cbd bf52 02bd abae 50bd
00000330: 1e6c 84bd d0e0 14ba e62a 233d fe5b 793d
00000340: 5042 d43b 5558 a83d 4016 bf3a 2b9a b1bd
00000350: f65c 3c3d 3caa ae3c ae04 163d 3e29 523d
00000360: f186 5abd 0bc7 b43d 638e 843d b4be 92bd
00000370: c60d abbd be1b 9ebd 78be 45bd da63 b1bd
00000380: f896 153d afcf 913d 68ba 453c 004d 6cbb
00000390: c6e8 a7bd 96d4 83bd 4e50 82bd 08c3 b5bc
000003a0: 1730 dfbb ea14 223d 8a2f 18bd 5487 66bd
000003b0: 52c5 263d 1858 a23c 7042 463c ff2d a93d
000003c0: 000e f7ba 3b76 a5bd b8bf 76bc e610 713d
000003d0: 1618 4a3d 50e8 90bb 28a0 18bd c9e8 1bbd
000003e0: aee8 4d3d 5332 5bbd 9c03 c03c 66d9 90bd
000003f0: 824c 3ebd e21c 253d cebb 1d3d 00cb 663c
-0.038047366 -0.014310592 -0.022817828 -0.0007182881 0.07511737 0.016542088 -0.028063783 0.054885082
-0.054769035 -0.08488817 -0.13371305 0.09742454 -0.11824735 -0.09168298 0.0023550934 -0.004716277
0.06012196 -0.006585279 0.011646599 0.05844023 -0.021101324 -0.06648356 -0.072351165 -0.075124525
-0.011713803 -0.05313763 0.14706266 0.08992133 0.028509699 0.021099567 -0.110287294 -0.13768253
-0.027291965 -0.051181056 0.05994215 -0.08591707 -0.086542994 -0.070340276 -0.10713483 -0.116330154
0.039315052 -0.007567123 -0.051083054 0.015714556 -0.007007292 -0.10133681 -0.07324451 0.0044802395
0.016920691 0.061933704 -0.009904045 -0.085546784 -0.0991674 0.0664578 -0.040950622 -0.098893955
-0.00050153973 -0.13189511 0.016500153 0.0010993034 -0.021793082 -0.0783553 0.026409617 -0.062298328
-0.047297813 -0.12040179 -0.062480427 -0.10227171 0.08797723 -0.12630713 0.05498373 0.05795858
-0.015843749 -0.121304154 0.0036089793 0.07721322 -0.09548275 0.053572115 -0.11981953 0.014482267
-0.07722364 -0.10490705 -0.030379638 -0.059937082 -0.14541468 -0.09086029 -0.07556676 0.014694097
-0.029459583 0.004944131 0.06617023 -0.038957223 -0.13502288 0.010572664 0.05914452 0.019858902
-0.018627828 -0.009617038 -0.14422257 0.087128766 -0.10425236 0.0949477 -0.04630886 -0.11786937
0.007550985 -0.05266961 0.053347424 0.047721617 -0.060879976 0.0019239604 0.050453566 -0.007415982
-0.03927505 0.016148599 0.006442137 0.0743537 -0.11627463 -0.065455064 0.0017316741 -0.11819779
0.019482665 -0.11019906 -0.0013338178 0.06486862 -0.08165789 -0.060199007 0.03955088 -0.11774635
-0.07933386 -0.073682584 0.054523937 -0.05853704 -0.0075393617 -0.021855302 -0.05074511 -0.06660282
0.07149053 0.024158321 0.0043232366 0.02834227 -0.023882352 0.046438105 0.025987223 -0.030576117
0.054114364 -0.06981784 0.042562135 -0.067786716 0.06373271 0.04995384 0.0022241324 -0.041466407
-0.05576225 0.041237094 -0.047129218 -0.05887288 -0.027323104 -0.012149438 0.048339806 0.039777495
0.09394678 0.04994872 -0.057607006 0.080811135 -0.054381087 -0.070667595 0.0249497 -0.0236561
0.06914642 -0.09007865 -0.08838404 0.080779605 0.045294575 0.067415394 0.021633565 -0.0766496
0.072456814 0.03131988 -0.06213769 0.03228736 -0.05478147 -0.019428784 0.07138754 -0.02032128
-0.0745289 0.0328207 0.03100852 -0.0022496432 -0.05452756 -0.05686712 0.029499874 0.07504923
-0.039576057 0.027793795 0.081929035 -0.07658063 0.085794814 -0.0476283 -0.047711685 0.046319626
-0.06457639 -0.04985124 -0.031817194 -0.050947826 -0.06465934 -0.00056792516 0.039835833 0.060878746
0.0064776316 0.08219973 0.0014578775 -0.08671983 0.045987092 0.021321408 0.036625557 0.051308863
-0.053351346 0.08827027 0.064724706 -0.0716528 -0.083522364 -0.07720135 -0.04827735 -0.08661623
0.03652093 0.071196906 0.0120683685 -0.0036056638 -0.08198695 -0.06437032 -0.06362973 -0.022187725
-0.0068111527 0.039570726 -0.03715471 -0.056281403 0.040715523 0.019817397 0.012100801 0.08260726
-0.0018848777 -0.08079191 -0.015060358 0.058854006 0.049339376 -0.004422225 -0.037262112 -0.038063798
0.05027073 -0.05351479 0.023439221 -0.070727155 -0.046459682 0.040310748 0.038509183 0.014086485

graph_matcher.mlp.2.bias f4 [128]
00000000: 84b3 dbbc a0e7 70bd 2ad8 89bd b1de 5dbd
00000010: 0c40 93bd eeab aabd e750 e3b9 4884 0aba
00000020: 2dcd b53d 50b7 85bd 81fb a4bd bc4e 453d
00000030: 2e60 ea3d 50dc 92bc e407 9bbd 4e00 cebd
00000040: def1 7b3c ba08 2fbd 9240 9dbb c936 953d
00000050: ff50 f5bd a5d1 cb3c 3104 75bc f2b1 84bd
00000060: 4ee3 f0bd 622b a9bd dfc9 b83d 211b 1bbd
00000070: 8501 a63b 8c0b 383c a700 5dbd 3455 b93d
00000080: 16db 80bc 384f 8cbd 54eb 13bd 16d2 8dbd
00000090: 06a6 87bd 48b0 ddbd 1c56 a13c 4786 eebd
000000a0: 9acd 22bd 45fe 8bbd 0dad 653d 92db 98bd
000000b0: a7d7 abbd ebfd 483d c546 723d 9d5c b83d
000000c0: c66d 36bd 05a0 dc3d 92b3 40bd 1f32 95bd
000000d0: ecaa 7dbd 2462 38bd 6a3d a43d 5deb 39bc
000000e0: b124 82bc 42e3 123c e10f 4ebd eae2 52bd
000000f0: e54a 4e3d 3d2c 333c 4d53 abbd e7d5 78bd
00000100: afc1 6fbd 90da a4bd 65b6 98bd dcab afbd
00000110: f86f 883d c7b4 95bd f76e 6fbd 8473 93bd
00000120: b5fe 8c3d 7788 a73d 51c9 6f3d 1334 c33b
00000130: b243 253d 2fba a53d 1543 7cbd 2837 74bd
00000140: 1db2 8cbd 99c1 3abd afdb 4fbd b53a e8bc
00000150: 6f95 9bbd 95f8 6fbd 5e47 7cbd cbdf 8cbd
00000160: 282f 82bd 312e b3bd 7642 08be e41c a2bd
00000170: 22d3 103d 46bd f0bb d261 babc 92e1 133d
00000180: 107a 1abc 5ba1 df3d 67a4 bbbd 762f a63d
00000190: 7f1c acbd 9375 bdbd b30b 2abd 6ca9 cebd
000001a0: d245 f9bc 4d43 debc 09ed 1bbc 4894 9abd
000001b0: 5b62 a93d 9586 c43d c480 51bd 28a4 fe3b
000001c0: 1d83 133c d50f 113c 6372 a2bd cdc3 10bd
000001d0: 8f18 8fbd 8d0b 46bd f975 5dbc 636f 1dbd
000001e0: 2790 cebd 907e 803d a226 7cbd 685c 753d
000001f0: 4cd3 82bc b162 90bd bc99 003e 795b 13bd
-0.026818998 -0.058814645 -0.06730683 -0.054167453 -0.0718995 -0.08333574 -0.0004335709 -0.00052839937
0.08877025 -0.06529105 -0.08055783 0.04817079 0.11444126 -0.017927319 -0.075698644 -0.10058652
0.01537749 -0.04273293 -0.004798957 0.0728584 -0.119783394 0.02488024 -0.014954613 -0.06479253
-0.11762105 -0.08260228 0.09022879 -0.03786767 0.005066099 0.011233222 -0.0539557 0.09049454
-0.015729468 -0.06851047 -0.0361131 -0.06924836 -0.06623463 -0.108246386 0.01969438 -0.11646705
-0.03974686 -0.068356074 0.056073237 -0.07463755 -0.08390742 0.04907028 0.059149522 0.090020396
-0.04453828 0.10772709 -0.04704625 -0.072849505 -0.061930582 -0.04501547 0.08019526 -0.011347619
-0.015886636 0.008965315 -0.050308112 -0.051485933 0.050364394 0.01093584 -0.08365498 -0.06075087
-0.05853432 -0.080495 -0.07456664 -0.085777014 0.06661981 -0.07309871 -0.058455434 -0.07199767
0.06884519 0.081803255 0.0585416 0.0059571355 0.040347762 0.08092152 -0.061587412 -0.059622914
-0.0686991 -0.045594785 -0.050746616 -0.028348306 -0.075968616 -0.058586676 -0.0615915 -0.068786226
-0.063566506 -0.08749045 -0.13306603 -0.07915667 0.035357602 -0.007346782 -0.022751722 0.036103792
-0.009428516 0.10919448 -0.09162217 0.08114521 -0.08403873 -0.09250941 -0.041515063 -0.100909084
-0.0304288 -0.0271317 -0.009516963 -0.07547814 0.08270713 0.09595982 -0.05114819 0.007771034
0.009003428 0.008853872 -0.07931974 -0.03534298 -0.06987106 -0.04835086 -0.013516896 -0.038436305
-0.10086089 0.0627414 -0.06156028 0.05990258 -0.015969895 -0.07050074 0.12558645 -0.035975907

graph_matcher.mlp.4.weight f4 [64, 128]
00000000: f0dc 973d 462e 383d daa9 d93c d649 ce3d
00000010: a88a 1cbb f0fa 883d 67b5 133e 89b8 a13c
00000020: 9d48 123e c52f 6d3c aa24 2b3d 4f5a 65bd
00000030: 2031 9d3b 7078 b1bd 5fa0 953d b3f1 1cbd
00000040: 2faa c93b ea64 acbd ee99 a6ba 95cf a13d
00000050: faf0 a33d eae6 8e3d eeeb 9e3b 5e68 103d
00000060: b469 383d 7de8 a43c f995 053d acf9 ad3d
00000070: 34e4 843c 1825 d23d b572 633d 1fef dc3d
00000080: 0486 8c3d 3bba 3cbd abcd 2fbc cc9e 92bd
00000090: de51 aebc 4bfe 63bd e3fd b4bd 3ed0 38bc
000000a0: b623 1ebd c030 483c a7e2 d53d d526 c8bd
000000b0: 6c9e a4bd 0620 06bc 058e 29bc 8155 68bc
000000c0: 0df8 883d 773d 453d 5b00 a2bc e1b1 d2bd
000000d0: 4af4 05be 8d22 2abd 134b 0b3e a982 1cbd
000000e0: dc0c f03d c27b aebc d887 5c3b 9fad 763d
000000f0: 6f11 b13b 025e 5d3d d2cd dfbc 2caf 943d
00000100: a243 fb3d 457f 81bd 2666 6bbd a946 5abd
00000110: 9a7f 9abc 7a8d 21bc 40ab 10bd 04dc cf3c
00000120: f84b 543d d188 df3d 6fe5 11be 9084 9f3d
00000130: eeeb 08bd a41c e83d 14c6 c13c 8070 3e3b
00000140: edf0 203d f8f9 03be d09c d43c 0a11 9d3d
00000150: 38c7 4dbc f5aa 0abd b048 a63d 2874 c63c
00000160: 0ff9 4c3d 686c 3dbc 5577 a5bc 609f b1bc
00000170: 2774 b33d 37c2 a2bd c4ba b3b9 e42c bf3c
00000180: cc4e 023d 10be 1cbc 69ae 80bd 967a 7bbd
00000190: 250e 3c3d d5a2 1b3d bf75 2b3c b0b9 e83c
000001a0: 0069 c23c a24a abbc a86a 25be 523d 373d
000001b0: d06b 95ba df6d a63d fd66 9bbc fbc4 b23c
000001c0: b854 e23d f12c acbd 115c 093c 2f53 00be
000001d0: dc60 e83c bfd2 c1bd 9739 e33c 5c62 b0bd
000001e0: 19ca 8f3d 7e0b d83d 6222 ed3c 84ac cc3d
000001f0: 6cd8 92bd bbaf 43bd ea1b e63d d6da 563d
00000200: 265c d6bd b4ce 263c 7033 1d3d 278a ebbd
00000210: d44a b5bd 1a9b 173d 18d9 a8bd 5ec6 0cbe
00000220: 4b42 f7bd fe5f c53b 1b18 5dbd ea07 8a3d
00000230: 8148 1ebe fc5c 94bc 689e 3dbd 0d4f f3bd
00000240: 700f f1bc 9a64 38bd 4cef 03bc 0c4f 10be
00000250: 0a2e 813d 4dac 9abd 540a 3cbe a6c1 a0bd
00000260: a17f 84bd 3351 bb3c ed62 083d 4e01 ccbd
00000270: 17fb 0abe d2a2 02bd d650 66bd cd6f e1bd
00000280: 5041 b53c f860 4b3c 267d 013d 8949 8f3d
00000290: aa03 153c 1b4b 03be e163 c03c 1710 9ebd
000002a0: 9a20 16bd 50cd adbd 0bdb 29bd 40b8 8bbb
000002b0: 9ce4 a1bc ba95 08bd 8e18 bfbd f844 cebd
000002c0: 29bb e0bd eee4 e6bd 4840 15be 2b4a 78bd
000002d0: d9a0 a23d faa3 333d 74f3 99bd b849 04bc
000002e0: 4b0b 2bbe 877e 08be 1869 cabb c58a b73d
000002f0: ea15 23be 47d3 d9bb 574e 7cbd cb75 e93b
00000300: 7166 123d 788f b7bc 2f4f cdbd 4a35 533d
00000310: 7900 e3bd 5941 203b 0b9b 163d 9bc7 a43d
00000320: e84e babd dedc 35be 479b febc cb9e e1bb
00000330: d806 ed3c 0aed 15bd 0e87 04be 9a81 30bd
00000340: 3161 17be 1b96 11be fbdc 25bd 028f b2bd
00000350: d86b c53c 5efc 14be f49e 04bd 6278 4e3d
00000360: fc16 373b 8e1d a3bd c015 e3bd 6ee4 e4bc
00000370: 4166 40bd 027d f2bb fc92 60bd 228b 9cbd
00000380: 2089 9e3b 9703 27be d4e2 393d bd9e 4dbc
00000390: 8dac b2bd 939f 06be 413c df3c 391b f8bd
000003a0: da05 0e3d 7f85 0cbe 672c ffbd 2ee1 1cbd
000003b0: 5677 f73c 21ee 35bd 02ca 10be ff65 63bd
000003c0: fcf4 3bbc ef12 24bd 1e2c 323d 2cd1 d93d
000003d0: 14df 0cbe ae09 bd3d 4a0a 72bd 3d60 51bc
000003e0: b2ab c5bd 7d33 21be 5ff7 0e3d 4cfc 04bb
000003f0: 8ec4 4f3d f436 98bc e101 0bbe b93e 883d
0.07415187 0.044966005 0.02657025 0.10072677 -0.0023886357 0.066884875 0.14424668 0.019741314
0.14285512 0.014476721 0.041783012 -0.055994328 0.004797116 -0.0866555 0.07305979 -0.03831644
0.0061543207 -0.08417685 -0.001271067 0.07900921 0.08004947 0.06977637 0.0048499024 0.035255782
0.04502268 0.02013039 0.03261373 0.08494887 0.016222097 0.10260981 0.055529315 0.10787796
0.06861499 -0.04607604 -0.010730187 -0.07159194 -0.021279272 -0.055662435 -0.088374875 -0.011280118
-0.038608275 0.012218654 0.10443621 -0.097730316 -0.08038029 -0.008186346 -0.0103488015 -0.014180542
0.06687937 0.04815432 -0.01977556 -0.10287834 -0.1308147 -0.041536856 0.13602857 -0.038210545
0.11721203 -0.021299247 0.0033650305 0.06022417 0.0054036896 0.05404473 -0.027319822 0.07259974
0.12268759 -0.06323103 -0.057470463 -0.053290043 -0.018859673 -0.009860391 -0.035319567 0.025373466
0.051830262 0.109147675 -0.14247678 0.07788956 -0.033428125 0.11333588 0.023654021 0.0029058754
0.039292265 -0.12888324 0.02595368 0.076692656 -0.0125597045 -0.033854444 0.08119333 0.02422531
0.05004221 -0.011561491 -0.020198504 -0.021682441 0.08762389 -0.079472 -0.00034280692 0.023336835
0.031813428 -0.009566799 -0.06283266 -0.061396204 0.045911927 0.037997086 0.010465085 0.028408855
0.023731709 -0.020909611 -0.16153967 0.044736214 -0.0011399928 0.08126425 -0.018970007 0.021822443
0.11051315 -0.084070094 0.008383767 -0.12531732 0.028366499 -0.09464025 0.027737422 -0.086125106
0.07020969 0.10549067 0.028947059 0.09993842 -0.071701854 -0.04777501 0.11235793 0.052454792
-0.10466795 0.010181118 0.038379133 -0.1150096 -0.08852163 0.03701315 -0.08244532 -0.13747546
-0.12073191 0.006023406 -0.053978067 0.06739791 -0.15457346 -0.018110745 -0.046293646 -0.11880312
-0.029426306 -0.045017816 -0.008052658 -0.14092654 0.063076094 -0.07552395 -0.18363315 -0.078494355
-0.06469656 0.022865867 0.033297468 -0.09961186 -0.13572346 -0.03189356 -0.056229435 -0.110076524
0.02212587 0.012413256 0.03161349 0.069964476 0.009095112 -0.12821619 0.023485126 -0.07717913
-0.036652185 -0.08486426 -0.04146866 -0.0042639077 -0.01976233 -0.033345915 -0.09330855 -0.100717485
-0.10973198 -0.112741336 -0.14575303 -0.060617607 0.079408355 0.043857552 -0.07517138 -0.008074217
-0.16703527 -0.13329516 -0.006177079 0.08962015 -0.15926328 -0.0066475007 -0.06159815 0.0071246377
0.035742227 -0.022407278 -0.10024869 0.051564492 -0.110840745 0.0024453013 0.036768954 0.08045884
-0.090970814 -0.17760035 -0.031079901 -0.0068853847 0.028933927 -0.03660301 -0.12942144 -0.043092348
-0.1478317 -0.14217417 -0.040493947 -0.08718683 0.024099275 -0.14549395 -0.032378152 0.050407775
0.0027937284 -0.079646215 -0.11088133 -0.027940955 -0.046972517 -0.007400156 -0.054827675 -0.07643725
0.004838124 -0.16309963 0.045382336 -0.012550053 -0.08724318 -0.1314681 0.027250411 -0.12114567
0.03467355 -0.137228 -0.12459641 -0.038300686 0.030208271 -0.04441655 -0.1413956 -0.055517193
-0.011471983 -0.04005712 0.043499105 0.106355995 -0.13756973 0.09230362 -0.059091844 -0.012779293
-0.09651889 -0.15742297 0.03490388 -0.0020291982 0.05072456 -0.018580891 -0.13574935 0.066525884

graph_matcher.mlp.4.bias f4 [64]
00000000: 2cbd 6f3d 7498 debd 76c6 46bd 9212 d1bd
00000010: ec14 9f3d 2700 bdbc f14d df3c 6ce4 2ebe
00000020: c11b 3cbe 9c8f 28bd 8ec2 00be f7a3 debd
00000030: 417a d23c 2a8b 9ebd 03e0 30be 4113 20be
00000040: aa43 1cbe 4486 52bd 3441 3e3e 1b27 0fbe
00000050: 9ec9 c43d 723a b23d 3573 13be 6ebc 643c
00000060: 46a4 49bc 7c27 703d 4976 9c3c 0626 fabd
00000070: ae7b 23be a364 243e 7563 493d 7012 febd
00000080: fb17 573e e254 e43d f56c f0bd 7539 33be
00000090: 0902 5e3e 5154 0ebe 49f8 08be a2f8 17be
000000a0: 7c4d 783d ec4a 11be 0f39 06be c1bd 6bbd
000000b0: bb9e 0cbd 0367 15be 76ec b8bc d992 20be
000000c0: 3daf a43d be89 863d ebac 2f3d 04d6 d0ba
000000d0: 0ab4 49be 0386 bd3d 79a3 90bd ced2 3dbe
000000e0: e595 f23d e42c 013e 741d 33bd af42 2e3e
000000f0: f322 223e eb3a 4f3d fc3e fa3d c2e1 323e
0.058530018 -0.10868922 -0.04852911 -0.1020862 0.077676624 -0.023071362 0.027258845 -0.17079324
-0.18369962 -0.04115258 -0.12574217 -0.108711176 0.02569306 -0.07741387 -0.17272954 -0.15632345
-0.15260187 -0.051397577 0.1857956 -0.13979761 0.09608768 0.08702554 -0.14399417 0.013960941
-0.012307232 0.058631405 0.019099372 -0.12214284 -0.15965149 0.16054015 0.049167115 -0.124058604
0.21005242 0.111490026 -0.11739532 -0.17502387 0.21680464 -0.13899352 -0.13375963 -0.1484094
0.06062077 -0.14188737 -0.13107704 -0.05755401 -0.034331065 -0.14590077 -0.02257369 -0.15681018
0.080412365 0.06569241 0.042889517 -0.0015932922 -0.19697586 0.09254076 -0.0706243 -0.18537447
0.11844996 0.1261478 -0.04372926 0.17017625 0.15833645 0.050593298 0.122190446 0.17468932
