Result/GCN/1000_sample/model_epoch_44_f1_0.8773.pth (torch, 841514 bytes, 42 tensors)

graph_matcher.gnn.conv1.bias f4 [64]
0	0xbce171bc	-0.027520053
1	0xbc934d0c	-0.017981075
2	0x3d27b8a1	0.04094756
3	0xbcefe4e9	-0.029283958
4	0x3dccec98	0.10006064
5	0x3c9c8d2c	0.019110285
6	0x3d498319	0.04919729
7	0xbd9624ca	-0.07331236
8	0xbd1f3d2c	-0.038876697
9	0x3ca2bbc2	0.01986492
10	0x3b0df573	0.0021661192
11	0xbd631591	-0.05544049
12	0xbcf9d525	-0.030497143
13	0xbd387c4e	-0.04504042
14	0xbe4ca539	-0.19984902
15	0xbbd081b9	-0.0063631204
16	0xbd0a7f33	-0.033812713
17	0x00000000	0.0
18	0xbd39c1f4	-0.045350984
19	0x3cd699c3	0.026196366
20	0x3cad39b8	0.021145687
21	0x00000000	0.0
22	0x00000000	0.0
23	0x00000000	0.0
24	0xbdb4db17	-0.088308506
25	0xbc9e4f71	-0.01932499
26	0x3da0e016	0.07855241
27	0x3d1895d0	0.037252247
28	0x3d5916ff	0.053000446
29	0x3e0e8e06	0.13921365
30	0x3d8b49af	0.068011634
31	0xbdc47109	-0.09591872
32	0xbd75f8b9	-0.060051654
33	0x3c54e25a	0.01299342
34	0xbd5f58ba	-0.054527976
35	0x3c2af212	0.010433691
36	0x3ccdbb39	0.025113689
37	0xbd8d2df1	-0.06893528
38	0xbcc86626	-0.02446277
39	0x3da2ade1	0.07943321
40	0x00000000	0.0
41	0xbcd5f192	-0.026116166
42	0xbe09c642	-0.13454536
43	0x00000000	0.0
44	0xbd1942bf	-0.03741717
45	0xbd634b05	-0.055491466
46	0xbde46509	-0.111520834
47	0xbaa4812b	-0.0012550702
48	0xbcd23ece	-0.025664713
49	0xbddc5af1	-0.10759533
50	0xbd7584b7	-0.05994102
51	0xbd66fd5a	-0.05639396
52	0x3a4dbc78	0.00078482134
53	0x3db317d6	0.08744781
54	0x00000000	0.0
55	0x3dba99a8	0.09111339
56	0x3de960b9	0.113954015
57	0x3c26831e	0.010163097
58	0x399fca5a	0.00030477607
59	0xbc03e21a	-0.008049512
60	0xbdabfa0d	-0.08397303
61	0x3bedf161	0.0072614406
62	0x3d80d669	0.062908955
63	0xbcf6467b	-0.030062905

graph_matcher.gnn.conv1.lin.weight f4 [64, 4]
0	0x3f244cb1	0.6417952
1	0x3e916a45	0.2840139
2	0x3f11fc9c	0.57026076
3	0xbdd81bb9	-0.10552163
4	0xbe83e9a9	-0.25764206
5	0x3de8529e	0.11343883
6	0xbe6b31f1	-0.2296827
7	0x3e3bd936	0.18344578
8	0x3ea2c1ea	0.3178857
9	0x3ea281f9	0.31739786
10	0xbf02a28e	-0.5102929
11	0xbed7f7f8	-0.42181373
12	0xbe3d4ede	-0.18487117
13	0xbe7637e0	-0.24044752
14	0xbe297bf0	-0.16551185
15	0x3e09fbb4	0.13474923
16	0x3f4e4031	0.805667
17	0xbe066bd0	-0.13127065
18	0x3f3daf27	0.74095386
19	0xbe140d08	-0.14458096
20	0xbeaf84e2	-0.3428107
21	0xbe58a08c	-0.21154994
22	0xbe9fe93e	-0.31232637
23	0x3e157081	0.14593698
24	0xbeb14c6e	-0.34628624
25	0x3d68752c	0.05675237
26	0xbe8fab52	-0.28060395
27	0x3df899e5	0.12138728
28	0xbea06114	-0.31324065
29	0x3e361894	0.17782813
30	0xbdf707f2	-0.12062062
31	0x3e0b7630	0.13619304
32	0xbe40d4cb	-0.18831174
33	0x3e71c355	0.2360967
34	0xbe9ee955	-0.31037393
35	0x3e240e9e	0.16021201
36	0xbdc6faf3	-0.097158335
37	0x3e8b2777	0.27178547
38	0xbec40c62	-0.38290697
39	0x3d8d3a39	0.06895871
40	0xbea98773	-0.33111152
41	0xbec37861	-0.3817778
42	0xbe8f186f	-0.2794833
43	0x3e5a00d2	0.21289375
44	0xbe31ab6e	-0.17350551
45	0xbe71c5b6	-0.23610577
46	0xbe63c699	-0.22243728
47	0x3e391fbf	0.18078516
48	0xbd8207bb	-0.06349131
49	0xbe93feef	-0.28905436
50	0xbe356c6c	-0.17717141
51	0x3d1f1eea	0.03884784
52	0x3f086ecf	0.5329408
53	0x3b6e79db	0.003638855
54	0x3e843790	0.2582364
55	0xbe37f54f	-0.17964672
56	0x3d07db6d	0.033168245
57	0xbe908594	-0.28226912
58	0x3cb3bd7b	0.021940937
59	0x3d7b2ca2	0.061321862
60	0x3f1050c2	0.56373227
61	0x3ceb6e41	0.028739097
62	0x3f5c083b	0.8595006
63	0xbca08b59	-0.019597696
64	0xbe45673e	-0.19277665
65	0xbe12dc3a	-0.14341822
66	0xbe7dff65	-0.24804457
67	0x3e03432e	0.12818596
68	0xbe8fad4c	-0.28061903
69	0xbe582d72	-0.21111086
70	0xbe9753c1	-0.29556087
71	0xbe314037	-0.17309652
72	0xbdd84449	-0.10559899
73	0x3d6a1a84	0.057154194
74	0xbe4f80b8	-0.20263946
75	0x3dcffcd2	0.101556435
76	0xbed0e8c5	-0.4080259
77	0x3d96d378	0.07364553
78	0xbec386db	-0.38188824
79	0x3e5699ac	0.20957059
80	0xbe419bb9	-0.1890706
81	0xbe6f5894	-0.23373634
82	0xbe280a4b	-0.16410176
83	0x3ce13f9f	0.027496157
84	0xbe92b106	-0.28650683
85	0xbd95bc56	-0.07311313
86	0xbd843a42	-0.06456424
87	0xbda28bac	-0.079367965
88	0xbe9236e7	-0.28557512
89	0xbe0e4499	-0.13893355
90	0xbddf04c4	-0.10889581
91	0xbe5f09d5	-0.21781094
92	0xbd9901fc	-0.074710816
93	0xbe055189	-0.13019384
94	0xbe046872	-0.12930468
95	0xbe59eb59	-0.21281184
96	0xbe6a0bbc	-0.22856039
97	0x3e96a00b	0.29418978
98	0xbe1500c3	-0.14551072
99	0x3e1f0351	0.15528609
100	0x3ee7d39a	0.45278627
101	0x3cf50520	0.02990967
102	0x3eada801	0.3391724
103	0xbd5e13a9	-0.054217968
104	0x3e759d05	0.2398568
105	0x3d731d2d	0.059353996
106	0x3f661f97	0.8989195
107	0xbeb57d2c	-0.3544706
108	0x3f2b1fc1	0.6684533
109	0xbc85d786	-0.016338121
110	0x3f616c8a	0.8805624
111	0xbea37503	-0.3192521
112	0x3edcd600	0.4313202
113	0x3c0f4555	0.008744557
114	0x3f8b4b4f	1.0882357
115	0xbeb7a47b	-0.35867676
116	0x3ef328d7	0.47492096
117	0xbe4036fe	-0.18770978
118	0x3f8ccd7f	1.1000212
119	0xbdf2eff8	-0.11862177
120	0x3e80679f	0.25079057
121	0x3ead67f7	0.3386838
122	0xbf29dbe2	-0.6635114
123	0xbedcbc51	-0.43112424
124	0x3e9b791f	0.30365846
125	0xbea4d334	-0.32192385
126	0xbe16dc10	-0.14732385
127	0x3db74466	0.08948593
128	0xbe8c82cd	-0.27443543
129	0xbdf85bd6	-0.12126891
130	0xbe75df2c	-0.24010915
131	0xbd3c6d0d	-0.046002436
132	0x3f290bdc	0.6603372
133	0xbd2d2488	-0.042271167
134	0x3f8f18dc	1.1179461
135	0xbd414c49	-0.04719189
136	0xbd7780ec	-0.060425684
137	0xbdef280d	-0.11677561
138	0xbe18a0ef	-0.14905141
139	0x3bf6f31b	0.0075363046
140	0x3f014732	0.5049926
141	0xbecf9373	-0.40542182
142	0xbf1f755b	-0.62288445
143	0xbc93e616	-0.01805405
144	0xbeead80b	-0.45867953
145	0x3ebf244c	0.3733238
146	0x3ed408e8	0.41413045
147	0xbeffc6fd	-0.49956504
148	0xbdf71e26	-0.12066297
149	0xbba2ece5	-0.0049720877
150	0xbdc3f50a	-0.09568222
151	0xbd2a88cd	-0.04163437
152	0xbe2fd2e6	-0.17170295
153	0xbd90db4a	-0.07073076
154	0xbae97ffe	-0.0017814634
155	0xbe50a7e7	-0.2037655
156	0x3f2180d1	0.63087183
157	0xbdb2b661	-0.08726192
158	0x3f7bd515	0.9837201
159	0xbde9cd74	-0.1141614
160	0xbd7efa24	-0.06225027
161	0xbe1f9bdc	-0.155868
162	0xbe6a8a74	-0.22904378
163	0xbe62f2c0	-0.22162914
164	0x3e8da078	0.2766149
165	0x3ebefd7a	0.37302762
166	0xbecfec2f	-0.4060988
167	0xbeaa0786	-0.33208865
168	0x3eba6892	0.36407906
169	0xbdd853a4	-0.10562828
170	0xbda96aac	-0.08272299
171	0x3dd0dc08	0.10198218
172	0xbe865d6e	-0.26243156
173	0xbe81ac90	-0.25326967
174	0xbe575462	-0.21028283
175	0xbe4d0dcc	-0.20024794
176	0xbe937c2b	-0.2880567
177	0xbe8e4d68	-0.2779343
178	0xbe66a170	-0.22522521
179	0x3e4c2ef0	0.1993978
180	0xbe2b68e6	-0.16739234
181	0xbe1ff5f6	-0.1562117
182	0xbe966ed2	-0.29381424
183	0x3d861dd9	0.06548662
184	0xbe9697ee	-0.29412788
185	0x3e8ab47b	0.2709082
186	0xbe439fc3	-0.19103913
187	0xbe6d736e	-0.23188564
188	0x3f4214df	0.75813097
189	0x3d837390	0.06418526
190	0x3ea1d82c	0.3161024
191	0xbd97a24c	-0.074040025
192	0x3c797674	0.015225995
193	0xbe342048	-0.1759044
194	0xbdcbf1fc	-0.09958264
195	0xbe10ff1c	-0.14159817
196	0x3ecc867e	0.3994636
197	0xbed858f9	-0.4225538
198	0x3f1798b7	0.592174
199	0x3cc7cbb6	0.02438913
200	0x3f3063d2	0.68902314
201	0x3e510907	0.204136
202	0x3f7a10b6	0.9768175
203	0xbc04d866	-0.008108234
204	0xbdef9459	-0.11698217
205	0xbe7f9665	-0.24959715
206	0xbe960e38	-0.29307723
207	0x3e0815fa	0.13289633
208	0x3e0ae8de	0.13565394
209	0x3ec4cb8d	0.38436547
210	0xbecc5ffd	-0.39916983
211	0xbe3d9b1d	-0.18516202
212	0x3eeaddf4	0.45872462
213	0x3dc4e1ce	0.09613381
214	0x3f835ef3	1.0263351
215	0xbdfa28e6	-0.12214832
216	0xbd7bd4c0	-0.06148219
217	0xbe84c20c	-0.25929296
218	0xbd8bb288	-0.068211615
219	0xbe198183	-0.14990811
220	0x3eb4f96b	0.3534654
221	0x3d5f85cf	0.05457097
222	0x3f520141	0.82033163
223	0xbea45158	-0.3209331
224	0x3e9e210c	0.30884588
225	0xbe532c32	-0.20622328
226	0x3f8ee8c2	1.1164782
227	0xbd82728e	-0.06369506
228	0xbde9f570	-0.114237666
229	0xbf48fc0d	-0.785096
230	0x3f97c0d1	1.1855718
231	0xbd39b86a	-0.045341887
232	0x3e73ecd5	0.23820813
233	0xbeed7e8e	-0.46385616
234	0x3f69aee4	0.91282487
235	0xbd4a715c	-0.049424514
236	0x3ef35a32	0.4752975
237	0x3e0e9d2a	0.13927141
238	0x3ec2d6c9	0.38054493
239	0xbeb1ba12	-0.34712273
240	0xbe1bede4	-0.15227467
241	0x3e6b061a	0.22951546
242	0xbe5a6e37	-0.21331106
243	0x3e6e0e58	0.23247659
244	0xbe7d04a6	-0.24708804
245	0xbeae3890	-0.3402753
246	0xbeb8fb28	-0.36129117
247	0x3e3c55b7	0.18392073
248	0x3f0f2689	0.55918175
249	0x3de203af	0.11035859
250	0x3f6821d1	0.906766
251	0xbebc0bed	-0.3672785
252	0x3eeeefec	0.4666742
253	0xbdae0500	-0.084970474
254	0x3f4bee67	0.7966065
255	0xbcd13d88	-0.025542036

graph_matcher.gnn.conv2.bias f4 [128]
0	0x3d155d20	0.036465764
1	0xbd5014de	-0.05080115
2	0xbd11cad1	-0.03559381
3	0xbd6cb2ff	-0.05778789
4	0xbd42b966	-0.04754009
5	0xbd634f18	-0.05549535
6	0xbbedd501	-0.007258058
7	0xbd3aa8d1	-0.045571152
8	0xbd78dce1	-0.06075752
9	0xbdb7a8a4	-0.089677125
10	0xbe6572ff	-0.22407149
11	0xbe2c1a6d	-0.16806956
12	0xbd7dacd3	-0.061932396
13	0xbd23f964	-0.04003276
14	0xbd8d5de1	-0.069026716
15	0xbd5f27c1	-0.05448127
16	0xbdd2baf3	-0.10289564
17	0xbd7f0798	-0.0622631
18	0xbda169fe	-0.078815445
19	0xbd07942b	-0.03310029
20	0xbd42cec6	-0.047560476
21	0xbd1b4ba9	-0.037913952
22	0xbce2e964	-0.02769918
23	0x3d1b2c01	0.037883762
24	0xbd6aed37	-0.057355132
25	0xbd989164	-0.07449606
26	0x3d14c528	0.036320835
27	0xbe00054c	-0.1250202
28	0xbc67cbb0	-0.014147684
29	0x3ca78525	0.02044923
30	0x3d11c9b9	0.03559277
31	0xbc5e98ec	-0.013586264
32	0xbd2c386a	-0.04204599
33	0xbdd1159d	-0.102092005
34	0xbd5acfb7	-0.05342075
35	0xbc215741	-0.009847463
36	0xbdb0d3c9	-0.08634145
37	0xbc0c3ea6	-0.008559858
38	0xbd71a875	-0.058998544
39	0xbd945471	-0.072426684
40	0xbd364f2a	-0.04450909
41	0x3d25635e	0.040377967
42	0xbd7672d3	-0.0601681
43	0x3cb6c116	0.022308867
44	0xbd0fb864	-0.035087958
45	0xbd286d62	-0.04111994
46	0xbda80734	-0.08204499
47	0xbcd27952	-0.025692616
48	0xbcc4330d	-0.023950124
49	0xbd7c127a	-0.061541058
50	0xbdfa64a4	-0.12226227
51	0xbdacdcf8	-0.08440584
52	0x3cb8c37c	0.022554152
53	0xbd6a7288	-0.05723813
54	0x3d17c5dd	0.03705393
55	0xbd101b38	-0.035182208
56	0xbd814a19	-0.06312961
57	0x3cfdad7a	0.03096651
58	0x3d4bda7f	0.04976892
59	0xbdb31f2e	-0.087461814
60	0xbc6e9c6d	-0.014563662
61	0xbda969bd	-0.08272121
62	0xbd24c065	-0.040222544
63	0xbd45e028	-0.048309475
64	0x3cbb957e	0.022898432
65	0xbd19e805	-0.037574787
66	0xbd943dbe	-0.07238339
67	0xbc38645e	-0.011254398
68	0xbda3e91f	-0.08003449
69	0xbdaf7cfb	-0.0856876
70	0x3c4dd325	0.012562548
71	0xbd8b9264	-0.06815031
72	0x3d12fd5b	0.03588615
73	0xbcb19793	-0.021678722
74	0x3d39dd5e	0.045377128
75	0x3b0cadad	0.0021465824
76	0xbb3fda87	-0.002927454
77	0xbd627fd3	-0.055297684
78	0xbd7158d1	-0.058922593
79	0xbd93daf3	-0.072194956
80	0xbd6081fb	-0.05481146
81	0x3cd1c8cf	0.025608448
82	0xbdabadec	-0.08382782
83	0xbd2690f3	-0.040665578
84	0xbd4bad4a	-0.04972581
85	0xbd11ea6c	-0.035623953
86	0xbd91827d	-0.07104967
87	0x3c60d880	0.013723493
88	0xbb1c994a	-0.0023895078
89	0x3ba37e82	0.004989446
90	0xbdfd0239	-0.123539396
91	0xbdc9ec93	-0.09859576
92	0xbd325321	-0.04353631
93	0xbdf24e60	-0.11831355
94	0xbd852428	-0.06501037
95	0xbcd5c624	-0.026095457
96	0xbdc4e68f	-0.09614288
97	0xbce97f15	-0.02850298
98	0x3c4fdba0	0.01268664
99	0xbd84b297	-0.06479376
100	0xbd134992	-0.035958834
101	0xbd4f8d9b	-0.050672155
102	0x3d5483a7	0.051883366
103	0xbd242084	-0.04007007
104	0x3d8a4044	0.06750539
105	0xbbd7c8df	-0.006585225
106	0xbc8859b9	-0.016644346
107	0xbd797439	-0.060901854
108	0xbd8c1d22	-0.06841494
109	0xbcbd111e	-0.023079451
110	0xbd065faa	-0.032806076
111	0xbd1abe3e	-0.037779085
112	0xbd405353	-0.046954464
113	0x3ce6a8bc	0.02815663
114	0xbd5d56f3	-0.054038
115	0xbc78d470	-0.015187368
116	0xbd40fc8f	-0.04711586
117	0xbd22677a	-0.039649464
118	0xbd99f743	-0.075178646
119	0xbd6b6b60	-0.057475448
120	0xbd23fcc5	-0.04003598
121	0xbd76f1b4	-0.0602891
122	0xbdf2fe8f	-0.118649594
123	0xbd5227c6	-0.051307462
124	0xbd4dfcd3	-0.05028994
125	0xbd2cf000	-0.04222107
126	0xbd4f9f89	-0.050689254
127	0xba3de5f2	-0.00072440424

graph_matcher.gnn.conv2.lin.weight f4 [128, 64]
0	0x3e4c33ae	0.19941589
1	0x3c427f08	0.011871107
2	0x3ebf2419	0.37332228
3	0xbe4da688	-0.20083058
4	0x3e77d51a	0.24202386
5	0xbdd6edcb	-0.10494574
6	0x3d9ecb98	0.07753676
7	0xbd804f62	-0.06265141
8	0xbd0bf214	-0.03416641
9	0xbda6c723	-0.08143451
10	0xbe7ec5dd	-0.24880166
11	0xbdb08b8a	-0.08620365
12	0x3dd2a537	0.102854185
13	0x3e3db004	0.18524176
14	0xbd3ab66a	-0.04558412
15	0x3e92b1c9	0.28651264
16	0x3c9358ac	0.017986618
17	0xbd7be374	-0.061496213
18	0xbe15dd19	-0.14635123
19	0xbe02c198	-0.12769163
20	0xbe5d1720	-0.21590853
21	0x3e2b382d	0.16720648
22	0x3cfb33c8	0.03066434
23	0x3e2242af	0.1584575
24	0xbc1bd3ea	-0.0095109735
25	0x3ed1d819	0.40985182
26	0x3ee78faa	0.45226794
27	0x3f1370fe	0.5759429
28	0x3ede5642	0.43425184
29	0x3ec3e6ab	0.38261923
30	0x3efc6b8a	0.49300796
31	0x3da29072	0.07937707
32	0x3cec6fe0	0.02886194
33	0x3e8fec9f	0.28110215
34	0x3d1ea734	0.038733676
35	0x3e74894e	0.23880503
36	0xbdfd1126	-0.123567864
37	0x3d64c410	0.055851042
38	0x3e26a6f0	0.16274619
39	0x3ed31048	0.4122336
40	0x3ba12fa0	0.0049190074
41	0x3e3566eb	0.17715041
42	0x3da1a5d5	0.07892958
43	0x3c9cc500	0.019136906
44	0xbdcadd8c	-0.09905538
45	0x3cea8a0d	0.02863028
46	0x3e73fbfc	0.23826593
47	0x3ec7e489	0.39041546
48	0xbe461c1c	-0.1934666
49	0xbda4e0d0	-0.08050692
50	0x3d0de865	0.034645457
51	0xbe3d9986	-0.18515596
52	0x3caa57c5	0.020793805
53	0x3ec1acbf	0.37827107
54	0x3e32a441	0.1744547
55	0x3f48013c	0.78126884
56	0x3f3f0a45	0.74625045
57	0x3f1f4604	0.6221621
58	0x3f034079	0.5127025
59	0x3f02dcc0	0.5111809
60	0xbe4179bc	-0.18894094
61	0xbe04c83e	-0.12967011
62	0x3eb5271e	0.35381407
63	0x3ed5d41c	0.4176339
64	0xbe84ad3e	-0.25913423
65	0xbdd6c650	-0.10487044
66	0x3bc86dd2	0.006116607
67	0x3d8b04b7	0.06788009
68	0xbe20d955	-0.15707906
69	0xbd92872c	-0.07154688
70	0x3dbdb26c	0.09262547
71	0xbe178351	-0.14796187
72	0xbdd271e9	-0.10275633
73	0x3d4fb275	0.0507073
74	0xbe0180d5	-0.12646802
75	0xbd73ef74	-0.059554532
76	0x3c293a08	0.010328777
77	0xbe0252d3	-0.12726907
78	0x3e0d2f61	0.13787605
79	0xbd9d4dfc	-0.0768089
80	0x3d721fd4	0.059112385
81	0xbe0c8536	-0.13722691
82	0x3d56ea09	0.052469287
83	0x3daa3efd	0.08312795
84	0xbd744d99	-0.059644315
85	0x3e247ae5	0.16062506
86	0xbce665d8	-0.028124735
87	0xbde28445	-0.11060385
88	0x3bf0ac71	0.0073447754
89	0xbd8edf01	-0.06976128
90	0xbd21178d	-0.0393291
91	0xbe7eb405	-0.2487336
92	0xbe4e406f	-0.20141767
93	0xbe9a4b49	-0.30135563
94	0xbe576c19	-0.2103733
95	0x3e0a30a9	0.13495125
96	0x3d23fe95	0.04003771
97	0xbcd6e9c3	-0.026234513
98	0x3cff81df	0.031189857
99	0x3cacba84	0.021085031
100	0xbdcc914c	-0.09988651
101	0x3b943da9	0.004523952
102	0xbde002aa	-0.10938008
103	0xbe461e54	-0.19347507
104	0x3c9f8928	0.01947458
105	0xbe5cf536	-0.21577916
106	0x3cf5c7d9	0.030002521
107	0x3da361de	0.07977651
108	0x3d76916a	0.06019727
109	0xbc1b48d3	-0.009477812
110	0xbe81e895	-0.25372759
111	0x3c8f86bb	0.0175203
112	0xbdd38e78	-0.10329908
113	0xbe34d22e	-0.17658302
114	0xbe09368a	-0.13399711
115	0x3c1a91f0	0.009434208
116	0xbe981b00	-0.297081
117	0x3bf03805	0.007330897
118	0xbcbca620	-0.023028433
119	0xbca196f0	-0.019725293
120	0xbe2f1506	-0.17097864
121	0xbdbe683a	-0.092972234
122	0x3b5f1b03	0.00340432
123	0xbe056cab	-0.13029735
124	0xbcd4f1d5	-0.02599422
125	0x3da6369e	0.08115886
126	0xbeb2b752	-0.34905487
127	0xbd9eb4ae	-0.07749306
128	0x3ce38a8c	0.027776025
129	0x3c9aafdc	0.018882684
130	0xbe09e631	-0.13466717
131	0xbe1f836d	-0.15577479
132	0xbe0dc4aa	-0.13844553
133	0x3dec9ece	0.11553727
134	0x3cd1ef49	0.025626795
135	0xbde2e8ea	-0.11079581
136	0xbdb13958	-0.086535156
137	0xbe469d78	-0.19396007
138	0xbe1ba438	-0.15199363
139	0xbcafca44	-0.021458752
140	0xbdec1e3c	-0.11529204
141	0xbdc210c2	-0.094758525
142	0xbdd3f73e	-0.10349892
143	0xbe484197	-0.1955627
144	0xbddd1423	-0.107948564
145	0x3e294fc5	0.16534336
146	0xbe3a91e1	-0.18219711
147	0xbc96d67f	-0.018412827
148	0xbe1b8423	-0.15187125
149	0xbde97d97	-0.114009075
150	0xbe025bec	-0.12730378
151	0x3bca93e0	0.006182179
152	0xbbde53e2	-0.006784902
153	0xbe77648d	-0.24159451
154	0xbdce41cd	-0.10071144
155	0xbe013819	-0.12619056
156	0xbe7f5b14	-0.24937087
157	0xbd97895f	-0.07399248
158	0x3d9a222a	0.075260475
159	0x3d0c074c	0.034186646
160	0x3e49045b	0.19630568
161	0xbe76cca8	-0.24101508
162	0xbe0ee8ca	-0.1395599
163	0x3d5dfac5	0.05419423
164	0x3d254595	0.04034956
165	0xbd80bd77	-0.062861376
166	0x3d80b930	0.06285322
167	0xbda19420	-0.07889581
168	0xbc9553b0	-0.018228382
169	0x3dbe1ae6	0.09282474
170	0x3b2e600f	0.0026607548
171	0xbe2faca7	-0.17155705
172	0x3e12ca77	0.14335047
173	0xbde51061	-0.11184765
174	0xbd29c903	-0.041451465
175	0x3b4ea24c	0.0031529842
176	0xbe303749	-0.1720859
177	0xbdb949f6	-0.0904731
178	0xbd1df670	-0.0385651
179	0xbd8cd7df	-0.06877112
180	0xbe2f47c4	-0.1711722
181	0x3b82160e	0.0039699143
182	0xbc9adbf0	-0.018903702
183	0xbe4d9b1c	-0.20078701
184	0xbd3a65cb	-0.045507234
185	0xbe89df94	-0.2692839
186	0x3e0ad909	0.13559355
187	0x3d97cf57	0.07412594
188	0x3d3fcc3e	0.04682564
189	0xbd054cc7	-0.032543924
190	0xbe0848e3	-0.13309054
191	0x3ccffeca	0.025390048
192	0x3d6bcabd	0.057566393
193	0x3dfe706f	0.12423789
194	0xbe0bcb32	-0.13651732
195	0x3c628c8d	0.013827455
196	0xbd9ab5c4	-0.075542
197	0x3e0ce2e7	0.13758431
198	0xbdb25f5d	-0.08709595
199	0xbe43889e	-0.19095084
200	0xbb878020	-0.0041351467
201	0xba5d3855	-0.0008438875
202	0x3d39624c	0.04525976
203	0x3db63e8c	0.088986486
204	0xbe2d4478	-0.1692065
205	0xbe0063da	-0.1253809
206	0xbdaeb055	-0.085297264
207	0xbe52442c	-0.20533818
208	0xbe57161a	-0.21004525
209	0x3db8a0ca	0.09015043
210	0xbe1f8305	-0.15577324
211	0xbe2cdacd	-0.16880341
212	0xbe271d37	-0.16319738
213	0x3cafe1a8	0.021469906
214	0x3d841746	0.064497516
215	0xbe30e658	-0.17275369
216	0x3d36b462	0.04460562
217	0xbc6f55e1	-0.0146078775
218	0x3c4711b1	0.012150214
219	0xbe5d4eed	-0.21612139
220	0xbe8cc092	-0.2749067
221	0xbec6dd0a	-0.38840514
222	0x3e49180b	0.19638078
223	0x3d0c062d	0.034185577
224	0xbcd8ec70	-0.02647993
225	0xbea04fb3	-0.31310806
226	0xbdc99607	-0.098430686
227	0xbd03bdf4	-0.032163575
228	0xbe63f676	-0.22261986
229	0xbe15216e	-0.14563534
230	0xbe361f6b	-0.17785423
231	0xbe57ec8b	-0.21086328
232	0x3d7828ec	0.0605859
233	0xbe455d82	-0.19273952
234	0x3dd9208e	0.106019124
235	0xbcf74af8	-0.030187115
236	0x3d2869fc	0.0411167
237	0x3d975ad2	0.073903695
238	0xbe8d0f84	-0.275509
239	0xbe0739d5	-0.13205655
240	0xbe64f38b	-0.2235853
241	0xbe0eb7f3	-0.13937359
242	0x3cbdfcd4	0.023191847
243	0x3d638fe1	0.055557135
244	0xbec7b5ff	-0.3900604
245	0xbe0029c9	-0.1251594
246	0x3dbbc742	0.09168865
247	0xbcd0ca06	-0.025486957
248	0xbe478f61	-0.19488288
249	0xbcbe1199	-0.02320175
250	0xbe7ee885	-0.24893387
251	0x3af22689	0.0018474619
252	0x3d47e894	0.04880579
253	0xbde4a715	-0.11164681
254	0xbdccda82	-0.100026146
255	0x3c467ec3	0.012115183

graph_matcher.mlp.0.weight f4 [128, 256]
0	0xbe728144	-0.23682123
1	0xbc289106	-0.0102884825
2	0x3d907889	0.0705424
3	0x3d251bee	0.04030984
4	0x3e5dbea3	0.21654753
5	0x3d8d362e	0.068950996
6	0xbdf8c4ba	-0.121468976
7	0x3d9b7ec5	0.07592539
8	0x3dd21437	0.10257762
9	0xbc4c7e01	-0.012481214
10	0xbb543de3	-0.003238552
11	0xbc12fe3d	-0.008971748
12	0xbcda629f	-0.026658354
13	0x3d2a07d4	0.04151137
14	0x3cae3205	0.021264086
15	0xbcbd6c8f	-0.023123054
16	0xbcb92786	-0.022601854
17	0x3db1bd30	0.08678663
18	0x3d80b21b	0.06283971
19	0xbcbb7d30	-0.022886842
20	0x3da550a6	0.08072023
21	0xbd5e005f	-0.054199573
22	0xbc12aa83	-0.008951786
23	0xbe5ceedf	-0.21575497
24	0x3d6dd5ef	0.05806535
25	0x3d245512	0.040120192
26	0x3dcf78cb	0.10130461
27	0x3dc9251a	0.0982153
28	0x3d9ce570	0.07660949
29	0xbe262f0b	-0.16228883
30	0xbd403cab	-0.046932857
31	0xbc7603ac	-0.015015524
32	0xbd61f1c0	-0.05516219
33	0xbc188550	-0.009309128
34	0x3c42764a	0.011869023
35	0xbb7199f6	-0.003686545
36	0x3db5a922	0.0887015
37	0xbdca972d	-0.09892116
38	0x3db95be9	0.090507336
39	0xbcee1e9f	-0.029067336
40	0xbd25c076	-0.04046675
41	0x3d939cfc	0.07207677
42	0x3aa2a870	0.0012409817
43	0xbe3b2489	-0.18275656
44	0xbce484cc	-0.027895354
45	0x3d73a332	0.059481807
46	0x3ce39873	0.027782654
47	0x3d2cf4f1	0.04222578
48	0x3cde9183	0.027168995
49	0x3d939e38	0.07207912
50	0xbc93d3ab	-0.018045267
51	0x3d0c31b7	0.0342271
52	0xbc0bfc9e	-0.008544115
53	0xbb6f16bf	-0.0036482064
54	0xbeb92e9a	-0.36168367
55	0x3d112a18	0.035440534
56	0x3dae3a54	0.08507219
57	0x3c4b9222	0.0124249775
58	0xbe914ba7	-0.2837803
59	0xbd8e5865	-0.06950454
60	0x3d529590	0.051412165
61	0x3d1546c1	0.03644443
62	0x3d029a20	0.031885266
63	0x3d52a8fc	0.051430687
64	0x3b18990d	0.0023284585
65	0x3d149001	0.036270145
66	0x3c93ff61	0.01806611
67	0xbe115e5b	-0.1419615
68	0x3d535b84	0.051600948
69	0xbd5c8d1d	-0.053845514
70	0xbae8e56f	-0.0017768572
71	0x3dadf822	0.08494593
72	0x3c677ca7	0.0141288405
73	0x3ca93055	0.02065293
74	0xbe5691f8	-0.2095412
75	0x3d9a6fec	0.07540879
76	0x3d42a06f	0.047516283
77	0x3d56b9f9	0.05242345
78	0x3d6f029c	0.058352098
79	0x3dbf0d60	0.09328723
80	0x3dbf0a00	0.09328079
81	0x3d7382d9	0.059450958
82	0x3daa0d45	0.08303312
83	0xbd4154e8	-0.047200114
84	0x3ca9232c	0.020646654
85	0x3d2e085f	0.042488452
86	0xbe55025d	-0.20801683
87	0x3dcf338f	0.10117256
88	0xbe7a0a97	-0.24418102
89	0x3daf6c04	0.08565524
90	0x3b98d114	0.004663596
91	0xbd96cf98	-0.07363814
92	0x3d455720	0.048178792
93	0xbd42c256	-0.047548614
94	0xbb6c266e	-0.0036033648
95	0xbc7dcdc5	-0.015490954
96	0xbd41c9b8	-0.047311515
97	0xbca1a858	-0.019733593
98	0xbc52f6b1	-0.012876199
99	0x3bc13107	0.005895737
100	0xbc744005	-0.014907842
101	0xbccf4379	-0.025300728
102	0xbe92d2dc	-0.28676498
103	0x3c3f80af	0.011688395
104	0x3e835699	0.25652006
105	0x3cdc2dfb	0.026877394
106	0xbd42121d	-0.047380555
107	0x3db9d517	0.09073847
108	0x3d3bbb76	0.045833074
109	0xbca4f5a5	-0.020136664
110	0xbb456633	-0.003012073
111	0xbc58a09e	-0.013221888
112	0x3cf59575	0.029978493
113	0xbd265ff6	-0.04061886
114	0xbdc396cb	-0.09550246
115	0x3ce64dc5	0.028113255
116	0xbd832c0b	-0.06404885
117	0x3d953027	0.07284575
118	0xbcc18093	-0.02362088
119	0x3d1f87d4	0.038947895
120	0xbb12ed23	-0.0022419177
121	0xbd157553	-0.036488842
122	0xbcd6ae58	-0.02620618
123	0x3ce0a4b3	0.027422285
124	0x3d2ba561	0.041905764
125	0xbcf9148f	-0.03040531
126	0x3cc556de	0.024089273
127	0x3c5d4281	0.013504625
128	0xbe6eff79	-0.23339643
129	0xbcfe1d7c	-0.031019919
130	0xbd792bef	-0.060832914
131	0xbb147af3	-0.0022656291
132	0xbe83ca00	-0.2574005
133	0x3bc3005c	0.0059509706
134	0xbecaac0e	-0.39584392
135	0xbcbb4a19	-0.022862481
136	0x3b8263b0	0.003979169
137	0x3cf32aa4	0.029683419
138	0xbe272df7	-0.16326128
139	0x3dd1abd9	0.102378555
140	0x3c52da74	0.012869466
141	0xbc7bc1b0	-0.015366003
142	0x3c6c57a7	0.014425195
143	0xbcfa99d0	-0.030590922
144	0x3da0de3b	0.07854887
145	0x3c03117d	0.007999775
146	0x3d24c501	0.04022694
147	0x3ce1746e	0.027521338
148	0x3d44bee9	0.04803363
149	0x3cce0aa6	0.025151562
150	0xbcffd9be	-0.031231757
151	0xbe71201d	-0.23547406
152	0x3d00344e	0.03129988
153	0x3ccf13d0	0.025278002
154	0x3dc1dc98	0.09465903
155	0x3dbd96d5	0.092572846
156	0x3d32280e	0.04349523
157	0xbe3ea6b0	-0.18618274
158	0xbeaa767e	-0.33293527
159	0xbc80ad06	-0.015707504
160	0x3d5330e3	0.051560294
161	0xbd2c0ee4	-0.04200639
162	0xbc8167cc	-0.015796565
163	0xbd9a8042	-0.075439945
164	0xbd88e14b	-0.06683596
165	0xbea9c919	-0.33161238
166	0xbd768b43	-0.060191404
167	0xbd351adf	-0.04421508
168	0xbcbee263	-0.023301309
169	0xbbdc9a4c	-0.006732261
170	0x3c7a842e	0.015290303
171	0xbe60a39d	-0.21937414
172	0x3d36b9da	0.044610836
173	0x3d83b40a	0.06430824
174	0x3d62a64d	0.055334378
175	0xbd0a0c73	-0.03370328
176	0x3cde0997	0.027104182
177	0x3d11cdf8	0.035596818
178	0xbca1b36b	-0.019738873
179	0x3db453ac	0.08805022
180	0x3df45d7a	0.11931892
181	0x3c855f88	0.016280904
182	0xbedb92de	-0.42885488
183	0x3c200726	0.009767329
184	0x3d05b6f7	0.032645192
185	0x3d690db6	0.05689784
186	0xbee2ac3f	-0.44272038
187	0xbc634d78	-0.01387345
188	0xbcebec8d	-0.02879932
189	0xbda43549	-0.08017976
190	0x3d211f6e	0.039336614
191	0x3cd28f6a	0.02570315
192	0x3ce9e393	0.028550899
193	0x3c7660e0	0.015037745
194	0xbd34d124	-0.044144765
195	0xbeae708c	-0.3407024
196	0x3d1169ab	0.035501163
197	0xbd980161	-0.07422138
198	0x3d234a6a	0.03986589
199	0x3d7d7273	0.061876725
200	0x3da37914	0.07982078
201	0x3d434881	0.047676567
202	0xbe964308	-0.29348016
203	0x3cbf6e94	0.023368157
204	0xbbe7e4fb	-0.007076857
205	0x3ccb51e2	0.024819318
206	0x3d243ab8	0.04009506
207	0xbdf22a96	-0.11824529
208	0x3dd4f3f8	0.10398096
209	0x3d5b0444	0.053470865
210	0x3ded66fe	0.1159191
211	0x3ca3951e	0.019968566
212	0xbdaa6ed2	-0.083219185
213	0x3c0c4846	0.008562153
214	0xbe61361d	-0.21993299
215	0x3b3230ae	0.002718966
216	0xbe847ff7	-0.2587888
217	0x3cef5cc8	0.029219046
218	0xbda76141	-0.081728466
219	0xbc744a47	-0.014910287
220	0x3d004951	0.03131992
221	0xbe365abf	-0.17808054
222	0xbd160343	-0.036624204
223	0xbd12337f	-0.03569364
224	0x3d961591	0.07328332
225	0x3d3e7270	0.046495855
226	0x3d13aa6c	0.0360512
227	0x3dcc7827	0.09983855
228	0xbc2f5822	-0.010702165
229	0xbcc4d83d	-0.024028892
230	0xbeb9962d	-0.36247388
231	0x3d3fd018	0.046829313
232	0xbdf136bd	-0.117780186
233	0x3dfe6e0d	0.12423334
234	0xbd186d3c	-0.03721355
235	0x3d8edc7e	0.06975649
236	0x3d1b19d8	0.037866443
237	0x3da19d2c	0.07891306
238	0x3ca73356	0.020410221
239	0x3d002ded	0.0312938
240	0x3d882209	0.06647117
241	0x3dd337ec	0.103134006
242	0xbdc24619	-0.09486026
243	0xbd100cd8	-0.0351685
244	0xbdb4222e	-0.08795582
245	0x3d0e987a	0.03481338
246	0xbd1248f5	-0.03571411
247	0xbbc4fd33	-0.006011629
248	0x3c9a1808	0.018810287
249	0x3d8f9117	0.070100956
250	0x3d6a2d5a	0.057172157
251	0x3da2798d	0.0793334
252	0x3c8c9b2d	0.017163837
253	0x3cc4c509	0.024019735
254	0x3d802e63	0.062588476
255	0x3c8dcb97	0.017308993

graph_matcher.mlp.0.bias f4 [128]
0	0x3d7bd61a	0.06148348
1	0xbd02d7c0	-0.031944036
2	0xbe15e0ce	-0.14636537
3	0xbe03c895	-0.12869485
4	0xbd48404b	-0.04888944
5	0x3d6f4856	0.058418594
6	0x3dd3b2d0	0.1033684
7	0xbdd5e617	-0.10444277
8	0x3dc01a40	0.09380007
9	0xbe1b15d0	-0.1514504
10	0x3b944fc6	0.0045261113
11	0x3d2cd10d	0.042191554
12	0xbddfd869	-0.10929949
13	0xbc4da1fb	-0.012550826
14	0x3d8d5b44	0.06902173
15	0xbdd23b46	-0.10265212
16	0xbde9244e	-0.11383878
17	0x3d9f4c5d	0.07778237
18	0xbdcfcf49	-0.101469584
19	0xbdeb6312	-0.114935055
20	0xbcceebf6	-0.025259
21	0x3d228b9a	0.039683916
22	0xbd067b47	-0.03283241
23	0x3d451867	0.048118975
24	0x3d497505	0.049183864
25	0xbd75bf64	-0.059996977
26	0xbd4c5433	-0.049884986
27	0xbcd65204	-0.026162155
28	0xbb096fe0	-0.0020971224
29	0xbd5287a2	-0.05139888
30	0x3d7e4dda	0.062085964
31	0xbd9661e6	-0.073428914
32	0xbcf45bb3	-0.029828882
33	0xbc0f78b2	-0.008756803
34	0xbe07cf09	-0.13262571
35	0x3d360576	0.0444388
36	0xbd8421b2	-0.06451739
37	0xbde8092f	-0.11329877
38	0xbddcaac1	-0.10774756
39	0x3cea4bc7	0.028600587
40	0xbe0e2160	-0.13879919
41	0xbdbc7b2c	-0.09203181
42	0xbdbc0705	-0.09181026
43	0xbd4a95c6	-0.04945924
44	0x3dc82fbe	0.09774731
45	0x3a0ec98a	0.0005446902
46	0xbdb9d25f	-0.09073328
47	0xbda1b268	-0.078953564
48	0xbca9e91d	-0.02074104
49	0xbda48390	-0.08032906
50	0x3cc28aa3	0.023747748
51	0xbddc3d7c	-0.10753915
52	0xbdab9e8a	-0.08379848
53	0x3ba60834	0.005066896
54	0xbd726a1e	-0.059183232
55	0xbd6b572b	-0.057456177
56	0xbdd28887	-0.10279947
57	0x3c23b31b	0.009991433
58	0xbd2125ef	-0.039342817
59	0xbdb63ff6	-0.08898918
60	0xbb4157ef	-0.0029501875
61	0x3cf06986	0.029347192
62	0x3d017961	0.031609897
63	0xbde76c6c	-0.11299977
64	0x3c57fa56	0.013182243
65	0x3db70236	0.089359686
66	0xbd2689d0	-0.040658772
67	0x3d1a6ea8	0.037703186
68	0x3d8f3f41	0.069944866
69	0xbcd5ddda	-0.026106764
70	0xbd865449	-0.06559045
71	0xbe071ed6	-0.13195357
72	0xbd31961a	-0.04335604
73	0x3d6e0742	0.05811239
74	0xbd823b05	-0.06358913
75	0xbd2ae5d0	-0.041723073
76	0x3dbde249	0.09271676
77	0xbd4598e5	-0.048241515
78	0xbd04e328	-0.032443196
79	0xbd7e3942	-0.062066324
80	0x3d9e3f1f	0.07726883
81	0xbdabc820	-0.0838778
82	0xbd7f4c06	-0.06232836
83	0xbba1ef02	-0.004941822
84	0xbc5f9778	-0.013646953
85	0x3d75bf18	0.059996694
86	0x3cd48085	0.02594019
87	0x3da87228	0.082248986
88	0xbc81b9b7	-0.015835626
89	0xbd569c68	-0.052395254
90	0xbca87dd0	-0.020567805
91	0x3dc9b518	0.09848994
92	0x3d6baad5	0.057535965
93	0xbdf8d5b8	-0.121501386
94	0xbdf0e493	-0.11762347
95	0x3d98ea1a	0.07466526
96	0xbc834f41	-0.016029002
97	0x3d4f0b95	0.050548155
98	0x3dd15f12	0.10223211
99	0xbdeb5ef2	-0.11492719
100	0xbd96d655	-0.07365099
101	0xbd12d8d6	-0.035851322
102	0xbd1430fc	-0.036179528
103	0x3cd4210d	0.025894666
104	0xbdb04706	-0.08607297
105	0xbdb10381	-0.086432464
106	0xbdf8b926	-0.12144689
107	0xbd216f83	-0.039412986
108	0xbd72483c	-0.05915092
109	0x3d8d9954	0.06914011
110	0x3b3d69c0	0.0028902143
111	0x3d6b05bf	0.057378527
112	0x3df61e2b	0.12017473
113	0xbd6d925f	-0.05800092
114	0xbdc7bfee	-0.097534046
115	0xbc84f3c8	-0.016229525
116	0xbd4b9e2b	-0.049711388
117	0x3caf7c84	0.021421678
118	0x3d88812b	0.06665262
119	0x3dbf4948	0.09340149
120	0xbddcd6ef	-0.10783183
121	0xbc26ca3c	-0.010180052
122	0xbd5a997a	-0.053369023
123	0xbdd5a011	-0.10430921
124	0x3c2150d0	0.009845927
125	0xbc566b55	-0.013087113
126	0x3d6b4001	0.057434086
127	0x3d8af7b8	0.0678553

graph_matcher.mlp.2.weight f4 [128, 128]
0	0xbd1e85fe	-0.038702004
1	0xbc7535df	-0.014966457
2	0xbcbaec74	-0.022817828
3	0xba3c4b80	-0.0007182881
4	0x3d99d723	0.07511737
5	0x3c822342	0.015885953
6	0xbceb463a	-0.02872001
7	0x3d60cf2e	0.054885082
8	0xbd630582	-0.055425175
9	0xbdadd9d9	-0.08488817
10	0xbe0996bd	-0.13436408
11	0x3dc8dd18	0.09807795
12	0xbdf383b6	-0.11890356
13	0xbdbd1c51	-0.092339166
14	0x3adec2ea	0.0016995345
15	0xbb9a8b00	-0.004716277
16	0x3d764272	0.06012196
17	0xbbed4a1a	-0.0072414996
18	0x3c3ed160	0.011646599
19	0x3d6f5f06	0.05844023
20	0xbe1218d5	-0.14267285
21	0xbd897f9b	-0.06713792
22	0xbd9584e4	-0.073007375
23	0xbd9b1efe	-0.07574271
24	0xbc4a96a2	-0.012365015
25	0xbd59a6d8	-0.05313763
26	0x3e174181	0.14771082
27	0x3db97a95	0.09056584
28	0x3ce98d2c	0.028509699
29	0x3cacd900	0.021099567
30	0xbde33323	-0.11093738
31	0xbe0da73e	-0.13833329
32	0xbc47bf6a	-0.012191633
33	0xbd54536e	-0.051837377
34	0x3d7585e6	0.05994215
35	0xbdb14d1e	-0.08657287
36	0xbdb294b8	-0.08719772
37	0xbd900e90	-0.070340276
38	0xbe14d6a7	-0.14535008
39	0xbdef962f	-0.11698567
40	0x3d2108d2	0.039315052
41	0xbc06b9c8	-0.008223005
42	0xbd513c77	-0.051083054
43	0x3c80bbd0	0.015714556
44	0xbbfb1d4b	-0.007663404
45	0xbdd0df7a	-0.10198875
46	0xbd960138	-0.07324451
47	0x3b7aa214	0.0038243579
48	0x3c8f3c89	0.01748492
49	0x3d7dae32	0.061933704
50	0xbd8061dc	-0.06268665
51	0xbdaf3327	-0.085546784
52	0xbdcc6ffc	-0.09982297
53	0x3c0d7dfc	0.008635994
54	0xbd2a6aab	-0.041605633
55	0xbdcbe0d4	-0.09954992
56	0xba9582a9	-0.0011406738
57	0xbe07bb2e	-0.13254997
58	0x3c872b54	0.016500153
59	0x3a901680	0.0010993034
60	0xbdeb0d41	-0.11477137
61	0xbda1caa2	-0.07899977
62	0x3cd2f892	0.025753293
63	0xbd7f2c88	-0.062298328
64	0xbd446b49	-0.047953878
65	0xbdf7ed14	-0.12105766
66	0xbd814d54	-0.06313577
67	0xbdd2cbcd	-0.10292778
68	0x3db58096	0.088624164
69	0xbe0202ab	-0.1269633
70	0x3d6397b5	0.0555646
71	0x3e0fa13c	0.1402635
72	0xbc81cac0	-0.015843749
73	0xbdf9c5fe	-0.12195967
74	0x3b6c84a0	0.0036089793
75	0x3d9e21f7	0.07721322
76	0xbdc4e482	-0.09613897
77	0x3bf7e616	0.00756527
78	0xbdf6bbc8	-0.12047535
79	0x3c6d4708	0.014482267
80	0xbd9f7f50	-0.07787955
81	0xbdd769d9	-0.10518236
82	0xbcf8deb8	-0.030379638
83	0xbd780820	-0.060554624
84	0xbe1593a3	-0.146071
85	0xbdbb6cb8	-0.09151596
86	0xbd9c1a2f	-0.076221816
87	0x3c7b78a3	0.015348586
88	0xbcf6b49e	-0.030115422
89	0x3ba20260	0.004944131
90	0x3d88db21	0.066824205
91	0xbd1e2578	-0.03860995
92	0xbe0aef63	-0.13567881
93	0x3c2d38f8	0.010572664
94	0x3d724186	0.05914452
95	0x3c9d4ffd	0.01920318
96	0xbc94bca5	-0.018156359
97	0xbc1d90c8	-0.009617038
98	0xbe145b1e	-0.14487883
99	0x3db27091	0.087128766
100	0xbdd6d956	-0.10490672
101	0x3e054795	0.13015588
102	0xbd405cfb	-0.046963673
103	0xbdf2bd4a	-0.1185251
104	0x3be20a1e	0.0068981787
105	0xbd57bc17	-0.05266961
106	0x3db55154	0.08853403
107	0x3d4377be	0.047721617
108	0xbd795d48	-0.060879976
109	0x3aa62892	0.0012676886
110	0x3d4ea866	0.050453566
111	0xbc042ec9	-0.008067795
112	0xbd238efb	-0.03993128
113	0x3c7dd527	0.015492714
114	0x3bd31890	0.006442137
115	0x3d9846c1	0.0743537
116	0xbe57373f	-0.21017168
117	0xbd876528	-0.06611091
118	0x3a8cfc56	0.0010756354
119	0xbdf369cc	-0.118854135
120	0x3c9f9a1c	0.019482665
121	0xbde30781	-0.11085416
122	0xbaaed380	-0.0013338178
123	0x3d84d9d7	0.06486862
124	0xbda73c40	-0.08165789
125	0xbd79432b	-0.060855072
126	0x3d236841	0.039894346
127	0xbdf27ce7	-0.118402295
128	0xbda279ca	-0.07933386
129	0xbd96e6e5	-0.073682584
130	0x3d5f547e	0.054523937
131	0xbd6fc489	-0.05853704
132	0xbbf70cc0	-0.0075393617
133	0xbcb309e4	-0.021855302
134	0xbe228da2	-0.15874341
135	0xbc1274c2	-0.00893897
136	0x3d9269a1	0.07149053
137	0x3cc5e7ac	0.024158321
138	0x3b8da9f0	0.0043232366
139	0x3ce82e0c	0.02834227
140	0xbcc3a4ec	-0.023882352
141	0x3d3e35e2	0.046438105
142	0x3cd4e328	0.025987223
143	0xbcfa7ac4	-0.030576117
144	0x3d5da706	0.054114364
145	0xbd8efca8	-0.06981784
146	0x3d2e55a2	0.042562135
147	0xbd8ad3c3	-0.067786716
148	0x3c325fc2	0.010887088
149	0x3d4c9c66	0.04995384
150	0x3b11c2c0	0.0022241324
151	0xbd29d8ae	-0.041466407
152	0xbd6466f5	-0.05576225
153	0x3d28e83a	0.041237094
154	0xbd410a91	-0.047129218
155	0xbd7124b0	-0.05887288
156	0xbcdfd4b4	-0.027323104
157	0xbc470e70	-0.012149438
158	0x3d45fff6	0.048339806
159	0x3d22edba	0.039777495
160	0x3dc5525d	0.0963485
161	0xbe3ea95d	-0.18619294
162	0xbd6bf553	-0.057607006
163	0x3da5804f	0.080811135
164	0xbd5ebeb4	-0.054381087
165	0xbd90ba2c	-0.070667595
166	0x3ccc6350	0.0249497
167	0xbcc1ca70	-0.0236561
168	0x3d8d9ca3	0.06914642
169	0xbe18bd66	-0.14916
170	0xbdb502b1	-0.08838404
171	0x3da56fc7	0.080779605
172	0x3d3986ce	0.045294575
173	0x3d8a1115	0.067415394
174	0x3cb138e0	0.021633565
175	0xbd9cfa77	-0.0766496
176	0x3d94643d	0.072456814
177	0x3d004946	0.03131988
178	0xbe271765	-0.16317518
179	0x3d043fc0	0.03228736
180	0xbd606289	-0.05478147
181	0xbdd8e583	-0.10590651
182	0x3d9233a1	0.07138754
183	0xbca678d0	-0.02032128
184	0xbd98a29c	-0.0745289
185	0x3d066f00	0.0328207
186	0x3cfe0594	0.03100852
187	0xbdb5abcf	-0.088706605
188	0xbd5f584a	-0.05452756
189	0xbd68ed7f	-0.05686712
190	0x3cf1a9b8	0.029499874
191	0x3d99b369	0.07504923
192	0xbd221a81	-0.039576057
193	0x3ce3afd0	0.027793795
194	0x3da7ca69	0.081929035
195	0xbd9cd64e	-0.07658063
196	0x3dafb531	0.085794814
197	0xbd4315e4	-0.0476283
198	0xbd436d54	-0.047711685
199	0x3d3db9a6	0.046319626
200	0xbd8440a0	-0.06457639
201	0xbd4c30d0	-0.04985124
202	0xbd0252bf	-0.031817194
203	0xbd50aeab	-0.050947826
204	0xbd846c1e	-0.06465934
205	0x3d926776	0.0714864
206	0x3d232ae6	0.039835833
207	0x3d795bfe	0.060878746
208	0x3bd44250	0.0064776316
209	0x3da85855	0.08219973
210	0x3abf1640	0.0014578775
211	0xbdb19a2b	-0.08671983
212	0x3d3c5cf6	0.045987092
213	0xbdacc389	-0.08435733
214	0x3d1604ae	0.036625557
215	0x3d52293e	0.051308863
216	0xbd5a86f1	-0.053351346
217	0x3db4c70b	0.08827027
218	0x3d848e63	0.064724706
219	0xbd92beb4	-0.0716528
220	0xbdab0dc6	-0.083522364
221	0xbd9e1bbe	-0.07720135
222	0xbd45be78	-0.04827735
223	0xbdb163da	-0.08661623
224	0x3d1596f8	0.03652093
225	0x3d91cfaf	0.071196906
226	0xbdc10a2e	-0.0942577
227	0xbb6c4d00	-0.0036056638
228	0xbda7e8c6	-0.08198695
229	0xbe295e0a	-0.1653978
230	0xbe8fe83d	-0.2810687
231	0xbe040d12	-0.12895611
232	0xbd85bfe0	-0.06530738
233	0x3d2214ea	0.039570726
234	0xbd182f8a	-0.03715471
235	0xbd668754	-0.056281403
236	0x3d26c552	0.040715523
237	0x3ca25818	0.019817397
238	0x3c464270	0.012100801
239	0x3da92dff	0.08260726
240	0xbe0d83d4	-0.1381982
241	0xbda5763b	-0.08079191
242	0x3daa1c25	0.083061494
243	0x3d7110e6	0.058854006
244	0xbde78886	-0.11305337
245	0xbd9fb651	-0.07798446
246	0xbd18a028	-0.037262112
247	0xbe100878	-0.1406573
248	0x3d4de8ae	0.05027073
249	0xbd5b3253	-0.05351479
250	0x3cc0039c	0.023439221
251	0xbd90d966	-0.070727155
252	0xbd3e4c82	-0.046459682
253	0x3d251ce2	0.040310748
254	0x3d1dbbce	0.038509183
255	0x3c66cb00	0.014086485

graph_matcher.mlp.2.bias f4 [128]
0	0xbe164d20	-0.14677858
1	0xbde4e709	-0.11176879
2	0xbd8bf0db	-0.06833049
3	0xbd608f37	-0.05482408
4	0xbda1a3b9	-0.07892556
5	0xbe1ca2ff	-0.15296553
6	0xbdc6ae6a	-0.097012356
7	0xbdf849f6	-0.12123482
8	0x3e26d5f4	0.16292554
9	0xbdaf61bb	-0.085635625
10	0xbe24edf0	-0.16106391
11	0xba293a05	-0.0006455484
12	0x3d8bbad1	0.06822742
13	0xbdc74a51	-0.097309716
14	0xbd9c8ee6	-0.07644443
15	0xbde224fa	-0.11042209
16	0x3dbf74f2	0.093484774
17	0xbe114568	-0.14186633
18	0xbd049340	-0.03236699
19	0x3daad8c7	0.08342128
20	0xbdfd2022	-0.123596445
21	0x3d934ada	0.07192011
22	0xbd02e144	-0.03195311
23	0xbe1e827a	-0.1547946
24	0xbdf28c87	-0.1184321
25	0xbeabd53b	-0.3356112
26	0x3e070291	0.13184573
27	0xbd9faed5	-0.077970184
28	0x3dacf132	0.08444442
29	0x3d53a24d	0.051668454
30	0xbd5fb12f	-0.054612335
31	0x3dfdbd0a	0.12389572
32	0xbcab5815	-0.020916024
33	0xbdd49c17	-0.10381334
34	0xbdb34f26	-0.08755331
35	0xbd8dd216	-0.06924836
36	0xbe1e6371	-0.15467621
37	0xbe380c67	-0.17973481
38	0xbb88651f	-0.004162445
39	0xbddd3482	-0.10801031
40	0x3c070bc8	0.008242555
41	0xbe226888	-0.15860188
42	0xbd0c0e99	-0.03419361
43	0xbd9cad95	-0.07650296
44	0xbdabd7a7	-0.08390742
45	0x3cca38d5	0.024685303
46	0x3d3f9554	0.04677327
47	0x3e2683ee	0.16261265
48	0x3d756994	0.05991514
49	0x3e073fae	0.13207886
50	0x3d096d66	0.033551596
51	0xbe10a6df	-0.14126156
52	0xbda18669	-0.07886965
53	0xbe0787c6	-0.13235387
54	0x3e129703	0.14315419
55	0xbc74ca62	-0.01494083
56	0xbbde46a8	-0.006783325
57	0x3c46c13a	0.01213103
58	0xbe8d116c	-0.27552354
59	0xbda7ca53	-0.08192887
60	0x3da35ad0	0.079763055
61	0x3d89f79a	0.067366794
62	0xbc79cc14	-0.01524641
63	0xbd7b8678	-0.061407536
64	0xbd888883	-0.066666625
65	0xbda4da90	-0.080495
66	0xbda13ccf	-0.078729264
67	0xbc3147c1	-0.01082033
68	0x3d25629d	0.040377248
69	0xbdde07df	-0.10841345
70	0xbd83dee2	-0.06438996
71	0xbdd81ad2	-0.105519906
72	0x3e0a7d37	0.13524328
73	0x3e0da283	0.13831525
74	0x3e814921	0.25251105
75	0x3d7bae8a	0.06144575
76	0x3e0a43c1	0.13502409
77	0x3de29253	0.110630654
78	0x3cf97eac	0.03045591
79	0xbe10f827	-0.14157163
80	0xbd7bd37b	-0.06148098
81	0xbd9ee25e	-0.0775802
82	0xbdb00b51	-0.085959084
83	0xbde510c8	-0.111848414
84	0xbe21573b	-0.15755932
85	0x3ccf3f36	0.025298696
86	0xbe0e00ef	-0.13867544
87	0xbdff2166	-0.12457542
88	0xbe298c8e	-0.16557524
89	0x3d033b12	0.032038756
90	0xbe52479a	-0.20535126
91	0xbde9e464	-0.11420515
92	0x3d88b2fd	0.06674764
93	0x3c4fc3fc	0.012681004
94	0xbcbfc2f8	-0.023408398
95	0x3dc6e744	0.09712079
96	0xbd7f0948	-0.06226471
97	0x3e051cb3	0.12999229
98	0xbe06fc79	-0.13182248
99	0x3e0c5bf2	0.1370695
100	0xbdb64aa6	-0.08900957
101	0xbe4298ef	-0.19003652
102	0xbd4715d6	-0.04860481
103	0xbdd08763	-0.10182073
104	0xbdd7a3f2	-0.10529317
105	0xbc93a548	-0.018023148
106	0x3d474fda	0.048660137
107	0xbe064970	-0.13113952
108	0x3c605ca1	0.013693959
109	0x3d7d19aa	0.061792053
110	0xbd9a7fa8	-0.0754388
111	0xbcb515ff	-0.022105215
112	0xbe17dd5a	-0.14830533
113	0x3c4f2042	0.012641968
114	0xbda41add	-0.08012936
115	0xbd137404	-0.035999313
116	0x3c99aa4d	0.018757964
117	0xbd48bc1f	-0.04900753
118	0x3d537576	0.05162569
119	0xbe206f35	-0.15667422
120	0xbe42297f	-0.18961142
121	0x3df10411	0.11768354
122	0xbdd7e94b	-0.10542544
123	0x3e15c914	0.14627486
124	0xbd9b5856	-0.07585208
125	0xbd8e4fcb	-0.06948813
126	0x3dc2b8f3	0.095079325
127	0xbde4fef0	-0.11181438

graph_matcher.mlp.4.weight f4 [64, 128]
0	0x3da4a194	0.08038631
1	0xbcaf395c	-0.021389656
2	0x3ccb5302	0.024819855
3	0x3dcf9dbc	0.10137507
4	0x3ba1bbe3	0.004935728
5	0xbb52c85d	-0.0032162883
6	0x3e79f98c	0.24411601
7	0xbd784b72	-0.060618825
8	0x3e1b5af8	0.1517142
9	0x3d21cce2	0.039502032
10	0x3dbe6c7d	0.09298036
11	0xbd961756	-0.0732867
12	0xbbed31dd	-0.00723861
13	0xbc29237c	-0.010323402
14	0x3d94b919	0.07261867
15	0xbd1c707e	-0.03819322
16	0xbdf3e3ed	-0.11908708
17	0xbe30e5f0	-0.17275214
18	0xbc3afc7f	-0.011412739
19	0x3db457df	0.088058226
20	0x3da4c6cc	0.0804573
21	0x3d87a379	0.06622977
22	0x3c39b39b	0.011334325
23	0x3e1d081e	0.15335128
24	0x3d3bbb01	0.045832638
25	0xbd1d291e	-0.03836929
26	0xbdefa2cc	-0.11700973
27	0xbb20ffdf	-0.0024566574
28	0xbdbe3cf8	-0.092889726
29	0x3dbb7398	0.09152907
30	0x3d661d22	0.056180127
31	0x3dd3304d	0.10311947
32	0x3c55e523	0.013055119
33	0xbda5b897	-0.08091848
34	0xbe0149fb	-0.12625878
35	0xbd929ecc	-0.07159194
36	0xbe1a21f2	-0.15052012
37	0xbbd01613	-0.0063502877
38	0xbdddebcb	-0.108359896
39	0xbd8ab883	-0.06773474
40	0xbe784a22	-0.2424703
41	0xbbcfb37a	-0.006338534
42	0x3daae64a	0.083447054
43	0xbdcc282b	-0.09968599
44	0xbda49e6c	-0.08038029
45	0xbd57d5df	-0.052694198
46	0xbd1b2f59	-0.03788695
47	0xbd7a7f03	-0.061156284
48	0xbc3eab50	-0.011637524
49	0x3d389460	0.045063376
50	0xbc4b7827	-0.012418783
51	0xbdc016f5	-0.09379379
52	0xbe162f4a	-0.14666477
53	0xbd2e808f	-0.04260307
54	0x3e1251cd	0.14289017
55	0xbd1f047e	-0.038822643
56	0x3e01ff86	0.1269513
57	0xbcafd222	-0.021462504
58	0xbd976cdb	-0.073938094
59	0x3e082f42	0.13299277
60	0xbbb92023	-0.005649583
61	0xbd06e8bb	-0.032936793
62	0xbe03246c	-0.12806863
63	0x3d96038a	0.07324894
64	0x3e05dc31	0.13072278
65	0xbd817f45	-0.06323103
66	0xbd693572	-0.056935735
67	0xbdd4d8d5	-0.1039292
68	0xbd382921	-0.0449611
69	0xbd379019	-0.044815157
70	0xbd28edf7	-0.041242566
71	0xbe3d6863	-0.18496852
72	0x3d299ec7	0.041411187
73	0x3de5711e	0.11203216
74	0xbe76d7dd	-0.24105783
75	0x3d829316	0.06375711
76	0xbe82de98	-0.2556045
77	0x3e0b5fef	0.13610815
78	0x3d23af4a	0.03996209
79	0x3dad2259	0.08453817
80	0x3d5e2a59	0.054239605
81	0xbe2ca819	-0.16860999
82	0xbbfca43d	-0.0077100084
83	0x3e4e0dcc	0.2012245
84	0x3d8d55d4	0.06901136
85	0xbc6f08a3	-0.0145894615
86	0x3dc3cecf	0.0956093
87	0xbcc3d6ba	-0.0239061
88	0x3d5726c4	0.052527204
89	0xbdfd755d	-0.12375901
90	0xbbd09d41	-0.0063664024
91	0xbb983b2d	-0.004645726
92	0x3dc97ce9	0.09838278
93	0xbde40d05	-0.11135296
94	0x399b0fcc	0.00029575673
95	0x3ce60c47	0.028082026
96	0x3d083324	0.033251897
97	0xbc37d486	-0.011220103
98	0xbdbbac1d	-0.091636874
99	0xbe023c41	-0.12718298
100	0x3d3777f3	0.044792127
101	0x3d622a69	0.055216227
102	0x3c91b418	0.01778607
103	0x3cee942f	0.029123394
104	0x3d7b650a	0.061375655
105	0xbd34ace5	-0.044110198
106	0xbe1cd28d	-0.15314694
107	0xbcc27807	-0.023738874
108	0xbd261713	-0.04054935
109	0x3d856715	0.06513802
110	0x3bb9e7f1	0.0056734015
111	0x3d4ae216	0.04953202
112	0xbc56f7c7	-0.013120598
113	0xbe11df0a	-0.14245239
114	0x3c11acf9	0.008891338
115	0xbe00dfbf	-0.12585352
116	0x3d45f32c	0.04832761
117	0xbdc313ce	-0.09525262
118	0x3cfd7b97	0.030942721
119	0xbe11228c	-0.14173335
120	0x3d627144	0.0552838
121	0x3dd123e9	0.102119274
122	0x3c49a6ed	0.012307865
123	0x3dd275b1	0.10276354
124	0xbe3b0520	-0.18263674
125	0xbd43c3fe	-0.047794335
126	0x3db13267	0.086521916
127	0xbd9704b5	-0.07373945
128	0xbe27fc21	-0.16404773
129	0xbbda6f05	-0.0066660666
130	0x3d23f6a8	0.04003015
131	0xbdecdd23	-0.11565616
132	0xbdc44954	-0.09584299
133	0x3dd1a2ec	0.10236153
134	0xbdec61a2	-0.115420595
135	0xbbbebdd0	-0.0058209673
136	0xbe01ab55	-0.12663014
137	0xbc9442f1	-0.018098326
138	0xbddcce9d	-0.10781596
139	0x3e01352f	0.12617944
140	0xbe0d7235	-0.13813098
141	0xbdc251f8	-0.094882905
142	0xbd416693	-0.047216963
143	0xbdf63a48	-0.12022835
144	0x3cb6090e	0.022221114
145	0x3d2b7a24	0.04186453
146	0xbc08b6e1	-0.008344383
147	0xbe166d04	-0.14690024
148	0x3d810e4a	0.063015535
149	0xbcb540e4	-0.022125669
150	0xbe3a7d1e	-0.18211791
151	0xbe160364	-0.14649731
152	0xbd862686	-0.065503165
153	0xbb3d9390	-0.0028927065
154	0x3e6c82c3	0.23096757
155	0xbc88220a	-0.016617794
156	0x3e2cc4af	0.16871904
157	0xbca29b19	-0.019849347
158	0xbd68ff4a	-0.056884088
159	0xbdd9fb08	-0.106435835
160	0x3d38eff4	0.045150712
161	0x3d400f1e	0.046889417
162	0x3e17c52c	0.14821309
163	0x3d8f4989	0.069964476
164	0x3e593df8	0.21215045
165	0xbe0910aa	-0.13385263
166	0x3cc13858	0.023586437
167	0x3dce1ba2	0.10063864
168	0x3e90bf77	0.28271076
169	0xbc555f77	-0.013023249
170	0xbc17006c	-0.009216409
171	0xbb5a3c8b	-0.0033300247
172	0xbca1e49c	-0.01976233
173	0x3c3ed93f	0.011648475
174	0xbd94aa8d	-0.072590925
175	0x3d926d76	0.07149784
176	0x3e12fff7	0.14355455
177	0xbdc27d7a	-0.09496589
178	0xbe1a7274	-0.15082723
179	0xbe05a4b3	-0.13051109
180	0x3dbf027b	0.09326645
181	0x3d5acf11	0.05342013
182	0xbdb260b8	-0.08709854
183	0xbc1b745e	-0.009488193
184	0xbe2d17bc	-0.16903585
185	0xbe08f1f6	-0.13373551
186	0x3d5c4df6	0.053785287
187	0x3c67f12d	0.014156622
188	0xbe124766	-0.14285049
189	0x3c915694	0.017741479
190	0xbe03ae94	-0.12859565
191	0x3bd3f4a4	0.0064683724
192	0x3ce361fd	0.027756685
193	0xbcb78f78	-0.022407278
194	0xbdceda98	-0.10100287
195	0xbd501b84	-0.05080749
196	0xbda41bee	-0.0801314
197	0x3d17fb0b	0.037104648
198	0x3d2ed9d0	0.04268819
199	0x3eb2a32c	0.34890115
200	0xbd944651	-0.07239974
201	0xbe393ee5	-0.18090399
202	0x3e6ae233	0.2293785
203	0x3d9c2dae	0.076259
204	0x3eafc5cb	0.34330592
205	0xbd708c7a	-0.05872772
206	0xbe13fb3e	-0.1445131
207	0xbdfde7f2	-0.12397756
208	0xbe24104c	-0.16021842
209	0xbe0de4ab	-0.13856761
210	0xbc051a27	-0.008123911
211	0xbe4f203b	-0.20227139
212	0xbd67c5fe	-0.056585304
213	0xbe26efa0	-0.16302347
214	0xbd6f7199	-0.058457945
215	0xbc892564	-0.016741462
216	0xbd2b3427	-0.041797783
217	0xbdfd86a0	-0.12379193
218	0xbe059899	-0.13046493
219	0xbd4452cc	-0.047930524
220	0xbd561c4c	-0.05227308
221	0x3ce19956	0.027538937
222	0xbd634329	-0.05548397
223	0xbda5430d	-0.080694295
224	0x3b99b296	0.0046904786
225	0xbe2560ed	-0.16150256
226	0x3d75a4fb	0.05997179
227	0x3df824e7	0.121164136
228	0xbdb02bc5	-0.086020984
229	0xbe76eecd	-0.24114533
230	0x3ca2fb5d	0.01989525
231	0xbdf9ce0c	-0.121975034
232	0xba26caa7	-0.0006362595
233	0xbd52ca98	-0.05146274
234	0xbe014440	-0.12623692
235	0xbc221fd9	-0.009895288
236	0x3dc5922c	0.09647021
237	0xbcd24cc8	-0.025671378
238	0xbe2a3ddd	-0.16625161
239	0xbd7ced42	-0.061749704
240	0x3de88ab9	0.11354584
241	0x3d937aab	0.072011314
242	0x3d32f915	0.043694574
243	0x3ddb19f6	0.10698311
244	0xbe206997	-0.1566528
245	0x3dbe5ecb	0.09295424
246	0xbd730ad6	-0.059336506
247	0xbd598b3f	-0.05311131
248	0xbdb01395	-0.08597485
249	0xbe1bc7d4	-0.15212947
250	0x3d5122bc	0.051058516
251	0x3e048721	0.12942173
252	0x3e21e468	0.15809786
253	0xbc97a7a4	-0.018512554
254	0xbdd78818	-0.10524005
255	0x3e75e1aa	0.24011865

graph_matcher.mlp.4.bias f4 [64]
0	0x3d76f880	0.06029558
1	0xbdd1c97c	-0.10243508
2	0xbdb55365	-0.08853797
3	0xbe16c8f8	-0.14725101
4	0x3e0fc4ed	0.14039965
5	0x3e1903cf	0.14942859
6	0xbb985c19	-0.004649651
7	0xbdd4dc7b	-0.10393616
8	0xbe483793	-0.1955245
9	0xbc761d34	-0.015021611
10	0xbde2be0f	-0.11071407
11	0xbdd6956f	-0.10477721
12	0x3c8175f0	0.015803307
13	0xbda9d950	-0.08293402
14	0xbe359aae	-0.17734787
15	0xbe1764b4	-0.14784509
16	0xbea0bc73	-0.31393775
17	0xbd87cb5f	-0.06630587
18	0x3e0282a3	0.12745146
19	0xbdb0827b	-0.08618637
20	0x3df31352	0.118689194
21	0x3dfc75aa	0.1232713
22	0xbe1bcc33	-0.15214615
23	0xbb1461cc	-0.00226413
24	0x3df21df9	0.11822123
25	0x3d4eb376	0.050464116
26	0x3d7a4d31	0.06110877
27	0xbe1f6fca	-0.15569988
28	0xbe2e140e	-0.16999838
29	0x3e16b483	0.14717297
30	0x3cb732f1	0.022363158
31	0xbdf89f32	-0.12139739
32	0x3e54a1b6	0.20764813
33	0x3e291f75	0.16515906
34	0xbe15c42b	-0.14625613
35	0xbe21673a	-0.15762034
36	0x3e5ad2c8	0.21369469
37	0xbe23a3cd	-0.15980454
38	0xbdd344c4	-0.103158504
39	0xbe1a5955	-0.1507314
40	0xbcdb92bf	-0.026803372
41	0xbde16ff9	-0.11007685
42	0xbdf279ac	-0.11839613
43	0xbcb52115	-0.022110501
44	0xbd8fe8e6	-0.07026844
45	0xbdcf68f9	-0.10127444
46	0x3d9139e2	0.070911184
47	0xbe52a777	-0.20571695
48	0x3d1dbc59	0.0385097
49	0x3db3be82	0.08776571
50	0xbd0be1f1	-0.03415102
51	0xbd8b43b5	-0.068000235
52	0xbe8d585e	-0.2760648
53	0x3dc970be	0.09835957
54	0xbdf01d59	-0.117243476
55	0xbe45cd84	-0.19316679
56	0x3e219d12	0.15782574
57	0x3e048456	0.12941107
58	0xbd375026	-0.04475417
59	0x3e324456	0.1740888
60	0x3e13d6b1	0.14437367
61	0x3be45433	0.006968045
62	0x3de3b36e	0.11118208
63	0x3dfcfadf	0.12352537
